…
loading:  Subj20_CleanData_test_LM_lexical
loading:  Subj20_CleanData_test_OB_lexical
loading:  Subj21_CleanData_test_FA_lexical
loading:  Subj21_CleanData_test_LM_lexical
loading:  Subj21_CleanData_test_OB_lexical
loading:  Subj22_CleanData_test_FA_lexical
loading:  Subj22_CleanData_test_LM_lexical
loading:  Subj22_CleanData_test_OB_lexical
(175, 2049, 31) (90, 2049, 31)
_________________________________________________________________
Layer (type)                 Output Shape              Param #   
=================================================================
input_1 (InputLayer)         (None, 513, 31)           0         
_________________________________________________________________
conv1d_1 (Conv1D)            (None, 513, 30)           59550     
_________________________________________________________________
batch_normalization_1 (Batch (None, 513, 30)           120       
_________________________________________________________________
elu_1 (ELU)                  (None, 513, 30)           0         
_________________________________________________________________
average_pooling1d_1 (Average (None, 256, 30)           0         
_________________________________________________________________
dropout_1 (Dropout)          (None, 256, 30)           0         
_________________________________________________________________
conv1d_2 (Conv1D)            (None, 256, 15)           14415     
_________________________________________________________________
batch_normalization_2 (Batch (None, 256, 15)           60        
_________________________________________________________________
elu_2 (ELU)                  (None, 256, 15)           0         
_________________________________________________________________
average_pooling1d_2 (Average (None, 128, 15)           0         
_________________________________________________________________
dropout_2 (Dropout)          (None, 128, 15)           0         
_________________________________________________________________
conv1d_3 (Conv1D)            (None, 128, 10)           2410      
_________________________________________________________________
batch_normalization_3 (Batch (None, 128, 10)           40        
_________________________________________________________________
elu_3 (ELU)                  (None, 128, 10)           0         
_________________________________________________________________
average_pooling1d_3 (Average (None, 64, 10)            0         
_________________________________________________________________
dropout_3 (Dropout)          (None, 64, 10)            0         
_________________________________________________________________
flatten_1 (Flatten)          (None, 640)               0         
_________________________________________________________________
dense_1 (Dense)              (None, 15)                9615      
_________________________________________________________________
batch_normalization_4 (Batch (None, 15)                60        
_________________________________________________________________
activation_1 (Activation)    (None, 15)                0         
_________________________________________________________________
dense_2 (Dense)              (None, 3)                 48        
=================================================================
Total params: 86,318
Trainable params: 86,178
Non-trainable params: 140
_________________________________________________________________
(64, 31, 30)
(64, 31, 30)
(64, 31, 30)
(64, 31, 30)
(64, 31, 30)
(64, 31, 30)
(64, 31, 30)
(64, 31, 30)
(64, 31, 30)
(64, 31, 30)
subject 1, avg accuracy 0.5529411941766739/0.3822222241097027 over 10 splits
…
