…
  bus_id: 2
}
incarnation: 4585681405477694379
physical_device_desc: "device: 3, name: Tesla K80, pci bus id: 0000:85:00.0, compute capability: 3.7"
]
/local/slurmtmp.859990/DATA/Modified/spectogram/slep_01.mat
(1, 185)
(1, 185)
(185, 256, 192, 31)
(256, 192, 31)
/local/slurmtmp.859990/DATA/Modified/spectogram/slep_01_t.mat
(1, 90)
(1, 90)
(90, 256, 192, 31)
(256, 192, 31)
_________________________________________________________________
Layer (type)                 Output Shape              Param #   
=================================================================
input_1 (InputLayer)         (None, 256, 192, 31)      0         
_________________________________________________________________
conv2d_1 (Conv2D)            (None, 256, 192, 4)       3972      
_________________________________________________________________
elu_1 (ELU)                  (None, 256, 192, 4)       0         
_________________________________________________________________
average_pooling2d_1 (Average (None, 128, 48, 4)        0         
_________________________________________________________________
dropout_1 (Dropout)          (None, 128, 48, 4)        0         
_________________________________________________________________
conv2d_2 (Conv2D)            (None, 128, 48, 8)        1032      
_________________________________________________________________
elu_2 (ELU)                  (None, 128, 48, 8)        0         
_________________________________________________________________
average_pooling2d_2 (Average (None, 64, 12, 8)         0         
_________________________________________________________________
dropout_2 (Dropout)          (None, 64, 12, 8)         0         
_________________________________________________________________
conv2d_3 (Conv2D)            (None, 64, 12, 16)        4112      
_________________________________________________________________
elu_3 (ELU)                  (None, 64, 12, 16)        0         
_________________________________________________________________
average_pooling2d_3 (Average (None, 32, 6, 16)         0         
_________________________________________________________________
dropout_3 (Dropout)          (None, 32, 6, 16)         0         
_________________________________________________________________
flatten_1 (Flatten)          (None, 3072)              0         
_________________________________________________________________
dense_1 (Dense)              (None, 15)                46095     
_________________________________________________________________
activation_1 (Activation)    (None, 15)                0         
_________________________________________________________________
dense_2 (Dense)              (None, 3)                 48        
=================================================================
Total params: 55,259
Trainable params: 55,259
Non-trainable params: 0
_________________________________________________________________
sub 1 with slep gave avg accuracy 0.526023405790329/0.31222222410970263 over 10 splits
2018-06-03 12:16:36.684080: I tensorflow/core/platform/cpu_feature_guard.cc:137] Your CPU supports instructions that this TensorFlow binary was not compiled to use: SSE4.1 SSE4.2 AVX AVX2 FMA
…
