…
  bus_id: 2
}
incarnation: 2692561866313787531
physical_device_desc: "device: 3, name: Tesla K80, pci bus id: 0000:85:00.0, compute capability: 3.7"
]
/local/slurmtmp.848388/DATA/Modified/spectogram/spec_01.mat
(1, 185)
(1, 185)
(185, 256, 192, 31)
(256, 192, 31)
/local/slurmtmp.848388/DATA/Modified/spectogram/spec_01_t.mat
(1, 90)
(1, 90)
(90, 256, 192, 31)
(256, 192, 31)
_________________________________________________________________
Layer (type)                 Output Shape              Param #   
=================================================================
input_1 (InputLayer)         (None, 256, 192, 31)      0         
_________________________________________________________________
conv2d_1 (Conv2D)            (None, 256, 192, 4)       3972      
_________________________________________________________________
elu_1 (ELU)                  (None, 256, 192, 4)       0         
_________________________________________________________________
average_pooling2d_1 (Average (None, 64, 48, 4)         0         
_________________________________________________________________
dropout_1 (Dropout)          (None, 64, 48, 4)         0         
_________________________________________________________________
conv2d_2 (Conv2D)            (None, 64, 48, 8)         1032      
_________________________________________________________________
elu_2 (ELU)                  (None, 64, 48, 8)         0         
_________________________________________________________________
average_pooling2d_2 (Average (None, 16, 12, 8)         0         
_________________________________________________________________
dropout_2 (Dropout)          (None, 16, 12, 8)         0         
_________________________________________________________________
conv2d_3 (Conv2D)            (None, 16, 12, 16)        4112      
_________________________________________________________________
elu_3 (ELU)                  (None, 16, 12, 16)        0         
_________________________________________________________________
average_pooling2d_3 (Average (None, 4, 3, 16)          0         
_________________________________________________________________
dropout_3 (Dropout)          (None, 4, 3, 16)          0         
_________________________________________________________________
flatten_1 (Flatten)          (None, 192)               0         
_________________________________________________________________
dense_1 (Dense)              (None, 15)                2895      
_________________________________________________________________
activation_1 (Activation)    (None, 15)                0         
_________________________________________________________________
dense_2 (Dense)              (None, 3)                 48        
=================================================================
Total params: 12,059
Trainable params: 12,059
Non-trainable params: 0
_________________________________________________________________
sub 1 with spec gave avg accuracy 0.6154970794916153/0.3311111126674546 over 10 splits
/local/slurmtmp.848388/DATA/Modified/spectogram/wig_01.mat
(1, 185)
(1, 185)
(185, 256, 192, 31)
(256, 192, 31)
/local/slurmtmp.848388/DATA/Modified/spectogram/wig_01_t.mat
(1, 90)
(1, 90)
(90, 256, 192, 31)
(256, 192, 31)
_________________________________________________________________
Layer (type)                 Output Shape              Param #   
=================================================================
input_2 (InputLayer)         (None, 256, 192, 31)      0         
_________________________________________________________________
conv2d_4 (Conv2D)            (None, 256, 192, 4)       3972      
_________________________________________________________________
elu_4 (ELU)                  (None, 256, 192, 4)       0         
_________________________________________________________________
average_pooling2d_4 (Average (None, 64, 48, 4)         0         
_________________________________________________________________
dropout_4 (Dropout)          (None, 64, 48, 4)         0         
_________________________________________________________________
conv2d_5 (Conv2D)            (None, 64, 48, 8)         1032      
_________________________________________________________________
elu_5 (ELU)                  (None, 64, 48, 8)         0         
_________________________________________________________________
average_pooling2d_5 (Average (None, 16, 12, 8)         0         
_________________________________________________________________
dropout_5 (Dropout)          (None, 16, 12, 8)         0         
_________________________________________________________________
conv2d_6 (Conv2D)            (None, 16, 12, 16)        4112      
_________________________________________________________________
elu_6 (ELU)                  (None, 16, 12, 16)        0         
_________________________________________________________________
average_pooling2d_6 (Average (None, 4, 3, 16)          0         
_________________________________________________________________
dropout_6 (Dropout)          (None, 4, 3, 16)          0         
_________________________________________________________________
flatten_2 (Flatten)          (None, 192)               0         
_________________________________________________________________
dense_3 (Dense)              (None, 15)                2895      
_________________________________________________________________
activation_2 (Activation)    (None, 15)                0         
_________________________________________________________________
dense_4 (Dense)              (None, 3)                 48        
=================================================================
Total params: 12,059
Trainable params: 12,059
Non-trainable params: 0
_________________________________________________________________
sub 1 with wig gave avg accuracy 0.5885964959859848/0.3055555589000384 over 10 splits
/local/slurmtmp.848388/DATA/Modified/spectogram/amb_01.mat
(1, 185)
(1, 185)
(185, 192, 512, 31)
(192, 512, 31)
/local/slurmtmp.848388/DATA/Modified/spectogram/amb_01_t.mat
(1, 90)
(1, 90)
(90, 192, 512, 31)
(192, 512, 31)
_________________________________________________________________
Layer (type)                 Output Shape              Param #   
=================================================================
input_3 (InputLayer)         (None, 192, 512, 31)      0         
_________________________________________________________________
conv2d_7 (Conv2D)            (None, 192, 512, 4)       3972      
_________________________________________________________________
elu_7 (ELU)                  (None, 192, 512, 4)       0         
_________________________________________________________________
average_pooling2d_7 (Average (None, 48, 128, 4)        0         
_________________________________________________________________
dropout_7 (Dropout)          (None, 48, 128, 4)        0         
_________________________________________________________________
conv2d_8 (Conv2D)            (None, 48, 128, 8)        1032      
_________________________________________________________________
elu_8 (ELU)                  (None, 48, 128, 8)        0         
_________________________________________________________________
average_pooling2d_8 (Average (None, 12, 32, 8)         0         
_________________________________________________________________
dropout_8 (Dropout)          (None, 12, 32, 8)         0         
_________________________________________________________________
conv2d_9 (Conv2D)            (None, 12, 32, 16)        4112      
_________________________________________________________________
elu_9 (ELU)                  (None, 12, 32, 16)        0         
_________________________________________________________________
average_pooling2d_9 (Average (None, 3, 8, 16)          0         
_________________________________________________________________
dropout_9 (Dropout)          (None, 3, 8, 16)          0         
_________________________________________________________________
flatten_3 (Flatten)          (None, 384)               0         
_________________________________________________________________
dense_5 (Dense)              (None, 15)                5775      
_________________________________________________________________
activation_3 (Activation)    (None, 15)                0         
_________________________________________________________________
dense_6 (Dense)              (None, 3)                 48        
=================================================================
Total params: 14,939
Trainable params: 14,939
Non-trainable params: 0
_________________________________________________________________
sub 1 with amb gave avg accuracy 0.6154970914125443/0.29111111260122724 over 10 splits
/local/slurmtmp.848388/DATA/Modified/spectogram/slep_01.mat
(1, 185)
(1, 185)
(185, 256, 192, 31)
(256, 192, 31)
/local/slurmtmp.848388/DATA/Modified/spectogram/slep_01_t.mat
(1, 90)
(1, 90)
(90, 256, 192, 31)
(256, 192, 31)
_________________________________________________________________
Layer (type)                 Output Shape              Param #   
=================================================================
input_4 (InputLayer)         (None, 256, 192, 31)      0         
_________________________________________________________________
conv2d_10 (Conv2D)           (None, 256, 192, 4)       3972      
_________________________________________________________________
elu_10 (ELU)                 (None, 256, 192, 4)       0         
_________________________________________________________________
average_pooling2d_10 (Averag (None, 64, 48, 4)         0         
_________________________________________________________________
dropout_10 (Dropout)         (None, 64, 48, 4)         0         
_________________________________________________________________
conv2d_11 (Conv2D)           (None, 64, 48, 8)         1032      
_________________________________________________________________
elu_11 (ELU)                 (None, 64, 48, 8)         0         
_________________________________________________________________
average_pooling2d_11 (Averag (None, 16, 12, 8)         0         
_________________________________________________________________
dropout_11 (Dropout)         (None, 16, 12, 8)         0         
_________________________________________________________________
conv2d_12 (Conv2D)           (None, 16, 12, 16)        4112      
_________________________________________________________________
elu_12 (ELU)                 (None, 16, 12, 16)        0         
_________________________________________________________________
average_pooling2d_12 (Averag (None, 4, 3, 16)          0         
_________________________________________________________________
dropout_12 (Dropout)         (None, 4, 3, 16)          0         
_________________________________________________________________
flatten_4 (Flatten)          (None, 192)               0         
_________________________________________________________________
dense_7 (Dense)              (None, 15)                2895      
_________________________________________________________________
activation_4 (Activation)    (None, 15)                0         
_________________________________________________________________
dense_8 (Dense)              (None, 3)                 48        
=================================================================
Total params: 12,059
Trainable params: 12,059
Non-trainable params: 0
_________________________________________________________________
sub 1 with slep gave avg accuracy 0.552923983335495/0.33888889160421154 over 10 splits
2018-05-31 15:38:42.020626: I tensorflow/core/platform/cpu_feature_guard.cc:137] Your CPU supports instructions that this TensorFlow binary was not compiled to use: SSE4.1 SSE4.2 AVX AVX2 FMA
…
