…
loading:  Subj20_CleanData_test_LM_lexical
loading:  Subj20_CleanData_test_OB_lexical
loading:  Subj21_CleanData_test_FA_lexical
loading:  Subj21_CleanData_test_LM_lexical
loading:  Subj21_CleanData_test_OB_lexical
loading:  Subj22_CleanData_test_FA_lexical
loading:  Subj22_CleanData_test_LM_lexical
loading:  Subj22_CleanData_test_OB_lexical
(90, 768, 31) (175, 768, 31)
_________________________________________________________________
Layer (type)                 Output Shape              Param #   
=================================================================
input_1 (InputLayer)         (None, 768, 31)           0         
_________________________________________________________________
conv1d_1 (Conv1D)            (None, 768, 30)           59550     
_________________________________________________________________
batch_normalization_1 (Batch (None, 768, 30)           120       
_________________________________________________________________
elu_1 (ELU)                  (None, 768, 30)           0         
_________________________________________________________________
average_pooling1d_1 (Average (None, 384, 30)           0         
_________________________________________________________________
dropout_1 (Dropout)          (None, 384, 30)           0         
_________________________________________________________________
conv1d_2 (Conv1D)            (None, 384, 15)           14415     
_________________________________________________________________
batch_normalization_2 (Batch (None, 384, 15)           60        
_________________________________________________________________
elu_2 (ELU)                  (None, 384, 15)           0         
_________________________________________________________________
average_pooling1d_2 (Average (None, 192, 15)           0         
_________________________________________________________________
dropout_2 (Dropout)          (None, 192, 15)           0         
_________________________________________________________________
conv1d_3 (Conv1D)            (None, 192, 10)           2410      
_________________________________________________________________
batch_normalization_3 (Batch (None, 192, 10)           40        
_________________________________________________________________
elu_3 (ELU)                  (None, 192, 10)           0         
_________________________________________________________________
average_pooling1d_3 (Average (None, 96, 10)            0         
_________________________________________________________________
dropout_3 (Dropout)          (None, 96, 10)            0         
_________________________________________________________________
flatten_1 (Flatten)          (None, 960)               0         
_________________________________________________________________
dense_1 (Dense)              (None, 15)                14415     
_________________________________________________________________
batch_normalization_4 (Batch (None, 15)                60        
_________________________________________________________________
activation_1 (Activation)    (None, 15)                0         
_________________________________________________________________
dense_2 (Dense)              (None, 3)                 48        
=================================================================
Total params: 91,118
Trainable params: 90,978
Non-trainable params: 140
_________________________________________________________________
subject 1, avg accuracy 0.37777778282761576/0.37828571492433544 over 10 splits
subject 2, avg accuracy 0.25000000447034837/0.34973262164363245 over 10 splits
subject 3, avg accuracy 0.293636367470026/0.34426229456897645 over 10 splits
…
