…
physical_device_desc: "device: 2, name: Tesla K80, pci bus id: 0000:84:00.0, compute capability: 3.7"
, name: "/device:GPU:3"
device_type: "GPU"
memory_limit: 11322831668
locality {
  bus_id: 2
}
incarnation: 851008568720645471
physical_device_desc: "device: 3, name: Tesla K80, pci bus id: 0000:85:00.0, compute capability: 3.7"
]
/local/slurmtmp.604369/DATA/Modified/spectogram/U5.mat
(1, 187)
(1, 187)
(187, 512, 128, 1)
(512, 128, 1)
_________________________________________________________________
Layer (type)                 Output Shape              Param #   
=================================================================
input_1 (InputLayer)         (None, 512, 128, 1)       0         
_________________________________________________________________
conv2d_1 (Conv2D)            (None, 512, 128, 4)       260       
_________________________________________________________________
elu_1 (ELU)                  (None, 512, 128, 4)       0         
_________________________________________________________________
average_pooling2d_1 (Average (None, 128, 64, 4)        0         
_________________________________________________________________
dropout_1 (Dropout)          (None, 128, 64, 4)        0         
_________________________________________________________________
conv2d_2 (Conv2D)            (None, 128, 64, 8)        2056      
_________________________________________________________________
elu_2 (ELU)                  (None, 128, 64, 8)        0         
_________________________________________________________________
average_pooling2d_2 (Average (None, 32, 32, 8)         0         
_________________________________________________________________
dropout_2 (Dropout)          (None, 32, 32, 8)         0         
_________________________________________________________________
conv2d_3 (Conv2D)            (None, 32, 32, 16)        8208      
_________________________________________________________________
elu_3 (ELU)                  (None, 32, 32, 16)        0         
_________________________________________________________________
average_pooling2d_3 (Average (None, 16, 16, 16)        0         
_________________________________________________________________
dropout_3 (Dropout)          (None, 16, 16, 16)        0         
_________________________________________________________________
flatten_1 (Flatten)          (None, 4096)              0         
_________________________________________________________________
dense_1 (Dense)              (None, 15)                61455     
_________________________________________________________________
activation_1 (Activation)    (None, 15)                0         
_________________________________________________________________
dense_2 (Dense)              (None, 3)                 48        
=================================================================
Total params: 72,027
Trainable params: 72,027
Non-trainable params: 0
_________________________________________________________________
avg accuracy 0.2564722629351433 over 5 splits
end time
Tue Apr 10 14:02:56 CEST 2018
