…
loading:  Subj17_CleanData_test_FA_visual
loading:  Subj17_CleanData_test_LM_visual
loading:  Subj17_CleanData_test_OB_visual
loading:  Subj18_CleanData_test_FA_visual
loading:  Subj18_CleanData_test_LM_visual
loading:  Subj18_CleanData_test_OB_visual
loading:  Subj19_CleanData_test_FA_visual
loading:  Subj19_CleanData_test_LM_visual
loading:  Subj19_CleanData_test_OB_visual
(185, 768, 31) (90, 768, 31)
_________________________________________________________________
Layer (type)                 Output Shape              Param #   
=================================================================
input_1 (InputLayer)         (None, 768, 31)           0         
_________________________________________________________________
lstm_1 (LSTM)                (None, 768, 50)           16400     
_________________________________________________________________
dropout_1 (Dropout)          (None, 768, 50)           0         
_________________________________________________________________
lstm_2 (LSTM)                (None, 50)                20200     
_________________________________________________________________
dropout_2 (Dropout)          (None, 50)                0         
_________________________________________________________________
dense_1 (Dense)              (None, 15)                765       
_________________________________________________________________
dense_2 (Dense)              (None, 3)                 48        
=================================================================
Total params: 37,413
Trainable params: 37,413
Non-trainable params: 0
_________________________________________________________________
subject 1, avg accuracy 0.4114035159349442/0.29555555855234467 over 10 splits
subject 2, avg accuracy 0.4368421107530594/0.32702702769153824 over 10 splits
subject 3, avg accuracy 0.4453216403722763/0.37307692307692314 over 10 splits
…
