…
locality {
  bus_id: 2
}
incarnation: 6461179287270724315
physical_device_desc: "device: 3, name: Tesla K80, pci bus id: 0000:85:00.0, compute capability: 3.7"
]
/local/slurmtmp.791853/DATA/Modified/spectogram/cwt_01.mat
(1, 185)
(1, 185)
(185, 192, 47, 31)
(192, 47, 31)
/local/slurmtmp.791853/DATA/Modified/spectogram/cwt_01_t.mat
(1, 90)
(1, 90)
(90, 192, 47, 31)
(192, 47, 31)
_________________________________________________________________
Layer (type)                 Output Shape              Param #   
=================================================================
input_1 (InputLayer)         (None, 192, 47, 31)       0         
_________________________________________________________________
conv2d_1 (Conv2D)            (None, 192, 47, 4)        3972      
_________________________________________________________________
elu_1 (ELU)                  (None, 192, 47, 4)        0         
_________________________________________________________________
average_pooling2d_1 (Average (None, 96, 11, 4)         0         
_________________________________________________________________
dropout_1 (Dropout)          (None, 96, 11, 4)         0         
_________________________________________________________________
conv2d_2 (Conv2D)            (None, 96, 11, 8)         1032      
_________________________________________________________________
elu_2 (ELU)                  (None, 96, 11, 8)         0         
_________________________________________________________________
average_pooling2d_2 (Average (None, 48, 2, 8)          0         
_________________________________________________________________
dropout_2 (Dropout)          (None, 48, 2, 8)          0         
_________________________________________________________________
conv2d_3 (Conv2D)            (None, 48, 2, 16)         4112      
_________________________________________________________________
elu_3 (ELU)                  (None, 48, 2, 16)         0         
_________________________________________________________________
average_pooling2d_3 (Average (None, 24, 1, 16)         0         
_________________________________________________________________
dropout_3 (Dropout)          (None, 24, 1, 16)         0         
_________________________________________________________________
flatten_1 (Flatten)          (None, 384)               0         
_________________________________________________________________
dense_1 (Dense)              (None, 15)                5775      
_________________________________________________________________
activation_1 (Activation)    (None, 15)                0         
_________________________________________________________________
dense_2 (Dense)              (None, 3)                 48        
=================================================================
Total params: 14,939
Trainable params: 14,939
Non-trainable params: 0
_________________________________________________________________
sub 1 with cwt gave avg accuracy 0.27777778580784795/0.33729729761948457 over 10 splits
2018-05-22 17:46:42.452343: I tensorflow/core/platform/cpu_feature_guard.cc:137] Your CPU supports instructions that this TensorFlow binary was not compiled to use: SSE4.1 SSE4.2 AVX AVX2 FMA
…
