…
loading:  Subj17_CleanData_test_FA_visual
loading:  Subj17_CleanData_test_LM_visual
loading:  Subj17_CleanData_test_OB_visual
loading:  Subj18_CleanData_test_FA_visual
loading:  Subj18_CleanData_test_LM_visual
loading:  Subj18_CleanData_test_OB_visual
loading:  Subj19_CleanData_test_FA_visual
loading:  Subj19_CleanData_test_LM_visual
loading:  Subj19_CleanData_test_OB_visual
(185, 768, 31) (90, 768, 31)
_________________________________________________________________
Layer (type)                 Output Shape              Param #   
=================================================================
input_1 (InputLayer)         (None, 768, 31)           0         
_________________________________________________________________
lstm_1 (LSTM)                (None, 768, 70)           28560     
_________________________________________________________________
dropout_1 (Dropout)          (None, 768, 70)           0         
_________________________________________________________________
lstm_2 (LSTM)                (None, 70)                39480     
_________________________________________________________________
dropout_2 (Dropout)          (None, 70)                0         
_________________________________________________________________
dense_1 (Dense)              (None, 15)                1065      
_________________________________________________________________
dense_2 (Dense)              (None, 3)                 48        
=================================================================
Total params: 69,153
Trainable params: 69,153
Non-trainable params: 0
_________________________________________________________________
subject 1, avg accuracy 0.3994152069091797/0.28888889057768713 over 10 splits
subject 2, avg accuracy 0.35818713903427124/0.321621622205586 over 10 splits
subject 3, avg accuracy 0.5046783685684204/0.383076923076923 over 10 splits
…
