…
loading:  Subj20_CleanData_test_LM_lexical
loading:  Subj20_CleanData_test_OB_lexical
loading:  Subj21_CleanData_test_FA_lexical
loading:  Subj21_CleanData_test_LM_lexical
loading:  Subj21_CleanData_test_OB_lexical
loading:  Subj22_CleanData_test_FA_lexical
loading:  Subj22_CleanData_test_LM_lexical
loading:  Subj22_CleanData_test_OB_lexical
(175, 2049, 31) (90, 2049, 31)
_________________________________________________________________
Layer (type)                 Output Shape              Param #   
=================================================================
input_1 (InputLayer)         (None, 2049, 3)           0         
_________________________________________________________________
conv1d_1 (Conv1D)            (None, 2049, 30)          5790      
_________________________________________________________________
batch_normalization_1 (Batch (None, 2049, 30)          120       
_________________________________________________________________
elu_1 (ELU)                  (None, 2049, 30)          0         
_________________________________________________________________
average_pooling1d_1 (Average (None, 1024, 30)          0         
_________________________________________________________________
dropout_1 (Dropout)          (None, 1024, 30)          0         
_________________________________________________________________
conv1d_2 (Conv1D)            (None, 1024, 15)          14415     
_________________________________________________________________
batch_normalization_2 (Batch (None, 1024, 15)          60        
_________________________________________________________________
elu_2 (ELU)                  (None, 1024, 15)          0         
_________________________________________________________________
average_pooling1d_2 (Average (None, 512, 15)           0         
_________________________________________________________________
dropout_2 (Dropout)          (None, 512, 15)           0         
_________________________________________________________________
conv1d_3 (Conv1D)            (None, 512, 10)           2410      
_________________________________________________________________
batch_normalization_3 (Batch (None, 512, 10)           40        
_________________________________________________________________
elu_3 (ELU)                  (None, 512, 10)           0         
_________________________________________________________________
average_pooling1d_3 (Average (None, 256, 10)           0         
_________________________________________________________________
dropout_3 (Dropout)          (None, 256, 10)           0         
_________________________________________________________________
flatten_1 (Flatten)          (None, 2560)              0         
_________________________________________________________________
dense_1 (Dense)              (None, 15)                38415     
_________________________________________________________________
batch_normalization_4 (Batch (None, 15)                60        
_________________________________________________________________
activation_1 (Activation)    (None, 15)                0         
_________________________________________________________________
dense_2 (Dense)              (None, 3)                 48        
=================================================================
Total params: 61,358
Trainable params: 61,218
Non-trainable params: 140
_________________________________________________________________
subject 1, avg accuracy 0.43627451807260514/0.3200000013576614 over 10 splits
subject 2, avg accuracy 0.5017543911933899/0.34375 over 10 splits
subject 3, avg accuracy 0.43245614767074586/0.26380952423527126 over 10 splits
…
