…
loading:  Subj17_CleanData_test_FA_visual
loading:  Subj17_CleanData_test_LM_visual
loading:  Subj17_CleanData_test_OB_visual
loading:  Subj18_CleanData_test_FA_visual
loading:  Subj18_CleanData_test_LM_visual
loading:  Subj18_CleanData_test_OB_visual
loading:  Subj19_CleanData_test_FA_visual
loading:  Subj19_CleanData_test_LM_visual
loading:  Subj19_CleanData_test_OB_visual
(185, 2049, 31) (90, 2049, 31)
_________________________________________________________________
Layer (type)                 Output Shape              Param #   
=================================================================
input_1 (InputLayer)         (None, 240, 31)           0         
_________________________________________________________________
gaussian_noise_1 (GaussianNo (None, 240, 31)           0         
_________________________________________________________________
conv1d_1 (Conv1D)            (None, 240, 30)           59550     
_________________________________________________________________
batch_normalization_1 (Batch (None, 240, 30)           120       
_________________________________________________________________
elu_1 (ELU)                  (None, 240, 30)           0         
_________________________________________________________________
average_pooling1d_1 (Average (None, 120, 30)           0         
_________________________________________________________________
dropout_1 (Dropout)          (None, 120, 30)           0         
_________________________________________________________________
conv1d_2 (Conv1D)            (None, 120, 15)           14415     
_________________________________________________________________
batch_normalization_2 (Batch (None, 120, 15)           60        
_________________________________________________________________
elu_2 (ELU)                  (None, 120, 15)           0         
_________________________________________________________________
average_pooling1d_2 (Average (None, 60, 15)            0         
_________________________________________________________________
dropout_2 (Dropout)          (None, 60, 15)            0         
_________________________________________________________________
conv1d_3 (Conv1D)            (None, 60, 10)            2410      
_________________________________________________________________
batch_normalization_3 (Batch (None, 60, 10)            40        
_________________________________________________________________
elu_3 (ELU)                  (None, 60, 10)            0         
_________________________________________________________________
average_pooling1d_3 (Average (None, 30, 10)            0         
_________________________________________________________________
dropout_3 (Dropout)          (None, 30, 10)            0         
_________________________________________________________________
flatten_1 (Flatten)          (None, 300)               0         
_________________________________________________________________
dense_1 (Dense)              (None, 15)                4515      
_________________________________________________________________
batch_normalization_4 (Batch (None, 15)                60        
_________________________________________________________________
activation_1 (Activation)    (None, 15)                0         
_________________________________________________________________
dense_2 (Dense)              (None, 3)                 48        
=================================================================
Total params: 81,218
Trainable params: 81,078
Non-trainable params: 140
_________________________________________________________________
subject 0 avg of max acc over 10 splits 0.7195906460285186
subject 1 avg of max acc over 10 splits 0.6947368383407593
subject 2 avg of max acc over 10 splits 0.8114035069942475
subject 3 avg of max acc over 10 splits 0.7947368383407593
…
