…
loading:  Subj17_CleanData_test_FA_visual
loading:  Subj17_CleanData_test_LM_visual
loading:  Subj17_CleanData_test_OB_visual
loading:  Subj18_CleanData_test_FA_visual
loading:  Subj18_CleanData_test_LM_visual
loading:  Subj18_CleanData_test_OB_visual
loading:  Subj19_CleanData_test_FA_visual
loading:  Subj19_CleanData_test_LM_visual
loading:  Subj19_CleanData_test_OB_visual
(185, 768, 31) (90, 768, 31)
_________________________________________________________________
Layer (type)                 Output Shape              Param #   
=================================================================
input_1 (InputLayer)         (None, 192, 31)           0         
_________________________________________________________________
conv1d_1 (Conv1D)            (None, 192, 30)           59550     
_________________________________________________________________
batch_normalization_1 (Batch (None, 192, 30)           120       
_________________________________________________________________
elu_1 (ELU)                  (None, 192, 30)           0         
_________________________________________________________________
average_pooling1d_1 (Average (None, 96, 30)            0         
_________________________________________________________________
dropout_1 (Dropout)          (None, 96, 30)            0         
_________________________________________________________________
conv1d_2 (Conv1D)            (None, 96, 15)            14415     
_________________________________________________________________
batch_normalization_2 (Batch (None, 96, 15)            60        
_________________________________________________________________
elu_2 (ELU)                  (None, 96, 15)            0         
_________________________________________________________________
average_pooling1d_2 (Average (None, 48, 15)            0         
_________________________________________________________________
dropout_2 (Dropout)          (None, 48, 15)            0         
_________________________________________________________________
conv1d_3 (Conv1D)            (None, 48, 10)            2410      
_________________________________________________________________
batch_normalization_3 (Batch (None, 48, 10)            40        
_________________________________________________________________
elu_3 (ELU)                  (None, 48, 10)            0         
_________________________________________________________________
average_pooling1d_3 (Average (None, 24, 10)            0         
_________________________________________________________________
dropout_3 (Dropout)          (None, 24, 10)            0         
_________________________________________________________________
flatten_1 (Flatten)          (None, 240)               0         
_________________________________________________________________
dense_1 (Dense)              (None, 15)                3615      
_________________________________________________________________
batch_normalization_4 (Batch (None, 15)                60        
_________________________________________________________________
activation_1 (Activation)    (None, 15)                0         
_________________________________________________________________
dense_2 (Dense)              (None, 3)                 48        
=================================================================
Total params: 80,318
Trainable params: 80,178
Non-trainable params: 140
_________________________________________________________________
(64, 31, 30)
(64, 31, 30)
(64, 31, 30)
(64, 31, 30)
(64, 31, 30)
(64, 31, 30)
(64, 31, 30)
(64, 31, 30)
(64, 31, 30)
(64, 31, 30)
subject 1, avg accuracy 0.729824560880661/0.32777778022819093 over 10 splits
…
