…
physical_device_desc: "device: 2, name: Tesla K80, pci bus id: 0000:84:00.0, compute capability: 3.7"
, name: "/device:GPU:3"
device_type: "GPU"
memory_limit: 11323142964
locality {
  bus_id: 2
}
incarnation: 16375976164727507981
physical_device_desc: "device: 3, name: Tesla K80, pci bus id: 0000:85:00.0, compute capability: 3.7"
]
/local/slurmtmp.628268/DATA/Modified/spectogram/spec_05.mat
(1, 187)
(1, 187)
(187, 256, 192, 31)
(256, 192, 31)
_________________________________________________________________
Layer (type)                 Output Shape              Param #   
=================================================================
input_1 (InputLayer)         (None, 256, 192, 31)      0         
_________________________________________________________________
conv2d_1 (Conv2D)            (None, 256, 192, 4)       3972      
_________________________________________________________________
elu_1 (ELU)                  (None, 256, 192, 4)       0         
_________________________________________________________________
average_pooling2d_1 (Average (None, 128, 48, 4)        0         
_________________________________________________________________
dropout_1 (Dropout)          (None, 128, 48, 4)        0         
_________________________________________________________________
conv2d_2 (Conv2D)            (None, 128, 48, 8)        1032      
_________________________________________________________________
elu_2 (ELU)                  (None, 128, 48, 8)        0         
_________________________________________________________________
average_pooling2d_2 (Average (None, 64, 12, 8)         0         
_________________________________________________________________
dropout_2 (Dropout)          (None, 64, 12, 8)         0         
_________________________________________________________________
conv2d_3 (Conv2D)            (None, 64, 12, 16)        4112      
_________________________________________________________________
elu_3 (ELU)                  (None, 64, 12, 16)        0         
_________________________________________________________________
average_pooling2d_3 (Average (None, 32, 6, 16)         0         
_________________________________________________________________
dropout_3 (Dropout)          (None, 32, 6, 16)         0         
_________________________________________________________________
flatten_1 (Flatten)          (None, 3072)              0         
_________________________________________________________________
dense_1 (Dense)              (None, 15)                46095     
_________________________________________________________________
activation_1 (Activation)    (None, 15)                0         
_________________________________________________________________
dense_2 (Dense)              (None, 3)                 48        
=================================================================
Total params: 55,259
Trainable params: 55,259
Non-trainable params: 0
_________________________________________________________________
spec gave avg accuracy 0.5931721198100963 over 5 splits
/local/slurmtmp.628268/DATA/Modified/spectogram/wig_05.mat
(1, 187)
(1, 187)
(187, 256, 192, 31)
(256, 192, 31)
_________________________________________________________________
Layer (type)                 Output Shape              Param #   
=================================================================
input_2 (InputLayer)         (None, 256, 192, 31)      0         
_________________________________________________________________
conv2d_4 (Conv2D)            (None, 256, 192, 4)       3972      
_________________________________________________________________
elu_4 (ELU)                  (None, 256, 192, 4)       0         
_________________________________________________________________
average_pooling2d_4 (Average (None, 128, 48, 4)        0         
_________________________________________________________________
dropout_4 (Dropout)          (None, 128, 48, 4)        0         
_________________________________________________________________
conv2d_5 (Conv2D)            (None, 128, 48, 8)        1032      
_________________________________________________________________
elu_5 (ELU)                  (None, 128, 48, 8)        0         
_________________________________________________________________
average_pooling2d_5 (Average (None, 64, 12, 8)         0         
_________________________________________________________________
dropout_5 (Dropout)          (None, 64, 12, 8)         0         
_________________________________________________________________
conv2d_6 (Conv2D)            (None, 64, 12, 16)        4112      
_________________________________________________________________
elu_6 (ELU)                  (None, 64, 12, 16)        0         
_________________________________________________________________
average_pooling2d_6 (Average (None, 32, 6, 16)         0         
_________________________________________________________________
dropout_6 (Dropout)          (None, 32, 6, 16)         0         
_________________________________________________________________
flatten_2 (Flatten)          (None, 3072)              0         
_________________________________________________________________
dense_3 (Dense)              (None, 15)                46095     
_________________________________________________________________
activation_2 (Activation)    (None, 15)                0         
_________________________________________________________________
dense_4 (Dense)              (None, 3)                 48        
=================================================================
Total params: 55,259
Trainable params: 55,259
Non-trainable params: 0
_________________________________________________________________
wig gave avg accuracy 0.6305832176595121 over 5 splits
/local/slurmtmp.628268/DATA/Modified/spectogram/amb_05.mat
(1, 187)
(1, 187)
(187, 192, 512, 31)
(192, 512, 31)
_________________________________________________________________
Layer (type)                 Output Shape              Param #   
=================================================================
input_3 (InputLayer)         (None, 192, 512, 31)      0         
_________________________________________________________________
conv2d_7 (Conv2D)            (None, 192, 512, 4)       3972      
_________________________________________________________________
elu_7 (ELU)                  (None, 192, 512, 4)       0         
_________________________________________________________________
average_pooling2d_7 (Average (None, 96, 128, 4)        0         
_________________________________________________________________
dropout_7 (Dropout)          (None, 96, 128, 4)        0         
_________________________________________________________________
conv2d_8 (Conv2D)            (None, 96, 128, 8)        1032      
_________________________________________________________________
elu_8 (ELU)                  (None, 96, 128, 8)        0         
_________________________________________________________________
average_pooling2d_8 (Average (None, 48, 32, 8)         0         
_________________________________________________________________
dropout_8 (Dropout)          (None, 48, 32, 8)         0         
_________________________________________________________________
conv2d_9 (Conv2D)            (None, 48, 32, 16)        4112      
_________________________________________________________________
elu_9 (ELU)                  (None, 48, 32, 16)        0         
_________________________________________________________________
average_pooling2d_9 (Average (None, 24, 16, 16)        0         
_________________________________________________________________
dropout_9 (Dropout)          (None, 24, 16, 16)        0         
_________________________________________________________________
flatten_3 (Flatten)          (None, 6144)              0         
_________________________________________________________________
dense_5 (Dense)              (None, 15)                92175     
_________________________________________________________________
activation_3 (Activation)    (None, 15)                0         
_________________________________________________________________
dense_6 (Dense)              (None, 3)                 48        
=================================================================
Total params: 101,339
Trainable params: 101,339
Non-trainable params: 0
_________________________________________________________________
amb gave avg accuracy 0.6204836428970903 over 5 splits
/local/slurmtmp.628268/DATA/Modified/spectogram/cwt_05.mat
(1, 187)
(1, 187)
(187, 192, 47, 31)
(192, 47, 31)
_________________________________________________________________
Layer (type)                 Output Shape              Param #   
=================================================================
input_4 (InputLayer)         (None, 192, 47, 31)       0         
_________________________________________________________________
conv2d_10 (Conv2D)           (None, 192, 47, 4)        3972      
_________________________________________________________________
elu_10 (ELU)                 (None, 192, 47, 4)        0         
_________________________________________________________________
average_pooling2d_10 (Averag (None, 96, 11, 4)         0         
_________________________________________________________________
dropout_10 (Dropout)         (None, 96, 11, 4)         0         
_________________________________________________________________
conv2d_11 (Conv2D)           (None, 96, 11, 8)         1032      
_________________________________________________________________
elu_11 (ELU)                 (None, 96, 11, 8)         0         
_________________________________________________________________
average_pooling2d_11 (Averag (None, 48, 2, 8)          0         
_________________________________________________________________
dropout_11 (Dropout)         (None, 48, 2, 8)          0         
_________________________________________________________________
conv2d_12 (Conv2D)           (None, 48, 2, 16)         4112      
_________________________________________________________________
elu_12 (ELU)                 (None, 48, 2, 16)         0         
_________________________________________________________________
average_pooling2d_12 (Averag (None, 24, 1, 16)         0         
_________________________________________________________________
dropout_12 (Dropout)         (None, 24, 1, 16)         0         
_________________________________________________________________
flatten_4 (Flatten)          (None, 384)               0         
_________________________________________________________________
dense_7 (Dense)              (None, 15)                5775      
_________________________________________________________________
activation_4 (Activation)    (None, 15)                0         
_________________________________________________________________
dense_8 (Dense)              (None, 3)                 48        
=================================================================
Total params: 14,939
Trainable params: 14,939
Non-trainable params: 0
_________________________________________________________________
cwt gave avg accuracy 0.7485064028930528 over 5 splits
/local/slurmtmp.628268/DATA/Modified/spectogram/slep_05.mat
(1, 187)
(1, 187)
(187, 256, 192, 31)
(256, 192, 31)
_________________________________________________________________
Layer (type)                 Output Shape              Param #   
=================================================================
input_5 (InputLayer)         (None, 256, 192, 31)      0         
_________________________________________________________________
conv2d_13 (Conv2D)           (None, 256, 192, 4)       3972      
_________________________________________________________________
elu_13 (ELU)                 (None, 256, 192, 4)       0         
_________________________________________________________________
average_pooling2d_13 (Averag (None, 128, 48, 4)        0         
_________________________________________________________________
dropout_13 (Dropout)         (None, 128, 48, 4)        0         
_________________________________________________________________
conv2d_14 (Conv2D)           (None, 128, 48, 8)        1032      
_________________________________________________________________
elu_14 (ELU)                 (None, 128, 48, 8)        0         
_________________________________________________________________
average_pooling2d_14 (Averag (None, 64, 12, 8)         0         
_________________________________________________________________
dropout_14 (Dropout)         (None, 64, 12, 8)         0         
_________________________________________________________________
conv2d_15 (Conv2D)           (None, 64, 12, 16)        4112      
_________________________________________________________________
elu_15 (ELU)                 (None, 64, 12, 16)        0         
_________________________________________________________________
average_pooling2d_15 (Averag (None, 32, 6, 16)         0         
_________________________________________________________________
dropout_15 (Dropout)         (None, 32, 6, 16)         0         
_________________________________________________________________
flatten_5 (Flatten)          (None, 3072)              0         
_________________________________________________________________
dense_9 (Dense)              (None, 15)                46095     
_________________________________________________________________
activation_5 (Activation)    (None, 15)                0         
_________________________________________________________________
dense_10 (Dense)             (None, 3)                 48        
=================================================================
Total params: 55,259
Trainable params: 55,259
Non-trainable params: 0
_________________________________________________________________
slep gave avg accuracy 0.6634423910384497 over 5 splits
end time
Wed Apr 18 00:35:17 CEST 2018
