…
loading:  Subj17_CleanData_test_FA_visual
loading:  Subj17_CleanData_test_LM_visual
loading:  Subj17_CleanData_test_OB_visual
loading:  Subj18_CleanData_test_FA_visual
loading:  Subj18_CleanData_test_LM_visual
loading:  Subj18_CleanData_test_OB_visual
loading:  Subj19_CleanData_test_FA_visual
loading:  Subj19_CleanData_test_LM_visual
loading:  Subj19_CleanData_test_OB_visual
(90, 768, 31)
(185, 768, 31)
_________________________________________________________________
Layer (type)                 Output Shape              Param #   
=================================================================
input_1 (InputLayer)         (None, 768, 31)           0         
_________________________________________________________________
lambda_1 (Lambda)            (None, 630, 31)           0         
_________________________________________________________________
gaussian_noise_1 (GaussianNo (None, 630, 31)           0         
_________________________________________________________________
conv1d_1 (Conv1D)            (None, 630, 30)           9330      
_________________________________________________________________
batch_normalization_1 (Batch (None, 630, 30)           120       
_________________________________________________________________
elu_1 (ELU)                  (None, 630, 30)           0         
_________________________________________________________________
average_pooling1d_1 (Average (None, 315, 30)           0         
_________________________________________________________________
dropout_1 (Dropout)          (None, 315, 30)           0         
_________________________________________________________________
conv1d_2 (Conv1D)            (None, 315, 30)           4530      
_________________________________________________________________
batch_normalization_2 (Batch (None, 315, 30)           120       
_________________________________________________________________
elu_2 (ELU)                  (None, 315, 30)           0         
_________________________________________________________________
average_pooling1d_2 (Average (None, 157, 30)           0         
_________________________________________________________________
dropout_2 (Dropout)          (None, 157, 30)           0         
_________________________________________________________________
conv1d_3 (Conv1D)            (None, 157, 30)           4530      
_________________________________________________________________
batch_normalization_3 (Batch (None, 157, 30)           120       
_________________________________________________________________
elu_3 (ELU)                  (None, 157, 30)           0         
_________________________________________________________________
average_pooling1d_3 (Average (None, 78, 30)            0         
_________________________________________________________________
dropout_3 (Dropout)          (None, 78, 30)            0         
_________________________________________________________________
flatten_1 (Flatten)          (None, 2340)              0         
_________________________________________________________________
dense_1 (Dense)              (None, 50)                117050    
_________________________________________________________________
batch_normalization_4 (Batch (None, 50)                200       
_________________________________________________________________
activation_1 (Activation)    (None, 50)                0         
_________________________________________________________________
dense_2 (Dense)              (None, 20)                1020      
_________________________________________________________________
batch_normalization_5 (Batch (None, 20)                80        
_________________________________________________________________
activation_2 (Activation)    (None, 20)                0         
_________________________________________________________________
dense_3 (Dense)              (None, 3)                 63        
=================================================================
Total params: 137,163
Trainable params: 136,843
Non-trainable params: 320
_________________________________________________________________
subject 1, avg accuracy 0.7304093599319458/0.3100000028808912 over 10 splits
subject 2, avg accuracy 0.733333346247673/0.40675675728031113 over 10 splits
subject 3, avg accuracy 0.8704678356647492/0.33 over 10 splits
…
