…
loading:  Subj17_CleanData_test_FA_visual
loading:  Subj17_CleanData_test_LM_visual
loading:  Subj17_CleanData_test_OB_visual
loading:  Subj18_CleanData_test_FA_visual
loading:  Subj18_CleanData_test_LM_visual
loading:  Subj18_CleanData_test_OB_visual
loading:  Subj19_CleanData_test_FA_visual
loading:  Subj19_CleanData_test_LM_visual
loading:  Subj19_CleanData_test_OB_visual
(90, 768, 31)
(185, 768, 31)
_________________________________________________________________
Layer (type)                 Output Shape              Param #   
=================================================================
input_1 (InputLayer)         (None, 768, 31)           0         
_________________________________________________________________
lambda_1 (Lambda)            (None, 730, 31)           0         
_________________________________________________________________
gaussian_noise_1 (GaussianNo (None, 730, 31)           0         
_________________________________________________________________
conv1d_1 (Conv1D)            (None, 730, 30)           9330      
_________________________________________________________________
batch_normalization_1 (Batch (None, 730, 30)           120       
_________________________________________________________________
elu_1 (ELU)                  (None, 730, 30)           0         
_________________________________________________________________
max_pooling1d_1 (MaxPooling1 (None, 365, 30)           0         
_________________________________________________________________
dropout_1 (Dropout)          (None, 365, 30)           0         
_________________________________________________________________
conv1d_2 (Conv1D)            (None, 365, 30)           4530      
_________________________________________________________________
batch_normalization_2 (Batch (None, 365, 30)           120       
_________________________________________________________________
elu_2 (ELU)                  (None, 365, 30)           0         
_________________________________________________________________
max_pooling1d_2 (MaxPooling1 (None, 182, 30)           0         
_________________________________________________________________
dropout_2 (Dropout)          (None, 182, 30)           0         
_________________________________________________________________
conv1d_3 (Conv1D)            (None, 182, 30)           4530      
_________________________________________________________________
batch_normalization_3 (Batch (None, 182, 30)           120       
_________________________________________________________________
elu_3 (ELU)                  (None, 182, 30)           0         
_________________________________________________________________
max_pooling1d_3 (MaxPooling1 (None, 91, 30)            0         
_________________________________________________________________
dropout_3 (Dropout)          (None, 91, 30)            0         
_________________________________________________________________
flatten_1 (Flatten)          (None, 2730)              0         
_________________________________________________________________
dense_1 (Dense)              (None, 50)                136550    
_________________________________________________________________
dense_2 (Dense)              (None, 20)                1020      
_________________________________________________________________
dense_3 (Dense)              (None, 3)                 63        
=================================================================
Total params: 156,383
Trainable params: 156,203
Non-trainable params: 180
_________________________________________________________________
subject 1, avg accuracy 0.7359649181365967/0.31222222447395326 over 10 splits
subject 2, avg accuracy 0.7014619946479798/0.4310810821684631 over 10 splits
subject 3, avg accuracy 0.8652046859264374/0.3630769230769231 over 10 splits
…
