…
loading:  Subj17_CleanData_test_FA_visual
loading:  Subj17_CleanData_test_LM_visual
loading:  Subj17_CleanData_test_OB_visual
loading:  Subj18_CleanData_test_FA_visual
loading:  Subj18_CleanData_test_LM_visual
loading:  Subj18_CleanData_test_OB_visual
loading:  Subj19_CleanData_test_FA_visual
loading:  Subj19_CleanData_test_LM_visual
loading:  Subj19_CleanData_test_OB_visual
(90, 768, 31)
(185, 768, 31)
_________________________________________________________________
Layer (type)                 Output Shape              Param #   
=================================================================
input_1 (InputLayer)         (None, 768, 31)           0         
_________________________________________________________________
lambda_1 (Lambda)            (None, 730, 31)           0         
_________________________________________________________________
gaussian_noise_1 (GaussianNo (None, 730, 31)           0         
_________________________________________________________________
conv1d_1 (Conv1D)            (None, 730, 30)           9330      
_________________________________________________________________
elu_1 (ELU)                  (None, 730, 30)           0         
_________________________________________________________________
max_pooling1d_1 (MaxPooling1 (None, 365, 30)           0         
_________________________________________________________________
dropout_1 (Dropout)          (None, 365, 30)           0         
_________________________________________________________________
conv1d_2 (Conv1D)            (None, 365, 30)           4530      
_________________________________________________________________
elu_2 (ELU)                  (None, 365, 30)           0         
_________________________________________________________________
max_pooling1d_2 (MaxPooling1 (None, 182, 30)           0         
_________________________________________________________________
dropout_2 (Dropout)          (None, 182, 30)           0         
_________________________________________________________________
conv1d_3 (Conv1D)            (None, 182, 30)           4530      
_________________________________________________________________
elu_3 (ELU)                  (None, 182, 30)           0         
_________________________________________________________________
max_pooling1d_3 (MaxPooling1 (None, 91, 30)            0         
_________________________________________________________________
dropout_3 (Dropout)          (None, 91, 30)            0         
_________________________________________________________________
flatten_1 (Flatten)          (None, 2730)              0         
_________________________________________________________________
dense_1 (Dense)              (None, 50)                136550    
_________________________________________________________________
dense_2 (Dense)              (None, 20)                1020      
_________________________________________________________________
dense_3 (Dense)              (None, 3)                 63        
=================================================================
Total params: 156,023
Trainable params: 156,023
Non-trainable params: 0
_________________________________________________________________
subject 1, avg accuracy 0.6771929800510407/0.3144444470935398 over 10 splits
subject 2, avg accuracy 0.7555555522441864/0.4418918937847421 over 10 splits
subject 3, avg accuracy 0.7640350818634033/0.3753846153846154 over 10 splits
…
