…
loading:  Subj19_CleanData_study_OB
loading:  Subj20_CleanData_study_FA
loading:  Subj20_CleanData_study_LM
loading:  Subj20_CleanData_study_OB
loading:  Subj21_CleanData_study_FA
loading:  Subj21_CleanData_study_LM
loading:  Subj21_CleanData_study_OB
loading:  Subj22_CleanData_study_FA
loading:  Subj22_CleanData_study_LM
loading:  Subj22_CleanData_study_OB
(185, 768, 31) (175, 768, 31)
_________________________________________________________________
Layer (type)                 Output Shape              Param #   
=================================================================
input_1 (InputLayer)         (None, 768, 31)           0         
_________________________________________________________________
lambda_1 (Lambda)            (None, 630, 31)           0         
_________________________________________________________________
gaussian_noise_1 (GaussianNo (None, 630, 31)           0         
_________________________________________________________________
conv1d_1 (Conv1D)            (None, 630, 22)           13662     
_________________________________________________________________
batch_normalization_1 (Batch (None, 630, 22)           88        
_________________________________________________________________
elu_1 (ELU)                  (None, 630, 22)           0         
_________________________________________________________________
average_pooling1d_1 (Average (None, 315, 22)           0         
_________________________________________________________________
dropout_1 (Dropout)          (None, 315, 22)           0         
_________________________________________________________________
conv1d_2 (Conv1D)            (None, 315, 15)           6615      
_________________________________________________________________
batch_normalization_2 (Batch (None, 315, 15)           60        
_________________________________________________________________
elu_2 (ELU)                  (None, 315, 15)           0         
_________________________________________________________________
average_pooling1d_2 (Average (None, 157, 15)           0         
_________________________________________________________________
dropout_2 (Dropout)          (None, 157, 15)           0         
_________________________________________________________________
conv1d_3 (Conv1D)            (None, 157, 10)           1810      
_________________________________________________________________
batch_normalization_3 (Batch (None, 157, 10)           40        
_________________________________________________________________
elu_3 (ELU)                  (None, 157, 10)           0         
_________________________________________________________________
average_pooling1d_3 (Average (None, 78, 10)            0         
_________________________________________________________________
dropout_3 (Dropout)          (None, 78, 10)            0         
_________________________________________________________________
flatten_1 (Flatten)          (None, 780)               0         
_________________________________________________________________
dense_1 (Dense)              (None, 35)                27335     
_________________________________________________________________
batch_normalization_4 (Batch (None, 35)                140       
_________________________________________________________________
activation_1 (Activation)    (None, 35)                0         
_________________________________________________________________
dense_2 (Dense)              (None, 15)                540       
_________________________________________________________________
batch_normalization_5 (Batch (None, 15)                60        
_________________________________________________________________
activation_2 (Activation)    (None, 15)                0         
_________________________________________________________________
dense_3 (Dense)              (None, 3)                 48        
=================================================================
Total params: 50,398
Trainable params: 50,204
Non-trainable params: 194
_________________________________________________________________
subject 1, avg accuracy 0.7350877225399017/0.3771428577985082 over 10 splits
subject 2, avg accuracy 0.7637427031993866/0.9764705889683996 over 10 splits
subject 3, avg accuracy 0.8225146234035492/0.4491803267614437 over 10 splits
…
