…
loading:  Subj17_CleanData_test_FA_visual
loading:  Subj17_CleanData_test_LM_visual
loading:  Subj17_CleanData_test_OB_visual
loading:  Subj18_CleanData_test_FA_visual
loading:  Subj18_CleanData_test_LM_visual
loading:  Subj18_CleanData_test_OB_visual
loading:  Subj19_CleanData_test_FA_visual
loading:  Subj19_CleanData_test_LM_visual
loading:  Subj19_CleanData_test_OB_visual
(90, 768, 31)
(185, 768, 31)
_________________________________________________________________
Layer (type)                 Output Shape              Param #   
=================================================================
input_1 (InputLayer)         (None, 768, 31)           0         
_________________________________________________________________
lambda_1 (Lambda)            (None, 730, 31)           0         
_________________________________________________________________
gaussian_noise_1 (GaussianNo (None, 730, 31)           0         
_________________________________________________________________
conv1d_1 (Conv1D)            (None, 730, 30)           9330      
_________________________________________________________________
batch_normalization_1 (Batch (None, 730, 30)           120       
_________________________________________________________________
elu_1 (ELU)                  (None, 730, 30)           0         
_________________________________________________________________
max_pooling1d_1 (MaxPooling1 (None, 365, 30)           0         
_________________________________________________________________
dropout_1 (Dropout)          (None, 365, 30)           0         
_________________________________________________________________
conv1d_2 (Conv1D)            (None, 365, 30)           4530      
_________________________________________________________________
batch_normalization_2 (Batch (None, 365, 30)           120       
_________________________________________________________________
elu_2 (ELU)                  (None, 365, 30)           0         
_________________________________________________________________
max_pooling1d_2 (MaxPooling1 (None, 182, 30)           0         
_________________________________________________________________
dropout_2 (Dropout)          (None, 182, 30)           0         
_________________________________________________________________
conv1d_3 (Conv1D)            (None, 182, 30)           4530      
_________________________________________________________________
batch_normalization_3 (Batch (None, 182, 30)           120       
_________________________________________________________________
elu_3 (ELU)                  (None, 182, 30)           0         
_________________________________________________________________
max_pooling1d_3 (MaxPooling1 (None, 91, 30)            0         
_________________________________________________________________
dropout_3 (Dropout)          (None, 91, 30)            0         
_________________________________________________________________
flatten_1 (Flatten)          (None, 2730)              0         
_________________________________________________________________
dense_1 (Dense)              (None, 3)                 8193      
=================================================================
Total params: 26,943
Trainable params: 26,763
Non-trainable params: 180
_________________________________________________________________
subject 1, avg accuracy 0.7450292408466339/0.3066666674613952 over 10 splits
subject 2, avg accuracy 0.7061403453350067/0.433783784589252 over 10 splits
subject 3, avg accuracy 0.8280701816082001/0.3530769230769232 over 10 splits
…
