…
loading:  Subj20_CleanData_test_LM_lexical
loading:  Subj20_CleanData_test_OB_lexical
loading:  Subj21_CleanData_test_FA_lexical
loading:  Subj21_CleanData_test_LM_lexical
loading:  Subj21_CleanData_test_OB_lexical
loading:  Subj22_CleanData_test_FA_lexical
loading:  Subj22_CleanData_test_LM_lexical
loading:  Subj22_CleanData_test_OB_lexical
(90, 768, 31)
(175, 768, 31)
_________________________________________________________________
Layer (type)                 Output Shape              Param #   
=================================================================
input_1 (InputLayer)         (None, 768, 31)           0         
_________________________________________________________________
gaussian_noise_1 (GaussianNo (None, 768, 31)           0         
_________________________________________________________________
conv1d_1 (Conv1D)            (None, 768, 30)           9330      
_________________________________________________________________
batch_normalization_1 (Batch (None, 768, 30)           120       
_________________________________________________________________
elu_1 (ELU)                  (None, 768, 30)           0         
_________________________________________________________________
max_pooling1d_1 (MaxPooling1 (None, 384, 30)           0         
_________________________________________________________________
dropout_1 (Dropout)          (None, 384, 30)           0         
_________________________________________________________________
conv1d_2 (Conv1D)            (None, 384, 30)           4530      
_________________________________________________________________
batch_normalization_2 (Batch (None, 384, 30)           120       
_________________________________________________________________
elu_2 (ELU)                  (None, 384, 30)           0         
_________________________________________________________________
max_pooling1d_2 (MaxPooling1 (None, 192, 30)           0         
_________________________________________________________________
dropout_2 (Dropout)          (None, 192, 30)           0         
_________________________________________________________________
conv1d_3 (Conv1D)            (None, 192, 30)           4530      
_________________________________________________________________
batch_normalization_3 (Batch (None, 192, 30)           120       
_________________________________________________________________
elu_3 (ELU)                  (None, 192, 30)           0         
_________________________________________________________________
max_pooling1d_3 (MaxPooling1 (None, 96, 30)            0         
_________________________________________________________________
dropout_3 (Dropout)          (None, 96, 30)            0         
_________________________________________________________________
flatten_1 (Flatten)          (None, 2880)              0         
_________________________________________________________________
dense_1 (Dense)              (None, 50)                144050    
_________________________________________________________________
dense_2 (Dense)              (None, 20)                1020      
_________________________________________________________________
dense_3 (Dense)              (None, 3)                 63        
=================================================================
Total params: 163,883
Trainable params: 163,703
Non-trainable params: 180
_________________________________________________________________
subject 1, avg accuracy 0.6526143968105316/0.38444444706042613 over 10 splits
subject 2, avg accuracy 0.7491228103637695/0.37916666666666676 over 10 splits
subject 3, avg accuracy 0.6789473772048951/0.28761904769710134 over 10 splits
…
