…
loading:  Subj16_CleanData_study_OB
loading:  Subj17_CleanData_study_FA
loading:  Subj17_CleanData_study_LM
loading:  Subj17_CleanData_study_OB
loading:  Subj18_CleanData_study_FA
loading:  Subj18_CleanData_study_LM
loading:  Subj18_CleanData_study_OB
loading:  Subj19_CleanData_study_FA
loading:  Subj19_CleanData_study_LM
loading:  Subj19_CleanData_study_OB
(185, 768, 31)
(185, 768, 31)
_________________________________________________________________
Layer (type)                 Output Shape              Param #   
=================================================================
conv1d_1 (Conv1D)            (None, 768, 30)           9330      
_________________________________________________________________
max_pooling1d_1 (MaxPooling1 (None, 384, 30)           0         
_________________________________________________________________
dropout_1 (Dropout)          (None, 384, 30)           0         
_________________________________________________________________
conv1d_2 (Conv1D)            (None, 384, 20)           3020      
_________________________________________________________________
max_pooling1d_2 (MaxPooling1 (None, 192, 20)           0         
_________________________________________________________________
dropout_2 (Dropout)          (None, 192, 20)           0         
_________________________________________________________________
conv1d_3 (Conv1D)            (None, 192, 10)           1010      
_________________________________________________________________
max_pooling1d_3 (MaxPooling1 (None, 96, 10)            0         
_________________________________________________________________
dropout_3 (Dropout)          (None, 96, 10)            0         
_________________________________________________________________
flatten_1 (Flatten)          (None, 960)               0         
_________________________________________________________________
dense_1 (Dense)              (None, 30)                28830     
_________________________________________________________________
dense_2 (Dense)              (None, 3)                 93        
=================================================================
Total params: 42,283
Trainable params: 42,283
Non-trainable params: 0
_________________________________________________________________
subject 1, avg accuracy 0.5351351369071651 over 5 splits with ds 1.0
subject 2, avg accuracy 0.4967283078184508 over 5 splits with ds 1.0
subject 3, avg accuracy 0.35362731281079746 over 5 splits with ds 1.0
…
