…
loading:  Subj16_CleanData_study_OB
loading:  Subj17_CleanData_study_FA
loading:  Subj17_CleanData_study_LM
loading:  Subj17_CleanData_study_OB
loading:  Subj18_CleanData_study_FA
loading:  Subj18_CleanData_study_LM
loading:  Subj18_CleanData_study_OB
loading:  Subj19_CleanData_study_FA
loading:  Subj19_CleanData_study_LM
loading:  Subj19_CleanData_study_OB
(185, 768, 31)
(185, 768, 31)
_________________________________________________________________
Layer (type)                 Output Shape              Param #   
=================================================================
input_1 (InputLayer)         (None, 768, 31)           0         
_________________________________________________________________
gaussian_noise_1 (GaussianNo (None, 768, 31)           0         
_________________________________________________________________
conv1d_1 (Conv1D)            (None, 768, 30)           9330      
_________________________________________________________________
batch_normalization_1 (Batch (None, 768, 30)           120       
_________________________________________________________________
elu_1 (ELU)                  (None, 768, 30)           0         
_________________________________________________________________
max_pooling1d_1 (MaxPooling1 (None, 384, 30)           0         
_________________________________________________________________
dropout_1 (Dropout)          (None, 384, 30)           0         
_________________________________________________________________
conv1d_2 (Conv1D)            (None, 384, 30)           4530      
_________________________________________________________________
batch_normalization_2 (Batch (None, 384, 30)           120       
_________________________________________________________________
elu_2 (ELU)                  (None, 384, 30)           0         
_________________________________________________________________
max_pooling1d_2 (MaxPooling1 (None, 192, 30)           0         
_________________________________________________________________
dropout_2 (Dropout)          (None, 192, 30)           0         
_________________________________________________________________
conv1d_3 (Conv1D)            (None, 192, 30)           4530      
_________________________________________________________________
batch_normalization_3 (Batch (None, 192, 30)           120       
_________________________________________________________________
elu_3 (ELU)                  (None, 192, 30)           0         
_________________________________________________________________
max_pooling1d_3 (MaxPooling1 (None, 96, 30)            0         
_________________________________________________________________
dropout_3 (Dropout)          (None, 96, 30)            0         
_________________________________________________________________
flatten_1 (Flatten)          (None, 2880)              0         
_________________________________________________________________
dense_1 (Dense)              (None, 50)                144050    
_________________________________________________________________
dense_2 (Dense)              (None, 20)                1020      
_________________________________________________________________
dense_3 (Dense)              (None, 3)                 63        
=================================================================
Total params: 163,883
Trainable params: 163,703
Non-trainable params: 180
_________________________________________________________________
subject 1, avg accuracy 0.7619883060455322 over 10 splits with ds 1
subject 2, avg accuracy 0.7640350997447968 over 10 splits with ds 1
subject 3, avg accuracy 0.8698830425739288 over 10 splits with ds 1
…
