…
physical_device_desc: "device: 2, name: Tesla K80, pci bus id: 0000:84:00.0, compute capability: 3.7"
, name: "/device:GPU:3"
device_type: "GPU"
memory_limit: 11322831668
locality {
  bus_id: 2
}
incarnation: 17980643124920496778
physical_device_desc: "device: 3, name: Tesla K80, pci bus id: 0000:85:00.0, compute capability: 3.7"
]
/local/slurmtmp.609081/DATA/Modified/spectogram/U5.mat
(1, 187)
(1, 187)
(187, 31, 512, 384)
(187, 512, 384, 31)
(512, 384, 31)
_________________________________________________________________
Layer (type)                 Output Shape              Param #   
=================================================================
input_1 (InputLayer)         (None, 512, 384, 31)      0         
_________________________________________________________________
conv2d_1 (Conv2D)            (None, 512, 384, 4)       1988      
_________________________________________________________________
elu_1 (ELU)                  (None, 512, 384, 4)       0         
_________________________________________________________________
average_pooling2d_1 (Average (None, 128, 192, 4)       0         
_________________________________________________________________
dropout_1 (Dropout)          (None, 128, 192, 4)       0         
_________________________________________________________________
conv2d_2 (Conv2D)            (None, 128, 192, 8)       520       
_________________________________________________________________
elu_2 (ELU)                  (None, 128, 192, 8)       0         
_________________________________________________________________
average_pooling2d_2 (Average (None, 32, 96, 8)         0         
_________________________________________________________________
dropout_2 (Dropout)          (None, 32, 96, 8)         0         
_________________________________________________________________
conv2d_3 (Conv2D)            (None, 32, 96, 16)        2064      
_________________________________________________________________
elu_3 (ELU)                  (None, 32, 96, 16)        0         
_________________________________________________________________
average_pooling2d_3 (Average (None, 16, 48, 16)        0         
_________________________________________________________________
dropout_3 (Dropout)          (None, 16, 48, 16)        0         
_________________________________________________________________
flatten_1 (Flatten)          (None, 12288)             0         
_________________________________________________________________
dense_1 (Dense)              (None, 15)                184335    
_________________________________________________________________
activation_1 (Activation)    (None, 15)                0         
_________________________________________________________________
dense_2 (Dense)              (None, 3)                 48        
=================================================================
Total params: 188,955
Trainable params: 188,955
Non-trainable params: 0
_________________________________________________________________
avg accuracy 0.47624466715123537 over 5 splits
end time
Thu Apr 12 15:33:07 CEST 2018
