…
loading:  Subj17_CleanData_test_LM_visual
loading:  Subj17_CleanData_test_OB_visual
loading:  Subj18_CleanData_test_FA_visual
loading:  Subj18_CleanData_test_LM_visual
loading:  Subj18_CleanData_test_OB_visual
loading:  Subj19_CleanData_test_FA_visual
loading:  Subj19_CleanData_test_LM_visual
loading:  Subj19_CleanData_test_OB_visual
(90, 768, 31)
(185, 768, 31) (90, 768, 31)
_________________________________________________________________
Layer (type)                 Output Shape              Param #   
=================================================================
input_1 (InputLayer)         (None, 768, 31)           0         
_________________________________________________________________
reshape_1 (Reshape)          (None, 768, 31, 1)        0         
_________________________________________________________________
conv2d_1 (Conv2D)            (None, 768, 31, 8)        2056      
_________________________________________________________________
batch_normalization_1 (Batch (None, 768, 31, 8)        32        
_________________________________________________________________
depthwise_conv2d_1 (Depthwis (None, 768, 1, 8)         256       
_________________________________________________________________
batch_normalization_2 (Batch (None, 768, 1, 8)         32        
_________________________________________________________________
elu_1 (ELU)                  (None, 768, 1, 8)         0         
_________________________________________________________________
dropout_1 (Dropout)          (None, 768, 1, 8)         0         
_________________________________________________________________
separable_conv2d_1 (Separabl (None, 768, 1, 8)         136       
_________________________________________________________________
batch_normalization_3 (Batch (None, 768, 1, 8)         32        
_________________________________________________________________
elu_2 (ELU)                  (None, 768, 1, 8)         0         
_________________________________________________________________
average_pooling2d_1 (Average (None, 192, 1, 8)         0         
_________________________________________________________________
dropout_2 (Dropout)          (None, 192, 1, 8)         0         
_________________________________________________________________
separable_conv2d_2 (Separabl (None, 192, 1, 16)        208       
_________________________________________________________________
batch_normalization_4 (Batch (None, 192, 1, 16)        64        
_________________________________________________________________
elu_3 (ELU)                  (None, 192, 1, 16)        0         
_________________________________________________________________
average_pooling2d_2 (Average (None, 48, 1, 16)         0         
_________________________________________________________________
dropout_3 (Dropout)          (None, 48, 1, 16)         0         
_________________________________________________________________
flatten_1 (Flatten)          (None, 768)               0         
_________________________________________________________________
dense_1 (Dense)              (None, 3)                 2307      
=================================================================
Total params: 5,123
Trainable params: 5,043
Non-trainable params: 80
_________________________________________________________________
subject 1, avg accuracy 0.6818713456392288/0.2866666691170798 over 10 splits
subject 2, avg accuracy 0.7005847930908203/0.4324324332379007 over 10 splits
subject 3, avg accuracy 0.7906432807445526/0.3307692307692308 over 10 splits
…
