…
loading:  Subj17_CleanData_study_FA
loading:  Subj17_CleanData_study_LM
loading:  Subj17_CleanData_study_OB
loading:  Subj18_CleanData_study_FA
loading:  Subj18_CleanData_study_LM
loading:  Subj18_CleanData_study_OB
loading:  Subj19_CleanData_study_FA
loading:  Subj19_CleanData_study_LM
loading:  Subj19_CleanData_study_OB
(185, 31, 2049)
before cut (185, 31, 2049)
[768, 1024]
after cut (185, 31, 256)
_________________________________________________________________
Layer (type)                 Output Shape              Param #   
=================================================================
conv1d_1 (Conv1D)            (None, 31, 26)            79898     
_________________________________________________________________
max_pooling1d_1 (MaxPooling1 (None, 15, 26)            0         
_________________________________________________________________
dropout_1 (Dropout)          (None, 15, 26)            0         
_________________________________________________________________
conv1d_2 (Conv1D)            (None, 15, 13)            1703      
_________________________________________________________________
max_pooling1d_2 (MaxPooling1 (None, 15, 13)            0         
_________________________________________________________________
dropout_2 (Dropout)          (None, 15, 13)            0         
_________________________________________________________________
conv1d_3 (Conv1D)            (None, 15, 1)             183       
_________________________________________________________________
max_pooling1d_3 (MaxPooling1 (None, 15, 1)             0         
_________________________________________________________________
dropout_3 (Dropout)          (None, 15, 1)             0         
_________________________________________________________________
flatten_1 (Flatten)          (None, 15)                0         
_________________________________________________________________
dense_1 (Dense)              (None, 36)                576       
_________________________________________________________________
dense_2 (Dense)              (None, 3)                 111       
=================================================================
Total params: 82,471
Trainable params: 82,471
Non-trainable params: 0
_________________________________________________________________
{'l1_nodes': 26, 'l1_filter': 12, 'l1_dropout': 0.39992625695740747, 'l1_maxpool': 2, 'l2_nodes': 13, 'l2_filter': 5, 'l2_dropout': 0.3815587391722815, 'l2_maxpool': 1, 'l3_nodes': 1, 'l3_filter': 14, 'l3_dropout': 0.10859328131950974, 'l3_maxpool': 1, 'dense_nodes': 36}
…
subject 14, avg accuracy 0.3820512831452404 over 5 splits
subject 15, avg accuracy 0.5528528530139465 over 5 splits
subject 16, avg accuracy 0.5265856960846185 over 5 splits
subject 17, avg accuracy 0.5578947374695226 over 5 splits
subject 18, avg accuracy 0.7027027046358263 over 5 splits
subject 19, avg accuracy 0.4962462465684335 over 5 splits
avg accuracy over all subjects 0.525638324766257
_________________________________________________________________
Layer (type)                 Output Shape              Param #   
=================================================================
conv1d_4 (Conv1D)            (None, 31, 26)            99866     
_________________________________________________________________
max_pooling1d_4 (MaxPooling1 (None, 10, 26)            0         
_________________________________________________________________
dropout_4 (Dropout)          (None, 10, 26)            0         
_________________________________________________________________
conv1d_5 (Conv1D)            (None, 10, 24)            3144      
_________________________________________________________________
max_pooling1d_5 (MaxPooling1 (None, 10, 24)            0         
_________________________________________________________________
dropout_5 (Dropout)          (None, 10, 24)            0         
_________________________________________________________________
conv1d_6 (Conv1D)            (None, 10, 6)             294       
_________________________________________________________________
max_pooling1d_6 (MaxPooling1 (None, 5, 6)              0         
_________________________________________________________________
dropout_6 (Dropout)          (None, 5, 6)              0         
_________________________________________________________________
flatten_2 (Flatten)          (None, 30)                0         
_________________________________________________________________
dense_3 (Dense)              (None, 27)                837       
_________________________________________________________________
dense_4 (Dense)              (None, 3)                 84        
=================================================================
Total params: 104,225
Trainable params: 104,225
Non-trainable params: 0
_________________________________________________________________
{'l1_nodes': 26, 'l1_filter': 15, 'l1_dropout': 0.28848363467251475, 'l1_maxpool': 3, 'l2_nodes': 24, 'l2_filter': 5, 'l2_dropout': 0.38278626324138765, 'l2_maxpool': 1, 'l3_nodes': 6, 'l3_filter': 2, 'l3_dropout': 0.12036642874887021, 'l3_maxpool': 2, 'dense_nodes': 27}
…
subject 14, avg accuracy 0.3507422406020274 over 5 splits
subject 15, avg accuracy 0.5364864865670332 over 5 splits
subject 16, avg accuracy 0.51120108193875 over 5 splits
subject 17, avg accuracy 0.6473684219937575 over 5 splits
subject 18, avg accuracy 0.6810810825309238 over 5 splits
subject 19, avg accuracy 0.5695195195195195 over 5 splits
avg accuracy over all subjects 0.5110598799967769
_________________________________________________________________
Layer (type)                 Output Shape              Param #   
=================================================================
conv1d_7 (Conv1D)            (None, 31, 26)            99866     
_________________________________________________________________
max_pooling1d_7 (MaxPooling1 (None, 10, 26)            0         
_________________________________________________________________
dropout_7 (Dropout)          (None, 10, 26)            0         
_________________________________________________________________
conv1d_8 (Conv1D)            (None, 10, 12)            2820      
_________________________________________________________________
max_pooling1d_8 (MaxPooling1 (None, 5, 12)             0         
_________________________________________________________________
dropout_8 (Dropout)          (None, 5, 12)             0         
_________________________________________________________________
conv1d_9 (Conv1D)            (None, 5, 1)              121       
_________________________________________________________________
max_pooling1d_9 (MaxPooling1 (None, 2, 1)              0         
_________________________________________________________________
dropout_9 (Dropout)          (None, 2, 1)              0         
_________________________________________________________________
flatten_3 (Flatten)          (None, 2)                 0         
_________________________________________________________________
dense_5 (Dense)              (None, 27)                81        
_________________________________________________________________
dense_6 (Dense)              (None, 3)                 84        
=================================================================
Total params: 102,972
Trainable params: 102,972
Non-trainable params: 0
_________________________________________________________________
{'l1_nodes': 26, 'l1_filter': 15, 'l1_dropout': 0.3696249170606645, 'l1_maxpool': 3, 'l2_nodes': 12, 'l2_filter': 9, 'l2_dropout': 0.2896014866477678, 'l2_maxpool': 2, 'l3_nodes': 1, 'l3_filter': 10, 'l3_dropout': 0.10099822379705975, 'l3_maxpool': 2, 'dense_nodes': 27}
…
subject 14, avg accuracy 0.4083670730894876 over 5 splits
subject 15, avg accuracy 0.5256756763200502 over 5 splits
subject 16, avg accuracy 0.5736842125292249 over 5 splits
subject 17, avg accuracy 0.5473684213663403 over 5 splits
subject 18, avg accuracy 0.6756756771255185 over 5 splits
subject 19, avg accuracy 0.5361861865083735 over 5 splits
avg accuracy over all subjects 0.533288012532831
_________________________________________________________________
Layer (type)                 Output Shape              Param #   
=================================================================
conv1d_10 (Conv1D)           (None, 31, 22)            90134     
_________________________________________________________________
max_pooling1d_10 (MaxPooling (None, 10, 22)            0         
_________________________________________________________________
dropout_10 (Dropout)         (None, 10, 22)            0         
_________________________________________________________________
conv1d_11 (Conv1D)           (None, 10, 10)            2210      
_________________________________________________________________
max_pooling1d_11 (MaxPooling (None, 10, 10)            0         
_________________________________________________________________
dropout_11 (Dropout)         (None, 10, 10)            0         
_________________________________________________________________
conv1d_12 (Conv1D)           (None, 10, 11)            781       
_________________________________________________________________
max_pooling1d_12 (MaxPooling (None, 5, 11)             0         
_________________________________________________________________
dropout_12 (Dropout)         (None, 5, 11)             0         
_________________________________________________________________
flatten_4 (Flatten)          (None, 55)                0         
_________________________________________________________________
dense_7 (Dense)              (None, 25)                1400      
_________________________________________________________________
dense_8 (Dense)              (None, 3)                 78        
=================================================================
Total params: 94,603
Trainable params: 94,603
Non-trainable params: 0
_________________________________________________________________
{'l1_nodes': 22, 'l1_filter': 16, 'l1_dropout': 0.19725598546595224, 'l1_maxpool': 3, 'l2_nodes': 10, 'l2_filter': 10, 'l2_dropout': 0.46759492507652756, 'l2_maxpool': 1, 'l3_nodes': 11, 'l3_filter': 7, 'l3_dropout': 0.11593533651856264, 'l3_maxpool': 2, 'dense_nodes': 25}
…
subject 14, avg accuracy 0.48218623653918946 over 5 splits
subject 15, avg accuracy 0.5306306312750051 over 5 splits
subject 16, avg accuracy 0.5680161958522643 over 5 splits
subject 17, avg accuracy 0.6210526318926559 over 5 splits
subject 18, avg accuracy 0.6648648667979885 over 5 splits
subject 19, avg accuracy 0.6022522524133459 over 5 splits
avg accuracy over all subjects 0.5505538950323394
_________________________________________________________________
Layer (type)                 Output Shape              Param #   
=================================================================
conv1d_13 (Conv1D)           (None, 31, 26)            93210     
_________________________________________________________________
max_pooling1d_13 (MaxPooling (None, 15, 26)            0         
_________________________________________________________________
dropout_13 (Dropout)         (None, 15, 26)            0         
_________________________________________________________________
conv1d_14 (Conv1D)           (None, 15, 10)            1570      
_________________________________________________________________
max_pooling1d_14 (MaxPooling (None, 15, 10)            0         
_________________________________________________________________
dropout_14 (Dropout)         (None, 15, 10)            0         
_________________________________________________________________
conv1d_15 (Conv1D)           (None, 15, 11)            1331      
_________________________________________________________________
max_pooling1d_15 (MaxPooling (None, 15, 11)            0         
_________________________________________________________________
dropout_15 (Dropout)         (None, 15, 11)            0         
_________________________________________________________________
flatten_5 (Flatten)          (None, 165)               0         
_________________________________________________________________
dense_9 (Dense)              (None, 37)                6142      
_________________________________________________________________
dense_10 (Dense)             (None, 3)                 114       
=================================================================
Total params: 102,367
Trainable params: 102,367
Non-trainable params: 0
_________________________________________________________________
{'l1_nodes': 26, 'l1_filter': 14, 'l1_dropout': 0.45303535774182285, 'l1_maxpool': 2, 'l2_nodes': 10, 'l2_filter': 6, 'l2_dropout': 0.24648671345424472, 'l2_maxpool': 1, 'l3_nodes': 11, 'l3_filter': 12, 'l3_dropout': 0.18501083372483418, 'l3_maxpool': 1, 'dense_nodes': 37}
…
subject 14, avg accuracy 0.4143049952794023 over 5 splits
subject 15, avg accuracy 0.5031531533142468 over 5 splits
subject 16, avg accuracy 0.5775978430683313 over 5 splits
subject 17, avg accuracy 0.6789473677936353 over 5 splits
subject 18, avg accuracy 0.7297297320655873 over 5 splits
subject 19, avg accuracy 0.4863363369807109 over 5 splits
avg accuracy over all subjects 0.5123678008453204
_________________________________________________________________
Layer (type)                 Output Shape              Param #   
=================================================================
conv1d_16 (Conv1D)           (None, 31, 27)            69147     
_________________________________________________________________
max_pooling1d_16 (MaxPooling (None, 15, 27)            0         
_________________________________________________________________
dropout_16 (Dropout)         (None, 15, 27)            0         
_________________________________________________________________
conv1d_17 (Conv1D)           (None, 15, 11)            2981      
_________________________________________________________________
max_pooling1d_17 (MaxPooling (None, 7, 11)             0         
_________________________________________________________________
dropout_17 (Dropout)         (None, 7, 11)             0         
_________________________________________________________________
conv1d_18 (Conv1D)           (None, 7, 12)             1200      
_________________________________________________________________
max_pooling1d_18 (MaxPooling (None, 3, 12)             0         
_________________________________________________________________
dropout_18 (Dropout)         (None, 3, 12)             0         
_________________________________________________________________
flatten_6 (Flatten)          (None, 36)                0         
_________________________________________________________________
dense_11 (Dense)             (None, 29)                1073      
_________________________________________________________________
dense_12 (Dense)             (None, 3)                 90        
=================================================================
Total params: 74,491
Trainable params: 74,491
Non-trainable params: 0
_________________________________________________________________
{'l1_nodes': 27, 'l1_filter': 10, 'l1_dropout': 0.16838842584265779, 'l1_maxpool': 2, 'l2_nodes': 11, 'l2_filter': 10, 'l2_dropout': 0.2580233826777229, 'l2_maxpool': 2, 'l3_nodes': 12, 'l3_filter': 9, 'l3_dropout': 0.49294322673488183, 'l3_maxpool': 2, 'dense_nodes': 29}
…
subject 14, avg accuracy 0.40877193130864464 over 5 splits
subject 15, avg accuracy 0.5310810812421747 over 5 splits
subject 16, avg accuracy 0.5322537131517039 over 5 splits
subject 17, avg accuracy 0.6578947365283966 over 5 splits
subject 18, avg accuracy 0.6648648659925203 over 5 splits
subject 19, avg accuracy 0.4972972979416719 over 5 splits
avg accuracy over all subjects 0.4967412090340775
_________________________________________________________________
Layer (type)                 Output Shape              Param #   
=================================================================
conv1d_19 (Conv1D)           (None, 31, 21)            75285     
_________________________________________________________________
max_pooling1d_19 (MaxPooling (None, 15, 21)            0         
_________________________________________________________________
dropout_19 (Dropout)         (None, 15, 21)            0         
_________________________________________________________________
conv1d_20 (Conv1D)           (None, 15, 18)            1908      
_________________________________________________________________
max_pooling1d_20 (MaxPooling (None, 7, 18)             0         
_________________________________________________________________
dropout_20 (Dropout)         (None, 7, 18)             0         
_________________________________________________________________
conv1d_21 (Conv1D)           (None, 7, 6)              438       
_________________________________________________________________
max_pooling1d_21 (MaxPooling (None, 3, 6)              0         
_________________________________________________________________
dropout_21 (Dropout)         (None, 3, 6)              0         
_________________________________________________________________
flatten_7 (Flatten)          (None, 18)                0         
_________________________________________________________________
dense_13 (Dense)             (None, 25)                475       
_________________________________________________________________
dense_14 (Dense)             (None, 3)                 78        
=================================================================
Total params: 78,184
Trainable params: 78,184
Non-trainable params: 0
_________________________________________________________________
{'l1_nodes': 21, 'l1_filter': 14, 'l1_dropout': 0.4593459789524506, 'l1_maxpool': 2, 'l2_nodes': 18, 'l2_filter': 5, 'l2_dropout': 0.3982107877982937, 'l2_maxpool': 2, 'l3_nodes': 6, 'l3_filter': 4, 'l3_dropout': 0.4599065594090131, 'l3_maxpool': 2, 'dense_nodes': 25}
…
subject 14, avg accuracy 0.24075573634924355 over 5 splits
subject 15, avg accuracy 0.47567567583676934 over 5 splits
subject 16, avg accuracy 0.34372469728131366 over 5 splits
subject 17, avg accuracy 0.5052631586790085 over 5 splits
subject 18, avg accuracy 0.4648648659925203 over 5 splits
subject 19, avg accuracy 0.43123123155341847 over 5 splits
avg accuracy over all subjects 0.39588586653139884
_________________________________________________________________
Layer (type)                 Output Shape              Param #   
=================================================================
conv1d_22 (Conv1D)           (None, 31, 22)            101398    
_________________________________________________________________
max_pooling1d_22 (MaxPooling (None, 10, 22)            0         
_________________________________________________________________
dropout_22 (Dropout)         (None, 10, 22)            0         
_________________________________________________________________
conv1d_23 (Conv1D)           (None, 10, 13)            3159      
_________________________________________________________________
max_pooling1d_23 (MaxPooling (None, 10, 13)            0         
_________________________________________________________________
dropout_23 (Dropout)         (None, 10, 13)            0         
_________________________________________________________________
conv1d_24 (Conv1D)           (None, 10, 13)            689       
_________________________________________________________________
max_pooling1d_24 (MaxPooling (None, 10, 13)            0         
_________________________________________________________________
dropout_24 (Dropout)         (None, 10, 13)            0         
_________________________________________________________________
flatten_8 (Flatten)          (None, 130)               0         
_________________________________________________________________
dense_15 (Dense)             (None, 37)                4847      
_________________________________________________________________
dense_16 (Dense)             (None, 3)                 114       
=================================================================
Total params: 110,207
Trainable params: 110,207
Non-trainable params: 0
_________________________________________________________________
{'l1_nodes': 22, 'l1_filter': 18, 'l1_dropout': 0.14089246816966228, 'l1_maxpool': 3, 'l2_nodes': 13, 'l2_filter': 11, 'l2_dropout': 0.09849034009876861, 'l2_maxpool': 1, 'l3_nodes': 13, 'l3_filter': 4, 'l3_dropout': 0.35907907020131574, 'l3_maxpool': 1, 'dense_nodes': 37}
…
subject 14, avg accuracy 0.4666666686937072 over 5 splits
subject 15, avg accuracy 0.5406906913350652 over 5 splits
subject 16, avg accuracy 0.6151147129403757 over 5 splits
subject 17, avg accuracy 0.6894736851516522 over 5 splits
subject 18, avg accuracy 0.675675677286612 over 5 splits
subject 19, avg accuracy 0.546696697018884 over 5 splits
avg accuracy over all subjects 0.5629987964359812
_________________________________________________________________
Layer (type)                 Output Shape              Param #   
=================================================================
conv1d_25 (Conv1D)           (None, 31, 22)            107030    
_________________________________________________________________
max_pooling1d_25 (MaxPooling (None, 15, 22)            0         
_________________________________________________________________
dropout_25 (Dropout)         (None, 15, 22)            0         
_________________________________________________________________
conv1d_26 (Conv1D)           (None, 15, 17)            1887      
_________________________________________________________________
max_pooling1d_26 (MaxPooling (None, 15, 17)            0         
_________________________________________________________________
dropout_26 (Dropout)         (None, 15, 17)            0         
_________________________________________________________________
conv1d_27 (Conv1D)           (None, 15, 14)            1680      
_________________________________________________________________
max_pooling1d_27 (MaxPooling (None, 15, 14)            0         
_________________________________________________________________
dropout_27 (Dropout)         (None, 15, 14)            0         
_________________________________________________________________
flatten_9 (Flatten)          (None, 210)               0         
_________________________________________________________________
dense_17 (Dense)             (None, 27)                5697      
_________________________________________________________________
dense_18 (Dense)             (None, 3)                 84        
=================================================================
Total params: 116,378
Trainable params: 116,378
Non-trainable params: 0
_________________________________________________________________
{'l1_nodes': 22, 'l1_filter': 19, 'l1_dropout': 0.07827676045500748, 'l1_maxpool': 2, 'l2_nodes': 17, 'l2_filter': 5, 'l2_dropout': 0.02522070822378364, 'l2_maxpool': 1, 'l3_nodes': 14, 'l3_filter': 7, 'l3_dropout': 0.156091305311385, 'l3_maxpool': 1, 'dense_nodes': 27}
…
subject 14, avg accuracy 0.4605937927156969 over 5 splits
subject 15, avg accuracy 0.6294294300738039 over 5 splits
subject 16, avg accuracy 0.5423751697768727 over 5 splits
subject 17, avg accuracy 0.6947368424189719 over 5 splits
subject 18, avg accuracy 0.6756756771255183 over 5 splits
subject 19, avg accuracy 0.613513513674607 over 5 splits
avg accuracy over all subjects 0.581928285655543
_________________________________________________________________
Layer (type)                 Output Shape              Param #   
=================================================================
conv1d_28 (Conv1D)           (None, 31, 26)            66586     
_________________________________________________________________
max_pooling1d_28 (MaxPooling (None, 15, 26)            0         
_________________________________________________________________
dropout_28 (Dropout)         (None, 15, 26)            0         
_________________________________________________________________
conv1d_29 (Conv1D)           (None, 15, 23)            3611      
_________________________________________________________________
max_pooling1d_29 (MaxPooling (None, 15, 23)            0         
_________________________________________________________________
dropout_29 (Dropout)         (None, 15, 23)            0         
_________________________________________________________________
conv1d_30 (Conv1D)           (None, 15, 2)             416       
_________________________________________________________________
max_pooling1d_30 (MaxPooling (None, 7, 2)              0         
_________________________________________________________________
dropout_30 (Dropout)         (None, 7, 2)              0         
_________________________________________________________________
flatten_10 (Flatten)         (None, 14)                0         
_________________________________________________________________
dense_19 (Dense)             (None, 42)                630       
_________________________________________________________________
dense_20 (Dense)             (None, 3)                 129       
=================================================================
Total params: 71,372
Trainable params: 71,372
Non-trainable params: 0
_________________________________________________________________
{'l1_nodes': 26, 'l1_filter': 10, 'l1_dropout': 0.30686892348132727, 'l1_maxpool': 2, 'l2_nodes': 23, 'l2_filter': 6, 'l2_dropout': 0.23742602668133145, 'l2_maxpool': 1, 'l3_nodes': 2, 'l3_filter': 9, 'l3_dropout': 0.1677780386449998, 'l3_maxpool': 2, 'dense_nodes': 42}
…
subject 14, avg accuracy 0.5290148462039417 over 5 splits
subject 15, avg accuracy 0.5638138141360012 over 5 splits
subject 16, avg accuracy 0.57867746379694 over 5 splits
subject 17, avg accuracy 0.6000000000000001 over 5 splits
subject 18, avg accuracy 0.6432432441292582 over 5 splits
subject 19, avg accuracy 0.6081081087524827 over 5 splits
avg accuracy over all subjects 0.5439783586298623
_________________________________________________________________
Layer (type)                 Output Shape              Param #   
=================================================================
conv1d_31 (Conv1D)           (None, 31, 22)            107030    
_________________________________________________________________
max_pooling1d_31 (MaxPooling (None, 15, 22)            0         
_________________________________________________________________
dropout_31 (Dropout)         (None, 15, 22)            0         
_________________________________________________________________
conv1d_32 (Conv1D)           (None, 15, 10)            1770      
_________________________________________________________________
max_pooling1d_32 (MaxPooling (None, 15, 10)            0         
_________________________________________________________________
dropout_32 (Dropout)         (None, 15, 10)            0         
_________________________________________________________________
conv1d_33 (Conv1D)           (None, 15, 2)             42        
_________________________________________________________________
max_pooling1d_33 (MaxPooling (None, 15, 2)             0         
_________________________________________________________________
dropout_33 (Dropout)         (None, 15, 2)             0         
_________________________________________________________________
flatten_11 (Flatten)         (None, 30)                0         
_________________________________________________________________
dense_21 (Dense)             (None, 43)                1333      
_________________________________________________________________
dense_22 (Dense)             (None, 3)                 132       
=================================================================
Total params: 110,307
Trainable params: 110,307
Non-trainable params: 0
_________________________________________________________________
{'l1_nodes': 22, 'l1_filter': 19, 'l1_dropout': 0.2970094276945846, 'l1_maxpool': 2, 'l2_nodes': 10, 'l2_filter': 8, 'l2_dropout': 0.357775037514667, 'l2_maxpool': 1, 'l3_nodes': 2, 'l3_filter': 2, 'l3_dropout': 0.21294255230014575, 'l3_maxpool': 1, 'dense_nodes': 43}
…
subject 14, avg accuracy 0.5091767905493658 over 5 splits
subject 15, avg accuracy 0.5136636643080383 over 5 splits
subject 16, avg accuracy 0.573684212995766 over 5 splits
subject 17, avg accuracy 0.5368421058905752 over 5 splits
subject 18, avg accuracy 0.6486486505817722 over 5 splits
subject 19, avg accuracy 0.6297297303741043 over 5 splits
avg accuracy over all subjects 0.5043913360006111
_________________________________________________________________
Layer (type)                 Output Shape              Param #   
=================================================================
conv1d_34 (Conv1D)           (None, 31, 26)            99866     
_________________________________________________________________
max_pooling1d_34 (MaxPooling (None, 10, 26)            0         
_________________________________________________________________
dropout_34 (Dropout)         (None, 10, 26)            0         
_________________________________________________________________
conv1d_35 (Conv1D)           (None, 10, 12)            1572      
_________________________________________________________________
max_pooling1d_35 (MaxPooling (None, 10, 12)            0         
_________________________________________________________________
dropout_35 (Dropout)         (None, 10, 12)            0         
_________________________________________________________________
conv1d_36 (Conv1D)           (None, 10, 13)            1417      
_________________________________________________________________
max_pooling1d_36 (MaxPooling (None, 5, 13)             0         
_________________________________________________________________
dropout_36 (Dropout)         (None, 5, 13)             0         
_________________________________________________________________
flatten_12 (Flatten)         (None, 65)                0         
_________________________________________________________________
dense_23 (Dense)             (None, 39)                2574      
_________________________________________________________________
dense_24 (Dense)             (None, 3)                 120       
=================================================================
Total params: 105,549
Trainable params: 105,549
Non-trainable params: 0
_________________________________________________________________
{'l1_nodes': 26, 'l1_filter': 15, 'l1_dropout': 0.49189026677903847, 'l1_maxpool': 3, 'l2_nodes': 12, 'l2_filter': 5, 'l2_dropout': 0.14488759850135208, 'l2_maxpool': 1, 'l3_nodes': 13, 'l3_filter': 9, 'l3_dropout': 0.16233373723705635, 'l3_maxpool': 2, 'dense_nodes': 39}
…
subject 14, avg accuracy 0.43954116183656106 over 5 splits
subject 15, avg accuracy 0.5309309310920246 over 5 splits
subject 16, avg accuracy 0.6353576268382402 over 5 splits
subject 17, avg accuracy 0.6736842108400245 over 5 splits
subject 18, avg accuracy 0.6972972989082337 over 5 splits
subject 19, avg accuracy 0.546546547190921 over 5 splits
avg accuracy over all subjects 0.5412384729248203
_________________________________________________________________
Layer (type)                 Output Shape              Param #   
=================================================================
conv1d_37 (Conv1D)           (None, 31, 28)            121884    
_________________________________________________________________
max_pooling1d_37 (MaxPooling (None, 15, 28)            0         
_________________________________________________________________
dropout_37 (Dropout)         (None, 15, 28)            0         
_________________________________________________________________
conv1d_38 (Conv1D)           (None, 15, 14)            1974      
_________________________________________________________________
max_pooling1d_38 (MaxPooling (None, 7, 14)             0         
_________________________________________________________________
dropout_38 (Dropout)         (None, 7, 14)             0         
_________________________________________________________________
conv1d_39 (Conv1D)           (None, 7, 1)              57        
_________________________________________________________________
max_pooling1d_39 (MaxPooling (None, 3, 1)              0         
_________________________________________________________________
dropout_39 (Dropout)         (None, 3, 1)              0         
_________________________________________________________________
flatten_13 (Flatten)         (None, 3)                 0         
_________________________________________________________________
dense_25 (Dense)             (None, 29)                116       
_________________________________________________________________
dense_26 (Dense)             (None, 3)                 90        
=================================================================
Total params: 124,121
Trainable params: 124,121
Non-trainable params: 0
_________________________________________________________________
{'l1_nodes': 28, 'l1_filter': 17, 'l1_dropout': 0.10682528794866225, 'l1_maxpool': 2, 'l2_nodes': 14, 'l2_filter': 5, 'l2_dropout': 0.24188064504331447, 'l2_maxpool': 2, 'l3_nodes': 1, 'l3_filter': 4, 'l3_dropout': 0.13208050332993743, 'l3_maxpool': 2, 'dense_nodes': 29}
…
subject 14, avg accuracy 0.4819163306843735 over 5 splits
subject 15, avg accuracy 0.5971471477915217 over 5 splits
subject 16, avg accuracy 0.5422402166885886 over 5 splits
subject 17, avg accuracy 0.6421052631578947 over 5 splits
subject 18, avg accuracy 0.64324324509582 over 5 splits
subject 19, avg accuracy 0.6240240243462114 over 5 splits
avg accuracy over all subjects 0.5591862791689688
_________________________________________________________________
Layer (type)                 Output Shape              Param #   
=================================================================
conv1d_40 (Conv1D)           (None, 31, 23)            94231     
_________________________________________________________________
max_pooling1d_40 (MaxPooling (None, 15, 23)            0         
_________________________________________________________________
dropout_40 (Dropout)         (None, 15, 23)            0         
_________________________________________________________________
conv1d_41 (Conv1D)           (None, 15, 13)            2704      
_________________________________________________________________
max_pooling1d_41 (MaxPooling (None, 7, 13)             0         
_________________________________________________________________
dropout_41 (Dropout)         (None, 7, 13)             0         
_________________________________________________________________
conv1d_42 (Conv1D)           (None, 7, 8)              1256      
_________________________________________________________________
max_pooling1d_42 (MaxPooling (None, 7, 8)              0         
_________________________________________________________________
dropout_42 (Dropout)         (None, 7, 8)              0         
_________________________________________________________________
flatten_14 (Flatten)         (None, 56)                0         
_________________________________________________________________
dense_27 (Dense)             (None, 36)                2052      
_________________________________________________________________
dense_28 (Dense)             (None, 3)                 111       
=================================================================
Total params: 100,354
Trainable params: 100,354
Non-trainable params: 0
_________________________________________________________________
{'l1_nodes': 23, 'l1_filter': 16, 'l1_dropout': 0.21454821489523607, 'l1_maxpool': 2, 'l2_nodes': 13, 'l2_filter': 9, 'l2_dropout': 0.21576203647298625, 'l2_maxpool': 2, 'l3_nodes': 8, 'l3_filter': 12, 'l3_dropout': 0.47410025250964366, 'l3_maxpool': 1, 'dense_nodes': 36}
…
subject 14, avg accuracy 0.43454790869061605 over 5 splits
subject 15, avg accuracy 0.5307807809418744 over 5 splits
subject 16, avg accuracy 0.5112010806195649 over 5 splits
subject 17, avg accuracy 0.6578947377832313 over 5 splits
subject 18, avg accuracy 0.6486486495346636 over 5 splits
subject 19, avg accuracy 0.5139639646083385 over 5 splits
avg accuracy over all subjects 0.5112358318156912
_________________________________________________________________
Layer (type)                 Output Shape              Param #   
=================================================================
conv1d_43 (Conv1D)           (None, 31, 23)            76567     
_________________________________________________________________
max_pooling1d_43 (MaxPooling (None, 15, 23)            0         
_________________________________________________________________
dropout_43 (Dropout)         (None, 15, 23)            0         
_________________________________________________________________
conv1d_44 (Conv1D)           (None, 15, 23)            3726      
_________________________________________________________________
max_pooling1d_44 (MaxPooling (None, 15, 23)            0         
_________________________________________________________________
dropout_44 (Dropout)         (None, 15, 23)            0         
_________________________________________________________________
conv1d_45 (Conv1D)           (None, 15, 14)            2912      
_________________________________________________________________
max_pooling1d_45 (MaxPooling (None, 15, 14)            0         
_________________________________________________________________
dropout_45 (Dropout)         (None, 15, 14)            0         
_________________________________________________________________
flatten_15 (Flatten)         (None, 210)               0         
_________________________________________________________________
dense_29 (Dense)             (None, 36)                7596      
_________________________________________________________________
dense_30 (Dense)             (None, 3)                 111       
=================================================================
Total params: 90,912
Trainable params: 90,912
Non-trainable params: 0
_________________________________________________________________
{'l1_nodes': 23, 'l1_filter': 13, 'l1_dropout': 0.22697291564716715, 'l1_maxpool': 2, 'l2_nodes': 23, 'l2_filter': 7, 'l2_dropout': 0.149068590272872, 'l2_maxpool': 1, 'l3_nodes': 14, 'l3_filter': 9, 'l3_dropout': 0.3885165115895076, 'l3_maxpool': 1, 'dense_nodes': 36}
…
subject 14, avg accuracy 0.4815114705869865 over 5 splits
subject 15, avg accuracy 0.5578078078883546 over 5 splits
subject 16, avg accuracy 0.5785425118267457 over 5 splits
subject 17, avg accuracy 0.6842105269432068 over 5 splits
subject 18, avg accuracy 0.6648648663952544 over 5 splits
subject 19, avg accuracy 0.5579579582801453 over 5 splits
avg accuracy over all subjects 0.5316137334059875
_________________________________________________________________
Layer (type)                 Output Shape              Param #   
=================================================================
conv1d_46 (Conv1D)           (None, 31, 20)            76820     
_________________________________________________________________
max_pooling1d_46 (MaxPooling (None, 15, 20)            0         
_________________________________________________________________
dropout_46 (Dropout)         (None, 15, 20)            0         
_________________________________________________________________
conv1d_47 (Conv1D)           (None, 15, 19)            3059      
_________________________________________________________________
max_pooling1d_47 (MaxPooling (None, 7, 19)             0         
_________________________________________________________________
dropout_47 (Dropout)         (None, 7, 19)             0         
_________________________________________________________________
conv1d_48 (Conv1D)           (None, 7, 3)              174       
_________________________________________________________________
max_pooling1d_48 (MaxPooling (None, 3, 3)              0         
_________________________________________________________________
dropout_48 (Dropout)         (None, 3, 3)              0         
_________________________________________________________________
flatten_16 (Flatten)         (None, 9)                 0         
_________________________________________________________________
dense_31 (Dense)             (None, 28)                280       
_________________________________________________________________
dense_32 (Dense)             (None, 3)                 87        
=================================================================
Total params: 80,420
Trainable params: 80,420
Non-trainable params: 0
_________________________________________________________________
{'l1_nodes': 20, 'l1_filter': 15, 'l1_dropout': 0.1102771740405899, 'l1_maxpool': 2, 'l2_nodes': 19, 'l2_filter': 8, 'l2_dropout': 0.09397251171774934, 'l2_maxpool': 2, 'l3_nodes': 3, 'l3_filter': 3, 'l3_dropout': 0.4749394580568567, 'l3_maxpool': 2, 'dense_nodes': 28}
…
subject 14, avg accuracy 0.47678812462308623 over 5 splits
subject 15, avg accuracy 0.5803303306525175 over 5 splits
subject 16, avg accuracy 0.45384615585710675 over 5 splits
subject 17, avg accuracy 0.5157894739979192 over 5 splits
subject 18, avg accuracy 0.6702702719617534 over 5 splits
subject 19, avg accuracy 0.5022522525744395 over 5 splits
avg accuracy over all subjects 0.505123309228913
_________________________________________________________________
Layer (type)                 Output Shape              Param #   
=================================================================
conv1d_49 (Conv1D)           (None, 31, 28)            107548    
_________________________________________________________________
max_pooling1d_49 (MaxPooling (None, 15, 28)            0         
_________________________________________________________________
dropout_49 (Dropout)         (None, 15, 28)            0         
_________________________________________________________________
conv1d_50 (Conv1D)           (None, 15, 17)            6205      
_________________________________________________________________
max_pooling1d_50 (MaxPooling (None, 15, 17)            0         
_________________________________________________________________
dropout_50 (Dropout)         (None, 15, 17)            0         
_________________________________________________________________
conv1d_51 (Conv1D)           (None, 15, 14)            2632      
_________________________________________________________________
max_pooling1d_51 (MaxPooling (None, 15, 14)            0         
_________________________________________________________________
dropout_51 (Dropout)         (None, 15, 14)            0         
_________________________________________________________________
flatten_17 (Flatten)         (None, 210)               0         
_________________________________________________________________
dense_33 (Dense)             (None, 36)                7596      
_________________________________________________________________
dense_34 (Dense)             (None, 3)                 111       
=================================================================
Total params: 124,092
Trainable params: 124,092
Non-trainable params: 0
_________________________________________________________________
{'l1_nodes': 28, 'l1_filter': 15, 'l1_dropout': 0.08658398974839848, 'l1_maxpool': 2, 'l2_nodes': 17, 'l2_filter': 13, 'l2_dropout': 0.3802474357857451, 'l2_maxpool': 1, 'l3_nodes': 14, 'l3_filter': 11, 'l3_dropout': 0.27161326152039905, 'l3_maxpool': 1, 'dense_nodes': 36}
…
subject 14, avg accuracy 0.497705802494376 over 5 splits
subject 15, avg accuracy 0.542192192272739 over 5 splits
subject 16, avg accuracy 0.5892037799001223 over 5 splits
subject 17, avg accuracy 0.631578948309547 over 5 splits
subject 18, avg accuracy 0.6756756767227843 over 5 splits
subject 19, avg accuracy 0.6018018024461764 over 5 splits
avg accuracy over all subjects 0.539274160294742
_________________________________________________________________
Layer (type)                 Output Shape              Param #   
=================================================================
conv1d_52 (Conv1D)           (None, 31, 28)            100380    
_________________________________________________________________
max_pooling1d_52 (MaxPooling (None, 10, 28)            0         
_________________________________________________________________
dropout_52 (Dropout)         (None, 10, 28)            0         
_________________________________________________________________
conv1d_53 (Conv1D)           (None, 10, 15)            5055      
_________________________________________________________________
max_pooling1d_53 (MaxPooling (None, 5, 15)             0         
_________________________________________________________________
dropout_53 (Dropout)         (None, 5, 15)             0         
_________________________________________________________________
conv1d_54 (Conv1D)           (None, 5, 7)              322       
_________________________________________________________________
max_pooling1d_54 (MaxPooling (None, 2, 7)              0         
_________________________________________________________________
dropout_54 (Dropout)         (None, 2, 7)              0         
_________________________________________________________________
flatten_18 (Flatten)         (None, 14)                0         
_________________________________________________________________
dense_35 (Dense)             (None, 30)                450       
_________________________________________________________________
dense_36 (Dense)             (None, 3)                 93        
=================================================================
Total params: 106,300
Trainable params: 106,300
Non-trainable params: 0
_________________________________________________________________
{'l1_nodes': 28, 'l1_filter': 14, 'l1_dropout': 0.0014106398616307025, 'l1_maxpool': 3, 'l2_nodes': 15, 'l2_filter': 12, 'l2_dropout': 0.022991628151708077, 'l2_maxpool': 2, 'l3_nodes': 7, 'l3_filter': 3, 'l3_dropout': 0.31483849486040566, 'l3_maxpool': 2, 'dense_nodes': 30}
…
subject 14, avg accuracy 0.5020242914859099 over 5 splits
subject 15, avg accuracy 0.5908408414852154 over 5 splits
subject 16, avg accuracy 0.552496627878081 over 5 splits
subject 17, avg accuracy 0.6736842120948591 over 5 splits
subject 18, avg accuracy 0.6378378392071337 over 5 splits
subject 19, avg accuracy 0.596696697018884 over 5 splits
avg accuracy over all subjects 0.5701298137486926
_________________________________________________________________
Layer (type)                 Output Shape              Param #   
=================================================================
conv1d_55 (Conv1D)           (None, 31, 29)            81693     
_________________________________________________________________
max_pooling1d_55 (MaxPooling (None, 10, 29)            0         
_________________________________________________________________
dropout_55 (Dropout)         (None, 10, 29)            0         
_________________________________________________________________
conv1d_56 (Conv1D)           (None, 10, 11)            2244      
_________________________________________________________________
max_pooling1d_56 (MaxPooling (None, 5, 11)             0         
_________________________________________________________________
dropout_56 (Dropout)         (None, 5, 11)             0         
_________________________________________________________________
conv1d_57 (Conv1D)           (None, 5, 8)              800       
_________________________________________________________________
max_pooling1d_57 (MaxPooling (None, 5, 8)              0         
_________________________________________________________________
dropout_57 (Dropout)         (None, 5, 8)              0         
_________________________________________________________________
flatten_19 (Flatten)         (None, 40)                0         
_________________________________________________________________
dense_37 (Dense)             (None, 42)                1722      
_________________________________________________________________
dense_38 (Dense)             (None, 3)                 129       
=================================================================
Total params: 86,588
Trainable params: 86,588
Non-trainable params: 0
_________________________________________________________________
{'l1_nodes': 29, 'l1_filter': 11, 'l1_dropout': 0.42676911209172846, 'l1_maxpool': 3, 'l2_nodes': 11, 'l2_filter': 7, 'l2_dropout': 0.02505706432391641, 'l2_maxpool': 2, 'l3_nodes': 8, 'l3_filter': 9, 'l3_dropout': 0.06454106287541805, 'l3_maxpool': 1, 'dense_nodes': 42}
…
subject 14, avg accuracy 0.5287449405984839 over 5 splits
subject 15, avg accuracy 0.5852852856074725 over 5 splits
subject 16, avg accuracy 0.589068827624263 over 5 splits
subject 17, avg accuracy 0.6789473690484699 over 5 splits
subject 18, avg accuracy 0.659459460103834 over 5 splits
subject 19, avg accuracy 0.6078078081299951 over 5 splits
avg accuracy over all subjects 0.5969276982774994
_________________________________________________________________
Layer (type)                 Output Shape              Param #   
=================================================================
conv1d_58 (Conv1D)           (None, 31, 20)            92180     
_________________________________________________________________
max_pooling1d_58 (MaxPooling (None, 10, 20)            0         
_________________________________________________________________
dropout_58 (Dropout)         (None, 10, 20)            0         
_________________________________________________________________
conv1d_59 (Conv1D)           (None, 10, 10)            2810      
_________________________________________________________________
max_pooling1d_59 (MaxPooling (None, 10, 10)            0         
_________________________________________________________________
dropout_59 (Dropout)         (None, 10, 10)            0         
_________________________________________________________________
conv1d_60 (Conv1D)           (None, 10, 8)             248       
_________________________________________________________________
max_pooling1d_60 (MaxPooling (None, 5, 8)              0         
_________________________________________________________________
dropout_60 (Dropout)         (None, 5, 8)              0         
_________________________________________________________________
flatten_20 (Flatten)         (None, 40)                0         
_________________________________________________________________
dense_39 (Dense)             (None, 31)                1271      
_________________________________________________________________
dense_40 (Dense)             (None, 3)                 96        
=================================================================
Total params: 96,605
Trainable params: 96,605
Non-trainable params: 0
_________________________________________________________________
{'l1_nodes': 20, 'l1_filter': 18, 'l1_dropout': 0.1503316371862995, 'l1_maxpool': 3, 'l2_nodes': 10, 'l2_filter': 14, 'l2_dropout': 0.25710808700110965, 'l2_maxpool': 1, 'l3_nodes': 8, 'l3_filter': 3, 'l3_dropout': 0.1776394960230721, 'l3_maxpool': 2, 'dense_nodes': 31}
…
subject 14, avg accuracy 0.4862348198408057 over 5 splits
subject 15, avg accuracy 0.5750750752361686 over 5 splits
subject 16, avg accuracy 0.5582995974060333 over 5 splits
subject 17, avg accuracy 0.7 over 5 splits
subject 18, avg accuracy 0.6702702713173789 over 5 splits
subject 19, avg accuracy 0.6190690693912563 over 5 splits
avg accuracy over all subjects 0.5565694585658938
_________________________________________________________________
Layer (type)                 Output Shape              Param #   
=================================================================
conv1d_61 (Conv1D)           (None, 31, 21)            53781     
_________________________________________________________________
max_pooling1d_61 (MaxPooling (None, 15, 21)            0         
_________________________________________________________________
dropout_61 (Dropout)         (None, 15, 21)            0         
_________________________________________________________________
conv1d_62 (Conv1D)           (None, 15, 24)            6576      
_________________________________________________________________
max_pooling1d_62 (MaxPooling (None, 15, 24)            0         
_________________________________________________________________
dropout_62 (Dropout)         (None, 15, 24)            0         
_________________________________________________________________
conv1d_63 (Conv1D)           (None, 15, 11)            3443      
_________________________________________________________________
max_pooling1d_63 (MaxPooling (None, 7, 11)             0         
_________________________________________________________________
dropout_63 (Dropout)         (None, 7, 11)             0         
_________________________________________________________________
flatten_21 (Flatten)         (None, 77)                0         
_________________________________________________________________
dense_41 (Dense)             (None, 25)                1950      
_________________________________________________________________
dense_42 (Dense)             (None, 3)                 78        
=================================================================
Total params: 65,828
Trainable params: 65,828
Non-trainable params: 0
_________________________________________________________________
{'l1_nodes': 21, 'l1_filter': 10, 'l1_dropout': 0.34631812045657373, 'l1_maxpool': 2, 'l2_nodes': 24, 'l2_filter': 13, 'l2_dropout': 0.23841451362827637, 'l2_maxpool': 1, 'l3_nodes': 11, 'l3_filter': 13, 'l3_dropout': 0.20690413638007682, 'l3_maxpool': 2, 'dense_nodes': 25}
…
subject 14, avg accuracy 0.4504723363237986 over 5 splits
subject 15, avg accuracy 0.5849849853071722 over 5 splits
subject 16, avg accuracy 0.5838056707913093 over 5 splits
subject 17, avg accuracy 0.6421052634716035 over 5 splits
subject 18, avg accuracy 0.6702702718812066 over 5 splits
subject 19, avg accuracy 0.596546547190921 over 5 splits
avg accuracy over all subjects 0.5513678333544948
_________________________________________________________________
Layer (type)                 Output Shape              Param #   
=================================================================
conv1d_64 (Conv1D)           (None, 31, 28)            93212     
_________________________________________________________________
max_pooling1d_64 (MaxPooling (None, 15, 28)            0         
_________________________________________________________________
dropout_64 (Dropout)         (None, 15, 28)            0         
_________________________________________________________________
conv1d_65 (Conv1D)           (None, 15, 20)            7300      
_________________________________________________________________
max_pooling1d_65 (MaxPooling (None, 7, 20)             0         
_________________________________________________________________
dropout_65 (Dropout)         (None, 7, 20)             0         
_________________________________________________________________
conv1d_66 (Conv1D)           (None, 7, 10)             1610      
_________________________________________________________________
max_pooling1d_66 (MaxPooling (None, 7, 10)             0         
_________________________________________________________________
dropout_66 (Dropout)         (None, 7, 10)             0         
_________________________________________________________________
flatten_22 (Flatten)         (None, 70)                0         
_________________________________________________________________
dense_43 (Dense)             (None, 44)                3124      
_________________________________________________________________
dense_44 (Dense)             (None, 3)                 135       
=================================================================
Total params: 105,381
Trainable params: 105,381
Non-trainable params: 0
_________________________________________________________________
{'l1_nodes': 28, 'l1_filter': 13, 'l1_dropout': 0.4952222125931643, 'l1_maxpool': 2, 'l2_nodes': 20, 'l2_filter': 13, 'l2_dropout': 0.045901952666134394, 'l2_maxpool': 2, 'l3_nodes': 10, 'l3_filter': 8, 'l3_dropout': 0.3079014649248189, 'l3_maxpool': 1, 'dense_nodes': 44}
…
subject 14, avg accuracy 0.4352226724508803 over 5 splits
subject 15, avg accuracy 0.5696696698307634 over 5 splits
subject 16, avg accuracy 0.589203780205787 over 5 splits
subject 17, avg accuracy 0.6526315789473685 over 5 splits
subject 18, avg accuracy 0.6864864879363292 over 5 splits
subject 19, avg accuracy 0.6135135141578882 over 5 splits
avg accuracy over all subjects 0.5509676017361678
_________________________________________________________________
Layer (type)                 Output Shape              Param #   
=================================================================
conv1d_67 (Conv1D)           (None, 31, 27)            103707    
_________________________________________________________________
max_pooling1d_67 (MaxPooling (None, 15, 27)            0         
_________________________________________________________________
dropout_67 (Dropout)         (None, 15, 27)            0         
_________________________________________________________________
conv1d_68 (Conv1D)           (None, 15, 13)            4225      
_________________________________________________________________
max_pooling1d_68 (MaxPooling (None, 15, 13)            0         
_________________________________________________________________
dropout_68 (Dropout)         (None, 15, 13)            0         
_________________________________________________________________
conv1d_69 (Conv1D)           (None, 15, 7)             1099      
_________________________________________________________________
max_pooling1d_69 (MaxPooling (None, 7, 7)              0         
_________________________________________________________________
dropout_69 (Dropout)         (None, 7, 7)              0         
_________________________________________________________________
flatten_23 (Flatten)         (None, 49)                0         
_________________________________________________________________
dense_45 (Dense)             (None, 28)                1400      
_________________________________________________________________
dense_46 (Dense)             (None, 3)                 87        
=================================================================
Total params: 110,518
Trainable params: 110,518
Non-trainable params: 0
_________________________________________________________________
{'l1_nodes': 27, 'l1_filter': 15, 'l1_dropout': 0.2057833431363797, 'l1_maxpool': 2, 'l2_nodes': 13, 'l2_filter': 12, 'l2_dropout': 0.31607919212789026, 'l2_maxpool': 1, 'l3_nodes': 7, 'l3_filter': 12, 'l3_dropout': 0.40220822303182835, 'l3_maxpool': 2, 'dense_nodes': 28}
…
subject 14, avg accuracy 0.35614035087317103 over 5 splits
subject 15, avg accuracy 0.4926426428037363 over 5 splits
subject 16, avg accuracy 0.5944669371674418 over 5 splits
subject 17, avg accuracy 0.6105263167305996 over 5 splits
subject 18, avg accuracy 0.6810810834974855 over 5 splits
subject 19, avg accuracy 0.5409909913131783 over 5 splits
avg accuracy over all subjects 0.4992118647202828
_________________________________________________________________
Layer (type)                 Output Shape              Param #   
=================================================================
conv1d_70 (Conv1D)           (None, 31, 25)            89625     
_________________________________________________________________
max_pooling1d_70 (MaxPooling (None, 15, 25)            0         
_________________________________________________________________
dropout_70 (Dropout)         (None, 15, 25)            0         
_________________________________________________________________
conv1d_71 (Conv1D)           (None, 15, 15)            4890      
_________________________________________________________________
max_pooling1d_71 (MaxPooling (None, 15, 15)            0         
_________________________________________________________________
dropout_71 (Dropout)         (None, 15, 15)            0         
_________________________________________________________________
conv1d_72 (Conv1D)           (None, 15, 1)             136       
_________________________________________________________________
max_pooling1d_72 (MaxPooling (None, 7, 1)              0         
_________________________________________________________________
dropout_72 (Dropout)         (None, 7, 1)              0         
_________________________________________________________________
flatten_24 (Flatten)         (None, 7)                 0         
_________________________________________________________________
dense_47 (Dense)             (None, 43)                344       
_________________________________________________________________
dense_48 (Dense)             (None, 3)                 132       
=================================================================
Total params: 95,127
Trainable params: 95,127
Non-trainable params: 0
_________________________________________________________________
{'l1_nodes': 25, 'l1_filter': 14, 'l1_dropout': 0.48571260727225496, 'l1_maxpool': 2, 'l2_nodes': 15, 'l2_filter': 13, 'l2_dropout': 0.3640714956297255, 'l2_maxpool': 1, 'l3_nodes': 1, 'l3_filter': 9, 'l3_dropout': 0.040876754940996296, 'l3_maxpool': 2, 'dense_nodes': 43}
…
subject 14, avg accuracy 0.465317138683619 over 5 splits
subject 15, avg accuracy 0.5798798805242544 over 5 splits
subject 16, avg accuracy 0.5578947379199761 over 5 splits
subject 17, avg accuracy 0.5947368421052632 over 5 splits
subject 18, avg accuracy 0.670270271236832 over 5 splits
subject 19, avg accuracy 0.5689189192411062 over 5 splits
avg accuracy over all subjects 0.5235912372686902
_________________________________________________________________
Layer (type)                 Output Shape              Param #   
=================================================================
conv1d_73 (Conv1D)           (None, 31, 27)            117531    
_________________________________________________________________
max_pooling1d_73 (MaxPooling (None, 10, 27)            0         
_________________________________________________________________
dropout_73 (Dropout)         (None, 10, 27)            0         
_________________________________________________________________
conv1d_74 (Conv1D)           (None, 10, 12)            2280      
_________________________________________________________________
max_pooling1d_74 (MaxPooling (None, 5, 12)             0         
_________________________________________________________________
dropout_74 (Dropout)         (None, 5, 12)             0         
_________________________________________________________________
conv1d_75 (Conv1D)           (None, 5, 13)             481       
_________________________________________________________________
max_pooling1d_75 (MaxPooling (None, 2, 13)             0         
_________________________________________________________________
dropout_75 (Dropout)         (None, 2, 13)             0         
_________________________________________________________________
flatten_25 (Flatten)         (None, 26)                0         
_________________________________________________________________
dense_49 (Dense)             (None, 45)                1215      
_________________________________________________________________
dense_50 (Dense)             (None, 3)                 138       
=================================================================
Total params: 121,645
Trainable params: 121,645
Non-trainable params: 0
_________________________________________________________________
{'l1_nodes': 27, 'l1_filter': 17, 'l1_dropout': 0.13336547018431893, 'l1_maxpool': 3, 'l2_nodes': 12, 'l2_filter': 7, 'l2_dropout': 0.20131647496684557, 'l2_maxpool': 2, 'l3_nodes': 13, 'l3_filter': 3, 'l3_dropout': 0.19643059810331998, 'l3_maxpool': 2, 'dense_nodes': 45}
…
subject 14, avg accuracy 0.4977058034274582 over 5 splits
subject 15, avg accuracy 0.6133633640077379 over 5 splits
subject 16, avg accuracy 0.5581646453272475 over 5 splits
subject 17, avg accuracy 0.6684210538864136 over 5 splits
subject 18, avg accuracy 0.6540540563093649 over 5 splits
subject 19, avg accuracy 0.618468469112843 over 5 splits
avg accuracy over all subjects 0.5746869015535571
_________________________________________________________________
Layer (type)                 Output Shape              Param #   
=================================================================
conv1d_76 (Conv1D)           (None, 31, 26)            106522    
_________________________________________________________________
max_pooling1d_76 (MaxPooling (None, 10, 26)            0         
_________________________________________________________________
dropout_76 (Dropout)         (None, 10, 26)            0         
_________________________________________________________________
conv1d_77 (Conv1D)           (None, 10, 23)            4209      
_________________________________________________________________
max_pooling1d_77 (MaxPooling (None, 5, 23)             0         
_________________________________________________________________
dropout_77 (Dropout)         (None, 5, 23)             0         
_________________________________________________________________
conv1d_78 (Conv1D)           (None, 5, 4)              924       
_________________________________________________________________
max_pooling1d_78 (MaxPooling (None, 2, 4)              0         
_________________________________________________________________
dropout_78 (Dropout)         (None, 2, 4)              0         
_________________________________________________________________
flatten_26 (Flatten)         (None, 8)                 0         
_________________________________________________________________
dense_51 (Dense)             (None, 39)                351       
_________________________________________________________________
dense_52 (Dense)             (None, 3)                 120       
=================================================================
Total params: 112,126
Trainable params: 112,126
Non-trainable params: 0
_________________________________________________________________
{'l1_nodes': 26, 'l1_filter': 16, 'l1_dropout': 0.42207081839004085, 'l1_maxpool': 3, 'l2_nodes': 23, 'l2_filter': 7, 'l2_dropout': 0.35876415053847405, 'l2_maxpool': 2, 'l3_nodes': 4, 'l3_filter': 10, 'l3_dropout': 0.1178707738083905, 'l3_maxpool': 2, 'dense_nodes': 39}
…
subject 14, avg accuracy 0.5078272609173368 over 5 splits
subject 15, avg accuracy 0.6015015015015015 over 5 splits
subject 16, avg accuracy 0.5531713914050747 over 5 splits
subject 17, avg accuracy 0.6947368417915545 over 5 splits
subject 18, avg accuracy 0.7027027045552795 over 5 splits
subject 19, avg accuracy 0.602102102102102 over 5 splits
avg accuracy over all subjects 0.5509561192425957
_________________________________________________________________
Layer (type)                 Output Shape              Param #   
=================================================================
conv1d_79 (Conv1D)           (None, 31, 26)            93210     
_________________________________________________________________
max_pooling1d_79 (MaxPooling (None, 10, 26)            0         
_________________________________________________________________
dropout_79 (Dropout)         (None, 10, 26)            0         
_________________________________________________________________
conv1d_80 (Conv1D)           (None, 10, 20)            7300      
_________________________________________________________________
max_pooling1d_80 (MaxPooling (None, 10, 20)            0         
_________________________________________________________________
dropout_80 (Dropout)         (None, 10, 20)            0         
_________________________________________________________________
conv1d_81 (Conv1D)           (None, 10, 5)             405       
_________________________________________________________________
max_pooling1d_81 (MaxPooling (None, 5, 5)              0         
_________________________________________________________________
dropout_81 (Dropout)         (None, 5, 5)              0         
_________________________________________________________________
flatten_27 (Flatten)         (None, 25)                0         
_________________________________________________________________
dense_53 (Dense)             (None, 47)                1222      
_________________________________________________________________
dense_54 (Dense)             (None, 3)                 144       
=================================================================
Total params: 102,281
Trainable params: 102,281
Non-trainable params: 0
_________________________________________________________________
{'l1_nodes': 26, 'l1_filter': 14, 'l1_dropout': 0.4869736010479747, 'l1_maxpool': 3, 'l2_nodes': 20, 'l2_filter': 14, 'l2_dropout': 0.047107415676823805, 'l2_maxpool': 1, 'l3_nodes': 5, 'l3_filter': 4, 'l3_dropout': 0.4543198918124517, 'l3_maxpool': 2, 'dense_nodes': 47}
…
subject 14, avg accuracy 0.3139001354193076 over 5 splits
subject 15, avg accuracy 0.46456456472565816 over 5 splits
subject 16, avg accuracy 0.45856950237603006 over 5 splits
subject 17, avg accuracy 0.610526315475765 over 5 splits
subject 18, avg accuracy 0.6378378392071337 over 5 splits
subject 19, avg accuracy 0.46441441505878894 over 5 splits
avg accuracy over all subjects 0.45577389224259524
_________________________________________________________________
Layer (type)                 Output Shape              Param #   
=================================================================
conv1d_82 (Conv1D)           (None, 31, 27)            117531    
_________________________________________________________________
max_pooling1d_82 (MaxPooling (None, 15, 27)            0         
_________________________________________________________________
dropout_82 (Dropout)         (None, 15, 27)            0         
_________________________________________________________________
conv1d_83 (Conv1D)           (None, 15, 15)            2445      
_________________________________________________________________
max_pooling1d_83 (MaxPooling (None, 15, 15)            0         
_________________________________________________________________
dropout_83 (Dropout)         (None, 15, 15)            0         
_________________________________________________________________
conv1d_84 (Conv1D)           (None, 15, 2)             62        
_________________________________________________________________
max_pooling1d_84 (MaxPooling (None, 15, 2)             0         
_________________________________________________________________
dropout_84 (Dropout)         (None, 15, 2)             0         
_________________________________________________________________
flatten_28 (Flatten)         (None, 30)                0         
_________________________________________________________________
dense_55 (Dense)             (None, 21)                651       
_________________________________________________________________
dense_56 (Dense)             (None, 3)                 66        
=================================================================
Total params: 120,755
Trainable params: 120,755
Non-trainable params: 0
_________________________________________________________________
{'l1_nodes': 27, 'l1_filter': 17, 'l1_dropout': 0.3935482536607821, 'l1_maxpool': 2, 'l2_nodes': 15, 'l2_filter': 6, 'l2_dropout': 0.23687066600159745, 'l2_maxpool': 1, 'l3_nodes': 2, 'l3_filter': 2, 'l3_dropout': 0.012763349543253144, 'l3_maxpool': 1, 'dense_nodes': 21}
…
subject 14, avg accuracy 0.38259109405451297 over 5 splits
subject 15, avg accuracy 0.5141141142752078 over 5 splits
subject 16, avg accuracy 0.5315789496930827 over 5 splits
subject 17, avg accuracy 0.6105263157894737 over 5 splits
subject 18, avg accuracy 0.6540540554233499 over 5 splits
subject 19, avg accuracy 0.5192192198635938 over 5 splits
avg accuracy over all subjects 0.5046142983181747
_________________________________________________________________
Layer (type)                 Output Shape              Param #   
=================================================================
conv1d_85 (Conv1D)           (None, 31, 25)            108825    
_________________________________________________________________
max_pooling1d_85 (MaxPooling (None, 15, 25)            0         
_________________________________________________________________
dropout_85 (Dropout)         (None, 15, 25)            0         
_________________________________________________________________
conv1d_86 (Conv1D)           (None, 15, 16)            4416      
_________________________________________________________________
max_pooling1d_86 (MaxPooling (None, 15, 16)            0         
_________________________________________________________________
dropout_86 (Dropout)         (None, 15, 16)            0         
_________________________________________________________________
conv1d_87 (Conv1D)           (None, 15, 14)            686       
_________________________________________________________________
max_pooling1d_87 (MaxPooling (None, 7, 14)             0         
_________________________________________________________________
dropout_87 (Dropout)         (None, 7, 14)             0         
_________________________________________________________________
flatten_29 (Flatten)         (None, 98)                0         
_________________________________________________________________
dense_57 (Dense)             (None, 21)                2079      
_________________________________________________________________
dense_58 (Dense)             (None, 3)                 66        
=================================================================
Total params: 116,072
Trainable params: 116,072
Non-trainable params: 0
_________________________________________________________________
{'l1_nodes': 25, 'l1_filter': 17, 'l1_dropout': 0.23076907175929834, 'l1_maxpool': 2, 'l2_nodes': 16, 'l2_filter': 11, 'l2_dropout': 0.196076072931484, 'l2_maxpool': 1, 'l3_nodes': 14, 'l3_filter': 3, 'l3_dropout': 0.17308424227982577, 'l3_maxpool': 2, 'dense_nodes': 21}
…
subject 14, avg accuracy 0.4087719310673303 over 5 splits
subject 15, avg accuracy 0.5746246247857182 over 5 splits
subject 16, avg accuracy 0.5674763843236181 over 5 splits
subject 17, avg accuracy 0.6105263170443084 over 5 splits
subject 18, avg accuracy 0.6648648667174417 over 5 splits
subject 19, avg accuracy 0.5418918918918919 over 5 splits
avg accuracy over all subjects 0.5377528687174884
_________________________________________________________________
Layer (type)                 Output Shape              Param #   
=================================================================
conv1d_88 (Conv1D)           (None, 31, 28)            86044     
_________________________________________________________________
max_pooling1d_88 (MaxPooling (None, 10, 28)            0         
_________________________________________________________________
dropout_88 (Dropout)         (None, 10, 28)            0         
_________________________________________________________________
conv1d_89 (Conv1D)           (None, 10, 16)            4944      
_________________________________________________________________
max_pooling1d_89 (MaxPooling (None, 5, 16)             0         
_________________________________________________________________
dropout_89 (Dropout)         (None, 5, 16)             0         
_________________________________________________________________
conv1d_90 (Conv1D)           (None, 5, 1)              145       
_________________________________________________________________
max_pooling1d_90 (MaxPooling (None, 2, 1)              0         
_________________________________________________________________
dropout_90 (Dropout)         (None, 2, 1)              0         
_________________________________________________________________
flatten_30 (Flatten)         (None, 2)                 0         
_________________________________________________________________
dense_59 (Dense)             (None, 20)                60        
_________________________________________________________________
dense_60 (Dense)             (None, 3)                 63        
=================================================================
Total params: 91,256
Trainable params: 91,256
Non-trainable params: 0
_________________________________________________________________
{'l1_nodes': 28, 'l1_filter': 12, 'l1_dropout': 0.027424503136827427, 'l1_maxpool': 3, 'l2_nodes': 16, 'l2_filter': 11, 'l2_dropout': 0.48173007079105223, 'l2_maxpool': 2, 'l3_nodes': 1, 'l3_filter': 9, 'l3_dropout': 0.3413819823156126, 'l3_maxpool': 2, 'dense_nodes': 20}
…
subject 14, avg accuracy 0.40310391425362474 over 5 splits
subject 15, avg accuracy 0.49219219235328576 over 5 splits
subject 16, avg accuracy 0.42091768051770373 over 5 splits
subject 17, avg accuracy 0.5631578947368421 over 5 splits
subject 18, avg accuracy 0.5351351359406034 over 5 splits
subject 19, avg accuracy 0.5196696699918569 over 5 splits
avg accuracy over all subjects 0.47815916572619976
_________________________________________________________________
Layer (type)                 Output Shape              Param #   
=================================================================
conv1d_91 (Conv1D)           (None, 31, 25)            76825     
_________________________________________________________________
max_pooling1d_91 (MaxPooling (None, 15, 25)            0         
_________________________________________________________________
dropout_91 (Dropout)         (None, 15, 25)            0         
_________________________________________________________________
conv1d_92 (Conv1D)           (None, 15, 18)            3618      
_________________________________________________________________
max_pooling1d_92 (MaxPooling (None, 15, 18)            0         
_________________________________________________________________
dropout_92 (Dropout)         (None, 15, 18)            0         
_________________________________________________________________
conv1d_93 (Conv1D)           (None, 15, 3)             381       
_________________________________________________________________
max_pooling1d_93 (MaxPooling (None, 7, 3)              0         
_________________________________________________________________
dropout_93 (Dropout)         (None, 7, 3)              0         
_________________________________________________________________
flatten_31 (Flatten)         (None, 21)                0         
_________________________________________________________________
dense_61 (Dense)             (None, 28)                616       
_________________________________________________________________
dense_62 (Dense)             (None, 3)                 87        
=================================================================
Total params: 81,527
Trainable params: 81,527
Non-trainable params: 0
_________________________________________________________________
{'l1_nodes': 25, 'l1_filter': 12, 'l1_dropout': 0.1579898366565226, 'l1_maxpool': 2, 'l2_nodes': 18, 'l2_filter': 8, 'l2_dropout': 0.3093583104385093, 'l2_maxpool': 1, 'l3_nodes': 3, 'l3_filter': 7, 'l3_dropout': 0.44117199894797293, 'l3_maxpool': 2, 'dense_nodes': 28}
…
subject 14, avg accuracy 0.3299595154128093 over 5 splits
subject 15, avg accuracy 0.47612612620667294 over 5 splits
subject 16, avg accuracy 0.4013495279750039 over 5 splits
subject 17, avg accuracy 0.5736842108400244 over 5 splits
subject 18, avg accuracy 0.5297297310184788 over 5 splits
subject 19, avg accuracy 0.44159159191377884 over 5 splits
avg accuracy over all subjects 0.4188608995343117
_________________________________________________________________
Layer (type)                 Output Shape              Param #   
=================================================================
conv1d_94 (Conv1D)           (None, 31, 24)            79896     
_________________________________________________________________
max_pooling1d_94 (MaxPooling (None, 15, 24)            0         
_________________________________________________________________
dropout_94 (Dropout)         (None, 15, 24)            0         
_________________________________________________________________
conv1d_95 (Conv1D)           (None, 15, 21)            6069      
_________________________________________________________________
max_pooling1d_95 (MaxPooling (None, 15, 21)            0         
_________________________________________________________________
dropout_95 (Dropout)         (None, 15, 21)            0         
_________________________________________________________________
conv1d_96 (Conv1D)           (None, 15, 3)             822       
_________________________________________________________________
max_pooling1d_96 (MaxPooling (None, 15, 3)             0         
_________________________________________________________________
dropout_96 (Dropout)         (None, 15, 3)             0         
_________________________________________________________________
flatten_32 (Flatten)         (None, 45)                0         
_________________________________________________________________
dense_63 (Dense)             (None, 24)                1104      
_________________________________________________________________
dense_64 (Dense)             (None, 3)                 75        
=================================================================
Total params: 87,966
Trainable params: 87,966
Non-trainable params: 0
_________________________________________________________________
{'l1_nodes': 24, 'l1_filter': 13, 'l1_dropout': 0.48778958480143686, 'l1_maxpool': 2, 'l2_nodes': 21, 'l2_filter': 12, 'l2_dropout': 0.3364639865042353, 'l2_maxpool': 1, 'l3_nodes': 3, 'l3_filter': 13, 'l3_dropout': 0.09938432651791557, 'l3_maxpool': 1, 'dense_nodes': 24}
…
subject 14, avg accuracy 0.5296896080095598 over 5 splits
subject 15, avg accuracy 0.5319819820625288 over 5 splits
subject 16, avg accuracy 0.5419703113244452 over 5 splits
subject 17, avg accuracy 0.6210526300104041 over 5 splits
subject 18, avg accuracy 0.6756756768033311 over 5 splits
subject 19, avg accuracy 0.5531531537975276 over 5 splits
avg accuracy over all subjects 0.5121713152745943
_________________________________________________________________
Layer (type)                 Output Shape              Param #   
=================================================================
conv1d_97 (Conv1D)           (None, 31, 20)            97300     
_________________________________________________________________
max_pooling1d_97 (MaxPooling (None, 10, 20)            0         
_________________________________________________________________
dropout_97 (Dropout)         (None, 10, 20)            0         
_________________________________________________________________
conv1d_98 (Conv1D)           (None, 10, 12)            2412      
_________________________________________________________________
max_pooling1d_98 (MaxPooling (None, 5, 12)             0         
_________________________________________________________________
dropout_98 (Dropout)         (None, 5, 12)             0         
_________________________________________________________________
conv1d_99 (Conv1D)           (None, 5, 12)             588       
_________________________________________________________________
max_pooling1d_99 (MaxPooling (None, 5, 12)             0         
_________________________________________________________________
dropout_99 (Dropout)         (None, 5, 12)             0         
_________________________________________________________________
flatten_33 (Flatten)         (None, 60)                0         
_________________________________________________________________
dense_65 (Dense)             (None, 33)                2013      
_________________________________________________________________
dense_66 (Dense)             (None, 3)                 102       
=================================================================
Total params: 102,415
Trainable params: 102,415
Non-trainable params: 0
_________________________________________________________________
{'l1_nodes': 20, 'l1_filter': 19, 'l1_dropout': 0.02149880350035921, 'l1_maxpool': 3, 'l2_nodes': 12, 'l2_filter': 10, 'l2_dropout': 0.3390754126273718, 'l2_maxpool': 2, 'l3_nodes': 12, 'l3_filter': 4, 'l3_dropout': 0.47570401934477624, 'l3_maxpool': 1, 'dense_nodes': 33}
…
subject 14, avg accuracy 0.3557354930360951 over 5 splits
subject 15, avg accuracy 0.5417417423861164 over 5 splits
subject 16, avg accuracy 0.494871795165394 over 5 splits
subject 17, avg accuracy 0.6 over 5 splits
subject 18, avg accuracy 0.6378378394487743 over 5 splits
subject 19, avg accuracy 0.541441442085816 over 5 splits
avg accuracy over all subjects 0.48400455206069304
_________________________________________________________________
Layer (type)                 Output Shape              Param #   
=================================================================
conv1d_100 (Conv1D)          (None, 31, 25)            102425    
_________________________________________________________________
max_pooling1d_100 (MaxPoolin (None, 15, 25)            0         
_________________________________________________________________
dropout_100 (Dropout)        (None, 15, 25)            0         
_________________________________________________________________
conv1d_101 (Conv1D)          (None, 15, 20)            5020      
_________________________________________________________________
max_pooling1d_101 (MaxPoolin (None, 7, 20)             0         
_________________________________________________________________
dropout_101 (Dropout)        (None, 7, 20)             0         
_________________________________________________________________
conv1d_102 (Conv1D)          (None, 7, 12)             1932      
_________________________________________________________________
max_pooling1d_102 (MaxPoolin (None, 3, 12)             0         
_________________________________________________________________
dropout_102 (Dropout)        (None, 3, 12)             0         
_________________________________________________________________
flatten_34 (Flatten)         (None, 36)                0         
_________________________________________________________________
dense_67 (Dense)             (None, 24)                888       
_________________________________________________________________
dense_68 (Dense)             (None, 3)                 75        
=================================================================
Total params: 110,340
Trainable params: 110,340
Non-trainable params: 0
_________________________________________________________________
{'l1_nodes': 25, 'l1_filter': 16, 'l1_dropout': 0.06354606218252468, 'l1_maxpool': 2, 'l2_nodes': 20, 'l2_filter': 10, 'l2_dropout': 0.10407795306707762, 'l2_maxpool': 2, 'l3_nodes': 12, 'l3_filter': 8, 'l3_dropout': 0.23861846612805088, 'l3_maxpool': 2, 'dense_nodes': 24}
…
subject 14, avg accuracy 0.5078272629564429 over 5 splits
subject 15, avg accuracy 0.6189189190800126 over 5 splits
subject 16, avg accuracy 0.6260458857906974 over 5 splits
subject 17, avg accuracy 0.7 over 5 splits
subject 18, avg accuracy 0.6270270284768696 over 5 splits
subject 19, avg accuracy 0.596096096096096 over 5 splits
avg accuracy over all subjects 0.583945924062873
_________________________________________________________________
Layer (type)                 Output Shape              Param #   
=================================================================
conv1d_103 (Conv1D)          (None, 31, 28)            114716    
_________________________________________________________________
max_pooling1d_103 (MaxPoolin (None, 10, 28)            0         
_________________________________________________________________
dropout_103 (Dropout)        (None, 10, 28)            0         
_________________________________________________________________
conv1d_104 (Conv1D)          (None, 10, 22)            5566      
_________________________________________________________________
max_pooling1d_104 (MaxPoolin (None, 5, 22)             0         
_________________________________________________________________
dropout_104 (Dropout)        (None, 5, 22)             0         
_________________________________________________________________
conv1d_105 (Conv1D)          (None, 5, 5)              445       
_________________________________________________________________
max_pooling1d_105 (MaxPoolin (None, 5, 5)              0         
_________________________________________________________________
dropout_105 (Dropout)        (None, 5, 5)              0         
_________________________________________________________________
flatten_35 (Flatten)         (None, 25)                0         
_________________________________________________________________
dense_69 (Dense)             (None, 24)                624       
_________________________________________________________________
dense_70 (Dense)             (None, 3)                 75        
=================================================================
Total params: 121,426
Trainable params: 121,426
Non-trainable params: 0
_________________________________________________________________
{'l1_nodes': 28, 'l1_filter': 16, 'l1_dropout': 0.15988915186096248, 'l1_maxpool': 3, 'l2_nodes': 22, 'l2_filter': 9, 'l2_dropout': 0.13168423743657354, 'l2_maxpool': 2, 'l3_nodes': 5, 'l3_filter': 4, 'l3_dropout': 0.3414293080869979, 'l3_maxpool': 1, 'dense_nodes': 24}
…
subject 14, avg accuracy 0.4867746301105952 over 5 splits
subject 15, avg accuracy 0.5412912916134786 over 5 splits
subject 16, avg accuracy 0.5367071537393951 over 5 splits
subject 17, avg accuracy 0.6263157901011015 over 5 splits
subject 18, avg accuracy 0.6972972989082337 over 5 splits
subject 19, avg accuracy 0.5524024027245897 over 5 splits
avg accuracy over all subjects 0.5184357106775539
_________________________________________________________________
Layer (type)                 Output Shape              Param #   
=================================================================
conv1d_106 (Conv1D)          (None, 31, 25)            115225    
_________________________________________________________________
max_pooling1d_106 (MaxPoolin (None, 15, 25)            0         
_________________________________________________________________
dropout_106 (Dropout)        (None, 15, 25)            0         
_________________________________________________________________
conv1d_107 (Conv1D)          (None, 15, 13)            3263      
_________________________________________________________________
max_pooling1d_107 (MaxPoolin (None, 7, 13)             0         
_________________________________________________________________
dropout_107 (Dropout)        (None, 7, 13)             0         
_________________________________________________________________
conv1d_108 (Conv1D)          (None, 7, 3)              510       
_________________________________________________________________
max_pooling1d_108 (MaxPoolin (None, 3, 3)              0         
_________________________________________________________________
dropout_108 (Dropout)        (None, 3, 3)              0         
_________________________________________________________________
flatten_36 (Flatten)         (None, 9)                 0         
_________________________________________________________________
dense_71 (Dense)             (None, 30)                300       
_________________________________________________________________
dense_72 (Dense)             (None, 3)                 93        
=================================================================
Total params: 119,391
Trainable params: 119,391
Non-trainable params: 0
_________________________________________________________________
{'l1_nodes': 25, 'l1_filter': 18, 'l1_dropout': 0.19558106937090747, 'l1_maxpool': 2, 'l2_nodes': 13, 'l2_filter': 10, 'l2_dropout': 0.29927582731821517, 'l2_maxpool': 2, 'l3_nodes': 3, 'l3_filter': 13, 'l3_dropout': 0.05303096021273429, 'l3_maxpool': 2, 'dense_nodes': 30}
…
subject 14, avg accuracy 0.4450742241744249 over 5 splits
subject 15, avg accuracy 0.5968468474912214 over 5 splits
subject 16, avg accuracy 0.5368421069684459 over 5 splits
subject 17, avg accuracy 0.6684210520041616 over 5 splits
subject 18, avg accuracy 0.6378378396098678 over 5 splits
subject 19, avg accuracy 0.5692192198635937 over 5 splits
avg accuracy over all subjects 0.5718071996042907
_________________________________________________________________
Layer (type)                 Output Shape              Param #   
=================================================================
conv1d_109 (Conv1D)          (None, 31, 22)            78870     
_________________________________________________________________
max_pooling1d_109 (MaxPoolin (None, 15, 22)            0         
_________________________________________________________________
dropout_109 (Dropout)        (None, 15, 22)            0         
_________________________________________________________________
conv1d_110 (Conv1D)          (None, 15, 11)            2189      
_________________________________________________________________
max_pooling1d_110 (MaxPoolin (None, 7, 11)             0         
_________________________________________________________________
dropout_110 (Dropout)        (None, 7, 11)             0         
_________________________________________________________________
conv1d_111 (Conv1D)          (None, 7, 8)              800       
_________________________________________________________________
max_pooling1d_111 (MaxPoolin (None, 7, 8)              0         
_________________________________________________________________
dropout_111 (Dropout)        (None, 7, 8)              0         
_________________________________________________________________
flatten_37 (Flatten)         (None, 56)                0         
_________________________________________________________________
dense_73 (Dense)             (None, 40)                2280      
_________________________________________________________________
dense_74 (Dense)             (None, 3)                 123       
=================================================================
Total params: 84,262
Trainable params: 84,262
Non-trainable params: 0
_________________________________________________________________
{'l1_nodes': 22, 'l1_filter': 14, 'l1_dropout': 0.34524139681254645, 'l1_maxpool': 2, 'l2_nodes': 11, 'l2_filter': 9, 'l2_dropout': 0.10131255376706055, 'l2_maxpool': 2, 'l3_nodes': 8, 'l3_filter': 9, 'l3_dropout': 0.10348726338221537, 'l3_maxpool': 1, 'dense_nodes': 40}
…
subject 14, avg accuracy 0.5599190297397041 over 5 splits
subject 15, avg accuracy 0.6081081087524827 over 5 splits
subject 16, avg accuracy 0.6098515544343092 over 5 splits
subject 17, avg accuracy 0.6631578944231334 over 5 splits
subject 18, avg accuracy 0.6702702715590194 over 5 splits
subject 19, avg accuracy 0.6403903910347649 over 5 splits
avg accuracy over all subjects 0.5801374935064155
_________________________________________________________________
Layer (type)                 Output Shape              Param #   
=================================================================
conv1d_112 (Conv1D)          (None, 31, 27)            103707    
_________________________________________________________________
max_pooling1d_112 (MaxPoolin (None, 10, 27)            0         
_________________________________________________________________
dropout_112 (Dropout)        (None, 10, 27)            0         
_________________________________________________________________
conv1d_113 (Conv1D)          (None, 10, 16)            3472      
_________________________________________________________________
max_pooling1d_113 (MaxPoolin (None, 5, 16)             0         
_________________________________________________________________
dropout_113 (Dropout)        (None, 5, 16)             0         
_________________________________________________________________
conv1d_114 (Conv1D)          (None, 5, 13)             2925      
_________________________________________________________________
max_pooling1d_114 (MaxPoolin (None, 5, 13)             0         
_________________________________________________________________
dropout_114 (Dropout)        (None, 5, 13)             0         
_________________________________________________________________
flatten_38 (Flatten)         (None, 65)                0         
_________________________________________________________________
dense_75 (Dense)             (None, 49)                3234      
_________________________________________________________________
dense_76 (Dense)             (None, 3)                 150       
=================================================================
Total params: 113,488
Trainable params: 113,488
Non-trainable params: 0
_________________________________________________________________
{'l1_nodes': 27, 'l1_filter': 15, 'l1_dropout': 0.45177866217932067, 'l1_maxpool': 3, 'l2_nodes': 16, 'l2_filter': 8, 'l2_dropout': 0.157413376192729, 'l2_maxpool': 2, 'l3_nodes': 13, 'l3_filter': 14, 'l3_dropout': 0.4017229325987331, 'l3_maxpool': 1, 'dense_nodes': 49}
…
subject 14, avg accuracy 0.5076923078370963 over 5 splits
subject 15, avg accuracy 0.5636636638247573 over 5 splits
subject 16, avg accuracy 0.5681511481763863 over 5 splits
subject 17, avg accuracy 0.6894736860927783 over 5 splits
subject 18, avg accuracy 0.6756756776087993 over 5 splits
subject 19, avg accuracy 0.6575075075075074 over 5 splits
avg accuracy over all subjects 0.569156978633136
_________________________________________________________________
Layer (type)                 Output Shape              Param #   
=================================================================
conv1d_115 (Conv1D)          (None, 31, 29)            133661    
_________________________________________________________________
max_pooling1d_115 (MaxPoolin (None, 15, 29)            0         
_________________________________________________________________
dropout_115 (Dropout)        (None, 15, 29)            0         
_________________________________________________________________
conv1d_116 (Conv1D)          (None, 15, 11)            3839      
_________________________________________________________________
max_pooling1d_116 (MaxPoolin (None, 15, 11)            0         
_________________________________________________________________
dropout_116 (Dropout)        (None, 15, 11)            0         
_________________________________________________________________
conv1d_117 (Conv1D)          (None, 15, 2)             288       
_________________________________________________________________
max_pooling1d_117 (MaxPoolin (None, 7, 2)              0         
_________________________________________________________________
dropout_117 (Dropout)        (None, 7, 2)              0         
_________________________________________________________________
flatten_39 (Flatten)         (None, 14)                0         
_________________________________________________________________
dense_77 (Dense)             (None, 46)                690       
_________________________________________________________________
dense_78 (Dense)             (None, 3)                 141       
=================================================================
Total params: 138,619
Trainable params: 138,619
Non-trainable params: 0
_________________________________________________________________
{'l1_nodes': 29, 'l1_filter': 18, 'l1_dropout': 0.016268275079354355, 'l1_maxpool': 2, 'l2_nodes': 11, 'l2_filter': 12, 'l2_dropout': 0.35226359429545223, 'l2_maxpool': 1, 'l3_nodes': 2, 'l3_filter': 13, 'l3_dropout': 0.14953406534146335, 'l3_maxpool': 2, 'dense_nodes': 46}
…
subject 14, avg accuracy 0.4929824571538711 over 5 splits
subject 15, avg accuracy 0.5641141147584886 over 5 splits
subject 16, avg accuracy 0.6566801630171687 over 5 splits
subject 17, avg accuracy 0.6947368424189718 over 5 splits
subject 18, avg accuracy 0.6162162171827781 over 5 splits
subject 19, avg accuracy 0.58543543607981 over 5 splits
avg accuracy over all subjects 0.5811918541236576
_________________________________________________________________
Layer (type)                 Output Shape              Param #   
=================================================================
conv1d_118 (Conv1D)          (None, 31, 20)            51220     
_________________________________________________________________
max_pooling1d_118 (MaxPoolin (None, 10, 20)            0         
_________________________________________________________________
dropout_118 (Dropout)        (None, 10, 20)            0         
_________________________________________________________________
conv1d_119 (Conv1D)          (None, 10, 24)            2424      
_________________________________________________________________
max_pooling1d_119 (MaxPoolin (None, 10, 24)            0         
_________________________________________________________________
dropout_119 (Dropout)        (None, 10, 24)            0         
_________________________________________________________________
conv1d_120 (Conv1D)          (None, 10, 3)             363       
_________________________________________________________________
max_pooling1d_120 (MaxPoolin (None, 10, 3)             0         
_________________________________________________________________
dropout_120 (Dropout)        (None, 10, 3)             0         
_________________________________________________________________
flatten_40 (Flatten)         (None, 30)                0         
_________________________________________________________________
dense_79 (Dense)             (None, 43)                1333      
_________________________________________________________________
dense_80 (Dense)             (None, 3)                 132       
=================================================================
Total params: 55,472
Trainable params: 55,472
Non-trainable params: 0
_________________________________________________________________
{'l1_nodes': 20, 'l1_filter': 10, 'l1_dropout': 0.05110642606302568, 'l1_maxpool': 3, 'l2_nodes': 24, 'l2_filter': 5, 'l2_dropout': 0.3433236862587279, 'l2_maxpool': 1, 'l3_nodes': 3, 'l3_filter': 5, 'l3_dropout': 0.3520745274373894, 'l3_maxpool': 1, 'dense_nodes': 43}
…
subject 14, avg accuracy 0.4770580299912516 over 5 splits
subject 15, avg accuracy 0.44789789805899155 over 5 splits
subject 16, avg accuracy 0.5522267226547043 over 5 splits
subject 17, avg accuracy 0.6473684223074662 over 5 splits
subject 18, avg accuracy 0.6054054067747013 over 5 splits
subject 19, avg accuracy 0.5863363366585237 over 5 splits
avg accuracy over all subjects 0.5184367240538681
_________________________________________________________________
Layer (type)                 Output Shape              Param #   
=================================================================
conv1d_121 (Conv1D)          (None, 31, 23)            82455     
_________________________________________________________________
max_pooling1d_121 (MaxPoolin (None, 15, 23)            0         
_________________________________________________________________
dropout_121 (Dropout)        (None, 15, 23)            0         
_________________________________________________________________
conv1d_122 (Conv1D)          (None, 15, 23)            4784      
_________________________________________________________________
max_pooling1d_122 (MaxPoolin (None, 7, 23)             0         
_________________________________________________________________
dropout_122 (Dropout)        (None, 7, 23)             0         
_________________________________________________________________
conv1d_123 (Conv1D)          (None, 7, 13)             3302      
_________________________________________________________________
max_pooling1d_123 (MaxPoolin (None, 7, 13)             0         
_________________________________________________________________
dropout_123 (Dropout)        (None, 7, 13)             0         
_________________________________________________________________
flatten_41 (Flatten)         (None, 91)                0         
_________________________________________________________________
dense_81 (Dense)             (None, 30)                2760      
_________________________________________________________________
dense_82 (Dense)             (None, 3)                 93        
=================================================================
Total params: 93,394
Trainable params: 93,394
Non-trainable params: 0
_________________________________________________________________
{'l1_nodes': 23, 'l1_filter': 14, 'l1_dropout': 0.4987759220670658, 'l1_maxpool': 2, 'l2_nodes': 23, 'l2_filter': 9, 'l2_dropout': 0.24727013276604903, 'l2_maxpool': 2, 'l3_nodes': 13, 'l3_filter': 11, 'l3_dropout': 0.08563454529936027, 'l3_maxpool': 1, 'dense_nodes': 30}
…
subject 14, avg accuracy 0.48731444040451616 over 5 splits
subject 15, avg accuracy 0.5854354357576227 over 5 splits
subject 16, avg accuracy 0.6099865061149262 over 5 splits
subject 17, avg accuracy 0.6842105263157895 over 5 splits
subject 18, avg accuracy 0.7135135151244498 over 5 splits
subject 19, avg accuracy 0.6352852856074725 over 5 splits
avg accuracy over all subjects 0.5506859771604732
_________________________________________________________________
Layer (type)                 Output Shape              Param #   
=================================================================
conv1d_124 (Conv1D)          (None, 31, 29)            111389    
_________________________________________________________________
max_pooling1d_124 (MaxPoolin (None, 10, 29)            0         
_________________________________________________________________
dropout_124 (Dropout)        (None, 10, 29)            0         
_________________________________________________________________
conv1d_125 (Conv1D)          (None, 10, 10)            2040      
_________________________________________________________________
max_pooling1d_125 (MaxPoolin (None, 5, 10)             0         
_________________________________________________________________
dropout_125 (Dropout)        (None, 5, 10)             0         
_________________________________________________________________
conv1d_126 (Conv1D)          (None, 5, 9)              1089      
_________________________________________________________________
max_pooling1d_126 (MaxPoolin (None, 2, 9)              0         
_________________________________________________________________
dropout_126 (Dropout)        (None, 2, 9)              0         
_________________________________________________________________
flatten_42 (Flatten)         (None, 18)                0         
_________________________________________________________________
dense_83 (Dense)             (None, 21)                399       
_________________________________________________________________
dense_84 (Dense)             (None, 3)                 66        
=================================================================
Total params: 114,983
Trainable params: 114,983
Non-trainable params: 0
_________________________________________________________________
{'l1_nodes': 29, 'l1_filter': 15, 'l1_dropout': 0.1667761385329949, 'l1_maxpool': 3, 'l2_nodes': 10, 'l2_filter': 7, 'l2_dropout': 0.050131261209522826, 'l2_maxpool': 2, 'l3_nodes': 9, 'l3_filter': 12, 'l3_dropout': 0.4800687584160266, 'l3_maxpool': 2, 'dense_nodes': 21}
…
subject 14, avg accuracy 0.4769230792638261 over 5 splits
subject 15, avg accuracy 0.5521021024242894 over 5 splits
subject 16, avg accuracy 0.5211875868149293 over 5 splits
subject 17, avg accuracy 0.6947368417915545 over 5 splits
subject 18, avg accuracy 0.6270270279935889 over 5 splits
subject 19, avg accuracy 0.6022522528966268 over 5 splits
avg accuracy over all subjects 0.5496390806142342
_________________________________________________________________
Layer (type)                 Output Shape              Param #   
=================================================================
conv1d_127 (Conv1D)          (None, 31, 22)            84502     
_________________________________________________________________
max_pooling1d_127 (MaxPoolin (None, 10, 22)            0         
_________________________________________________________________
dropout_127 (Dropout)        (None, 10, 22)            0         
_________________________________________________________________
conv1d_128 (Conv1D)          (None, 10, 20)            2220      
_________________________________________________________________
max_pooling1d_128 (MaxPoolin (None, 10, 20)            0         
_________________________________________________________________
dropout_128 (Dropout)        (None, 10, 20)            0         
_________________________________________________________________
conv1d_129 (Conv1D)          (None, 10, 14)            1694      
_________________________________________________________________
max_pooling1d_129 (MaxPoolin (None, 5, 14)             0         
_________________________________________________________________
dropout_129 (Dropout)        (None, 5, 14)             0         
_________________________________________________________________
flatten_43 (Flatten)         (None, 70)                0         
_________________________________________________________________
dense_85 (Dense)             (None, 35)                2485      
_________________________________________________________________
dense_86 (Dense)             (None, 3)                 108       
=================================================================
Total params: 91,009
Trainable params: 91,009
Non-trainable params: 0
_________________________________________________________________
{'l1_nodes': 22, 'l1_filter': 15, 'l1_dropout': 0.21255239472410886, 'l1_maxpool': 3, 'l2_nodes': 20, 'l2_filter': 5, 'l2_dropout': 0.4929841570458978, 'l2_maxpool': 1, 'l3_nodes': 14, 'l3_filter': 6, 'l3_dropout': 0.474896178141994, 'l3_maxpool': 2, 'dense_nodes': 35}
…
subject 14, avg accuracy 0.3352226731506919 over 5 splits
subject 15, avg accuracy 0.4861861865083735 over 5 splits
subject 16, avg accuracy 0.41632928567135374 over 5 splits
subject 17, avg accuracy 0.6052631572673196 over 5 splits
subject 18, avg accuracy 0.6594594608287554 over 5 splits
subject 19, avg accuracy 0.41951952016389404 over 5 splits
avg accuracy over all subjects 0.43684315313454536
_________________________________________________________________
Layer (type)                 Output Shape              Param #   
=================================================================
conv1d_130 (Conv1D)          (None, 31, 22)            61974     
_________________________________________________________________
max_pooling1d_130 (MaxPoolin (None, 15, 22)            0         
_________________________________________________________________
dropout_130 (Dropout)        (None, 15, 22)            0         
_________________________________________________________________
conv1d_131 (Conv1D)          (None, 15, 10)            3090      
_________________________________________________________________
max_pooling1d_131 (MaxPoolin (None, 7, 10)             0         
_________________________________________________________________
dropout_131 (Dropout)        (None, 7, 10)             0         
_________________________________________________________________
conv1d_132 (Conv1D)          (None, 7, 7)              427       
_________________________________________________________________
max_pooling1d_132 (MaxPoolin (None, 7, 7)              0         
_________________________________________________________________
dropout_132 (Dropout)        (None, 7, 7)              0         
_________________________________________________________________
flatten_44 (Flatten)         (None, 49)                0         
_________________________________________________________________
dense_87 (Dense)             (None, 25)                1250      
_________________________________________________________________
dense_88 (Dense)             (None, 3)                 78        
=================================================================
Total params: 66,819
Trainable params: 66,819
Non-trainable params: 0
_________________________________________________________________
{'l1_nodes': 22, 'l1_filter': 11, 'l1_dropout': 0.15163826050933837, 'l1_maxpool': 2, 'l2_nodes': 10, 'l2_filter': 14, 'l2_dropout': 0.33132912483465987, 'l2_maxpool': 2, 'l3_nodes': 7, 'l3_filter': 6, 'l3_dropout': 0.01664144563306169, 'l3_maxpool': 1, 'dense_nodes': 25}
…
subject 14, avg accuracy 0.5129554660455418 over 5 splits
subject 15, avg accuracy 0.5965465468687338 over 5 splits
subject 16, avg accuracy 0.5527665334111445 over 5 splits
subject 17, avg accuracy 0.7052631575810282 over 5 splits
subject 18, avg accuracy 0.6378378392071337 over 5 splits
subject 19, avg accuracy 0.6184684687906558 over 5 splits
avg accuracy over all subjects 0.5683013997474435
_________________________________________________________________
Layer (type)                 Output Shape              Param #   
=================================================================
conv1d_133 (Conv1D)          (None, 31, 26)            86554     
_________________________________________________________________
max_pooling1d_133 (MaxPoolin (None, 15, 26)            0         
_________________________________________________________________
dropout_133 (Dropout)        (None, 15, 26)            0         
_________________________________________________________________
conv1d_134 (Conv1D)          (None, 15, 20)            6260      
_________________________________________________________________
max_pooling1d_134 (MaxPoolin (None, 15, 20)            0         
_________________________________________________________________
dropout_134 (Dropout)        (None, 15, 20)            0         
_________________________________________________________________
conv1d_135 (Conv1D)          (None, 15, 10)            1210      
_________________________________________________________________
max_pooling1d_135 (MaxPoolin (None, 7, 10)             0         
_________________________________________________________________
dropout_135 (Dropout)        (None, 7, 10)             0         
_________________________________________________________________
flatten_45 (Flatten)         (None, 70)                0         
_________________________________________________________________
dense_89 (Dense)             (None, 25)                1775      
_________________________________________________________________
dense_90 (Dense)             (None, 3)                 78        
=================================================================
Total params: 95,877
Trainable params: 95,877
Non-trainable params: 0
_________________________________________________________________
{'l1_nodes': 26, 'l1_filter': 13, 'l1_dropout': 0.22529346014590212, 'l1_maxpool': 2, 'l2_nodes': 20, 'l2_filter': 12, 'l2_dropout': 0.32505995136817895, 'l2_maxpool': 1, 'l3_nodes': 10, 'l3_filter': 6, 'l3_dropout': 0.09962653849823988, 'l3_maxpool': 2, 'dense_nodes': 25}
…
subject 14, avg accuracy 0.46599190454733996 over 5 splits
subject 15, avg accuracy 0.6016516522960261 over 5 splits
subject 16, avg accuracy 0.5520917705196119 over 5 splits
subject 17, avg accuracy 0.6999999996862913 over 5 splits
subject 18, avg accuracy 0.6486486500179445 over 5 splits
subject 19, avg accuracy 0.5689189190800126 over 5 splits
avg accuracy over all subjects 0.5436740732828294
_________________________________________________________________
Layer (type)                 Output Shape              Param #   
=================================================================
conv1d_136 (Conv1D)          (None, 31, 26)            119834    
_________________________________________________________________
max_pooling1d_136 (MaxPoolin (None, 15, 26)            0         
_________________________________________________________________
dropout_136 (Dropout)        (None, 15, 26)            0         
_________________________________________________________________
conv1d_137 (Conv1D)          (None, 15, 17)            6205      
_________________________________________________________________
max_pooling1d_137 (MaxPoolin (None, 15, 17)            0         
_________________________________________________________________
dropout_137 (Dropout)        (None, 15, 17)            0         
_________________________________________________________________
conv1d_138 (Conv1D)          (None, 15, 6)             1230      
_________________________________________________________________
max_pooling1d_138 (MaxPoolin (None, 15, 6)             0         
_________________________________________________________________
dropout_138 (Dropout)        (None, 15, 6)             0         
_________________________________________________________________
flatten_46 (Flatten)         (None, 90)                0         
_________________________________________________________________
dense_91 (Dense)             (None, 27)                2457      
_________________________________________________________________
dense_92 (Dense)             (None, 3)                 84        
=================================================================
Total params: 129,810
Trainable params: 129,810
Non-trainable params: 0
_________________________________________________________________
{'l1_nodes': 26, 'l1_filter': 18, 'l1_dropout': 0.015654694268389335, 'l1_maxpool': 2, 'l2_nodes': 17, 'l2_filter': 14, 'l2_dropout': 0.10255618994166071, 'l2_maxpool': 1, 'l3_nodes': 6, 'l3_filter': 12, 'l3_dropout': 0.16098861474838372, 'l3_maxpool': 1, 'dense_nodes': 27}
…
subject 14, avg accuracy 0.47597840935514685 over 5 splits
subject 15, avg accuracy 0.6406906913350652 over 5 splits
subject 16, avg accuracy 0.5372469655817498 over 5 splits
subject 17, avg accuracy 0.6736842108400244 over 5 splits
subject 18, avg accuracy 0.6810810826920175 over 5 splits
subject 19, avg accuracy 0.5966966970188841 over 5 splits
avg accuracy over all subjects 0.5702406535281823
_________________________________________________________________
Layer (type)                 Output Shape              Param #   
=================================================================
conv1d_139 (Conv1D)          (None, 31, 25)            96025     
_________________________________________________________________
max_pooling1d_139 (MaxPoolin (None, 15, 25)            0         
_________________________________________________________________
dropout_139 (Dropout)        (None, 15, 25)            0         
_________________________________________________________________
conv1d_140 (Conv1D)          (None, 15, 18)            5418      
_________________________________________________________________
max_pooling1d_140 (MaxPoolin (None, 7, 18)             0         
_________________________________________________________________
dropout_140 (Dropout)        (None, 7, 18)             0         
_________________________________________________________________
conv1d_141 (Conv1D)          (None, 7, 11)             2585      
_________________________________________________________________
max_pooling1d_141 (MaxPoolin (None, 3, 11)             0         
_________________________________________________________________
dropout_141 (Dropout)        (None, 3, 11)             0         
_________________________________________________________________
flatten_47 (Flatten)         (None, 33)                0         
_________________________________________________________________
dense_93 (Dense)             (None, 42)                1428      
_________________________________________________________________
dense_94 (Dense)             (None, 3)                 129       
=================================================================
Total params: 105,585
Trainable params: 105,585
Non-trainable params: 0
_________________________________________________________________
{'l1_nodes': 25, 'l1_filter': 15, 'l1_dropout': 0.4765477160338681, 'l1_maxpool': 2, 'l2_nodes': 18, 'l2_filter': 12, 'l2_dropout': 0.3023793503851852, 'l2_maxpool': 2, 'l3_nodes': 11, 'l3_filter': 13, 'l3_dropout': 0.3153104851970056, 'l3_maxpool': 2, 'dense_nodes': 42}
…
subject 14, avg accuracy 0.5032388669397184 over 5 splits
subject 15, avg accuracy 0.4648648649454117 over 5 splits
subject 16, avg accuracy 0.578272607363509 over 5 splits
subject 17, avg accuracy 0.6263157901011016 over 5 splits
subject 18, avg accuracy 0.6756756775282524 over 5 splits
subject 19, avg accuracy 0.5579579582801453 over 5 splits
avg accuracy over all subjects 0.544240935785575
_________________________________________________________________
Layer (type)                 Output Shape              Param #   
=================================================================
conv1d_142 (Conv1D)          (None, 31, 28)            71708     
_________________________________________________________________
max_pooling1d_142 (MaxPoolin (None, 10, 28)            0         
_________________________________________________________________
dropout_142 (Dropout)        (None, 10, 28)            0         
_________________________________________________________________
conv1d_143 (Conv1D)          (None, 10, 23)            7751      
_________________________________________________________________
max_pooling1d_143 (MaxPoolin (None, 5, 23)             0         
_________________________________________________________________
dropout_143 (Dropout)        (None, 5, 23)             0         
_________________________________________________________________
conv1d_144 (Conv1D)          (None, 5, 7)              490       
_________________________________________________________________
max_pooling1d_144 (MaxPoolin (None, 2, 7)              0         
_________________________________________________________________
dropout_144 (Dropout)        (None, 2, 7)              0         
_________________________________________________________________
flatten_48 (Flatten)         (None, 14)                0         
_________________________________________________________________
dense_95 (Dense)             (None, 20)                300       
_________________________________________________________________
dense_96 (Dense)             (None, 3)                 63        
=================================================================
Total params: 80,312
Trainable params: 80,312
Non-trainable params: 0
_________________________________________________________________
{'l1_nodes': 28, 'l1_filter': 10, 'l1_dropout': 0.29446766781701245, 'l1_maxpool': 3, 'l2_nodes': 23, 'l2_filter': 12, 'l2_dropout': 0.3954420726134385, 'l2_maxpool': 2, 'l3_nodes': 7, 'l3_filter': 3, 'l3_dropout': 0.3487495461456822, 'l3_maxpool': 2, 'dense_nodes': 20}
…
subject 14, avg accuracy 0.3402159256692196 over 5 splits
subject 15, avg accuracy 0.5148648649454117 over 5 splits
subject 16, avg accuracy 0.4793522273239336 over 5 splits
subject 17, avg accuracy 0.6210526322063648 over 5 splits
subject 18, avg accuracy 0.6270270279935888 over 5 splits
subject 19, avg accuracy 0.5135135136746072 over 5 splits
avg accuracy over all subjects 0.46334235814159236
_________________________________________________________________
Layer (type)                 Output Shape              Param #   
=================================================================
conv1d_145 (Conv1D)          (None, 31, 27)            96795     
_________________________________________________________________
max_pooling1d_145 (MaxPoolin (None, 15, 27)            0         
_________________________________________________________________
dropout_145 (Dropout)        (None, 15, 27)            0         
_________________________________________________________________
conv1d_146 (Conv1D)          (None, 15, 12)            2604      
_________________________________________________________________
max_pooling1d_146 (MaxPoolin (None, 15, 12)            0         
_________________________________________________________________
dropout_146 (Dropout)        (None, 15, 12)            0         
_________________________________________________________________
conv1d_147 (Conv1D)          (None, 15, 5)             665       
_________________________________________________________________
max_pooling1d_147 (MaxPoolin (None, 7, 5)              0         
_________________________________________________________________
dropout_147 (Dropout)        (None, 7, 5)              0         
_________________________________________________________________
flatten_49 (Flatten)         (None, 35)                0         
_________________________________________________________________
dense_97 (Dense)             (None, 26)                936       
_________________________________________________________________
dense_98 (Dense)             (None, 3)                 81        
=================================================================
Total params: 101,081
Trainable params: 101,081
Non-trainable params: 0
_________________________________________________________________
{'l1_nodes': 27, 'l1_filter': 14, 'l1_dropout': 0.48919800982545586, 'l1_maxpool': 2, 'l2_nodes': 12, 'l2_filter': 8, 'l2_dropout': 0.08669321492770404, 'l2_maxpool': 1, 'l3_nodes': 5, 'l3_filter': 11, 'l3_dropout': 0.371242413416502, 'l3_maxpool': 2, 'dense_nodes': 26}
…
subject 14, avg accuracy 0.34062078373956617 over 5 splits
subject 15, avg accuracy 0.5525525531969271 over 5 splits
subject 16, avg accuracy 0.42213225456384507 over 5 splits
subject 17, avg accuracy 0.6052631591495714 over 5 splits
subject 18, avg accuracy 0.643243244693086 over 5 splits
subject 19, avg accuracy 0.563513514157888 over 5 splits
avg accuracy over all subjects 0.48914650241948465
_________________________________________________________________
Layer (type)                 Output Shape              Param #   
=================================================================
conv1d_148 (Conv1D)          (None, 31, 23)            82455     
_________________________________________________________________
max_pooling1d_148 (MaxPoolin (None, 10, 23)            0         
_________________________________________________________________
dropout_148 (Dropout)        (None, 10, 23)            0         
_________________________________________________________________
conv1d_149 (Conv1D)          (None, 10, 20)            4160      
_________________________________________________________________
max_pooling1d_149 (MaxPoolin (None, 10, 20)            0         
_________________________________________________________________
dropout_149 (Dropout)        (None, 10, 20)            0         
_________________________________________________________________
conv1d_150 (Conv1D)          (None, 10, 13)            2613      
_________________________________________________________________
max_pooling1d_150 (MaxPoolin (None, 5, 13)             0         
_________________________________________________________________
dropout_150 (Dropout)        (None, 5, 13)             0         
_________________________________________________________________
flatten_50 (Flatten)         (None, 65)                0         
_________________________________________________________________
dense_99 (Dense)             (None, 23)                1518      
_________________________________________________________________
dense_100 (Dense)            (None, 3)                 72        
=================================================================
Total params: 90,818
Trainable params: 90,818
Non-trainable params: 0
_________________________________________________________________
{'l1_nodes': 23, 'l1_filter': 14, 'l1_dropout': 0.48724403792127613, 'l1_maxpool': 3, 'l2_nodes': 20, 'l2_filter': 9, 'l2_dropout': 0.46699876883221003, 'l2_maxpool': 1, 'l3_nodes': 13, 'l3_filter': 10, 'l3_dropout': 0.09040292820526724, 'l3_maxpool': 2, 'dense_nodes': 23}
…
subject 14, avg accuracy 0.33981106643654235 over 5 splits
subject 15, avg accuracy 0.5361861863472799 over 5 splits
subject 16, avg accuracy 0.5373819178616308 over 5 splits
subject 17, avg accuracy 0.6315789479958384 over 5 splits
subject 18, avg accuracy 0.6648648662341607 over 5 splits
subject 19, avg accuracy 0.5250750757194496 over 5 splits
avg accuracy over all subjects 0.5019427331195814
_________________________________________________________________
Layer (type)                 Output Shape              Param #   
=================================================================
conv1d_151 (Conv1D)          (None, 31, 21)            69909     
_________________________________________________________________
max_pooling1d_151 (MaxPoolin (None, 10, 21)            0         
_________________________________________________________________
dropout_151 (Dropout)        (None, 10, 21)            0         
_________________________________________________________________
conv1d_152 (Conv1D)          (None, 10, 18)            2664      
_________________________________________________________________
max_pooling1d_152 (MaxPoolin (None, 5, 18)             0         
_________________________________________________________________
dropout_152 (Dropout)        (None, 5, 18)             0         
_________________________________________________________________
conv1d_153 (Conv1D)          (None, 5, 12)             876       
_________________________________________________________________
max_pooling1d_153 (MaxPoolin (None, 5, 12)             0         
_________________________________________________________________
dropout_153 (Dropout)        (None, 5, 12)             0         
_________________________________________________________________
flatten_51 (Flatten)         (None, 60)                0         
_________________________________________________________________
dense_101 (Dense)            (None, 37)                2257      
_________________________________________________________________
dense_102 (Dense)            (None, 3)                 114       
=================================================================
Total params: 75,820
Trainable params: 75,820
Non-trainable params: 0
_________________________________________________________________
{'l1_nodes': 21, 'l1_filter': 13, 'l1_dropout': 0.22073393995263985, 'l1_maxpool': 3, 'l2_nodes': 18, 'l2_filter': 7, 'l2_dropout': 0.3968196273192806, 'l2_maxpool': 2, 'l3_nodes': 12, 'l3_filter': 4, 'l3_dropout': 0.19226933640058824, 'l3_maxpool': 1, 'dense_nodes': 37}
…
subject 14, avg accuracy 0.4241565466088 over 5 splits
subject 15, avg accuracy 0.5258258259063726 over 5 splits
subject 16, avg accuracy 0.5780027005916987 over 5 splits
subject 17, avg accuracy 0.6631578952074051 over 5 splits
subject 18, avg accuracy 0.6756756775282524 over 5 splits
subject 19, avg accuracy 0.501651651973839 over 5 splits
avg accuracy over all subjects 0.5123712455029166
_________________________________________________________________
Layer (type)                 Output Shape              Param #   
=================================================================
conv1d_154 (Conv1D)          (None, 31, 29)            111389    
_________________________________________________________________
max_pooling1d_154 (MaxPoolin (None, 10, 29)            0         
_________________________________________________________________
dropout_154 (Dropout)        (None, 10, 29)            0         
_________________________________________________________________
conv1d_155 (Conv1D)          (None, 10, 18)            2628      
_________________________________________________________________
max_pooling1d_155 (MaxPoolin (None, 10, 18)            0         
_________________________________________________________________
dropout_155 (Dropout)        (None, 10, 18)            0         
_________________________________________________________________
conv1d_156 (Conv1D)          (None, 10, 2)             218       
_________________________________________________________________
max_pooling1d_156 (MaxPoolin (None, 10, 2)             0         
_________________________________________________________________
dropout_156 (Dropout)        (None, 10, 2)             0         
_________________________________________________________________
flatten_52 (Flatten)         (None, 20)                0         
_________________________________________________________________
dense_103 (Dense)            (None, 40)                840       
_________________________________________________________________
dense_104 (Dense)            (None, 3)                 123       
=================================================================
Total params: 115,198
Trainable params: 115,198
Non-trainable params: 0
_________________________________________________________________
{'l1_nodes': 29, 'l1_filter': 15, 'l1_dropout': 0.2052210377876802, 'l1_maxpool': 3, 'l2_nodes': 18, 'l2_filter': 5, 'l2_dropout': 0.2511265322696185, 'l2_maxpool': 1, 'l3_nodes': 2, 'l3_filter': 6, 'l3_dropout': 0.3693731406776386, 'l3_maxpool': 1, 'dense_nodes': 40}
…
subject 14, avg accuracy 0.38704453534201566 over 5 splits
subject 15, avg accuracy 0.514264264425358 over 5 splits
subject 16, avg accuracy 0.5261808390318141 over 5 splits
subject 17, avg accuracy 0.5789473693621786 over 5 splits
subject 18, avg accuracy 0.68648648841961 over 5 splits
subject 19, avg accuracy 0.5256756763200502 over 5 splits
avg accuracy over all subjects 0.491941740534263
_________________________________________________________________
Layer (type)                 Output Shape              Param #   
=================================================================
conv1d_157 (Conv1D)          (None, 31, 24)            73752     
_________________________________________________________________
max_pooling1d_157 (MaxPoolin (None, 10, 24)            0         
_________________________________________________________________
dropout_157 (Dropout)        (None, 10, 24)            0         
_________________________________________________________________
conv1d_158 (Conv1D)          (None, 10, 11)            1331      
_________________________________________________________________
max_pooling1d_158 (MaxPoolin (None, 5, 11)             0         
_________________________________________________________________
dropout_158 (Dropout)        (None, 5, 11)             0         
_________________________________________________________________
conv1d_159 (Conv1D)          (None, 5, 8)              184       
_________________________________________________________________
max_pooling1d_159 (MaxPoolin (None, 2, 8)              0         
_________________________________________________________________
dropout_159 (Dropout)        (None, 2, 8)              0         
_________________________________________________________________
flatten_53 (Flatten)         (None, 16)                0         
_________________________________________________________________
dense_105 (Dense)            (None, 48)                816       
_________________________________________________________________
dense_106 (Dense)            (None, 3)                 147       
=================================================================
Total params: 76,230
Trainable params: 76,230
Non-trainable params: 0
_________________________________________________________________
{'l1_nodes': 24, 'l1_filter': 12, 'l1_dropout': 0.22030222143703393, 'l1_maxpool': 3, 'l2_nodes': 11, 'l2_filter': 5, 'l2_dropout': 0.03944173880986629, 'l2_maxpool': 2, 'l3_nodes': 8, 'l3_filter': 2, 'l3_dropout': 0.48120710911149317, 'l3_maxpool': 2, 'dense_nodes': 48}
…
subject 14, avg accuracy 0.4608637005050495 over 5 splits
subject 15, avg accuracy 0.5418918919724387 over 5 splits
subject 16, avg accuracy 0.5210526329624829 over 5 splits
subject 17, avg accuracy 0.6368421046357405 over 5 splits
subject 18, avg accuracy 0.6486486492124763 over 5 splits
subject 19, avg accuracy 0.4864864866475801 over 5 splits
avg accuracy over all subjects 0.5177606091278981
_________________________________________________________________
Layer (type)                 Output Shape              Param #   
=================================================================
conv1d_160 (Conv1D)          (None, 31, 21)            102165    
_________________________________________________________________
max_pooling1d_160 (MaxPoolin (None, 10, 21)            0         
_________________________________________________________________
dropout_160 (Dropout)        (None, 10, 21)            0         
_________________________________________________________________
conv1d_161 (Conv1D)          (None, 10, 23)            4370      
_________________________________________________________________
max_pooling1d_161 (MaxPoolin (None, 10, 23)            0         
_________________________________________________________________
dropout_161 (Dropout)        (None, 10, 23)            0         
_________________________________________________________________
conv1d_162 (Conv1D)          (None, 10, 9)             2907      
_________________________________________________________________
max_pooling1d_162 (MaxPoolin (None, 5, 9)              0         
_________________________________________________________________
dropout_162 (Dropout)        (None, 5, 9)              0         
_________________________________________________________________
flatten_54 (Flatten)         (None, 45)                0         
_________________________________________________________________
dense_107 (Dense)            (None, 28)                1288      
_________________________________________________________________
dense_108 (Dense)            (None, 3)                 87        
=================================================================
Total params: 110,817
Trainable params: 110,817
Non-trainable params: 0
_________________________________________________________________
{'l1_nodes': 21, 'l1_filter': 19, 'l1_dropout': 0.288267438904241, 'l1_maxpool': 3, 'l2_nodes': 23, 'l2_filter': 9, 'l2_dropout': 0.29185403630260165, 'l2_maxpool': 1, 'l3_nodes': 9, 'l3_filter': 14, 'l3_dropout': 0.08482996967307282, 'l3_maxpool': 2, 'dense_nodes': 28}
…
subject 14, avg accuracy 0.4815114723123841 over 5 splits
subject 15, avg accuracy 0.5810810812421747 over 5 splits
subject 16, avg accuracy 0.5993252363040862 over 5 splits
subject 17, avg accuracy 0.668421052631579 over 5 splits
subject 18, avg accuracy 0.6918918945499369 over 5 splits
subject 19, avg accuracy 0.6076576576576577 over 5 splits
avg accuracy over all subjects 0.5636140874035239
_________________________________________________________________
Layer (type)                 Output Shape              Param #   
=================================================================
conv1d_163 (Conv1D)          (None, 31, 24)            92184     
_________________________________________________________________
max_pooling1d_163 (MaxPoolin (None, 10, 24)            0         
_________________________________________________________________
dropout_163 (Dropout)        (None, 10, 24)            0         
_________________________________________________________________
conv1d_164 (Conv1D)          (None, 10, 12)            4044      
_________________________________________________________________
max_pooling1d_164 (MaxPoolin (None, 5, 12)             0         
_________________________________________________________________
dropout_164 (Dropout)        (None, 5, 12)             0         
_________________________________________________________________
conv1d_165 (Conv1D)          (None, 5, 4)              532       
_________________________________________________________________
max_pooling1d_165 (MaxPoolin (None, 5, 4)              0         
_________________________________________________________________
dropout_165 (Dropout)        (None, 5, 4)              0         
_________________________________________________________________
flatten_55 (Flatten)         (None, 20)                0         
_________________________________________________________________
dense_109 (Dense)            (None, 44)                924       
_________________________________________________________________
dense_110 (Dense)            (None, 3)                 135       
=================================================================
Total params: 97,819
Trainable params: 97,819
Non-trainable params: 0
_________________________________________________________________
{'l1_nodes': 24, 'l1_filter': 15, 'l1_dropout': 0.028812552221497367, 'l1_maxpool': 3, 'l2_nodes': 12, 'l2_filter': 14, 'l2_dropout': 0.39416773004675754, 'l2_maxpool': 2, 'l3_nodes': 4, 'l3_filter': 11, 'l3_dropout': 0.35880119750117473, 'l3_maxpool': 1, 'dense_nodes': 44}
…
subject 14, avg accuracy 0.46639676073543457 over 5 splits
subject 15, avg accuracy 0.5530030030835498 over 5 splits
subject 16, avg accuracy 0.5939271262863227 over 5 splits
subject 17, avg accuracy 0.6052631585221542 over 5 splits
subject 18, avg accuracy 0.6432432446125391 over 5 splits
subject 19, avg accuracy 0.5911411411411411 over 5 splits
avg accuracy over all subjects 0.5634697796767906
_________________________________________________________________
Layer (type)                 Output Shape              Param #   
=================================================================
conv1d_166 (Conv1D)          (None, 31, 26)            73242     
_________________________________________________________________
max_pooling1d_166 (MaxPoolin (None, 10, 26)            0         
_________________________________________________________________
dropout_166 (Dropout)        (None, 10, 26)            0         
_________________________________________________________________
conv1d_167 (Conv1D)          (None, 10, 12)            4068      
_________________________________________________________________
max_pooling1d_167 (MaxPoolin (None, 5, 12)             0         
_________________________________________________________________
dropout_167 (Dropout)        (None, 5, 12)             0         
_________________________________________________________________
conv1d_168 (Conv1D)          (None, 5, 11)             275       
_________________________________________________________________
max_pooling1d_168 (MaxPoolin (None, 2, 11)             0         
_________________________________________________________________
dropout_168 (Dropout)        (None, 2, 11)             0         
_________________________________________________________________
flatten_56 (Flatten)         (None, 22)                0         
_________________________________________________________________
dense_111 (Dense)            (None, 40)                920       
_________________________________________________________________
dense_112 (Dense)            (None, 3)                 123       
=================================================================
Total params: 78,628
Trainable params: 78,628
Non-trainable params: 0
_________________________________________________________________
{'l1_nodes': 26, 'l1_filter': 11, 'l1_dropout': 0.19843761369497664, 'l1_maxpool': 3, 'l2_nodes': 12, 'l2_filter': 13, 'l2_dropout': 0.3697180115837937, 'l2_maxpool': 2, 'l3_nodes': 11, 'l3_filter': 2, 'l3_dropout': 0.4695328341965135, 'l3_maxpool': 2, 'dense_nodes': 40}
…
subject 14, avg accuracy 0.41916329393341795 over 5 splits
subject 15, avg accuracy 0.5860360361971297 over 5 splits
subject 16, avg accuracy 0.46869095971307606 over 5 splits
subject 17, avg accuracy 0.6368421049494492 over 5 splits
subject 18, avg accuracy 0.6486486496152104 over 5 splits
subject 19, avg accuracy 0.47477477541914925 over 5 splits
avg accuracy over all subjects 0.4879836323751107
_________________________________________________________________
Layer (type)                 Output Shape              Param #   
=================================================================
conv1d_169 (Conv1D)          (None, 31, 29)            89117     
_________________________________________________________________
max_pooling1d_169 (MaxPoolin (None, 15, 29)            0         
_________________________________________________________________
dropout_169 (Dropout)        (None, 15, 29)            0         
_________________________________________________________________
conv1d_170 (Conv1D)          (None, 15, 17)            4454      
_________________________________________________________________
max_pooling1d_170 (MaxPoolin (None, 15, 17)            0         
_________________________________________________________________
dropout_170 (Dropout)        (None, 15, 17)            0         
_________________________________________________________________
conv1d_171 (Conv1D)          (None, 15, 3)             462       
_________________________________________________________________
max_pooling1d_171 (MaxPoolin (None, 15, 3)             0         
_________________________________________________________________
dropout_171 (Dropout)        (None, 15, 3)             0         
_________________________________________________________________
flatten_57 (Flatten)         (None, 45)                0         
_________________________________________________________________
dense_113 (Dense)            (None, 29)                1334      
_________________________________________________________________
dense_114 (Dense)            (None, 3)                 90        
=================================================================
Total params: 95,457
Trainable params: 95,457
Non-trainable params: 0
_________________________________________________________________
{'l1_nodes': 29, 'l1_filter': 12, 'l1_dropout': 0.2018011709704573, 'l1_maxpool': 2, 'l2_nodes': 17, 'l2_filter': 9, 'l2_dropout': 0.06124770057938528, 'l2_maxpool': 1, 'l3_nodes': 3, 'l3_filter': 9, 'l3_dropout': 0.123930742480298, 'l3_maxpool': 1, 'dense_nodes': 29}
…
subject 14, avg accuracy 0.4821862368448543 over 5 splits
subject 15, avg accuracy 0.6238738745182484 over 5 splits
subject 16, avg accuracy 0.5786774650517745 over 5 splits
subject 17, avg accuracy 0.6947368433600978 over 5 splits
subject 18, avg accuracy 0.6702702716395661 over 5 splits
subject 19, avg accuracy 0.6189189195632935 over 5 splits
avg accuracy over all subjects 0.5600010955942383
_________________________________________________________________
Layer (type)                 Output Shape              Param #   
=================================================================
conv1d_172 (Conv1D)          (None, 31, 28)            86044     
_________________________________________________________________
max_pooling1d_172 (MaxPoolin (None, 15, 28)            0         
_________________________________________________________________
dropout_172 (Dropout)        (None, 15, 28)            0         
_________________________________________________________________
conv1d_173 (Conv1D)          (None, 15, 10)            3090      
_________________________________________________________________
max_pooling1d_173 (MaxPoolin (None, 15, 10)            0         
_________________________________________________________________
dropout_173 (Dropout)        (None, 15, 10)            0         
_________________________________________________________________
conv1d_174 (Conv1D)          (None, 15, 3)             393       
_________________________________________________________________
max_pooling1d_174 (MaxPoolin (None, 15, 3)             0         
_________________________________________________________________
dropout_174 (Dropout)        (None, 15, 3)             0         
_________________________________________________________________
flatten_58 (Flatten)         (None, 45)                0         
_________________________________________________________________
dense_115 (Dense)            (None, 48)                2208      
_________________________________________________________________
dense_116 (Dense)            (None, 3)                 147       
=================================================================
Total params: 91,882
Trainable params: 91,882
Non-trainable params: 0
_________________________________________________________________
…
flatten_81 (Flatten)         (None, 25)                0         
_________________________________________________________________
dense_161 (Dense)            (None, 29)                754       
_________________________________________________________________
dense_162 (Dense)            (None, 3)                 90        
=================================================================
Total params: 79,676
Trainable params: 79,676
Non-trainable params: 0
_________________________________________________________________
{'l1_nodes': 23, 'l1_filter': 12, 'l1_dropout': 0.12584419412983733, 'l1_maxpool': 3, 'l2_nodes': 21, 'l2_filter': 14, 'l2_dropout': 0.18499342631779359, 'l2_maxpool': 1, 'l3_nodes': 5, 'l3_filter': 13, 'l3_dropout': 0.20998568357255815, 'l3_maxpool': 2, 'dense_nodes': 29}
…
subject 14, avg accuracy 0.5025641042050402 over 5 splits
subject 15, avg accuracy 0.6300300301911237 over 5 splits
subject 16, avg accuracy 0.5634278021199822 over 5 splits
subject 17, avg accuracy 0.7052631575810282 over 5 splits
subject 18, avg accuracy 0.68648648841961 over 5 splits
subject 19, avg accuracy 0.5858858862080731 over 5 splits
avg accuracy over all subjects 0.5844957316601171
_________________________________________________________________
Layer (type)                 Output Shape              Param #   
=================================================================
conv1d_244 (Conv1D)          (None, 31, 28)            86044     
_________________________________________________________________
max_pooling1d_244 (MaxPoolin (None, 10, 28)            0         
_________________________________________________________________
dropout_244 (Dropout)        (None, 10, 28)            0         
_________________________________________________________________
conv1d_245 (Conv1D)          (None, 10, 14)            4326      
_________________________________________________________________
max_pooling1d_245 (MaxPoolin (None, 5, 14)             0         
_________________________________________________________________
dropout_245 (Dropout)        (None, 5, 14)             0         
_________________________________________________________________
conv1d_246 (Conv1D)          (None, 5, 9)              1143      
_________________________________________________________________
max_pooling1d_246 (MaxPoolin (None, 2, 9)              0         
_________________________________________________________________
dropout_246 (Dropout)        (None, 2, 9)              0         
_________________________________________________________________
flatten_82 (Flatten)         (None, 18)                0         
_________________________________________________________________
dense_163 (Dense)            (None, 31)                589       
_________________________________________________________________
dense_164 (Dense)            (None, 3)                 96        
=================================================================
Total params: 92,198
Trainable params: 92,198
Non-trainable params: 0
_________________________________________________________________
{'l1_nodes': 28, 'l1_filter': 12, 'l1_dropout': 0.4642033604922918, 'l1_maxpool': 3, 'l2_nodes': 14, 'l2_filter': 11, 'l2_dropout': 0.4416749406409701, 'l2_maxpool': 2, 'l3_nodes': 9, 'l3_filter': 9, 'l3_dropout': 0.3601016000023577, 'l3_maxpool': 2, 'dense_nodes': 31}
…
subject 14, avg accuracy 0.3244264514420518 over 5 splits
subject 15, avg accuracy 0.5412912913718382 over 5 splits
subject 16, avg accuracy 0.4635627558195961 over 5 splits
subject 17, avg accuracy 0.6368421065179926 over 5 splits
subject 18, avg accuracy 0.7135135148022625 over 5 splits
subject 19, avg accuracy 0.48573573638011025 over 5 splits
avg accuracy over all subjects 0.47443766432963674
_________________________________________________________________
Layer (type)                 Output Shape              Param #   
=================================================================
conv1d_247 (Conv1D)          (None, 31, 24)            104472    
_________________________________________________________________
max_pooling1d_247 (MaxPoolin (None, 10, 24)            0         
_________________________________________________________________
dropout_247 (Dropout)        (None, 10, 24)            0         
_________________________________________________________________
conv1d_248 (Conv1D)          (None, 10, 10)            3130      
_________________________________________________________________
max_pooling1d_248 (MaxPoolin (None, 5, 10)             0         
_________________________________________________________________
dropout_248 (Dropout)        (None, 5, 10)             0         
_________________________________________________________________
conv1d_249 (Conv1D)          (None, 5, 7)              847       
_________________________________________________________________
max_pooling1d_249 (MaxPoolin (None, 2, 7)              0         
_________________________________________________________________
dropout_249 (Dropout)        (None, 2, 7)              0         
_________________________________________________________________
flatten_83 (Flatten)         (None, 14)                0         
_________________________________________________________________
dense_165 (Dense)            (None, 40)                600       
_________________________________________________________________
dense_166 (Dense)            (None, 3)                 123       
=================================================================
Total params: 109,172
Trainable params: 109,172
Non-trainable params: 0
_________________________________________________________________
{'l1_nodes': 24, 'l1_filter': 17, 'l1_dropout': 0.24218487447866738, 'l1_maxpool': 3, 'l2_nodes': 10, 'l2_filter': 13, 'l2_dropout': 0.09470028750598841, 'l2_maxpool': 2, 'l3_nodes': 7, 'l3_filter': 12, 'l3_dropout': 0.11257276737579569, 'l3_maxpool': 2, 'dense_nodes': 40}
…
subject 14, avg accuracy 0.45573549351470194 over 5 splits
subject 15, avg accuracy 0.6133633635244571 over 5 splits
subject 16, avg accuracy 0.5947368428694253 over 5 splits
subject 17, avg accuracy 0.6736842108400245 over 5 splits
subject 18, avg accuracy 0.6756756769644248 over 5 splits
subject 19, avg accuracy 0.6348348351570221 over 5 splits
avg accuracy over all subjects 0.5870281562956644
_________________________________________________________________
Layer (type)                 Output Shape              Param #   
=================================================================
conv1d_250 (Conv1D)          (None, 31, 20)            81940     
_________________________________________________________________
max_pooling1d_250 (MaxPoolin (None, 15, 20)            0         
_________________________________________________________________
dropout_250 (Dropout)        (None, 15, 20)            0         
_________________________________________________________________
conv1d_251 (Conv1D)          (None, 15, 16)            2256      
_________________________________________________________________
max_pooling1d_251 (MaxPoolin (None, 7, 16)             0         
_________________________________________________________________
dropout_251 (Dropout)        (None, 7, 16)             0         
_________________________________________________________________
conv1d_252 (Conv1D)          (None, 7, 12)             2316      
_________________________________________________________________
max_pooling1d_252 (MaxPoolin (None, 3, 12)             0         
_________________________________________________________________
dropout_252 (Dropout)        (None, 3, 12)             0         
_________________________________________________________________
flatten_84 (Flatten)         (None, 36)                0         
_________________________________________________________________
dense_167 (Dense)            (None, 21)                777       
_________________________________________________________________
dense_168 (Dense)            (None, 3)                 66        
=================================================================
Total params: 87,355
Trainable params: 87,355
Non-trainable params: 0
_________________________________________________________________
{'l1_nodes': 20, 'l1_filter': 16, 'l1_dropout': 0.17096950304394992, 'l1_maxpool': 2, 'l2_nodes': 16, 'l2_filter': 7, 'l2_dropout': 0.24669480674630995, 'l2_maxpool': 2, 'l3_nodes': 12, 'l3_filter': 12, 'l3_dropout': 0.0720029683380462, 'l3_maxpool': 2, 'dense_nodes': 21}
…
subject 14, avg accuracy 0.4551956828990285 over 5 splits
subject 15, avg accuracy 0.596696697018884 over 5 splits
subject 16, avg accuracy 0.558569501607846 over 5 splits
subject 17, avg accuracy 0.6947368433600978 over 5 splits
subject 18, avg accuracy 0.6702702718812066 over 5 splits
subject 19, avg accuracy 0.5855855857466792 over 5 splits
avg accuracy over all subjects 0.5689377310565367
_________________________________________________________________
Layer (type)                 Output Shape              Param #   
=================================================================
conv1d_253 (Conv1D)          (None, 31, 25)            76825     
_________________________________________________________________
max_pooling1d_253 (MaxPoolin (None, 10, 25)            0         
_________________________________________________________________
dropout_253 (Dropout)        (None, 10, 25)            0         
_________________________________________________________________
conv1d_254 (Conv1D)          (None, 10, 19)            3819      
_________________________________________________________________
max_pooling1d_254 (MaxPoolin (None, 10, 19)            0         
_________________________________________________________________
dropout_254 (Dropout)        (None, 10, 19)            0         
_________________________________________________________________
conv1d_255 (Conv1D)          (None, 10, 2)             116       
_________________________________________________________________
max_pooling1d_255 (MaxPoolin (None, 5, 2)              0         
_________________________________________________________________
dropout_255 (Dropout)        (None, 5, 2)              0         
_________________________________________________________________
flatten_85 (Flatten)         (None, 10)                0         
_________________________________________________________________
dense_169 (Dense)            (None, 42)                462       
_________________________________________________________________
dense_170 (Dense)            (None, 3)                 129       
=================================================================
Total params: 81,351
Trainable params: 81,351
Non-trainable params: 0
_________________________________________________________________
{'l1_nodes': 25, 'l1_filter': 12, 'l1_dropout': 0.13151795183132675, 'l1_maxpool': 3, 'l2_nodes': 19, 'l2_filter': 8, 'l2_dropout': 0.056555226790927615, 'l2_maxpool': 1, 'l3_nodes': 2, 'l3_filter': 3, 'l3_dropout': 0.4876858835582257, 'l3_maxpool': 2, 'dense_nodes': 42}
…
subject 14, avg accuracy 0.49230769246052464 over 5 splits
subject 15, avg accuracy 0.5695195196806131 over 5 splits
subject 16, avg accuracy 0.5470985162837302 over 5 splits
subject 17, avg accuracy 0.6526315805159116 over 5 splits
subject 18, avg accuracy 0.6432432443708987 over 5 splits
subject 19, avg accuracy 0.5306306307917242 over 5 splits
avg accuracy over all subjects 0.5145928665650495
_________________________________________________________________
Layer (type)                 Output Shape              Param #   
=================================================================
conv1d_256 (Conv1D)          (None, 31, 20)            71700     
_________________________________________________________________
max_pooling1d_256 (MaxPoolin (None, 10, 20)            0         
_________________________________________________________________
dropout_256 (Dropout)        (None, 10, 20)            0         
_________________________________________________________________
conv1d_257 (Conv1D)          (None, 10, 10)            2010      
_________________________________________________________________
max_pooling1d_257 (MaxPoolin (None, 5, 10)             0         
_________________________________________________________________
dropout_257 (Dropout)        (None, 5, 10)             0         
_________________________________________________________________
conv1d_258 (Conv1D)          (None, 5, 1)              41        
_________________________________________________________________
max_pooling1d_258 (MaxPoolin (None, 2, 1)              0         
_________________________________________________________________
dropout_258 (Dropout)        (None, 2, 1)              0         
_________________________________________________________________
flatten_86 (Flatten)         (None, 2)                 0         
_________________________________________________________________
dense_171 (Dense)            (None, 34)                102       
_________________________________________________________________
dense_172 (Dense)            (None, 3)                 105       
=================================================================
Total params: 73,958
Trainable params: 73,958
Non-trainable params: 0
_________________________________________________________________
{'l1_nodes': 20, 'l1_filter': 14, 'l1_dropout': 0.08934185043113829, 'l1_maxpool': 3, 'l2_nodes': 10, 'l2_filter': 10, 'l2_dropout': 0.48934466546676064, 'l2_maxpool': 2, 'l3_nodes': 1, 'l3_filter': 4, 'l3_dropout': 0.10414871160969075, 'l3_maxpool': 2, 'dense_nodes': 34}
…
subject 14, avg accuracy 0.4395411606661865 over 5 splits
subject 15, avg accuracy 0.6028528529333996 over 5 splits
subject 16, avg accuracy 0.5526315808135327 over 5 splits
subject 17, avg accuracy 0.6210526309515301 over 5 splits
subject 18, avg accuracy 0.6486486504206787 over 5 splits
subject 19, avg accuracy 0.5469969973191843 over 5 splits
avg accuracy over all subjects 0.5589675381866308
_________________________________________________________________
Layer (type)                 Output Shape              Param #   
=================================================================
conv1d_259 (Conv1D)          (None, 31, 27)            82971     
_________________________________________________________________
max_pooling1d_259 (MaxPoolin (None, 10, 27)            0         
_________________________________________________________________
dropout_259 (Dropout)        (None, 10, 27)            0         
_________________________________________________________________
conv1d_260 (Conv1D)          (None, 10, 18)            3906      
_________________________________________________________________
max_pooling1d_260 (MaxPoolin (None, 5, 18)             0         
_________________________________________________________________
dropout_260 (Dropout)        (None, 5, 18)             0         
_________________________________________________________________
conv1d_261 (Conv1D)          (None, 5, 2)              218       
_________________________________________________________________
max_pooling1d_261 (MaxPoolin (None, 5, 2)              0         
_________________________________________________________________
dropout_261 (Dropout)        (None, 5, 2)              0         
_________________________________________________________________
flatten_87 (Flatten)         (None, 10)                0         
_________________________________________________________________
dense_173 (Dense)            (None, 33)                363       
_________________________________________________________________
dense_174 (Dense)            (None, 3)                 102       
=================================================================
Total params: 87,560
Trainable params: 87,560
Non-trainable params: 0
_________________________________________________________________
{'l1_nodes': 27, 'l1_filter': 12, 'l1_dropout': 0.07043683699941838, 'l1_maxpool': 3, 'l2_nodes': 18, 'l2_filter': 8, 'l2_dropout': 0.01597333772964954, 'l2_maxpool': 2, 'l3_nodes': 2, 'l3_filter': 6, 'l3_dropout': 0.48916962932451385, 'l3_maxpool': 1, 'dense_nodes': 33}
…
subject 14, avg accuracy 0.4083670712072357 over 5 splits
subject 15, avg accuracy 0.5081081087524827 over 5 splits
subject 16, avg accuracy 0.5206477760705549 over 5 splits
subject 17, avg accuracy 0.6631578947368422 over 5 splits
subject 18, avg accuracy 0.6702702718812066 over 5 splits
subject 19, avg accuracy 0.5527027033470773 over 5 splits
avg accuracy over all subjects 0.52147214834256
_________________________________________________________________
Layer (type)                 Output Shape              Param #   
=================================================================
conv1d_262 (Conv1D)          (None, 31, 22)            67606     
_________________________________________________________________
max_pooling1d_262 (MaxPoolin (None, 15, 22)            0         
_________________________________________________________________
dropout_262 (Dropout)        (None, 15, 22)            0         
_________________________________________________________________
conv1d_263 (Conv1D)          (None, 15, 18)            5166      
_________________________________________________________________
max_pooling1d_263 (MaxPoolin (None, 15, 18)            0         
_________________________________________________________________
dropout_263 (Dropout)        (None, 15, 18)            0         
_________________________________________________________________
conv1d_264 (Conv1D)          (None, 15, 3)             543       
_________________________________________________________________
max_pooling1d_264 (MaxPoolin (None, 7, 3)              0         
_________________________________________________________________
dropout_264 (Dropout)        (None, 7, 3)              0         
_________________________________________________________________
flatten_88 (Flatten)         (None, 21)                0         
_________________________________________________________________
dense_175 (Dense)            (None, 45)                990       
_________________________________________________________________
dense_176 (Dense)            (None, 3)                 138       
=================================================================
Total params: 74,443
Trainable params: 74,443
Non-trainable params: 0
_________________________________________________________________
{'l1_nodes': 22, 'l1_filter': 12, 'l1_dropout': 0.37836077929963724, 'l1_maxpool': 2, 'l2_nodes': 18, 'l2_filter': 13, 'l2_dropout': 0.24745096920361576, 'l2_maxpool': 1, 'l3_nodes': 3, 'l3_filter': 10, 'l3_dropout': 0.07037921830789956, 'l3_maxpool': 2, 'dense_nodes': 45}
…
subject 14, avg accuracy 0.4398110658855413 over 5 splits
subject 15, avg accuracy 0.5738738741960612 over 5 splits
subject 16, avg accuracy 0.594331984577874 over 5 splits
subject 17, avg accuracy 0.6684210529452876 over 5 splits
subject 18, avg accuracy 0.6702702713979256 over 5 splits
subject 19, avg accuracy 0.5521021027464765 over 5 splits
avg accuracy over all subjects 0.5608171609640492
_________________________________________________________________
Layer (type)                 Output Shape              Param #   
=================================================================
conv1d_265 (Conv1D)          (None, 31, 26)            126490    
_________________________________________________________________
max_pooling1d_265 (MaxPoolin (None, 15, 26)            0         
_________________________________________________________________
dropout_265 (Dropout)        (None, 15, 26)            0         
_________________________________________________________________
conv1d_266 (Conv1D)          (None, 15, 19)            4959      
_________________________________________________________________
max_pooling1d_266 (MaxPoolin (None, 7, 19)             0         
_________________________________________________________________
dropout_266 (Dropout)        (None, 7, 19)             0         
_________________________________________________________________
conv1d_267 (Conv1D)          (None, 7, 5)              955       
_________________________________________________________________
max_pooling1d_267 (MaxPoolin (None, 7, 5)              0         
_________________________________________________________________
dropout_267 (Dropout)        (None, 7, 5)              0         
_________________________________________________________________
flatten_89 (Flatten)         (None, 35)                0         
_________________________________________________________________
dense_177 (Dense)            (None, 48)                1728      
_________________________________________________________________
dense_178 (Dense)            (None, 3)                 147       
=================================================================
Total params: 134,279
Trainable params: 134,279
Non-trainable params: 0
_________________________________________________________________
{'l1_nodes': 26, 'l1_filter': 19, 'l1_dropout': 0.16120594562198642, 'l1_maxpool': 2, 'l2_nodes': 19, 'l2_filter': 10, 'l2_dropout': 0.46973060775274816, 'l2_maxpool': 2, 'l3_nodes': 5, 'l3_filter': 10, 'l3_dropout': 0.11715523059665667, 'l3_maxpool': 1, 'dense_nodes': 48}
…
subject 14, avg accuracy 0.4820512837646139 over 5 splits
subject 15, avg accuracy 0.5857357363801103 over 5 splits
subject 16, avg accuracy 0.5627530385929885 over 5 splits
subject 17, avg accuracy 0.6684210538864136 over 5 splits
subject 18, avg accuracy 0.6810810822087365 over 5 splits
subject 19, avg accuracy 0.6079579586023325 over 5 splits
avg accuracy over all subjects 0.5601854227289897
_________________________________________________________________
Layer (type)                 Output Shape              Param #   
=================================================================
conv1d_268 (Conv1D)          (None, 31, 22)            78870     
_________________________________________________________________
max_pooling1d_268 (MaxPoolin (None, 15, 22)            0         
_________________________________________________________________
dropout_268 (Dropout)        (None, 15, 22)            0         
_________________________________________________________________
conv1d_269 (Conv1D)          (None, 15, 10)            1110      
_________________________________________________________________
max_pooling1d_269 (MaxPoolin (None, 7, 10)             0         
_________________________________________________________________
dropout_269 (Dropout)        (None, 7, 10)             0         
_________________________________________________________________
conv1d_270 (Conv1D)          (None, 7, 11)             1111      
_________________________________________________________________
max_pooling1d_270 (MaxPoolin (None, 3, 11)             0         
_________________________________________________________________
dropout_270 (Dropout)        (None, 3, 11)             0         
_________________________________________________________________
flatten_90 (Flatten)         (None, 33)                0         
_________________________________________________________________
dense_179 (Dense)            (None, 40)                1360      
_________________________________________________________________
dense_180 (Dense)            (None, 3)                 123       
=================================================================
Total params: 82,574
Trainable params: 82,574
Non-trainable params: 0
_________________________________________________________________
{'l1_nodes': 22, 'l1_filter': 14, 'l1_dropout': 0.4997222990521605, 'l1_maxpool': 2, 'l2_nodes': 10, 'l2_filter': 5, 'l2_dropout': 0.42089723779172344, 'l2_maxpool': 2, 'l3_nodes': 11, 'l3_filter': 10, 'l3_dropout': 0.27884817155967573, 'l3_maxpool': 2, 'dense_nodes': 40}
…
subject 14, avg accuracy 0.40323886756713573 over 5 splits
subject 15, avg accuracy 0.5147147148758083 over 5 splits
subject 16, avg accuracy 0.5676113369413394 over 5 splits
subject 17, avg accuracy 0.5736842102126071 over 5 splits
subject 18, avg accuracy 0.6378378388043997 over 5 splits
subject 19, avg accuracy 0.49684684716903416 over 5 splits
avg accuracy over all subjects 0.5020421240619023
_________________________________________________________________
Layer (type)                 Output Shape              Param #   
=================================================================
conv1d_271 (Conv1D)          (None, 31, 22)            101398    
_________________________________________________________________
max_pooling1d_271 (MaxPoolin (None, 10, 22)            0         
_________________________________________________________________
dropout_271 (Dropout)        (None, 10, 22)            0         
_________________________________________________________________
conv1d_272 (Conv1D)          (None, 10, 16)            4944      
_________________________________________________________________
max_pooling1d_272 (MaxPoolin (None, 5, 16)             0         
_________________________________________________________________
dropout_272 (Dropout)        (None, 5, 16)             0         
_________________________________________________________________
conv1d_273 (Conv1D)          (None, 5, 10)             1290      
_________________________________________________________________
max_pooling1d_273 (MaxPoolin (None, 5, 10)             0         
_________________________________________________________________
dropout_273 (Dropout)        (None, 5, 10)             0         
_________________________________________________________________
flatten_91 (Flatten)         (None, 50)                0         
_________________________________________________________________
dense_181 (Dense)            (None, 37)                1887      
_________________________________________________________________
dense_182 (Dense)            (None, 3)                 114       
=================================================================
Total params: 109,633
Trainable params: 109,633
Non-trainable params: 0
_________________________________________________________________
{'l1_nodes': 22, 'l1_filter': 18, 'l1_dropout': 0.22213575117844786, 'l1_maxpool': 3, 'l2_nodes': 16, 'l2_filter': 14, 'l2_dropout': 0.06962413297022152, 'l2_maxpool': 2, 'l3_nodes': 10, 'l3_filter': 8, 'l3_dropout': 0.39594807291869616, 'l3_maxpool': 1, 'dense_nodes': 37}
…
subject 14, avg accuracy 0.4923076937917756 over 5 splits
subject 15, avg accuracy 0.6303303309747048 over 5 splits
subject 16, avg accuracy 0.5627530372094529 over 5 splits
subject 17, avg accuracy 0.700000000941126 over 5 splits
subject 18, avg accuracy 0.6540540559871777 over 5 splits
subject 19, avg accuracy 0.591441442085816 over 5 splits
avg accuracy over all subjects 0.5815764832647861
_________________________________________________________________
Layer (type)                 Output Shape              Param #   
=================================================================
conv1d_274 (Conv1D)          (None, 31, 20)            92180     
_________________________________________________________________
max_pooling1d_274 (MaxPoolin (None, 10, 20)            0         
_________________________________________________________________
dropout_274 (Dropout)        (None, 10, 20)            0         
_________________________________________________________________
conv1d_275 (Conv1D)          (None, 10, 24)            2424      
_________________________________________________________________
max_pooling1d_275 (MaxPoolin (None, 5, 24)             0         
_________________________________________________________________
dropout_275 (Dropout)        (None, 5, 24)             0         
_________________________________________________________________
conv1d_276 (Conv1D)          (None, 5, 4)              964       
_________________________________________________________________
max_pooling1d_276 (MaxPoolin (None, 5, 4)              0         
_________________________________________________________________
dropout_276 (Dropout)        (None, 5, 4)              0         
_________________________________________________________________
flatten_92 (Flatten)         (None, 20)                0         
_________________________________________________________________
dense_183 (Dense)            (None, 20)                420       
_________________________________________________________________
dense_184 (Dense)            (None, 3)                 63        
=================================================================
Total params: 96,051
Trainable params: 96,051
Non-trainable params: 0
_________________________________________________________________
{'l1_nodes': 20, 'l1_filter': 18, 'l1_dropout': 0.335905871567833, 'l1_maxpool': 3, 'l2_nodes': 24, 'l2_filter': 5, 'l2_dropout': 0.3649219129218936, 'l2_maxpool': 2, 'l3_nodes': 4, 'l3_filter': 10, 'l3_dropout': 0.1788344515812308, 'l3_maxpool': 1, 'dense_nodes': 20}
…
subject 14, avg accuracy 0.5020242930423876 over 5 splits
subject 15, avg accuracy 0.6079579586023325 over 5 splits
subject 16, avg accuracy 0.5883940631561434 over 5 splits
subject 17, avg accuracy 0.7105263154757651 over 5 splits
subject 18, avg accuracy 0.6594594605871149 over 5 splits
subject 19, avg accuracy 0.5906906906906906 over 5 splits
avg accuracy over all subjects 0.5632380367040988
_________________________________________________________________
Layer (type)                 Output Shape              Param #   
=================================================================
conv1d_277 (Conv1D)          (None, 31, 27)            76059     
_________________________________________________________________
max_pooling1d_277 (MaxPoolin (None, 10, 27)            0         
_________________________________________________________________
dropout_277 (Dropout)        (None, 10, 27)            0         
_________________________________________________________________
conv1d_278 (Conv1D)          (None, 10, 21)            6258      
_________________________________________________________________
max_pooling1d_278 (MaxPoolin (None, 5, 21)             0         
_________________________________________________________________
dropout_278 (Dropout)        (None, 5, 21)             0         
_________________________________________________________________
conv1d_279 (Conv1D)          (None, 5, 1)              253       
_________________________________________________________________
max_pooling1d_279 (MaxPoolin (None, 2, 1)              0         
_________________________________________________________________
dropout_279 (Dropout)        (None, 2, 1)              0         
_________________________________________________________________
flatten_93 (Flatten)         (None, 2)                 0         
_________________________________________________________________
dense_185 (Dense)            (None, 22)                66        
_________________________________________________________________
dense_186 (Dense)            (None, 3)                 69        
=================================================================
Total params: 82,705
Trainable params: 82,705
Non-trainable params: 0
_________________________________________________________________
{'l1_nodes': 27, 'l1_filter': 11, 'l1_dropout': 0.2232550513526338, 'l1_maxpool': 3, 'l2_nodes': 21, 'l2_filter': 11, 'l2_dropout': 0.10656431141806039, 'l2_maxpool': 2, 'l3_nodes': 1, 'l3_filter': 12, 'l3_dropout': 0.44472675335073225, 'l3_maxpool': 2, 'dense_nodes': 22}
…
subject 14, avg accuracy 0.3824561415936461 over 5 splits
subject 15, avg accuracy 0.5591591593202528 over 5 splits
subject 16, avg accuracy 0.5051282065117407 over 5 splits
subject 17, avg accuracy 0.5368421046357406 over 5 splits
subject 18, avg accuracy 0.4918918929390005 over 5 splits
subject 19, avg accuracy 0.5633633633633635 over 5 splits
avg accuracy over all subjects 0.4470377944460102
_________________________________________________________________
Layer (type)                 Output Shape              Param #   
=================================================================
conv1d_280 (Conv1D)          (None, 31, 29)            74269     
_________________________________________________________________
max_pooling1d_280 (MaxPoolin (None, 10, 29)            0         
_________________________________________________________________
dropout_280 (Dropout)        (None, 10, 29)            0         
_________________________________________________________________
conv1d_281 (Conv1D)          (None, 10, 17)            4454      
_________________________________________________________________
max_pooling1d_281 (MaxPoolin (None, 5, 17)             0         
_________________________________________________________________
dropout_281 (Dropout)        (None, 5, 17)             0         
_________________________________________________________________
conv1d_282 (Conv1D)          (None, 5, 12)             624       
_________________________________________________________________
max_pooling1d_282 (MaxPoolin (None, 5, 12)             0         
_________________________________________________________________
dropout_282 (Dropout)        (None, 5, 12)             0         
_________________________________________________________________
flatten_94 (Flatten)         (None, 60)                0         
_________________________________________________________________
dense_187 (Dense)            (None, 24)                1464      
_________________________________________________________________
dense_188 (Dense)            (None, 3)                 75        
=================================================================
Total params: 80,886
Trainable params: 80,886
Non-trainable params: 0
_________________________________________________________________
{'l1_nodes': 29, 'l1_filter': 10, 'l1_dropout': 0.47818560326116216, 'l1_maxpool': 3, 'l2_nodes': 17, 'l2_filter': 9, 'l2_dropout': 0.3892467949211837, 'l2_maxpool': 2, 'l3_nodes': 12, 'l3_filter': 3, 'l3_dropout': 0.239939259005852, 'l3_maxpool': 1, 'dense_nodes': 24}
…
subject 14, avg accuracy 0.36126855678564784 over 5 splits
subject 15, avg accuracy 0.563513514157888 over 5 splits
subject 16, avg accuracy 0.46855600772277217 over 5 splits
subject 17, avg accuracy 0.5368421062042839 over 5 splits
subject 18, avg accuracy 0.6270270279935889 over 5 splits
subject 19, avg accuracy 0.4641141144363014 over 5 splits
avg accuracy over all subjects 0.46299984303869274
_________________________________________________________________
Layer (type)                 Output Shape              Param #   
=================================================================
conv1d_283 (Conv1D)          (None, 31, 29)            89117     
_________________________________________________________________
max_pooling1d_283 (MaxPoolin (None, 10, 29)            0         
_________________________________________________________________
dropout_283 (Dropout)        (None, 10, 29)            0         
_________________________________________________________________
conv1d_284 (Conv1D)          (None, 10, 24)            9768      
_________________________________________________________________
max_pooling1d_284 (MaxPoolin (None, 10, 24)            0         
_________________________________________________________________
dropout_284 (Dropout)        (None, 10, 24)            0         
_________________________________________________________________
conv1d_285 (Conv1D)          (None, 10, 1)             241       
_________________________________________________________________
max_pooling1d_285 (MaxPoolin (None, 5, 1)              0         
_________________________________________________________________
dropout_285 (Dropout)        (None, 5, 1)              0         
_________________________________________________________________
flatten_95 (Flatten)         (None, 5)                 0         
_________________________________________________________________
dense_189 (Dense)            (None, 49)                294       
_________________________________________________________________
dense_190 (Dense)            (None, 3)                 150       
=================================================================
Total params: 99,570
Trainable params: 99,570
Non-trainable params: 0
_________________________________________________________________
{'l1_nodes': 29, 'l1_filter': 12, 'l1_dropout': 0.38884656317022165, 'l1_maxpool': 3, 'l2_nodes': 24, 'l2_filter': 14, 'l2_dropout': 0.1883931902613611, 'l2_maxpool': 1, 'l3_nodes': 1, 'l3_filter': 10, 'l3_dropout': 0.20759808225309234, 'l3_maxpool': 2, 'dense_nodes': 49}
…
subject 14, avg accuracy 0.4029689613302388 over 5 splits
subject 15, avg accuracy 0.43153153169262515 over 5 splits
subject 16, avg accuracy 0.5469635641526597 over 5 splits
subject 17, avg accuracy 0.6842105256883722 over 5 splits
subject 18, avg accuracy 0.6324324337211815 over 5 splits
subject 19, avg accuracy 0.5911411414633284 over 5 splits
avg accuracy over all subjects 0.505655859324938
_________________________________________________________________
Layer (type)                 Output Shape              Param #   
=================================================================
conv1d_286 (Conv1D)          (None, 31, 22)            95766     
_________________________________________________________________
max_pooling1d_286 (MaxPoolin (None, 15, 22)            0         
_________________________________________________________________
dropout_286 (Dropout)        (None, 15, 22)            0         
_________________________________________________________________
conv1d_287 (Conv1D)          (None, 15, 15)            1665      
_________________________________________________________________
max_pooling1d_287 (MaxPoolin (None, 7, 15)             0         
_________________________________________________________________
dropout_287 (Dropout)        (None, 7, 15)             0         
_________________________________________________________________
conv1d_288 (Conv1D)          (None, 7, 9)              1359      
_________________________________________________________________
max_pooling1d_288 (MaxPoolin (None, 7, 9)              0         
_________________________________________________________________
dropout_288 (Dropout)        (None, 7, 9)              0         
_________________________________________________________________
flatten_96 (Flatten)         (None, 63)                0         
_________________________________________________________________
dense_191 (Dense)            (None, 33)                2112      
_________________________________________________________________
dense_192 (Dense)            (None, 3)                 102       
=================================================================
Total params: 101,004
Trainable params: 101,004
Non-trainable params: 0
_________________________________________________________________
{'l1_nodes': 22, 'l1_filter': 17, 'l1_dropout': 0.12780547352565724, 'l1_maxpool': 2, 'l2_nodes': 15, 'l2_filter': 5, 'l2_dropout': 0.266081869053101, 'l2_maxpool': 2, 'l3_nodes': 9, 'l3_filter': 10, 'l3_dropout': 0.04811862197627975, 'l3_maxpool': 1, 'dense_nodes': 33}
…
subject 14, avg accuracy 0.4817813775317389 over 5 splits
subject 15, avg accuracy 0.595945945945946 over 5 splits
subject 16, avg accuracy 0.5887989225496969 over 5 splits
subject 17, avg accuracy 0.6842105263157896 over 5 splits
subject 18, avg accuracy 0.6918918928584536 over 5 splits
subject 19, avg accuracy 0.5636636639858509 over 5 splits
avg accuracy over all subjects 0.5736645563048328
_________________________________________________________________
Layer (type)                 Output Shape              Param #   
=================================================================
conv1d_289 (Conv1D)          (None, 31, 27)            103707    
_________________________________________________________________
max_pooling1d_289 (MaxPoolin (None, 15, 27)            0         
_________________________________________________________________
dropout_289 (Dropout)        (None, 15, 27)            0         
_________________________________________________________________
conv1d_290 (Conv1D)          (None, 15, 24)            8448      
_________________________________________________________________
max_pooling1d_290 (MaxPoolin (None, 15, 24)            0         
_________________________________________________________________
dropout_290 (Dropout)        (None, 15, 24)            0         
_________________________________________________________________
conv1d_291 (Conv1D)          (None, 15, 13)            637       
_________________________________________________________________
max_pooling1d_291 (MaxPoolin (None, 15, 13)            0         
_________________________________________________________________
dropout_291 (Dropout)        (None, 15, 13)            0         
_________________________________________________________________
flatten_97 (Flatten)         (None, 195)               0         
_________________________________________________________________
dense_193 (Dense)            (None, 49)                9604      
_________________________________________________________________
dense_194 (Dense)            (None, 3)                 150       
=================================================================
Total params: 122,546
Trainable params: 122,546
Non-trainable params: 0
_________________________________________________________________
{'l1_nodes': 27, 'l1_filter': 15, 'l1_dropout': 0.03223323032460307, 'l1_maxpool': 2, 'l2_nodes': 24, 'l2_filter': 13, 'l2_dropout': 0.11020427640524982, 'l2_maxpool': 1, 'l3_nodes': 13, 'l3_filter': 2, 'l3_dropout': 0.2220962625558497, 'l3_maxpool': 1, 'dense_nodes': 49}
…
subject 14, avg accuracy 0.5076923085489735 over 5 splits
subject 15, avg accuracy 0.5972972974583909 over 5 splits
subject 16, avg accuracy 0.5786774647420877 over 5 splits
subject 17, avg accuracy 0.6894736848379436 over 5 splits
subject 18, avg accuracy 0.654054055020616 over 5 splits
subject 19, avg accuracy 0.607357358001732 over 5 splits
avg accuracy over all subjects 0.5911908544890915
_________________________________________________________________
Layer (type)                 Output Shape              Param #   
=================================================================
conv1d_292 (Conv1D)          (None, 31, 28)            86044     
_________________________________________________________________
max_pooling1d_292 (MaxPoolin (None, 10, 28)            0         
_________________________________________________________________
dropout_292 (Dropout)        (None, 10, 28)            0         
_________________________________________________________________
conv1d_293 (Conv1D)          (None, 10, 12)            3372      
_________________________________________________________________
max_pooling1d_293 (MaxPoolin (None, 10, 12)            0         
_________________________________________________________________
dropout_293 (Dropout)        (None, 10, 12)            0         
_________________________________________________________________
conv1d_294 (Conv1D)          (None, 10, 5)             845       
_________________________________________________________________
max_pooling1d_294 (MaxPoolin (None, 5, 5)              0         
_________________________________________________________________
dropout_294 (Dropout)        (None, 5, 5)              0         
_________________________________________________________________
flatten_98 (Flatten)         (None, 25)                0         
_________________________________________________________________
dense_195 (Dense)            (None, 26)                676       
_________________________________________________________________
dense_196 (Dense)            (None, 3)                 81        
=================================================================
Total params: 91,018
Trainable params: 91,018
Non-trainable params: 0
_________________________________________________________________
{'l1_nodes': 28, 'l1_filter': 12, 'l1_dropout': 0.3798240948223074, 'l1_maxpool': 3, 'l2_nodes': 12, 'l2_filter': 10, 'l2_dropout': 0.332867731153019, 'l2_maxpool': 1, 'l3_nodes': 5, 'l3_filter': 14, 'l3_dropout': 0.12343548225691309, 'l3_maxpool': 2, 'dense_nodes': 26}
…
subject 14, avg accuracy 0.4979757093586902 over 5 splits
subject 15, avg accuracy 0.5090090091701027 over 5 splits
subject 16, avg accuracy 0.61470985278266 over 5 splits
subject 17, avg accuracy 0.7052631582084455 over 5 splits
subject 18, avg accuracy 0.6918918937444687 over 5 splits
subject 19, avg accuracy 0.6133633635244571 over 5 splits
avg accuracy over all subjects 0.5598928898787423
_________________________________________________________________
Layer (type)                 Output Shape              Param #   
=================================================================
conv1d_295 (Conv1D)          (None, 31, 26)            113178    
_________________________________________________________________
max_pooling1d_295 (MaxPoolin (None, 10, 26)            0         
_________________________________________________________________
dropout_295 (Dropout)        (None, 10, 26)            0         
_________________________________________________________________
conv1d_296 (Conv1D)          (None, 10, 17)            3995      
_________________________________________________________________
max_pooling1d_296 (MaxPoolin (None, 5, 17)             0         
_________________________________________________________________
dropout_296 (Dropout)        (None, 5, 17)             0         
_________________________________________________________________
conv1d_297 (Conv1D)          (None, 5, 10)             2390      
_________________________________________________________________
max_pooling1d_297 (MaxPoolin (None, 5, 10)             0         
_________________________________________________________________
dropout_297 (Dropout)        (None, 5, 10)             0         
_________________________________________________________________
flatten_99 (Flatten)         (None, 50)                0         
_________________________________________________________________
dense_197 (Dense)            (None, 32)                1632      
_________________________________________________________________
dense_198 (Dense)            (None, 3)                 99        
=================================================================
Total params: 121,294
Trainable params: 121,294
Non-trainable params: 0
_________________________________________________________________
{'l1_nodes': 26, 'l1_filter': 17, 'l1_dropout': 0.32280851224290086, 'l1_maxpool': 3, 'l2_nodes': 17, 'l2_filter': 9, 'l2_dropout': 0.23434979251294213, 'l2_maxpool': 2, 'l3_nodes': 10, 'l3_filter': 14, 'l3_dropout': 0.018614094750070254, 'l3_maxpool': 1, 'dense_nodes': 32}
…
subject 14, avg accuracy 0.5082321198443491 over 5 splits
subject 15, avg accuracy 0.5912912914523849 over 5 splits
subject 16, avg accuracy 0.5785425118106579 over 5 splits
subject 17, avg accuracy 0.7105263148483477 over 5 splits
subject 18, avg accuracy 0.6756756775282524 over 5 splits
subject 19, avg accuracy 0.6186186189408059 over 5 splits
avg accuracy over all subjects 0.5793247035619882
_________________________________________________________________
Layer (type)                 Output Shape              Param #   
=================================================================
conv1d_298 (Conv1D)          (None, 31, 29)            126237    
_________________________________________________________________
max_pooling1d_298 (MaxPoolin (None, 10, 29)            0         
_________________________________________________________________
dropout_298 (Dropout)        (None, 10, 29)            0         
_________________________________________________________________
conv1d_299 (Conv1D)          (None, 10, 18)            4194      
_________________________________________________________________
max_pooling1d_299 (MaxPoolin (None, 5, 18)             0         
_________________________________________________________________
dropout_299 (Dropout)        (None, 5, 18)             0         
_________________________________________________________________
conv1d_300 (Conv1D)          (None, 5, 4)              220       
_________________________________________________________________
max_pooling1d_300 (MaxPoolin (None, 2, 4)              0         
_________________________________________________________________
dropout_300 (Dropout)        (None, 2, 4)              0         
_________________________________________________________________
flatten_100 (Flatten)        (None, 8)                 0         
_________________________________________________________________
dense_199 (Dense)            (None, 21)                189       
_________________________________________________________________
dense_200 (Dense)            (None, 3)                 66        
=================================================================
Total params: 130,906
Trainable params: 130,906
Non-trainable params: 0
_________________________________________________________________
{'l1_nodes': 29, 'l1_filter': 17, 'l1_dropout': 0.45313219179832837, 'l1_maxpool': 3, 'l2_nodes': 18, 'l2_filter': 8, 'l2_dropout': 0.42439278482303194, 'l2_maxpool': 2, 'l3_nodes': 4, 'l3_filter': 3, 'l3_dropout': 0.17787718783120515, 'l3_maxpool': 2, 'dense_nodes': 21}
…
