…
loading:  Subj16_CleanData_study_OB
loading:  Subj17_CleanData_study_FA
loading:  Subj17_CleanData_study_LM
loading:  Subj17_CleanData_study_OB
loading:  Subj18_CleanData_study_FA
loading:  Subj18_CleanData_study_LM
loading:  Subj18_CleanData_study_OB
loading:  Subj19_CleanData_study_FA
loading:  Subj19_CleanData_study_LM
loading:  Subj19_CleanData_study_OB
(185, 768, 31)
(185, 768, 31)
_________________________________________________________________
Layer (type)                 Output Shape              Param #   
=================================================================
conv1d_1 (Conv1D)            (None, 742, 39)           32682     
_________________________________________________________________
max_pooling1d_1 (MaxPooling1 (None, 371, 39)           0         
_________________________________________________________________
dropout_1 (Dropout)          (None, 371, 39)           0         
_________________________________________________________________
conv1d_2 (Conv1D)            (None, 362, 12)           4692      
_________________________________________________________________
max_pooling1d_2 (MaxPooling1 (None, 181, 12)           0         
_________________________________________________________________
dropout_2 (Dropout)          (None, 181, 12)           0         
_________________________________________________________________
conv1d_3 (Conv1D)            (None, 175, 13)           1105      
_________________________________________________________________
max_pooling1d_3 (MaxPooling1 (None, 87, 13)            0         
_________________________________________________________________
dropout_3 (Dropout)          (None, 87, 13)            0         
_________________________________________________________________
flatten_1 (Flatten)          (None, 1131)              0         
_________________________________________________________________
dense_1 (Dense)              (None, 14)                15848     
_________________________________________________________________
dense_2 (Dense)              (None, 3)                 45        
=================================================================
Total params: 54,372
Trainable params: 54,372
Non-trainable params: 0
_________________________________________________________________
{'l1_nodes': 39, 'l1_filter': 27, 'l1_dropout': 0.17587688439001473, 'l2_nodes': 12, 'l2_filter': 10, 'l2_dropout': 0.7441455150967693, 'l3_nodes': 13, 'l3_filter': 7, 'l3_dropout': 0.6956601592860095, 'dense_nodes': 14}
…
subject 14, avg accuracy 0.35033738299017814 over 5 splits
subject 15, avg accuracy 0.3370870872481807 over 5 splits
subject 16, avg accuracy 0.37489878659145387 over 5 splits
subject 17, avg accuracy 0.39473684226211747 over 5 splits
subject 18, avg accuracy 0.34054054086272784 over 5 splits
subject 19, avg accuracy 0.3867867867867868 over 5 splits
avg accuracy over all subjects 0.35985080977494754
_________________________________________________________________
Layer (type)                 Output Shape              Param #   
=================================================================
conv1d_4 (Conv1D)            (None, 757, 22)           8206      
_________________________________________________________________
max_pooling1d_4 (MaxPooling1 (None, 378, 22)           0         
_________________________________________________________________
dropout_4 (Dropout)          (None, 378, 22)           0         
_________________________________________________________________
conv1d_5 (Conv1D)            (None, 369, 9)            1989      
_________________________________________________________________
max_pooling1d_5 (MaxPooling1 (None, 184, 9)            0         
_________________________________________________________________
dropout_5 (Dropout)          (None, 184, 9)            0         
_________________________________________________________________
conv1d_6 (Conv1D)            (None, 182, 8)            224       
_________________________________________________________________
max_pooling1d_6 (MaxPooling1 (None, 91, 8)             0         
_________________________________________________________________
dropout_6 (Dropout)          (None, 91, 8)             0         
_________________________________________________________________
flatten_2 (Flatten)          (None, 728)               0         
_________________________________________________________________
dense_3 (Dense)              (None, 7)                 5103      
_________________________________________________________________
dense_4 (Dense)              (None, 3)                 24        
=================================================================
Total params: 15,546
Trainable params: 15,546
Non-trainable params: 0
_________________________________________________________________
{'l1_nodes': 22, 'l1_filter': 12, 'l1_dropout': 0.16920710964667607, 'l2_nodes': 9, 'l2_filter': 10, 'l2_dropout': 0.20576811445391135, 'l3_nodes': 8, 'l3_filter': 3, 'l3_dropout': 0.06064981139690134, 'dense_nodes': 7}
…
subject 14, avg accuracy 0.4811066128383925 over 5 splits
subject 15, avg accuracy 0.46441441457550797 over 5 splits
subject 16, avg accuracy 0.3962213242263125 over 5 splits
subject 17, avg accuracy 0.6263157907285188 over 5 splits
subject 18, avg accuracy 0.5513513534455685 over 5 splits
subject 19, avg accuracy 0.4915915917526853 over 5 splits
avg accuracy over all subjects 0.4965035559173255
_________________________________________________________________
Layer (type)                 Output Shape              Param #   
=================================================================
conv1d_7 (Conv1D)            (None, 752, 31)           16368     
_________________________________________________________________
max_pooling1d_7 (MaxPooling1 (None, 376, 31)           0         
_________________________________________________________________
dropout_7 (Dropout)          (None, 376, 31)           0         
_________________________________________________________________
conv1d_8 (Conv1D)            (None, 360, 18)           9504      
_________________________________________________________________
max_pooling1d_8 (MaxPooling1 (None, 180, 18)           0         
_________________________________________________________________
dropout_8 (Dropout)          (None, 180, 18)           0         
_________________________________________________________________
conv1d_9 (Conv1D)            (None, 167, 11)           2783      
_________________________________________________________________
max_pooling1d_9 (MaxPooling1 (None, 83, 11)            0         
_________________________________________________________________
dropout_9 (Dropout)          (None, 83, 11)            0         
_________________________________________________________________
flatten_3 (Flatten)          (None, 913)               0         
_________________________________________________________________
dense_5 (Dense)              (None, 20)                18280     
_________________________________________________________________
dense_6 (Dense)              (None, 3)                 63        
=================================================================
Total params: 46,998
Trainable params: 46,998
Non-trainable params: 0
_________________________________________________________________
{'l1_nodes': 31, 'l1_filter': 17, 'l1_dropout': 0.20529329810678182, 'l2_nodes': 18, 'l2_filter': 17, 'l2_dropout': 0.025733021941742207, 'l3_nodes': 11, 'l3_filter': 14, 'l3_dropout': 0.6717316044746987, 'dense_nodes': 20}
…
subject 14, avg accuracy 0.3770580304698584 over 5 splits
subject 15, avg accuracy 0.42567567599786293 over 5 splits
subject 16, avg accuracy 0.35951417205143876 over 5 splits
subject 17, avg accuracy 0.489473685465361 over 5 splits
subject 18, avg accuracy 0.49729729931096767 over 5 splits
subject 19, avg accuracy 0.2765765766571234 over 5 splits
avg accuracy over all subjects 0.38565576463984175
_________________________________________________________________
Layer (type)                 Output Shape              Param #   
=================================================================
conv1d_10 (Conv1D)           (None, 759, 35)           10885     
_________________________________________________________________
max_pooling1d_10 (MaxPooling (None, 379, 35)           0         
_________________________________________________________________
dropout_10 (Dropout)         (None, 379, 35)           0         
_________________________________________________________________
conv1d_11 (Conv1D)           (None, 374, 25)           5275      
_________________________________________________________________
max_pooling1d_11 (MaxPooling (None, 187, 25)           0         
_________________________________________________________________
dropout_11 (Dropout)         (None, 187, 25)           0         
_________________________________________________________________
conv1d_12 (Conv1D)           (None, 180, 2)            402       
_________________________________________________________________
max_pooling1d_12 (MaxPooling (None, 90, 2)             0         
_________________________________________________________________
dropout_12 (Dropout)         (None, 90, 2)             0         
_________________________________________________________________
flatten_4 (Flatten)          (None, 180)               0         
_________________________________________________________________
dense_7 (Dense)              (None, 15)                2715      
_________________________________________________________________
dense_8 (Dense)              (None, 3)                 48        
=================================================================
Total params: 19,325
Trainable params: 19,325
Non-trainable params: 0
_________________________________________________________________
{'l1_nodes': 35, 'l1_filter': 10, 'l1_dropout': 0.22109250708693504, 'l2_nodes': 25, 'l2_filter': 6, 'l2_dropout': 0.051606079726406046, 'l3_nodes': 2, 'l3_filter': 8, 'l3_dropout': 0.048393743415108326, 'dense_nodes': 15}
…
subject 14, avg accuracy 0.5134952788250006 over 5 splits
subject 15, avg accuracy 0.4804804806415741 over 5 splits
subject 16, avg accuracy 0.400944670604469 over 5 splits
subject 17, avg accuracy 0.5631578944231335 over 5 splits
subject 18, avg accuracy 0.529729731823947 over 5 splits
subject 19, avg accuracy 0.4415915916721384 over 5 splits
avg accuracy over all subjects 0.4882185839025596
_________________________________________________________________
Layer (type)                 Output Shape              Param #   
=================================================================
conv1d_13 (Conv1D)           (None, 748, 37)           24124     
_________________________________________________________________
max_pooling1d_13 (MaxPooling (None, 374, 37)           0         
_________________________________________________________________
dropout_13 (Dropout)         (None, 374, 37)           0         
_________________________________________________________________
conv1d_14 (Conv1D)           (None, 360, 9)            5004      
_________________________________________________________________
max_pooling1d_14 (MaxPooling (None, 180, 9)            0         
_________________________________________________________________
dropout_14 (Dropout)         (None, 180, 9)            0         
_________________________________________________________________
conv1d_15 (Conv1D)           (None, 179, 5)            95        
_________________________________________________________________
max_pooling1d_15 (MaxPooling (None, 89, 5)             0         
_________________________________________________________________
dropout_15 (Dropout)         (None, 89, 5)             0         
_________________________________________________________________
flatten_5 (Flatten)          (None, 445)               0         
_________________________________________________________________
dense_9 (Dense)              (None, 24)                10704     
_________________________________________________________________
dense_10 (Dense)             (None, 3)                 75        
=================================================================
Total params: 40,002
Trainable params: 40,002
Non-trainable params: 0
_________________________________________________________________
{'l1_nodes': 37, 'l1_filter': 21, 'l1_dropout': 0.10724099130962, 'l2_nodes': 9, 'l2_filter': 15, 'l2_dropout': 0.3599628595073959, 'l3_nodes': 5, 'l3_filter': 2, 'l3_dropout': 0.16701047441204148, 'dense_nodes': 24}
…
subject 14, avg accuracy 0.4600539807888821 over 5 splits
subject 15, avg accuracy 0.463513514157888 over 5 splits
subject 16, avg accuracy 0.4066126873337145 over 5 splits
subject 17, avg accuracy 0.4631578947368421 over 5 splits
subject 18, avg accuracy 0.443243243807071 over 5 splits
subject 19, avg accuracy 0.40915915923970597 over 5 splits
avg accuracy over all subjects 0.42741250109786333
_________________________________________________________________
Layer (type)                 Output Shape              Param #   
=================================================================
conv1d_16 (Conv1D)           (None, 750, 37)           21830     
_________________________________________________________________
max_pooling1d_16 (MaxPooling (None, 375, 37)           0         
_________________________________________________________________
dropout_16 (Dropout)         (None, 375, 37)           0         
_________________________________________________________________
conv1d_17 (Conv1D)           (None, 370, 16)           3568      
_________________________________________________________________
max_pooling1d_17 (MaxPooling (None, 185, 16)           0         
_________________________________________________________________
dropout_17 (Dropout)         (None, 185, 16)           0         
_________________________________________________________________
conv1d_18 (Conv1D)           (None, 181, 14)           1134      
_________________________________________________________________
max_pooling1d_18 (MaxPooling (None, 90, 14)            0         
_________________________________________________________________
dropout_18 (Dropout)         (None, 90, 14)            0         
_________________________________________________________________
flatten_6 (Flatten)          (None, 1260)              0         
_________________________________________________________________
dense_11 (Dense)             (None, 18)                22698     
_________________________________________________________________
dense_12 (Dense)             (None, 3)                 57        
=================================================================
Total params: 49,287
Trainable params: 49,287
Non-trainable params: 0
_________________________________________________________________
{'l1_nodes': 37, 'l1_filter': 19, 'l1_dropout': 0.22413690544264195, 'l2_nodes': 16, 'l2_filter': 6, 'l2_dropout': 0.6430490623861075, 'l3_nodes': 14, 'l3_filter': 5, 'l3_dropout': 0.48205710830892684, 'dense_nodes': 18}
…
subject 14, avg accuracy 0.41821862488944844 over 5 splits
subject 15, avg accuracy 0.46441441457550797 over 5 splits
subject 16, avg accuracy 0.33306342933261607 over 5 splits
subject 17, avg accuracy 0.49473684398751516 over 5 splits
subject 18, avg accuracy 0.37837837878111247 over 5 splits
subject 19, avg accuracy 0.33213213221267895 over 5 splits
avg accuracy over all subjects 0.3663445168426913
_________________________________________________________________
Layer (type)                 Output Shape              Param #   
=================================================================
conv1d_19 (Conv1D)           (None, 754, 35)           16310     
_________________________________________________________________
max_pooling1d_19 (MaxPooling (None, 377, 35)           0         
_________________________________________________________________
dropout_19 (Dropout)         (None, 377, 35)           0         
_________________________________________________________________
conv1d_20 (Conv1D)           (None, 367, 9)            3474      
_________________________________________________________________
max_pooling1d_20 (MaxPooling (None, 183, 9)            0         
_________________________________________________________________
dropout_20 (Dropout)         (None, 183, 9)            0         
_________________________________________________________________
conv1d_21 (Conv1D)           (None, 182, 2)            38        
_________________________________________________________________
max_pooling1d_21 (MaxPooling (None, 91, 2)             0         
_________________________________________________________________
dropout_21 (Dropout)         (None, 91, 2)             0         
_________________________________________________________________
flatten_7 (Flatten)          (None, 182)               0         
_________________________________________________________________
dense_13 (Dense)             (None, 7)                 1281      
_________________________________________________________________
dense_14 (Dense)             (None, 3)                 24        
=================================================================
Total params: 21,127
Trainable params: 21,127
Non-trainable params: 0
_________________________________________________________________
{'l1_nodes': 35, 'l1_filter': 15, 'l1_dropout': 0.7481160149644133, 'l2_nodes': 9, 'l2_filter': 11, 'l2_dropout': 0.5232197636732927, 'l3_nodes': 2, 'l3_filter': 2, 'l3_dropout': 0.46309105922700783, 'dense_nodes': 7}
…
subject 14, avg accuracy 0.35614035126329596 over 5 splits
subject 15, avg accuracy 0.34279279343716734 over 5 splits
subject 16, avg accuracy 0.32860998820196763 over 5 splits
subject 17, avg accuracy 0.3842105269432068 over 5 splits
subject 18, avg accuracy 0.2972972977000314 over 5 splits
subject 19, avg accuracy 0.38588588653026046 over 5 splits
avg accuracy over all subjects 0.34262258289924646
_________________________________________________________________
Layer (type)                 Output Shape              Param #   
=================================================================
conv1d_22 (Conv1D)           (None, 752, 19)           10032     
_________________________________________________________________
max_pooling1d_22 (MaxPooling (None, 376, 19)           0         
_________________________________________________________________
dropout_22 (Dropout)         (None, 376, 19)           0         
_________________________________________________________________
conv1d_23 (Conv1D)           (None, 364, 6)            1488      
_________________________________________________________________
max_pooling1d_23 (MaxPooling (None, 182, 6)            0         
_________________________________________________________________
dropout_23 (Dropout)         (None, 182, 6)            0         
_________________________________________________________________
conv1d_24 (Conv1D)           (None, 174, 4)            220       
_________________________________________________________________
max_pooling1d_24 (MaxPooling (None, 87, 4)             0         
_________________________________________________________________
dropout_24 (Dropout)         (None, 87, 4)             0         
_________________________________________________________________
flatten_8 (Flatten)          (None, 348)               0         
_________________________________________________________________
dense_15 (Dense)             (None, 37)                12913     
_________________________________________________________________
dense_16 (Dense)             (None, 3)                 114       
=================================================================
Total params: 24,767
Trainable params: 24,767
Non-trainable params: 0
_________________________________________________________________
{'l1_nodes': 19, 'l1_filter': 17, 'l1_dropout': 0.43317552700824047, 'l2_nodes': 6, 'l2_filter': 13, 'l2_dropout': 0.16990877200326387, 'l3_nodes': 4, 'l3_filter': 9, 'l3_dropout': 0.26819783834243693, 'dense_nodes': 37}
…
subject 14, avg accuracy 0.42901484574142257 over 5 splits
subject 15, avg accuracy 0.4645645646451114 over 5 splits
subject 16, avg accuracy 0.44750337568532766 over 5 splits
subject 17, avg accuracy 0.6578947355872706 over 5 splits
subject 18, avg accuracy 0.5891891912834065 over 5 splits
subject 19, avg accuracy 0.40345345353400025 over 5 splits
avg accuracy over all subjects 0.4900482141096544
_________________________________________________________________
Layer (type)                 Output Shape              Param #   
=================================================================
conv1d_25 (Conv1D)           (None, 759, 26)           8086      
_________________________________________________________________
max_pooling1d_25 (MaxPooling (None, 379, 26)           0         
_________________________________________________________________
dropout_25 (Dropout)         (None, 379, 26)           0         
_________________________________________________________________
conv1d_26 (Conv1D)           (None, 376, 23)           2415      
_________________________________________________________________
max_pooling1d_26 (MaxPooling (None, 188, 23)           0         
_________________________________________________________________
dropout_26 (Dropout)         (None, 188, 23)           0         
_________________________________________________________________
conv1d_27 (Conv1D)           (None, 178, 3)            762       
_________________________________________________________________
max_pooling1d_27 (MaxPooling (None, 89, 3)             0         
_________________________________________________________________
dropout_27 (Dropout)         (None, 89, 3)             0         
_________________________________________________________________
flatten_9 (Flatten)          (None, 267)               0         
_________________________________________________________________
dense_17 (Dense)             (None, 7)                 1876      
_________________________________________________________________
dense_18 (Dense)             (None, 3)                 24        
=================================================================
Total params: 13,163
Trainable params: 13,163
Non-trainable params: 0
_________________________________________________________________
{'l1_nodes': 26, 'l1_filter': 10, 'l1_dropout': 0.026324744303792225, 'l2_nodes': 23, 'l2_filter': 4, 'l2_dropout': 0.17991502586373959, 'l3_nodes': 3, 'l3_filter': 11, 'l3_dropout': 0.7296944663916181, 'dense_nodes': 7}
…
subject 14, avg accuracy 0.3511470996858942 over 5 splits
subject 15, avg accuracy 0.4639639641250576 over 5 splits
subject 16, avg accuracy 0.3072874507883139 over 5 splits
subject 17, avg accuracy 0.5000000007842716 over 5 splits
subject 18, avg accuracy 0.35135135231791315 over 5 splits
subject 19, avg accuracy 0.29309309317363985 over 5 splits
avg accuracy over all subjects 0.3663814294766147
_________________________________________________________________
Layer (type)                 Output Shape              Param #   
=================================================================
conv1d_28 (Conv1D)           (None, 761, 19)           4731      
_________________________________________________________________
max_pooling1d_28 (MaxPooling (None, 380, 19)           0         
_________________________________________________________________
dropout_28 (Dropout)         (None, 380, 19)           0         
_________________________________________________________________
conv1d_29 (Conv1D)           (None, 367, 14)           3738      
_________________________________________________________________
max_pooling1d_29 (MaxPooling (None, 183, 14)           0         
_________________________________________________________________
dropout_29 (Dropout)         (None, 183, 14)           0         
_________________________________________________________________
conv1d_30 (Conv1D)           (None, 177, 5)            495       
_________________________________________________________________
max_pooling1d_30 (MaxPooling (None, 88, 5)             0         
_________________________________________________________________
dropout_30 (Dropout)         (None, 88, 5)             0         
_________________________________________________________________
flatten_10 (Flatten)         (None, 440)               0         
_________________________________________________________________
dense_19 (Dense)             (None, 42)                18522     
_________________________________________________________________
dense_20 (Dense)             (None, 3)                 129       
=================================================================
Total params: 27,615
Trainable params: 27,615
Non-trainable params: 0
_________________________________________________________________
{'l1_nodes': 19, 'l1_filter': 8, 'l1_dropout': 0.5269319485091679, 'l2_nodes': 14, 'l2_filter': 14, 'l2_dropout': 0.5382386947420468, 'l3_nodes': 5, 'l3_filter': 7, 'l3_dropout': 0.41915931876381884, 'dense_nodes': 42}
…
subject 14, avg accuracy 0.3762483144900416 over 5 splits
subject 15, avg accuracy 0.4475975977586913 over 5 splits
subject 16, avg accuracy 0.3278002708345933 over 5 splits
subject 17, avg accuracy 0.6 over 5 splits
subject 18, avg accuracy 0.28648648696976736 over 5 splits
subject 19, avg accuracy 0.2977477478282946 over 5 splits
avg accuracy over all subjects 0.3889206352777983
_________________________________________________________________
Layer (type)                 Output Shape              Param #   
=================================================================
conv1d_31 (Conv1D)           (None, 748, 39)           25428     
_________________________________________________________________
max_pooling1d_31 (MaxPooling (None, 374, 39)           0         
_________________________________________________________________
dropout_31 (Dropout)         (None, 374, 39)           0         
_________________________________________________________________
conv1d_32 (Conv1D)           (None, 362, 16)           8128      
_________________________________________________________________
max_pooling1d_32 (MaxPooling (None, 181, 16)           0         
_________________________________________________________________
dropout_32 (Dropout)         (None, 181, 16)           0         
_________________________________________________________________
conv1d_33 (Conv1D)           (None, 170, 14)           2702      
_________________________________________________________________
max_pooling1d_33 (MaxPooling (None, 85, 14)            0         
_________________________________________________________________
dropout_33 (Dropout)         (None, 85, 14)            0         
_________________________________________________________________
flatten_11 (Flatten)         (None, 1190)              0         
_________________________________________________________________
dense_21 (Dense)             (None, 30)                35730     
_________________________________________________________________
dense_22 (Dense)             (None, 3)                 93        
=================================================================
Total params: 72,081
Trainable params: 72,081
Non-trainable params: 0
_________________________________________________________________
{'l1_nodes': 39, 'l1_filter': 21, 'l1_dropout': 0.732023083683189, 'l2_nodes': 16, 'l2_filter': 13, 'l2_dropout': 0.6193707553755092, 'l3_nodes': 14, 'l3_filter': 12, 'l3_dropout': 0.24638031389434856, 'dense_nodes': 30}
…
subject 14, avg accuracy 0.32442645120878133 over 5 splits
subject 15, avg accuracy 0.3372372373177841 over 5 splits
subject 16, avg accuracy 0.2916329291748453 over 5 splits
subject 17, avg accuracy 0.3684210529452876 over 5 splits
subject 18, avg accuracy 0.3567567573205845 over 5 splits
subject 19, avg accuracy 0.27657657665712343 over 5 splits
avg accuracy over all subjects 0.3202382887725909
_________________________________________________________________
Layer (type)                 Output Shape              Param #   
=================================================================
conv1d_34 (Conv1D)           (None, 758, 25)           8550      
_________________________________________________________________
max_pooling1d_34 (MaxPooling (None, 379, 25)           0         
_________________________________________________________________
dropout_34 (Dropout)         (None, 379, 25)           0         
_________________________________________________________________
conv1d_35 (Conv1D)           (None, 375, 5)            630       
_________________________________________________________________
max_pooling1d_35 (MaxPooling (None, 187, 5)            0         
_________________________________________________________________
dropout_35 (Dropout)         (None, 187, 5)            0         
_________________________________________________________________
conv1d_36 (Conv1D)           (None, 183, 11)           286       
_________________________________________________________________
max_pooling1d_36 (MaxPooling (None, 91, 11)            0         
_________________________________________________________________
dropout_36 (Dropout)         (None, 91, 11)            0         
_________________________________________________________________
flatten_12 (Flatten)         (None, 1001)              0         
_________________________________________________________________
dense_23 (Dense)             (None, 10)                10020     
_________________________________________________________________
dense_24 (Dense)             (None, 3)                 33        
=================================================================
Total params: 19,519
Trainable params: 19,519
Non-trainable params: 0
_________________________________________________________________
{'l1_nodes': 25, 'l1_filter': 11, 'l1_dropout': 0.18898253364174444, 'l2_nodes': 5, 'l2_filter': 5, 'l2_dropout': 0.0664315651294326, 'l3_nodes': 11, 'l3_filter': 5, 'l3_dropout': 0.496874334073759, 'dense_nodes': 10}
…
subject 14, avg accuracy 0.40823212140082676 over 5 splits
subject 15, avg accuracy 0.5469969971580907 over 5 splits
subject 16, avg accuracy 0.4117408920114662 over 5 splits
subject 17, avg accuracy 0.642105264726438 over 5 splits
subject 18, avg accuracy 0.5837837849919861 over 5 splits
subject 19, avg accuracy 0.4145645646451114 over 5 splits
avg accuracy over all subjects 0.4777739966608756
_________________________________________________________________
Layer (type)                 Output Shape              Param #   
=================================================================
conv1d_37 (Conv1D)           (None, 745, 16)           11920     
_________________________________________________________________
max_pooling1d_37 (MaxPooling (None, 372, 16)           0         
_________________________________________________________________
dropout_37 (Dropout)         (None, 372, 16)           0         
_________________________________________________________________
conv1d_38 (Conv1D)           (None, 359, 26)           5850      
_________________________________________________________________
max_pooling1d_38 (MaxPooling (None, 179, 26)           0         
_________________________________________________________________
dropout_38 (Dropout)         (None, 179, 26)           0         
_________________________________________________________________
conv1d_39 (Conv1D)           (None, 176, 8)            840       
_________________________________________________________________
max_pooling1d_39 (MaxPooling (None, 88, 8)             0         
_________________________________________________________________
dropout_39 (Dropout)         (None, 88, 8)             0         
_________________________________________________________________
flatten_13 (Flatten)         (None, 704)               0         
_________________________________________________________________
dense_25 (Dense)             (None, 47)                33135     
_________________________________________________________________
dense_26 (Dense)             (None, 3)                 144       
=================================================================
Total params: 51,889
Trainable params: 51,889
Non-trainable params: 0
_________________________________________________________________
{'l1_nodes': 16, 'l1_filter': 24, 'l1_dropout': 0.32253797123626704, 'l2_nodes': 26, 'l2_filter': 14, 'l2_dropout': 0.6344584880869795, 'l3_nodes': 8, 'l3_filter': 4, 'l3_dropout': 0.4640762455346651, 'dense_nodes': 47}
…
subject 14, avg accuracy 0.465721999167109 over 5 splits
subject 15, avg accuracy 0.4645645646451114 over 5 splits
subject 16, avg accuracy 0.33900135061357994 over 5 splits
subject 17, avg accuracy 0.5578947387243571 over 5 splits
subject 18, avg accuracy 0.42162162274927706 over 5 splits
subject 19, avg accuracy 0.33243243259352606 over 5 splits
avg accuracy over all subjects 0.4000262079581125
_________________________________________________________________
Layer (type)                 Output Shape              Param #   
=================================================================
conv1d_40 (Conv1D)           (None, 745, 27)           20115     
_________________________________________________________________
max_pooling1d_40 (MaxPooling (None, 372, 27)           0         
_________________________________________________________________
dropout_40 (Dropout)         (None, 372, 27)           0         
_________________________________________________________________
conv1d_41 (Conv1D)           (None, 361, 10)           3250      
_________________________________________________________________
max_pooling1d_41 (MaxPooling (None, 180, 10)           0         
_________________________________________________________________
dropout_41 (Dropout)         (None, 180, 10)           0         
_________________________________________________________________
conv1d_42 (Conv1D)           (None, 174, 2)            142       
_________________________________________________________________
max_pooling1d_42 (MaxPooling (None, 87, 2)             0         
_________________________________________________________________
dropout_42 (Dropout)         (None, 87, 2)             0         
_________________________________________________________________
flatten_14 (Flatten)         (None, 174)               0         
_________________________________________________________________
dense_27 (Dense)             (None, 33)                5775      
_________________________________________________________________
dense_28 (Dense)             (None, 3)                 102       
=================================================================
Total params: 29,384
Trainable params: 29,384
Non-trainable params: 0
_________________________________________________________________
{'l1_nodes': 27, 'l1_filter': 24, 'l1_dropout': 0.49667798635652305, 'l2_nodes': 10, 'l2_filter': 12, 'l2_dropout': 0.5597873769675195, 'l3_nodes': 2, 'l3_filter': 7, 'l3_dropout': 0.09621933765289511, 'dense_nodes': 33}
…
subject 14, avg accuracy 0.40242915010323566 over 5 splits
subject 15, avg accuracy 0.3809309310114778 over 5 splits
subject 16, avg accuracy 0.40134952912526894 over 5 splits
subject 17, avg accuracy 0.5947368433600977 over 5 splits
subject 18, avg accuracy 0.4864864882585165 over 5 splits
subject 19, avg accuracy 0.37537537545592226 over 5 splits
avg accuracy over all subjects 0.41606920783360013
_________________________________________________________________
Layer (type)                 Output Shape              Param #   
=================================================================
conv1d_43 (Conv1D)           (None, 749, 31)           19251     
_________________________________________________________________
max_pooling1d_43 (MaxPooling (None, 374, 31)           0         
_________________________________________________________________
dropout_43 (Dropout)         (None, 374, 31)           0         
_________________________________________________________________
conv1d_44 (Conv1D)           (None, 359, 25)           12425     
_________________________________________________________________
max_pooling1d_44 (MaxPooling (None, 179, 25)           0         
_________________________________________________________________
dropout_44 (Dropout)         (None, 179, 25)           0         
_________________________________________________________________
conv1d_45 (Conv1D)           (None, 168, 11)           3311      
_________________________________________________________________
max_pooling1d_45 (MaxPooling (None, 84, 11)            0         
_________________________________________________________________
dropout_45 (Dropout)         (None, 84, 11)            0         
_________________________________________________________________
flatten_15 (Flatten)         (None, 924)               0         
_________________________________________________________________
dense_29 (Dense)             (None, 41)                37925     
_________________________________________________________________
dense_30 (Dense)             (None, 3)                 126       
=================================================================
Total params: 73,038
Trainable params: 73,038
Non-trainable params: 0
_________________________________________________________________
{'l1_nodes': 31, 'l1_filter': 20, 'l1_dropout': 0.5514919172966386, 'l2_nodes': 25, 'l2_filter': 16, 'l2_dropout': 0.55786726875945, 'l3_nodes': 11, 'l3_filter': 12, 'l3_dropout': 0.537962688136782, 'dense_nodes': 41}
…
subject 14, avg accuracy 0.387584346090412 over 5 splits
subject 15, avg accuracy 0.4141141142752078 over 5 splits
subject 16, avg accuracy 0.38542510259811047 over 5 splits
subject 17, avg accuracy 0.5526315789473684 over 5 splits
subject 18, avg accuracy 0.42702702791304203 over 5 splits
subject 19, avg accuracy 0.35420420428475097 over 5 splits
avg accuracy over all subjects 0.3810084721093675
_________________________________________________________________
Layer (type)                 Output Shape              Param #   
=================================================================
conv1d_46 (Conv1D)           (None, 758, 19)           6498      
_________________________________________________________________
max_pooling1d_46 (MaxPooling (None, 379, 19)           0         
_________________________________________________________________
dropout_46 (Dropout)         (None, 379, 19)           0         
_________________________________________________________________
conv1d_47 (Conv1D)           (None, 369, 5)            1050      
_________________________________________________________________
max_pooling1d_47 (MaxPooling (None, 184, 5)            0         
_________________________________________________________________
dropout_47 (Dropout)         (None, 184, 5)            0         
_________________________________________________________________
conv1d_48 (Conv1D)           (None, 171, 10)           710       
_________________________________________________________________
max_pooling1d_48 (MaxPooling (None, 85, 10)            0         
_________________________________________________________________
dropout_48 (Dropout)         (None, 85, 10)            0         
_________________________________________________________________
flatten_16 (Flatten)         (None, 850)               0         
_________________________________________________________________
dense_31 (Dense)             (None, 28)                23828     
_________________________________________________________________
dense_32 (Dense)             (None, 3)                 87        
=================================================================
Total params: 32,173
Trainable params: 32,173
Non-trainable params: 0
_________________________________________________________________
{'l1_nodes': 19, 'l1_filter': 11, 'l1_dropout': 0.4942754141937025, 'l2_nodes': 5, 'l2_filter': 11, 'l2_dropout': 0.5843552324733077, 'l3_nodes': 10, 'l3_filter': 14, 'l3_dropout': 0.2388605494536698, 'dense_nodes': 28}
…
subject 14, avg accuracy 0.32995951510714455 over 5 splits
subject 15, avg accuracy 0.3204204205815141 over 5 splits
subject 16, avg accuracy 0.3124156560613076 over 5 splits
subject 17, avg accuracy 0.4526315800453487 over 5 splits
subject 18, avg accuracy 0.3135135142384349 over 5 splits
subject 19, avg accuracy 0.2599099099904567 over 5 splits
avg accuracy over all subjects 0.32985711843238125
_________________________________________________________________
Layer (type)                 Output Shape              Param #   
=================================================================
conv1d_49 (Conv1D)           (None, 754, 14)           6524      
_________________________________________________________________
max_pooling1d_49 (MaxPooling (None, 377, 14)           0         
_________________________________________________________________
dropout_49 (Dropout)         (None, 377, 14)           0         
_________________________________________________________________
conv1d_50 (Conv1D)           (None, 359, 14)           3738      
_________________________________________________________________
max_pooling1d_50 (MaxPooling (None, 179, 14)           0         
_________________________________________________________________
dropout_50 (Dropout)         (None, 179, 14)           0         
_________________________________________________________________
conv1d_51 (Conv1D)           (None, 173, 5)            495       
_________________________________________________________________
max_pooling1d_51 (MaxPooling (None, 86, 5)             0         
_________________________________________________________________
dropout_51 (Dropout)         (None, 86, 5)             0         
_________________________________________________________________
flatten_17 (Flatten)         (None, 430)               0         
_________________________________________________________________
dense_33 (Dense)             (None, 37)                15947     
_________________________________________________________________
dense_34 (Dense)             (None, 3)                 114       
=================================================================
Total params: 26,818
Trainable params: 26,818
Non-trainable params: 0
_________________________________________________________________
{'l1_nodes': 14, 'l1_filter': 15, 'l1_dropout': 0.5052514251715141, 'l2_nodes': 14, 'l2_filter': 19, 'l2_dropout': 0.6532840912858081, 'l3_nodes': 5, 'l3_filter': 7, 'l3_dropout': 0.37262733402075027, 'dense_nodes': 37}
…
subject 14, avg accuracy 0.38286099958757636 over 5 splits
subject 15, avg accuracy 0.4590090090895559 over 5 splits
subject 16, avg accuracy 0.41133603362338905 over 5 splits
subject 17, avg accuracy 0.6210526309515301 over 5 splits
subject 18, avg accuracy 0.3243243256936202 over 5 splits
subject 19, avg accuracy 0.38228228236282913 over 5 splits
avg accuracy over all subjects 0.38327963681873434
_________________________________________________________________
Layer (type)                 Output Shape              Param #   
=================================================================
conv1d_52 (Conv1D)           (None, 747, 37)           25271     
_________________________________________________________________
max_pooling1d_52 (MaxPooling (None, 373, 37)           0         
_________________________________________________________________
dropout_52 (Dropout)         (None, 373, 37)           0         
_________________________________________________________________
conv1d_53 (Conv1D)           (None, 368, 19)           4237      
_________________________________________________________________
max_pooling1d_53 (MaxPooling (None, 184, 19)           0         
_________________________________________________________________
dropout_53 (Dropout)         (None, 184, 19)           0         
_________________________________________________________________
conv1d_54 (Conv1D)           (None, 181, 13)           1001      
_________________________________________________________________
max_pooling1d_54 (MaxPooling (None, 90, 13)            0         
_________________________________________________________________
dropout_54 (Dropout)         (None, 90, 13)            0         
_________________________________________________________________
flatten_18 (Flatten)         (None, 1170)              0         
_________________________________________________________________
dense_35 (Dense)             (None, 48)                56208     
_________________________________________________________________
dense_36 (Dense)             (None, 3)                 147       
=================================================================
Total params: 86,864
Trainable params: 86,864
Non-trainable params: 0
_________________________________________________________________
{'l1_nodes': 37, 'l1_filter': 22, 'l1_dropout': 0.4326352784579358, 'l2_nodes': 19, 'l2_filter': 6, 'l2_dropout': 0.12463698059362985, 'l3_nodes': 13, 'l3_filter': 4, 'l3_dropout': 0.21102161026115804, 'dense_nodes': 48}
…
subject 14, avg accuracy 0.4924426456855537 over 5 splits
subject 15, avg accuracy 0.5920420422031356 over 5 splits
subject 16, avg accuracy 0.4423751707019111 over 5 splits
subject 17, avg accuracy 0.7052631578947369 over 5 splits
subject 18, avg accuracy 0.6216216237158388 over 5 splits
subject 19, avg accuracy 0.45390390454827845 over 5 splits
avg accuracy over all subjects 0.4950704427509278
_________________________________________________________________
Layer (type)                 Output Shape              Param #   
=================================================================
conv1d_55 (Conv1D)           (None, 763, 16)           2992      
_________________________________________________________________
max_pooling1d_55 (MaxPooling (None, 381, 16)           0         
_________________________________________________________________
dropout_55 (Dropout)         (None, 381, 16)           0         
_________________________________________________________________
conv1d_56 (Conv1D)           (None, 369, 29)           6061      
_________________________________________________________________
max_pooling1d_56 (MaxPooling (None, 184, 29)           0         
_________________________________________________________________
dropout_56 (Dropout)         (None, 184, 29)           0         
_________________________________________________________________
conv1d_57 (Conv1D)           (None, 183, 8)            472       
_________________________________________________________________
max_pooling1d_57 (MaxPooling (None, 91, 8)             0         
_________________________________________________________________
dropout_57 (Dropout)         (None, 91, 8)             0         
_________________________________________________________________
flatten_19 (Flatten)         (None, 728)               0         
_________________________________________________________________
dense_37 (Dense)             (None, 17)                12393     
_________________________________________________________________
dense_38 (Dense)             (None, 3)                 54        
=================================================================
Total params: 21,972
Trainable params: 21,972
Non-trainable params: 0
_________________________________________________________________
{'l1_nodes': 16, 'l1_filter': 6, 'l1_dropout': 0.3419662907285846, 'l2_nodes': 29, 'l2_filter': 13, 'l2_dropout': 0.7052259061922993, 'l3_nodes': 8, 'l3_filter': 2, 'l3_dropout': 0.5251162409436968, 'dense_nodes': 17}
…
subject 14, avg accuracy 0.4350877207059127 over 5 splits
subject 15, avg accuracy 0.49174174190283537 over 5 splits
subject 16, avg accuracy 0.39581646624042593 over 5 splits
subject 17, avg accuracy 0.5578947390380659 over 5 splits
subject 18, avg accuracy 0.3027027027832495 over 5 splits
subject 19, avg accuracy 0.33678678686733365 over 5 splits
avg accuracy over all subjects 0.39378967461200587
_________________________________________________________________
Layer (type)                 Output Shape              Param #   
=================================================================
conv1d_58 (Conv1D)           (None, 754, 22)           10252     
_________________________________________________________________
max_pooling1d_58 (MaxPooling (None, 377, 22)           0         
_________________________________________________________________
dropout_58 (Dropout)         (None, 377, 22)           0         
_________________________________________________________________
conv1d_59 (Conv1D)           (None, 367, 12)           2916      
_________________________________________________________________
max_pooling1d_59 (MaxPooling (None, 183, 12)           0         
_________________________________________________________________
dropout_59 (Dropout)         (None, 183, 12)           0         
_________________________________________________________________
conv1d_60 (Conv1D)           (None, 171, 7)            1099      
_________________________________________________________________
max_pooling1d_60 (MaxPooling (None, 85, 7)             0         
_________________________________________________________________
dropout_60 (Dropout)         (None, 85, 7)             0         
_________________________________________________________________
flatten_20 (Flatten)         (None, 595)               0         
_________________________________________________________________
dense_39 (Dense)             (None, 23)                13708     
_________________________________________________________________
dense_40 (Dense)             (None, 3)                 72        
=================================================================
Total params: 28,047
Trainable params: 28,047
Non-trainable params: 0
_________________________________________________________________
{'l1_nodes': 22, 'l1_filter': 15, 'l1_dropout': 0.5457211587970747, 'l2_nodes': 12, 'l2_filter': 11, 'l2_dropout': 0.43408229011606825, 'l3_nodes': 7, 'l3_filter': 13, 'l3_dropout': 0.3298492274572527, 'dense_nodes': 23}
…
subject 14, avg accuracy 0.3875843471883923 over 5 splits
subject 15, avg accuracy 0.39294294294294296 over 5 splits
subject 16, avg accuracy 0.3333333354930968 over 5 splits
subject 17, avg accuracy 0.5421052637853121 over 5 splits
subject 18, avg accuracy 0.3729729738589879 over 5 splits
subject 19, avg accuracy 0.4297297303741042 over 5 splits
avg accuracy over all subjects 0.4039539213043859
_________________________________________________________________
Layer (type)                 Output Shape              Param #   
=================================================================
conv1d_61 (Conv1D)           (None, 749, 24)           14904     
_________________________________________________________________
max_pooling1d_61 (MaxPooling (None, 374, 24)           0         
_________________________________________________________________
dropout_61 (Dropout)         (None, 374, 24)           0         
_________________________________________________________________
conv1d_62 (Conv1D)           (None, 364, 15)           3975      
_________________________________________________________________
max_pooling1d_62 (MaxPooling (None, 182, 15)           0         
_________________________________________________________________
dropout_62 (Dropout)         (None, 182, 15)           0         
_________________________________________________________________
conv1d_63 (Conv1D)           (None, 176, 7)            742       
_________________________________________________________________
max_pooling1d_63 (MaxPooling (None, 88, 7)             0         
_________________________________________________________________
dropout_63 (Dropout)         (None, 88, 7)             0         
_________________________________________________________________
flatten_21 (Flatten)         (None, 616)               0         
_________________________________________________________________
dense_41 (Dense)             (None, 27)                16659     
_________________________________________________________________
dense_42 (Dense)             (None, 3)                 84        
=================================================================
Total params: 36,364
Trainable params: 36,364
Non-trainable params: 0
_________________________________________________________________
{'l1_nodes': 24, 'l1_filter': 20, 'l1_dropout': 0.2817734500263562, 'l2_nodes': 15, 'l2_filter': 11, 'l2_dropout': 0.3504112502642549, 'l3_nodes': 7, 'l3_filter': 7, 'l3_dropout': 0.10994245194992666, 'dense_nodes': 27}
…
subject 14, avg accuracy 0.49689608620889436 over 5 splits
subject 15, avg accuracy 0.39819819884257274 over 5 splits
subject 16, avg accuracy 0.36437247156614233 over 5 splits
subject 17, avg accuracy 0.5736842124085678 over 5 splits
subject 18, avg accuracy 0.4810810821281898 over 5 splits
subject 19, avg accuracy 0.38213213221267894 over 5 splits
avg accuracy over all subjects 0.42207730793120174
_________________________________________________________________
Layer (type)                 Output Shape              Param #   
=================================================================
conv1d_64 (Conv1D)           (None, 742, 16)           13408     
_________________________________________________________________
max_pooling1d_64 (MaxPooling (None, 371, 16)           0         
_________________________________________________________________
dropout_64 (Dropout)         (None, 371, 16)           0         
_________________________________________________________________
conv1d_65 (Conv1D)           (None, 368, 23)           1495      
_________________________________________________________________
max_pooling1d_65 (MaxPooling (None, 184, 23)           0         
_________________________________________________________________
dropout_65 (Dropout)         (None, 184, 23)           0         
_________________________________________________________________
conv1d_66 (Conv1D)           (None, 182, 10)           700       
_________________________________________________________________
max_pooling1d_66 (MaxPooling (None, 91, 10)            0         
_________________________________________________________________
dropout_66 (Dropout)         (None, 91, 10)            0         
_________________________________________________________________
flatten_22 (Flatten)         (None, 910)               0         
_________________________________________________________________
dense_43 (Dense)             (None, 15)                13665     
_________________________________________________________________
dense_44 (Dense)             (None, 3)                 48        
=================================================================
Total params: 29,316
Trainable params: 29,316
Non-trainable params: 0
_________________________________________________________________
{'l1_nodes': 16, 'l1_filter': 27, 'l1_dropout': 0.6986494391025073, 'l2_nodes': 23, 'l2_filter': 4, 'l2_dropout': 0.08035460032765362, 'l3_nodes': 10, 'l3_filter': 3, 'l3_dropout': 0.016796187503841542, 'dense_nodes': 15}
…
subject 14, avg accuracy 0.3404858304260553 over 5 splits
subject 15, avg accuracy 0.35345345409782797 over 5 splits
subject 16, avg accuracy 0.29122807110047694 over 5 splits
subject 17, avg accuracy 0.48421052694320676 over 5 splits
subject 18, avg accuracy 0.35675675764277176 over 5 splits
subject 19, avg accuracy 0.2543543544349012 over 5 splits
avg accuracy over all subjects 0.337191611948726
_________________________________________________________________
Layer (type)                 Output Shape              Param #   
=================================================================
conv1d_67 (Conv1D)           (None, 743, 32)           25824     
_________________________________________________________________
max_pooling1d_67 (MaxPooling (None, 371, 32)           0         
_________________________________________________________________
dropout_67 (Dropout)         (None, 371, 32)           0         
_________________________________________________________________
conv1d_68 (Conv1D)           (None, 358, 13)           5837      
_________________________________________________________________
max_pooling1d_68 (MaxPooling (None, 179, 13)           0         
_________________________________________________________________
dropout_68 (Dropout)         (None, 179, 13)           0         
_________________________________________________________________
conv1d_69 (Conv1D)           (None, 177, 9)            360       
_________________________________________________________________
max_pooling1d_69 (MaxPooling (None, 88, 9)             0         
_________________________________________________________________
dropout_69 (Dropout)         (None, 88, 9)             0         
_________________________________________________________________
flatten_23 (Flatten)         (None, 792)               0         
_________________________________________________________________
dense_45 (Dense)             (None, 10)                7930      
_________________________________________________________________
dense_46 (Dense)             (None, 3)                 33        
=================================================================
Total params: 39,984
Trainable params: 39,984
Non-trainable params: 0
_________________________________________________________________
{'l1_nodes': 32, 'l1_filter': 26, 'l1_dropout': 0.11905806599283586, 'l2_nodes': 13, 'l2_filter': 14, 'l2_dropout': 0.5032602021963855, 'l3_nodes': 9, 'l3_filter': 3, 'l3_dropout': 0.7466758435353134, 'dense_nodes': 10}
…
subject 14, avg accuracy 0.3249662632160341 over 5 splits
subject 15, avg accuracy 0.39804804820914164 over 5 splits
subject 16, avg accuracy 0.3593792190476146 over 5 splits
subject 17, avg accuracy 0.4684210520041616 over 5 splits
subject 18, avg accuracy 0.3945945954806096 over 5 splits
subject 19, avg accuracy 0.40270270286379634 over 5 splits
avg accuracy over all subjects 0.3613965188538109
_________________________________________________________________
Layer (type)                 Output Shape              Param #   
=================================================================
conv1d_70 (Conv1D)           (None, 753, 22)           10934     
_________________________________________________________________
max_pooling1d_70 (MaxPooling (None, 376, 22)           0         
_________________________________________________________________
dropout_70 (Dropout)         (None, 376, 22)           0         
_________________________________________________________________
conv1d_71 (Conv1D)           (None, 362, 13)           4303      
_________________________________________________________________
max_pooling1d_71 (MaxPooling (None, 181, 13)           0         
_________________________________________________________________
dropout_71 (Dropout)         (None, 181, 13)           0         
_________________________________________________________________
conv1d_72 (Conv1D)           (None, 176, 5)            395       
_________________________________________________________________
max_pooling1d_72 (MaxPooling (None, 88, 5)             0         
_________________________________________________________________
dropout_72 (Dropout)         (None, 88, 5)             0         
_________________________________________________________________
flatten_24 (Flatten)         (None, 440)               0         
_________________________________________________________________
dense_47 (Dense)             (None, 30)                13230     
_________________________________________________________________
dense_48 (Dense)             (None, 3)                 93        
=================================================================
Total params: 28,955
Trainable params: 28,955
Non-trainable params: 0
_________________________________________________________________
{'l1_nodes': 22, 'l1_filter': 16, 'l1_dropout': 0.5906092154915459, 'l2_nodes': 13, 'l2_filter': 15, 'l2_dropout': 0.7360597430151727, 'l3_nodes': 5, 'l3_filter': 6, 'l3_dropout': 0.3567106327489025, 'dense_nodes': 30}
…
subject 14, avg accuracy 0.40350877410969754 over 5 splits
subject 15, avg accuracy 0.39264264272318944 over 5 splits
subject 16, avg accuracy 0.36383265980020385 over 5 splits
subject 17, avg accuracy 0.44210526409902073 over 5 splits
subject 18, avg accuracy 0.4378378404958828 over 5 splits
subject 19, avg accuracy 0.380480481124855 over 5 splits
avg accuracy over all subjects 0.3775860892159219
_________________________________________________________________
Layer (type)                 Output Shape              Param #   
=================================================================
conv1d_73 (Conv1D)           (None, 744, 10)           7760      
_________________________________________________________________
max_pooling1d_73 (MaxPooling (None, 372, 10)           0         
_________________________________________________________________
dropout_73 (Dropout)         (None, 372, 10)           0         
_________________________________________________________________
conv1d_74 (Conv1D)           (None, 354, 28)           5348      
_________________________________________________________________
max_pooling1d_74 (MaxPooling (None, 177, 28)           0         
_________________________________________________________________
dropout_74 (Dropout)         (None, 177, 28)           0         
_________________________________________________________________
conv1d_75 (Conv1D)           (None, 166, 9)            3033      
_________________________________________________________________
max_pooling1d_75 (MaxPooling (None, 83, 9)             0         
_________________________________________________________________
dropout_75 (Dropout)         (None, 83, 9)             0         
_________________________________________________________________
flatten_25 (Flatten)         (None, 747)               0         
_________________________________________________________________
dense_49 (Dense)             (None, 46)                34408     
_________________________________________________________________
dense_50 (Dense)             (None, 3)                 141       
=================================================================
Total params: 50,690
Trainable params: 50,690
Non-trainable params: 0
_________________________________________________________________
{'l1_nodes': 10, 'l1_filter': 25, 'l1_dropout': 0.6679928985458656, 'l2_nodes': 28, 'l2_filter': 19, 'l2_dropout': 0.38678707244447563, 'l3_nodes': 9, 'l3_filter': 12, 'l3_dropout': 0.3330304713377305, 'dense_nodes': 46}
…
subject 14, avg accuracy 0.3721997319525875 over 5 splits
subject 15, avg accuracy 0.4701201202812138 over 5 splits
subject 16, avg accuracy 0.4116059387542618 over 5 splits
subject 17, avg accuracy 0.5210526340886167 over 5 splits
subject 18, avg accuracy 0.5081081094774039 over 5 splits
subject 19, avg accuracy 0.31501501517610864 over 5 splits
avg accuracy over all subjects 0.3937857908560179
_________________________________________________________________
Layer (type)                 Output Shape              Param #   
=================================================================
conv1d_76 (Conv1D)           (None, 753, 24)           11928     
_________________________________________________________________
max_pooling1d_76 (MaxPooling (None, 376, 24)           0         
_________________________________________________________________
dropout_76 (Dropout)         (None, 376, 24)           0         
_________________________________________________________________
conv1d_77 (Conv1D)           (None, 367, 11)           2651      
_________________________________________________________________
max_pooling1d_77 (MaxPooling (None, 183, 11)           0         
_________________________________________________________________
dropout_77 (Dropout)         (None, 183, 11)           0         
_________________________________________________________________
conv1d_78 (Conv1D)           (None, 181, 11)           374       
_________________________________________________________________
max_pooling1d_78 (MaxPooling (None, 90, 11)            0         
_________________________________________________________________
dropout_78 (Dropout)         (None, 90, 11)            0         
_________________________________________________________________
flatten_26 (Flatten)         (None, 990)               0         
_________________________________________________________________
dense_51 (Dense)             (None, 40)                39640     
_________________________________________________________________
dense_52 (Dense)             (None, 3)                 123       
=================================================================
Total params: 54,716
Trainable params: 54,716
Non-trainable params: 0
_________________________________________________________________
{'l1_nodes': 24, 'l1_filter': 16, 'l1_dropout': 0.4380742225135025, 'l2_nodes': 11, 'l2_filter': 10, 'l2_dropout': 0.0004963421880775087, 'l3_nodes': 11, 'l3_filter': 3, 'l3_dropout': 0.6972291817576419, 'dense_nodes': 40}
…
subject 14, avg accuracy 0.4608636990933605 over 5 splits
subject 15, avg accuracy 0.513513514157888 over 5 splits
subject 16, avg accuracy 0.4164642393709677 over 5 splits
subject 17, avg accuracy 0.6631578947368421 over 5 splits
subject 18, avg accuracy 0.4378378400931487 over 5 splits
subject 19, avg accuracy 0.5135135135135135 over 5 splits
avg accuracy over all subjects 0.4696104347413035
_________________________________________________________________
Layer (type)                 Output Shape              Param #   
=================================================================
conv1d_79 (Conv1D)           (None, 748, 18)           11736     
_________________________________________________________________
max_pooling1d_79 (MaxPooling (None, 374, 18)           0         
_________________________________________________________________
dropout_79 (Dropout)         (None, 374, 18)           0         
_________________________________________________________________
conv1d_80 (Conv1D)           (None, 360, 11)           2981      
_________________________________________________________________
max_pooling1d_80 (MaxPooling (None, 180, 11)           0         
_________________________________________________________________
dropout_80 (Dropout)         (None, 180, 11)           0         
_________________________________________________________________
conv1d_81 (Conv1D)           (None, 168, 5)            720       
_________________________________________________________________
max_pooling1d_81 (MaxPooling (None, 84, 5)             0         
_________________________________________________________________
dropout_81 (Dropout)         (None, 84, 5)             0         
_________________________________________________________________
flatten_27 (Flatten)         (None, 420)               0         
_________________________________________________________________
dense_53 (Dense)             (None, 15)                6315      
_________________________________________________________________
dense_54 (Dense)             (None, 3)                 48        
=================================================================
Total params: 21,800
Trainable params: 21,800
Non-trainable params: 0
_________________________________________________________________
{'l1_nodes': 18, 'l1_filter': 21, 'l1_dropout': 0.2761578101147383, 'l2_nodes': 11, 'l2_filter': 15, 'l2_dropout': 0.7299860697881017, 'l3_nodes': 5, 'l3_filter': 13, 'l3_dropout': 0.1904571666766986, 'dense_nodes': 15}
…
subject 14, avg accuracy 0.37112010873441914 over 5 splits
subject 15, avg accuracy 0.3423423424228892 over 5 splits
subject 16, avg accuracy 0.4376518232458838 over 5 splits
subject 17, avg accuracy 0.410526316887454 over 5 splits
subject 18, avg accuracy 0.3243243256130734 over 5 splits
subject 19, avg accuracy 0.28213213221267897 over 5 splits
avg accuracy over all subjects 0.35806244947138877
_________________________________________________________________
Layer (type)                 Output Shape              Param #   
=================================================================
conv1d_82 (Conv1D)           (None, 746, 39)           27846     
_________________________________________________________________
max_pooling1d_82 (MaxPooling (None, 373, 39)           0         
_________________________________________________________________
dropout_82 (Dropout)         (None, 373, 39)           0         
_________________________________________________________________
conv1d_83 (Conv1D)           (None, 362, 10)           4690      
_________________________________________________________________
max_pooling1d_83 (MaxPooling (None, 181, 10)           0         
_________________________________________________________________
dropout_83 (Dropout)         (None, 181, 10)           0         
_________________________________________________________________
conv1d_84 (Conv1D)           (None, 168, 3)            423       
_________________________________________________________________
max_pooling1d_84 (MaxPooling (None, 84, 3)             0         
_________________________________________________________________
dropout_84 (Dropout)         (None, 84, 3)             0         
_________________________________________________________________
flatten_28 (Flatten)         (None, 252)               0         
_________________________________________________________________
dense_55 (Dense)             (None, 42)                10626     
_________________________________________________________________
dense_56 (Dense)             (None, 3)                 129       
=================================================================
Total params: 43,714
Trainable params: 43,714
Non-trainable params: 0
_________________________________________________________________
{'l1_nodes': 39, 'l1_filter': 23, 'l1_dropout': 0.6712269852389059, 'l2_nodes': 10, 'l2_filter': 12, 'l2_dropout': 0.48662540349251304, 'l3_nodes': 3, 'l3_filter': 14, 'l3_dropout': 0.6297877820708444, 'dense_nodes': 42}
…
subject 14, avg accuracy 0.293522268219998 over 5 splits
subject 15, avg accuracy 0.3370870872481807 over 5 splits
subject 16, avg accuracy 0.33805668163396085 over 5 splits
subject 17, avg accuracy 0.4157894741547735 over 5 splits
subject 18, avg accuracy 0.3891891903168446 over 5 splits
subject 19, avg accuracy 0.34774774839212225 over 5 splits
avg accuracy over all subjects 0.349621991366087
_________________________________________________________________
Layer (type)                 Output Shape              Param #   
=================================================================
conv1d_85 (Conv1D)           (None, 746, 19)           13566     
_________________________________________________________________
max_pooling1d_85 (MaxPooling (None, 373, 19)           0         
_________________________________________________________________
dropout_85 (Dropout)         (None, 373, 19)           0         
_________________________________________________________________
conv1d_86 (Conv1D)           (None, 358, 8)            2440      
_________________________________________________________________
max_pooling1d_86 (MaxPooling (None, 179, 8)            0         
_________________________________________________________________
dropout_86 (Dropout)         (None, 179, 8)            0         
_________________________________________________________________
conv1d_87 (Conv1D)           (None, 168, 7)            679       
_________________________________________________________________
max_pooling1d_87 (MaxPooling (None, 84, 7)             0         
_________________________________________________________________
dropout_87 (Dropout)         (None, 84, 7)             0         
_________________________________________________________________
flatten_29 (Flatten)         (None, 588)               0         
_________________________________________________________________
dense_57 (Dense)             (None, 7)                 4123      
_________________________________________________________________
dense_58 (Dense)             (None, 3)                 24        
=================================================================
Total params: 20,832
Trainable params: 20,832
Non-trainable params: 0
_________________________________________________________________
{'l1_nodes': 19, 'l1_filter': 23, 'l1_dropout': 0.07703945281037583, 'l2_nodes': 8, 'l2_filter': 16, 'l2_dropout': 0.48415644712308187, 'l3_nodes': 7, 'l3_filter': 12, 'l3_dropout': 0.048618994936195425, 'dense_nodes': 7}
…
subject 14, avg accuracy 0.4085020256870993 over 5 splits
subject 15, avg accuracy 0.342492493136867 over 5 splits
subject 16, avg accuracy 0.3175438611211403 over 5 splits
subject 17, avg accuracy 0.41052631610318235 over 5 splits
subject 18, avg accuracy 0.4648648659925203 over 5 splits
subject 19, avg accuracy 0.27657657665712343 over 5 splits
avg accuracy over all subjects 0.34476004425594825
_________________________________________________________________
Layer (type)                 Output Shape              Param #   
=================================================================
conv1d_88 (Conv1D)           (None, 748, 11)           7172      
_________________________________________________________________
max_pooling1d_88 (MaxPooling (None, 374, 11)           0         
_________________________________________________________________
dropout_88 (Dropout)         (None, 374, 11)           0         
_________________________________________________________________
conv1d_89 (Conv1D)           (None, 364, 23)           2806      
_________________________________________________________________
max_pooling1d_89 (MaxPooling (None, 182, 23)           0         
_________________________________________________________________
dropout_89 (Dropout)         (None, 182, 23)           0         
_________________________________________________________________
conv1d_90 (Conv1D)           (None, 169, 5)            1615      
_________________________________________________________________
max_pooling1d_90 (MaxPooling (None, 84, 5)             0         
_________________________________________________________________
dropout_90 (Dropout)         (None, 84, 5)             0         
_________________________________________________________________
flatten_30 (Flatten)         (None, 420)               0         
_________________________________________________________________
dense_59 (Dense)             (None, 16)                6736      
_________________________________________________________________
dense_60 (Dense)             (None, 3)                 51        
=================================================================
Total params: 18,380
Trainable params: 18,380
Non-trainable params: 0
_________________________________________________________________
{'l1_nodes': 11, 'l1_filter': 21, 'l1_dropout': 0.453141653567363, 'l2_nodes': 23, 'l2_filter': 11, 'l2_dropout': 0.017161188350007406, 'l3_nodes': 5, 'l3_filter': 14, 'l3_dropout': 0.17705459440460716, 'dense_nodes': 16}
…
subject 14, avg accuracy 0.46680162146828275 over 5 splits
subject 15, avg accuracy 0.45930930938985615 over 5 splits
subject 16, avg accuracy 0.3906882612891847 over 5 splits
subject 17, avg accuracy 0.6421052644127293 over 5 splits
subject 18, avg accuracy 0.49189189366392194 over 5 splits
subject 19, avg accuracy 0.49669669734107125 over 5 splits
avg accuracy over all subjects 0.4616778059024379
_________________________________________________________________
Layer (type)                 Output Shape              Param #   
=================================================================
conv1d_91 (Conv1D)           (None, 749, 20)           12420     
_________________________________________________________________
max_pooling1d_91 (MaxPooling (None, 374, 20)           0         
_________________________________________________________________
dropout_91 (Dropout)         (None, 374, 20)           0         
_________________________________________________________________
conv1d_92 (Conv1D)           (None, 358, 19)           6479      
_________________________________________________________________
max_pooling1d_92 (MaxPooling (None, 179, 19)           0         
_________________________________________________________________
dropout_92 (Dropout)         (None, 179, 19)           0         
_________________________________________________________________
conv1d_93 (Conv1D)           (None, 177, 13)           754       
_________________________________________________________________
max_pooling1d_93 (MaxPooling (None, 88, 13)            0         
_________________________________________________________________
dropout_93 (Dropout)         (None, 88, 13)            0         
_________________________________________________________________
flatten_31 (Flatten)         (None, 1144)              0         
_________________________________________________________________
dense_61 (Dense)             (None, 30)                34350     
_________________________________________________________________
dense_62 (Dense)             (None, 3)                 93        
=================================================================
Total params: 54,096
Trainable params: 54,096
Non-trainable params: 0
_________________________________________________________________
{'l1_nodes': 20, 'l1_filter': 20, 'l1_dropout': 0.6873097635170432, 'l2_nodes': 19, 'l2_filter': 17, 'l2_dropout': 0.23847793474302523, 'l3_nodes': 13, 'l3_filter': 3, 'l3_dropout': 0.5730819035339436, 'dense_nodes': 30}
…
subject 14, avg accuracy 0.3933873149064871 over 5 splits
subject 15, avg accuracy 0.4144144144949612 over 5 splits
subject 16, avg accuracy 0.3592442654244169 over 5 splits
subject 17, avg accuracy 0.5315789498780903 over 5 splits
subject 18, avg accuracy 0.42702702823522926 over 5 splits
subject 19, avg accuracy 0.35990990999045674 over 5 splits
avg accuracy over all subjects 0.38901972231768406
_________________________________________________________________
Layer (type)                 Output Shape              Param #   
=================================================================
conv1d_94 (Conv1D)           (None, 749, 16)           9936      
_________________________________________________________________
max_pooling1d_94 (MaxPooling (None, 374, 16)           0         
_________________________________________________________________
dropout_94 (Dropout)         (None, 374, 16)           0         
_________________________________________________________________
conv1d_95 (Conv1D)           (None, 356, 29)           8845      
_________________________________________________________________
max_pooling1d_95 (MaxPooling (None, 178, 29)           0         
_________________________________________________________________
dropout_95 (Dropout)         (None, 178, 29)           0         
_________________________________________________________________
conv1d_96 (Conv1D)           (None, 168, 9)            2880      
_________________________________________________________________
max_pooling1d_96 (MaxPooling (None, 84, 9)             0         
_________________________________________________________________
dropout_96 (Dropout)         (None, 84, 9)             0         
_________________________________________________________________
flatten_32 (Flatten)         (None, 756)               0         
_________________________________________________________________
dense_63 (Dense)             (None, 49)                37093     
_________________________________________________________________
dense_64 (Dense)             (None, 3)                 150       
=================================================================
Total params: 58,904
Trainable params: 58,904
Non-trainable params: 0
_________________________________________________________________
{'l1_nodes': 16, 'l1_filter': 20, 'l1_dropout': 0.5098521364145219, 'l2_nodes': 29, 'l2_filter': 19, 'l2_dropout': 0.3732558202362709, 'l3_nodes': 9, 'l3_filter': 11, 'l3_dropout': 0.6518860525017117, 'dense_nodes': 49}
…
subject 14, avg accuracy 0.3504723359336737 over 5 splits
subject 15, avg accuracy 0.4974474476085411 over 5 splits
subject 16, avg accuracy 0.3118758448383264 over 5 splits
subject 17, avg accuracy 0.510526317358017 over 5 splits
subject 18, avg accuracy 0.40540540653306084 over 5 splits
subject 19, avg accuracy 0.3145645646451114 over 5 splits
avg accuracy over all subjects 0.3797905539938758
_________________________________________________________________
Layer (type)                 Output Shape              Param #   
=================================================================
conv1d_97 (Conv1D)           (None, 744, 35)           27160     
_________________________________________________________________
max_pooling1d_97 (MaxPooling (None, 372, 35)           0         
_________________________________________________________________
dropout_97 (Dropout)         (None, 372, 35)           0         
_________________________________________________________________
conv1d_98 (Conv1D)           (None, 367, 16)           3376      
_________________________________________________________________
max_pooling1d_98 (MaxPooling (None, 183, 16)           0         
_________________________________________________________________
dropout_98 (Dropout)         (None, 183, 16)           0         
_________________________________________________________________
conv1d_99 (Conv1D)           (None, 182, 1)            33        
_________________________________________________________________
max_pooling1d_99 (MaxPooling (None, 91, 1)             0         
_________________________________________________________________
dropout_99 (Dropout)         (None, 91, 1)             0         
_________________________________________________________________
flatten_33 (Flatten)         (None, 91)                0         
_________________________________________________________________
dense_65 (Dense)             (None, 5)                 460       
_________________________________________________________________
dense_66 (Dense)             (None, 3)                 18        
=================================================================
Total params: 31,047
Trainable params: 31,047
Non-trainable params: 0
_________________________________________________________________
{'l1_nodes': 35, 'l1_filter': 25, 'l1_dropout': 0.190287679230471, 'l2_nodes': 16, 'l2_filter': 6, 'l2_dropout': 0.1416916013139913, 'l3_nodes': 1, 'l3_filter': 2, 'l3_dropout': 0.7228143909510416, 'dense_nodes': 5}
…
subject 14, avg accuracy 0.3242914989892288 over 5 splits
subject 15, avg accuracy 0.2980480486924226 over 5 splits
subject 16, avg accuracy 0.3028340086280576 over 5 splits
subject 17, avg accuracy 0.29473684304638914 over 5 splits
subject 18, avg accuracy 0.3189189194827466 over 5 splits
subject 19, avg accuracy 0.29219219235328586 over 5 splits
avg accuracy over all subjects 0.30286403210556917
_________________________________________________________________
Layer (type)                 Output Shape              Param #   
=================================================================
conv1d_100 (Conv1D)          (None, 751, 29)           16211     
_________________________________________________________________
max_pooling1d_100 (MaxPoolin (None, 375, 29)           0         
_________________________________________________________________
dropout_100 (Dropout)        (None, 375, 29)           0         
_________________________________________________________________
conv1d_101 (Conv1D)          (None, 358, 22)           11506     
_________________________________________________________________
max_pooling1d_101 (MaxPoolin (None, 179, 22)           0         
_________________________________________________________________
dropout_101 (Dropout)        (None, 179, 22)           0         
_________________________________________________________________
conv1d_102 (Conv1D)          (None, 178, 10)           450       
_________________________________________________________________
max_pooling1d_102 (MaxPoolin (None, 89, 10)            0         
_________________________________________________________________
dropout_102 (Dropout)        (None, 89, 10)            0         
_________________________________________________________________
flatten_34 (Flatten)         (None, 890)               0         
_________________________________________________________________
dense_67 (Dense)             (None, 26)                23166     
_________________________________________________________________
dense_68 (Dense)             (None, 3)                 81        
=================================================================
Total params: 51,414
Trainable params: 51,414
Non-trainable params: 0
_________________________________________________________________
{'l1_nodes': 29, 'l1_filter': 18, 'l1_dropout': 0.31753728449105467, 'l2_nodes': 22, 'l2_filter': 18, 'l2_dropout': 0.6507993365672826, 'l3_nodes': 10, 'l3_filter': 2, 'l3_dropout': 0.5348193080867825, 'dense_nodes': 26}
…
subject 14, avg accuracy 0.33967611414057364 over 5 splits
subject 15, avg accuracy 0.3322822822822823 over 5 splits
subject 16, avg accuracy 0.3743589762211167 over 5 splits
subject 17, avg accuracy 0.5263157894736843 over 5 splits
subject 18, avg accuracy 0.3675675685341294 over 5 splits
subject 19, avg accuracy 0.33753753761808436 over 5 splits
avg accuracy over all subjects 0.36387527967859273
_________________________________________________________________
Layer (type)                 Output Shape              Param #   
=================================================================
conv1d_103 (Conv1D)          (None, 748, 30)           19560     
_________________________________________________________________
max_pooling1d_103 (MaxPoolin (None, 374, 30)           0         
_________________________________________________________________
dropout_103 (Dropout)        (None, 374, 30)           0         
_________________________________________________________________
conv1d_104 (Conv1D)          (None, 360, 22)           9922      
_________________________________________________________________
max_pooling1d_104 (MaxPoolin (None, 180, 22)           0         
_________________________________________________________________
dropout_104 (Dropout)        (None, 180, 22)           0         
_________________________________________________________________
conv1d_105 (Conv1D)          (None, 179, 1)            45        
_________________________________________________________________
max_pooling1d_105 (MaxPoolin (None, 89, 1)             0         
_________________________________________________________________
dropout_105 (Dropout)        (None, 89, 1)             0         
_________________________________________________________________
flatten_35 (Flatten)         (None, 89)                0         
_________________________________________________________________
dense_69 (Dense)             (None, 37)                3330      
_________________________________________________________________
dense_70 (Dense)             (None, 3)                 114       
=================================================================
Total params: 32,971
Trainable params: 32,971
Non-trainable params: 0
_________________________________________________________________
{'l1_nodes': 30, 'l1_filter': 21, 'l1_dropout': 0.13703622656448344, 'l2_nodes': 22, 'l2_filter': 15, 'l2_dropout': 0.656771217914675, 'l3_nodes': 1, 'l3_filter': 2, 'l3_dropout': 0.16687948044368933, 'dense_nodes': 37}
…
subject 14, avg accuracy 0.35614035181429704 over 5 splits
subject 15, avg accuracy 0.38723723731778403 over 5 splits
subject 16, avg accuracy 0.3230769253935409 over 5 splits
subject 17, avg accuracy 0.4789473677936352 over 5 splits
subject 18, avg accuracy 0.41081081129409175 over 5 splits
subject 19, avg accuracy 0.37537537537537535 over 5 splits
avg accuracy over all subjects 0.38472865671994344
_________________________________________________________________
Layer (type)                 Output Shape              Param #   
=================================================================
conv1d_106 (Conv1D)          (None, 748, 13)           8476      
_________________________________________________________________
max_pooling1d_106 (MaxPoolin (None, 374, 13)           0         
_________________________________________________________________
dropout_106 (Dropout)        (None, 374, 13)           0         
_________________________________________________________________
conv1d_107 (Conv1D)          (None, 358, 16)           3552      
_________________________________________________________________
max_pooling1d_107 (MaxPoolin (None, 179, 16)           0         
_________________________________________________________________
dropout_107 (Dropout)        (None, 179, 16)           0         
_________________________________________________________________
conv1d_108 (Conv1D)          (None, 167, 14)           2926      
_________________________________________________________________
max_pooling1d_108 (MaxPoolin (None, 83, 14)            0         
_________________________________________________________________
dropout_108 (Dropout)        (None, 83, 14)            0         
_________________________________________________________________
flatten_36 (Flatten)         (None, 1162)              0         
_________________________________________________________________
dense_71 (Dense)             (None, 31)                36053     
_________________________________________________________________
dense_72 (Dense)             (None, 3)                 96        
=================================================================
Total params: 51,103
Trainable params: 51,103
Non-trainable params: 0
_________________________________________________________________
{'l1_nodes': 13, 'l1_filter': 21, 'l1_dropout': 0.044108405861302574, 'l2_nodes': 16, 'l2_filter': 17, 'l2_dropout': 0.4679387894177558, 'l3_nodes': 14, 'l3_filter': 13, 'l3_dropout': 0.6898049482479869, 'dense_nodes': 31}
…
subject 14, avg accuracy 0.3766531730993235 over 5 splits
subject 15, avg accuracy 0.3977477478282946 over 5 splits
subject 16, avg accuracy 0.37031039205881267 over 5 splits
subject 17, avg accuracy 0.5999999999999999 over 5 splits
subject 18, avg accuracy 0.40540540621087356 over 5 splits
subject 19, avg accuracy 0.32657657665712336 over 5 splits
avg accuracy over all subjects 0.39063000349315247
_________________________________________________________________
Layer (type)                 Output Shape              Param #   
=================================================================
conv1d_109 (Conv1D)          (None, 756, 34)           13736     
_________________________________________________________________
max_pooling1d_109 (MaxPoolin (None, 378, 34)           0         
_________________________________________________________________
dropout_109 (Dropout)        (None, 378, 34)           0         
_________________________________________________________________
conv1d_110 (Conv1D)          (None, 370, 9)            2763      
_________________________________________________________________
max_pooling1d_110 (MaxPoolin (None, 185, 9)            0         
_________________________________________________________________
dropout_110 (Dropout)        (None, 185, 9)            0         
_________________________________________________________________
conv1d_111 (Conv1D)          (None, 179, 2)            128       
_________________________________________________________________
max_pooling1d_111 (MaxPoolin (None, 89, 2)             0         
_________________________________________________________________
dropout_111 (Dropout)        (None, 89, 2)             0         
_________________________________________________________________
flatten_37 (Flatten)         (None, 178)               0         
_________________________________________________________________
dense_73 (Dense)             (None, 44)                7876      
_________________________________________________________________
dense_74 (Dense)             (None, 3)                 135       
=================================================================
Total params: 24,638
Trainable params: 24,638
Non-trainable params: 0
_________________________________________________________________
{'l1_nodes': 34, 'l1_filter': 13, 'l1_dropout': 0.3204752514375571, 'l2_nodes': 9, 'l2_filter': 9, 'l2_dropout': 0.6465085366708571, 'l3_nodes': 2, 'l3_filter': 7, 'l3_dropout': 0.4616560615998492, 'dense_nodes': 44}
…
subject 14, avg accuracy 0.3346828620926089 over 5 splits
subject 15, avg accuracy 0.442492493136867 over 5 splits
subject 16, avg accuracy 0.38434548055031686 over 5 splits
subject 17, avg accuracy 0.478947368577907 over 5 splits
subject 18, avg accuracy 0.47027027163956614 over 5 splits
subject 19, avg accuracy 0.29849849857904526 over 5 splits
avg accuracy over all subjects 0.37945921718835707
_________________________________________________________________
Layer (type)                 Output Shape              Param #   
=================================================================
conv1d_112 (Conv1D)          (None, 747, 11)           7513      
_________________________________________________________________
max_pooling1d_112 (MaxPoolin (None, 373, 11)           0         
_________________________________________________________________
dropout_112 (Dropout)        (None, 373, 11)           0         
_________________________________________________________________
conv1d_113 (Conv1D)          (None, 363, 9)            1098      
_________________________________________________________________
max_pooling1d_113 (MaxPoolin (None, 181, 9)            0         
_________________________________________________________________
dropout_113 (Dropout)        (None, 181, 9)            0         
_________________________________________________________________
conv1d_114 (Conv1D)          (None, 170, 10)           1090      
_________________________________________________________________
max_pooling1d_114 (MaxPoolin (None, 85, 10)            0         
_________________________________________________________________
dropout_114 (Dropout)        (None, 85, 10)            0         
_________________________________________________________________
flatten_38 (Flatten)         (None, 850)               0         
_________________________________________________________________
dense_75 (Dense)             (None, 48)                40848     
_________________________________________________________________
dense_76 (Dense)             (None, 3)                 147       
=================================================================
Total params: 50,696
Trainable params: 50,696
Non-trainable params: 0
_________________________________________________________________
{'l1_nodes': 11, 'l1_filter': 22, 'l1_dropout': 0.6079281387005933, 'l2_nodes': 9, 'l2_filter': 11, 'l2_dropout': 0.1737214763518221, 'l3_nodes': 10, 'l3_filter': 12, 'l3_dropout': 0.6239816955706732, 'dense_nodes': 48}
…
subject 14, avg accuracy 0.35060728837845295 over 5 splits
subject 15, avg accuracy 0.36441441449496126 over 5 splits
subject 16, avg accuracy 0.3796221336493125 over 5 splits
subject 17, avg accuracy 0.5578947374695226 over 5 splits
subject 18, avg accuracy 0.42162162299091754 over 5 splits
subject 19, avg accuracy 0.39774774790884143 over 5 splits
avg accuracy over all subjects 0.3822160901541181
_________________________________________________________________
Layer (type)                 Output Shape              Param #   
=================================================================
conv1d_115 (Conv1D)          (None, 763, 11)           2057      
_________________________________________________________________
max_pooling1d_115 (MaxPoolin (None, 381, 11)           0         
_________________________________________________________________
dropout_115 (Dropout)        (None, 381, 11)           0         
_________________________________________________________________
conv1d_116 (Conv1D)          (None, 376, 25)           1675      
_________________________________________________________________
max_pooling1d_116 (MaxPoolin (None, 188, 25)           0         
_________________________________________________________________
dropout_116 (Dropout)        (None, 188, 25)           0         
_________________________________________________________________
conv1d_117 (Conv1D)          (None, 178, 9)            2484      
_________________________________________________________________
max_pooling1d_117 (MaxPoolin (None, 89, 9)             0         
_________________________________________________________________
dropout_117 (Dropout)        (None, 89, 9)             0         
_________________________________________________________________
flatten_39 (Flatten)         (None, 801)               0         
_________________________________________________________________
dense_77 (Dense)             (None, 9)                 7218      
_________________________________________________________________
dense_78 (Dense)             (None, 3)                 30        
=================================================================
Total params: 13,464
Trainable params: 13,464
Non-trainable params: 0
_________________________________________________________________
{'l1_nodes': 11, 'l1_filter': 6, 'l1_dropout': 0.4318859369429643, 'l2_nodes': 25, 'l2_filter': 6, 'l2_dropout': 0.7397542475883198, 'l3_nodes': 9, 'l3_filter': 11, 'l3_dropout': 0.0895330479479233, 'dense_nodes': 9}
…
subject 14, avg accuracy 0.3036437253197517 over 5 splits
subject 15, avg accuracy 0.3369369375813115 over 5 splits
subject 16, avg accuracy 0.27570850302574607 over 5 splits
subject 17, avg accuracy 0.3263157894736842 over 5 splits
subject 18, avg accuracy 0.3027027031859836 over 5 splits
subject 19, avg accuracy 0.2543543544349012 over 5 splits
avg accuracy over all subjects 0.3058441038649728
_________________________________________________________________
Layer (type)                 Output Shape              Param #   
=================================================================
conv1d_118 (Conv1D)          (None, 740, 14)           12600     
_________________________________________________________________
max_pooling1d_118 (MaxPoolin (None, 370, 14)           0         
_________________________________________________________________
dropout_118 (Dropout)        (None, 370, 14)           0         
_________________________________________________________________
conv1d_119 (Conv1D)          (None, 365, 25)           2125      
_________________________________________________________________
max_pooling1d_119 (MaxPoolin (None, 182, 25)           0         
_________________________________________________________________
dropout_119 (Dropout)        (None, 182, 25)           0         
_________________________________________________________________
conv1d_120 (Conv1D)          (None, 181, 6)            306       
_________________________________________________________________
max_pooling1d_120 (MaxPoolin (None, 90, 6)             0         
_________________________________________________________________
dropout_120 (Dropout)        (None, 90, 6)             0         
_________________________________________________________________
flatten_40 (Flatten)         (None, 540)               0         
_________________________________________________________________
dense_79 (Dense)             (None, 43)                23263     
_________________________________________________________________
dense_80 (Dense)             (None, 3)                 132       
=================================================================
Total params: 38,426
Trainable params: 38,426
Non-trainable params: 0
_________________________________________________________________
{'l1_nodes': 14, 'l1_filter': 29, 'l1_dropout': 0.5683687526737329, 'l2_nodes': 25, 'l2_filter': 6, 'l2_dropout': 0.45491056183037826, 'l3_nodes': 6, 'l3_filter': 2, 'l3_dropout': 0.7472267081956907, 'dense_nodes': 43}
…
subject 14, avg accuracy 0.3933873161532779 over 5 splits
subject 15, avg accuracy 0.4256756763200502 over 5 splits
subject 16, avg accuracy 0.43238866535114695 over 5 splits
subject 17, avg accuracy 0.47368421099687874 over 5 splits
subject 18, avg accuracy 0.45945946123148945 over 5 splits
subject 19, avg accuracy 0.34219219235328585 over 5 splits
avg accuracy over all subjects 0.39395917615334985
_________________________________________________________________
Layer (type)                 Output Shape              Param #   
=================================================================
conv1d_121 (Conv1D)          (None, 748, 35)           22820     
_________________________________________________________________
max_pooling1d_121 (MaxPoolin (None, 374, 35)           0         
_________________________________________________________________
dropout_121 (Dropout)        (None, 374, 35)           0         
_________________________________________________________________
conv1d_122 (Conv1D)          (None, 358, 23)           13708     
_________________________________________________________________
max_pooling1d_122 (MaxPoolin (None, 179, 23)           0         
_________________________________________________________________
dropout_122 (Dropout)        (None, 179, 23)           0         
_________________________________________________________________
conv1d_123 (Conv1D)          (None, 178, 8)            376       
_________________________________________________________________
max_pooling1d_123 (MaxPoolin (None, 89, 8)             0         
_________________________________________________________________
dropout_123 (Dropout)        (None, 89, 8)             0         
_________________________________________________________________
flatten_41 (Flatten)         (None, 712)               0         
_________________________________________________________________
dense_81 (Dense)             (None, 41)                29233     
_________________________________________________________________
dense_82 (Dense)             (None, 3)                 126       
=================================================================
Total params: 66,263
Trainable params: 66,263
Non-trainable params: 0
_________________________________________________________________
{'l1_nodes': 35, 'l1_filter': 21, 'l1_dropout': 0.6182918893354725, 'l2_nodes': 23, 'l2_filter': 17, 'l2_dropout': 0.1595352903496902, 'l3_nodes': 8, 'l3_filter': 2, 'l3_dropout': 0.46447477582216645, 'dense_nodes': 41}
…
subject 14, avg accuracy 0.36639676159210055 over 5 splits
subject 15, avg accuracy 0.41441441441441434 over 5 splits
subject 16, avg accuracy 0.3547908255284936 over 5 splits
subject 17, avg accuracy 0.542105264726438 over 5 splits
subject 18, avg accuracy 0.38918918999465735 over 5 splits
subject 19, avg accuracy 0.3591591593202528 over 5 splits
avg accuracy over all subjects 0.39350318693108605
_________________________________________________________________
Layer (type)                 Output Shape              Param #   
=================================================================
conv1d_124 (Conv1D)          (None, 753, 31)           15407     
_________________________________________________________________
max_pooling1d_124 (MaxPoolin (None, 376, 31)           0         
_________________________________________________________________
dropout_124 (Dropout)        (None, 376, 31)           0         
_________________________________________________________________
conv1d_125 (Conv1D)          (None, 365, 17)           6341      
_________________________________________________________________
max_pooling1d_125 (MaxPoolin (None, 182, 17)           0         
_________________________________________________________________
dropout_125 (Dropout)        (None, 182, 17)           0         
_________________________________________________________________
conv1d_126 (Conv1D)          (None, 172, 11)           2068      
_________________________________________________________________
max_pooling1d_126 (MaxPoolin (None, 86, 11)            0         
_________________________________________________________________
dropout_126 (Dropout)        (None, 86, 11)            0         
_________________________________________________________________
flatten_42 (Flatten)         (None, 946)               0         
_________________________________________________________________
dense_83 (Dense)             (None, 21)                19887     
_________________________________________________________________
dense_84 (Dense)             (None, 3)                 66        
=================================================================
Total params: 43,769
Trainable params: 43,769
Non-trainable params: 0
_________________________________________________________________
{'l1_nodes': 31, 'l1_filter': 16, 'l1_dropout': 0.210708217705744, 'l2_nodes': 17, 'l2_filter': 12, 'l2_dropout': 0.2735961993032726, 'l3_nodes': 11, 'l3_filter': 11, 'l3_dropout': 0.3633165347194093, 'dense_nodes': 21}
…
subject 14, avg accuracy 0.3562753050513917 over 5 splits
subject 15, avg accuracy 0.3918918920529855 over 5 splits
subject 16, avg accuracy 0.32820512921462663 over 5 splits
subject 17, avg accuracy 0.5947368424189718 over 5 splits
subject 18, avg accuracy 0.4324324331573538 over 5 splits
subject 19, avg accuracy 0.33108108116162793 over 5 splits
avg accuracy over all subjects 0.38798717830499696
_________________________________________________________________
Layer (type)                 Output Shape              Param #   
=================================================================
conv1d_127 (Conv1D)          (None, 753, 23)           11431     
_________________________________________________________________
max_pooling1d_127 (MaxPoolin (None, 376, 23)           0         
_________________________________________________________________
dropout_127 (Dropout)        (None, 376, 23)           0         
_________________________________________________________________
conv1d_128 (Conv1D)          (None, 371, 15)           2085      
_________________________________________________________________
max_pooling1d_128 (MaxPoolin (None, 185, 15)           0         
_________________________________________________________________
dropout_128 (Dropout)        (None, 185, 15)           0         
_________________________________________________________________
conv1d_129 (Conv1D)          (None, 174, 10)           1810      
_________________________________________________________________
max_pooling1d_129 (MaxPoolin (None, 87, 10)            0         
_________________________________________________________________
dropout_129 (Dropout)        (None, 87, 10)            0         
_________________________________________________________________
flatten_43 (Flatten)         (None, 870)               0         
_________________________________________________________________
dense_85 (Dense)             (None, 32)                27872     
_________________________________________________________________
dense_86 (Dense)             (None, 3)                 99        
=================================================================
Total params: 43,297
Trainable params: 43,297
Non-trainable params: 0
_________________________________________________________________
{'l1_nodes': 23, 'l1_filter': 16, 'l1_dropout': 0.07416107151390833, 'l2_nodes': 15, 'l2_filter': 6, 'l2_dropout': 0.40609349530087524, 'l3_nodes': 10, 'l3_filter': 12, 'l3_dropout': 0.17947582368940082, 'dense_nodes': 32}
…
subject 14, avg accuracy 0.42334683000960976 over 5 splits
subject 15, avg accuracy 0.3975975977586912 over 5 splits
subject 16, avg accuracy 0.4588394085365108 over 5 splits
subject 17, avg accuracy 0.6368421068317012 over 5 splits
subject 18, avg accuracy 0.5459459475568822 over 5 splits
subject 19, avg accuracy 0.37522522538631886 over 5 splits
avg accuracy over all subjects 0.425974592457472
_________________________________________________________________
Layer (type)                 Output Shape              Param #   
=================================================================
conv1d_130 (Conv1D)          (None, 750, 25)           14750     
_________________________________________________________________
max_pooling1d_130 (MaxPoolin (None, 375, 25)           0         
_________________________________________________________________
dropout_130 (Dropout)        (None, 375, 25)           0         
_________________________________________________________________
conv1d_131 (Conv1D)          (None, 362, 19)           6669      
_________________________________________________________________
max_pooling1d_131 (MaxPoolin (None, 181, 19)           0         
_________________________________________________________________
dropout_131 (Dropout)        (None, 181, 19)           0         
_________________________________________________________________
conv1d_132 (Conv1D)          (None, 169, 5)            1240      
_________________________________________________________________
max_pooling1d_132 (MaxPoolin (None, 84, 5)             0         
_________________________________________________________________
dropout_132 (Dropout)        (None, 84, 5)             0         
_________________________________________________________________
flatten_44 (Flatten)         (None, 420)               0         
_________________________________________________________________
dense_87 (Dense)             (None, 30)                12630     
_________________________________________________________________
dense_88 (Dense)             (None, 3)                 93        
=================================================================
Total params: 35,382
Trainable params: 35,382
Non-trainable params: 0
_________________________________________________________________
{'l1_nodes': 25, 'l1_filter': 19, 'l1_dropout': 0.2415993492132543, 'l2_nodes': 19, 'l2_filter': 14, 'l2_dropout': 0.44626128906863155, 'l3_nodes': 5, 'l3_filter': 13, 'l3_dropout': 0.5277647313801689, 'dense_nodes': 30}
…
subject 14, avg accuracy 0.345344130785359 over 5 splits
subject 15, avg accuracy 0.42072072088181434 over 5 splits
subject 16, avg accuracy 0.34331983991077875 over 5 splits
subject 17, avg accuracy 0.5578947371558141 over 5 splits
subject 18, avg accuracy 0.36756756788975486 over 5 splits
subject 19, avg accuracy 0.3648648649454117 over 5 splits
avg accuracy over all subjects 0.39290542324892086
_________________________________________________________________
Layer (type)                 Output Shape              Param #   
=================================================================
conv1d_133 (Conv1D)          (None, 763, 29)           5423      
_________________________________________________________________
max_pooling1d_133 (MaxPoolin (None, 381, 29)           0         
_________________________________________________________________
dropout_133 (Dropout)        (None, 381, 29)           0         
_________________________________________________________________
conv1d_134 (Conv1D)          (None, 372, 13)           3783      
_________________________________________________________________
max_pooling1d_134 (MaxPoolin (None, 186, 13)           0         
_________________________________________________________________
dropout_134 (Dropout)        (None, 186, 13)           0         
_________________________________________________________________
conv1d_135 (Conv1D)          (None, 180, 13)           1196      
_________________________________________________________________
max_pooling1d_135 (MaxPoolin (None, 90, 13)            0         
_________________________________________________________________
dropout_135 (Dropout)        (None, 90, 13)            0         
_________________________________________________________________
flatten_45 (Flatten)         (None, 1170)              0         
_________________________________________________________________
dense_89 (Dense)             (None, 38)                44498     
_________________________________________________________________
dense_90 (Dense)             (None, 3)                 117       
=================================================================
Total params: 55,017
Trainable params: 55,017
Non-trainable params: 0
_________________________________________________________________
{'l1_nodes': 29, 'l1_filter': 6, 'l1_dropout': 0.26885761748218723, 'l2_nodes': 13, 'l2_filter': 10, 'l2_dropout': 0.2076854159308964, 'l3_nodes': 13, 'l3_filter': 7, 'l3_dropout': 0.1384235668741431, 'dense_nodes': 38}
…
subject 14, avg accuracy 0.5288798920216993 over 5 splits
subject 15, avg accuracy 0.5639639646083385 over 5 splits
subject 16, avg accuracy 0.40580297143433575 over 5 splits
subject 17, avg accuracy 0.6631578953642594 over 5 splits
subject 18, avg accuracy 0.3945945958027969 over 5 splits
subject 19, avg accuracy 0.33213213221267895 over 5 splits
avg accuracy over all subjects 0.4590651050619477
_________________________________________________________________
Layer (type)                 Output Shape              Param #   
=================================================================
conv1d_136 (Conv1D)          (None, 745, 34)           25330     
_________________________________________________________________
max_pooling1d_136 (MaxPoolin (None, 372, 34)           0         
_________________________________________________________________
dropout_136 (Dropout)        (None, 372, 34)           0         
_________________________________________________________________
conv1d_137 (Conv1D)          (None, 367, 24)           4920      
_________________________________________________________________
max_pooling1d_137 (MaxPoolin (None, 183, 24)           0         
_________________________________________________________________
dropout_137 (Dropout)        (None, 183, 24)           0         
_________________________________________________________________
conv1d_138 (Conv1D)          (None, 175, 5)            1085      
_________________________________________________________________
max_pooling1d_138 (MaxPoolin (None, 87, 5)             0         
_________________________________________________________________
dropout_138 (Dropout)        (None, 87, 5)             0         
_________________________________________________________________
flatten_46 (Flatten)         (None, 435)               0         
_________________________________________________________________
dense_91 (Dense)             (None, 43)                18748     
_________________________________________________________________
dense_92 (Dense)             (None, 3)                 132       
=================================================================
Total params: 50,215
Trainable params: 50,215
Non-trainable params: 0
_________________________________________________________________
{'l1_nodes': 34, 'l1_filter': 24, 'l1_dropout': 0.4284465216362676, 'l2_nodes': 24, 'l2_filter': 6, 'l2_dropout': 0.21553587526947512, 'l3_nodes': 5, 'l3_filter': 9, 'l3_dropout': 0.7302439469522759, 'dense_nodes': 43}
…
subject 14, avg accuracy 0.32483131021221 over 5 splits
subject 15, avg accuracy 0.4699699701310636 over 5 splits
subject 16, avg accuracy 0.41659919191227274 over 5 splits
subject 17, avg accuracy 0.5157894735273563 over 5 splits
subject 18, avg accuracy 0.4000000012082022 over 5 splits
subject 19, avg accuracy 0.3750750757194496 over 5 splits
avg accuracy over all subjects 0.37980156358874584
_________________________________________________________________
Layer (type)                 Output Shape              Param #   
=================================================================
conv1d_139 (Conv1D)          (None, 754, 17)           7922      
_________________________________________________________________
max_pooling1d_139 (MaxPoolin (None, 377, 17)           0         
_________________________________________________________________
dropout_139 (Dropout)        (None, 377, 17)           0         
_________________________________________________________________
conv1d_140 (Conv1D)          (None, 363, 8)            2048      
_________________________________________________________________
max_pooling1d_140 (MaxPoolin (None, 181, 8)            0         
_________________________________________________________________
dropout_140 (Dropout)        (None, 181, 8)            0         
_________________________________________________________________
conv1d_141 (Conv1D)          (None, 177, 4)            164       
_________________________________________________________________
max_pooling1d_141 (MaxPoolin (None, 88, 4)             0         
_________________________________________________________________
dropout_141 (Dropout)        (None, 88, 4)             0         
_________________________________________________________________
flatten_47 (Flatten)         (None, 352)               0         
_________________________________________________________________
dense_93 (Dense)             (None, 5)                 1765      
_________________________________________________________________
dense_94 (Dense)             (None, 3)                 18        
=================================================================
Total params: 11,917
Trainable params: 11,917
Non-trainable params: 0
_________________________________________________________________
{'l1_nodes': 17, 'l1_filter': 15, 'l1_dropout': 0.5227041180116986, 'l2_nodes': 8, 'l2_filter': 15, 'l2_dropout': 0.5706741442813048, 'l3_nodes': 4, 'l3_filter': 5, 'l3_dropout': 0.22096121371126753, 'dense_nodes': 5}
…
subject 14, avg accuracy 0.3349527676296942 over 5 splits
subject 15, avg accuracy 0.3866366367171835 over 5 splits
subject 16, avg accuracy 0.3547908239076655 over 5 splits
subject 17, avg accuracy 0.43684210698855547 over 5 splits
subject 18, avg accuracy 0.3675675686146762 over 5 splits
subject 19, avg accuracy 0.26516516532625883 over 5 splits
avg accuracy over all subjects 0.3428455454911571
_________________________________________________________________
Layer (type)                 Output Shape              Param #   
=================================================================
conv1d_142 (Conv1D)          (None, 761, 21)           5229      
_________________________________________________________________
max_pooling1d_142 (MaxPoolin (None, 380, 21)           0         
_________________________________________________________________
dropout_142 (Dropout)        (None, 380, 21)           0         
_________________________________________________________________
conv1d_143 (Conv1D)          (None, 369, 29)           7337      
_________________________________________________________________
max_pooling1d_143 (MaxPoolin (None, 184, 29)           0         
_________________________________________________________________
dropout_143 (Dropout)        (None, 184, 29)           0         
_________________________________________________________________
conv1d_144 (Conv1D)          (None, 171, 5)            2035      
_________________________________________________________________
max_pooling1d_144 (MaxPoolin (None, 85, 5)             0         
_________________________________________________________________
dropout_144 (Dropout)        (None, 85, 5)             0         
_________________________________________________________________
flatten_48 (Flatten)         (None, 425)               0         
_________________________________________________________________
dense_95 (Dense)             (None, 25)                10650     
_________________________________________________________________
dense_96 (Dense)             (None, 3)                 78        
=================================================================
Total params: 25,329
Trainable params: 25,329
Non-trainable params: 0
_________________________________________________________________
{'l1_nodes': 21, 'l1_filter': 8, 'l1_dropout': 0.059885850571876814, 'l2_nodes': 29, 'l2_filter': 12, 'l2_dropout': 0.007756331807867833, 'l3_nodes': 5, 'l3_filter': 14, 'l3_dropout': 0.3014580393512873, 'dense_nodes': 25}
…
subject 14, avg accuracy 0.6333333355051625 over 5 splits
subject 15, avg accuracy 0.5801801805023674 over 5 splits
subject 16, avg accuracy 0.499730096156137 over 5 splits
subject 17, avg accuracy 0.72105263095153 over 5 splits
subject 18, avg accuracy 0.5567567591731613 over 5 splits
subject 19, avg accuracy 0.5246246247051713 over 5 splits
avg accuracy over all subjects 0.5699238048186243
_________________________________________________________________
Layer (type)                 Output Shape              Param #   
=================================================================
conv1d_145 (Conv1D)          (None, 750, 35)           20650     
_________________________________________________________________
max_pooling1d_145 (MaxPoolin (None, 375, 35)           0         
_________________________________________________________________
dropout_145 (Dropout)        (None, 375, 35)           0         
_________________________________________________________________
conv1d_146 (Conv1D)          (None, 371, 14)           2464      
_________________________________________________________________
max_pooling1d_146 (MaxPoolin (None, 185, 14)           0         
_________________________________________________________________
dropout_146 (Dropout)        (None, 185, 14)           0         
_________________________________________________________________
conv1d_147 (Conv1D)          (None, 177, 3)            381       
_________________________________________________________________
max_pooling1d_147 (MaxPoolin (None, 88, 3)             0         
_________________________________________________________________
dropout_147 (Dropout)        (None, 88, 3)             0         
_________________________________________________________________
flatten_49 (Flatten)         (None, 264)               0         
_________________________________________________________________
dense_97 (Dense)             (None, 25)                6625      
_________________________________________________________________
dense_98 (Dense)             (None, 3)                 78        
=================================================================
Total params: 30,198
Trainable params: 30,198
Non-trainable params: 0
_________________________________________________________________
{'l1_nodes': 35, 'l1_filter': 19, 'l1_dropout': 0.10223537021883938, 'l2_nodes': 14, 'l2_filter': 5, 'l2_dropout': 0.31663562436078063, 'l3_nodes': 3, 'l3_filter': 9, 'l3_dropout': 0.1217044968225475, 'dense_nodes': 25}
…
subject 14, avg accuracy 0.4766531735618426 over 5 splits
subject 15, avg accuracy 0.525375375536469 over 5 splits
subject 16, avg accuracy 0.5211875861995777 over 5 splits
subject 17, avg accuracy 0.5736842105263158 over 5 splits
subject 18, avg accuracy 0.5837837857169074 over 5 splits
subject 19, avg accuracy 0.44189189253626643 over 5 splits
avg accuracy over all subjects 0.477214395105435
_________________________________________________________________
Layer (type)                 Output Shape              Param #   
=================================================================
conv1d_148 (Conv1D)          (None, 751, 23)           12857     
_________________________________________________________________
max_pooling1d_148 (MaxPoolin (None, 375, 23)           0         
_________________________________________________________________
dropout_148 (Dropout)        (None, 375, 23)           0         
_________________________________________________________________
conv1d_149 (Conv1D)          (None, 367, 15)           3120      
_________________________________________________________________
max_pooling1d_149 (MaxPoolin (None, 183, 15)           0         
_________________________________________________________________
dropout_149 (Dropout)        (None, 183, 15)           0         
_________________________________________________________________
conv1d_150 (Conv1D)          (None, 179, 9)            684       
_________________________________________________________________
max_pooling1d_150 (MaxPoolin (None, 89, 9)             0         
_________________________________________________________________
dropout_150 (Dropout)        (None, 89, 9)             0         
_________________________________________________________________
flatten_50 (Flatten)         (None, 801)               0         
_________________________________________________________________
dense_99 (Dense)             (None, 39)                31278     
_________________________________________________________________
dense_100 (Dense)            (None, 3)                 120       
=================================================================
Total params: 48,059
Trainable params: 48,059
Non-trainable params: 0
_________________________________________________________________
{'l1_nodes': 23, 'l1_filter': 18, 'l1_dropout': 0.3951472734851701, 'l2_nodes': 15, 'l2_filter': 9, 'l2_dropout': 0.5363632537955265, 'l3_nodes': 9, 'l3_filter': 5, 'l3_dropout': 0.4372150654020109, 'dense_nodes': 39}
…
subject 14, avg accuracy 0.4870445350162413 over 5 splits
subject 15, avg accuracy 0.4810810811616279 over 5 splits
subject 16, avg accuracy 0.427125508228616 over 5 splits
subject 17, avg accuracy 0.6368421046357406 over 5 splits
subject 18, avg accuracy 0.5189189216575107 over 5 splits
subject 19, avg accuracy 0.33198198206252877 over 5 splits
avg accuracy over all subjects 0.4453431849497654
_________________________________________________________________
Layer (type)                 Output Shape              Param #   
=================================================================
conv1d_151 (Conv1D)          (None, 751, 17)           9503      
_________________________________________________________________
max_pooling1d_151 (MaxPoolin (None, 375, 17)           0         
_________________________________________________________________
dropout_151 (Dropout)        (None, 375, 17)           0         
_________________________________________________________________
conv1d_152 (Conv1D)          (None, 364, 23)           4715      
_________________________________________________________________
max_pooling1d_152 (MaxPoolin (None, 182, 23)           0         
_________________________________________________________________
dropout_152 (Dropout)        (None, 182, 23)           0         
_________________________________________________________________
conv1d_153 (Conv1D)          (None, 170, 10)           3000      
_________________________________________________________________
max_pooling1d_153 (MaxPoolin (None, 85, 10)            0         
_________________________________________________________________
dropout_153 (Dropout)        (None, 85, 10)            0         
_________________________________________________________________
flatten_51 (Flatten)         (None, 850)               0         
_________________________________________________________________
dense_101 (Dense)            (None, 7)                 5957      
_________________________________________________________________
dense_102 (Dense)            (None, 3)                 24        
=================================================================
Total params: 23,199
Trainable params: 23,199
Non-trainable params: 0
_________________________________________________________________
{'l1_nodes': 17, 'l1_filter': 18, 'l1_dropout': 0.43099969527962556, 'l2_nodes': 23, 'l2_filter': 12, 'l2_dropout': 0.12314967518094086, 'l3_nodes': 10, 'l3_filter': 13, 'l3_dropout': 0.31560132409745134, 'dense_nodes': 7}
…
subject 14, avg accuracy 0.34574898926191805 over 5 splits
subject 15, avg accuracy 0.342492493136867 over 5 splits
subject 16, avg accuracy 0.2757085027200812 over 5 splits
subject 17, avg accuracy 0.2736842113105874 over 5 splits
subject 18, avg accuracy 0.36216216248434946 over 5 splits
subject 19, avg accuracy 0.2543543544349012 over 5 splits
avg accuracy over all subjects 0.30404625340055147
_________________________________________________________________
Layer (type)                 Output Shape              Param #   
=================================================================
conv1d_154 (Conv1D)          (None, 747, 10)           6830      
_________________________________________________________________
max_pooling1d_154 (MaxPoolin (None, 373, 10)           0         
_________________________________________________________________
dropout_154 (Dropout)        (None, 373, 10)           0         
_________________________________________________________________
conv1d_155 (Conv1D)          (None, 356, 16)           2896      
_________________________________________________________________
max_pooling1d_155 (MaxPoolin (None, 178, 16)           0         
_________________________________________________________________
dropout_155 (Dropout)        (None, 178, 16)           0         
_________________________________________________________________
conv1d_156 (Conv1D)          (None, 177, 8)            264       
_________________________________________________________________
max_pooling1d_156 (MaxPoolin (None, 88, 8)             0         
_________________________________________________________________
dropout_156 (Dropout)        (None, 88, 8)             0         
_________________________________________________________________
flatten_52 (Flatten)         (None, 704)               0         
_________________________________________________________________
dense_103 (Dense)            (None, 24)                16920     
_________________________________________________________________
dense_104 (Dense)            (None, 3)                 75        
=================================================================
Total params: 26,985
Trainable params: 26,985
Non-trainable params: 0
_________________________________________________________________
{'l1_nodes': 10, 'l1_filter': 22, 'l1_dropout': 0.45808125822715695, 'l2_nodes': 16, 'l2_filter': 18, 'l2_dropout': 0.5568830302509287, 'l3_nodes': 8, 'l3_filter': 2, 'l3_dropout': 0.6992101172319835, 'dense_nodes': 24}
…
subject 14, avg accuracy 0.4445344145079213 over 5 splits
subject 15, avg accuracy 0.4361861861861862 over 5 splits
subject 16, avg accuracy 0.3690958180810437 over 5 splits
subject 17, avg accuracy 0.49999999921572835 over 5 splits
subject 18, avg accuracy 0.3891891904779382 over 5 splits
subject 19, avg accuracy 0.3262762764373699 over 5 splits
avg accuracy over all subjects 0.3823519882485896
_________________________________________________________________
Layer (type)                 Output Shape              Param #   
=================================================================
conv1d_157 (Conv1D)          (None, 762, 22)           4796      
_________________________________________________________________
max_pooling1d_157 (MaxPoolin (None, 381, 22)           0         
_________________________________________________________________
dropout_157 (Dropout)        (None, 381, 22)           0         
_________________________________________________________________
conv1d_158 (Conv1D)          (None, 368, 8)            2472      
_________________________________________________________________
max_pooling1d_158 (MaxPoolin (None, 184, 8)            0         
_________________________________________________________________
dropout_158 (Dropout)        (None, 184, 8)            0         
_________________________________________________________________
conv1d_159 (Conv1D)          (None, 179, 4)            196       
_________________________________________________________________
max_pooling1d_159 (MaxPoolin (None, 89, 4)             0         
_________________________________________________________________
dropout_159 (Dropout)        (None, 89, 4)             0         
_________________________________________________________________
flatten_53 (Flatten)         (None, 356)               0         
_________________________________________________________________
dense_105 (Dense)            (None, 14)                4998      
_________________________________________________________________
dense_106 (Dense)            (None, 3)                 45        
=================================================================
Total params: 12,507
Trainable params: 12,507
Non-trainable params: 0
_________________________________________________________________
{'l1_nodes': 22, 'l1_filter': 7, 'l1_dropout': 0.7469531251792983, 'l2_nodes': 8, 'l2_filter': 14, 'l2_dropout': 0.33662137937584424, 'l3_nodes': 4, 'l3_filter': 6, 'l3_dropout': 0.5395146850823831, 'dense_nodes': 14}
…
subject 14, avg accuracy 0.4241565461462808 over 5 splits
subject 15, avg accuracy 0.32027027035081707 over 5 splits
subject 16, avg accuracy 0.35411606069438045 over 5 splits
subject 17, avg accuracy 0.3947368422621175 over 5 splits
subject 18, avg accuracy 0.3243243258547138 over 5 splits
subject 19, avg accuracy 0.254204204284751 over 5 splits
avg accuracy over all subjects 0.34243217661343667
_________________________________________________________________
Layer (type)                 Output Shape              Param #   
=================================================================
conv1d_160 (Conv1D)          (None, 741, 10)           8690      
_________________________________________________________________
max_pooling1d_160 (MaxPoolin (None, 370, 10)           0         
_________________________________________________________________
dropout_160 (Dropout)        (None, 370, 10)           0         
_________________________________________________________________
conv1d_161 (Conv1D)          (None, 352, 22)           4202      
_________________________________________________________________
max_pooling1d_161 (MaxPoolin (None, 176, 22)           0         
_________________________________________________________________
dropout_161 (Dropout)        (None, 176, 22)           0         
_________________________________________________________________
conv1d_162 (Conv1D)          (None, 174, 10)           670       
_________________________________________________________________
max_pooling1d_162 (MaxPoolin (None, 87, 10)            0         
_________________________________________________________________
dropout_162 (Dropout)        (None, 87, 10)            0         
_________________________________________________________________
flatten_54 (Flatten)         (None, 870)               0         
_________________________________________________________________
dense_107 (Dense)            (None, 36)                31356     
_________________________________________________________________
dense_108 (Dense)            (None, 3)                 111       
=================================================================
Total params: 45,029
Trainable params: 45,029
Non-trainable params: 0
_________________________________________________________________
{'l1_nodes': 10, 'l1_filter': 28, 'l1_dropout': 0.29593817065044026, 'l2_nodes': 22, 'l2_filter': 19, 'l2_dropout': 0.21920233261196426, 'l3_nodes': 10, 'l3_filter': 3, 'l3_dropout': 0.12136096891260875, 'dense_nodes': 36}
…
subject 14, avg accuracy 0.5499325243849181 over 5 splits
subject 15, avg accuracy 0.5415915922359662 over 5 splits
subject 16, avg accuracy 0.4067476389499811 over 5 splits
subject 17, avg accuracy 0.6631578953642594 over 5 splits
subject 18, avg accuracy 0.610810813388309 over 5 splits
subject 19, avg accuracy 0.39789789805899145 over 5 splits
avg accuracy over all subjects 0.4705636822459748
_________________________________________________________________
Layer (type)                 Output Shape              Param #   
=================================================================
conv1d_163 (Conv1D)          (None, 746, 13)           9282      
_________________________________________________________________
max_pooling1d_163 (MaxPoolin (None, 373, 13)           0         
_________________________________________________________________
dropout_163 (Dropout)        (None, 373, 13)           0         
_________________________________________________________________
conv1d_164 (Conv1D)          (None, 358, 13)           2717      
_________________________________________________________________
max_pooling1d_164 (MaxPoolin (None, 179, 13)           0         
_________________________________________________________________
dropout_164 (Dropout)        (None, 179, 13)           0         
_________________________________________________________________
conv1d_165 (Conv1D)          (None, 176, 6)            318       
_________________________________________________________________
max_pooling1d_165 (MaxPoolin (None, 88, 6)             0         
_________________________________________________________________
dropout_165 (Dropout)        (None, 88, 6)             0         
_________________________________________________________________
flatten_55 (Flatten)         (None, 528)               0         
_________________________________________________________________
dense_109 (Dense)            (None, 43)                22747     
_________________________________________________________________
dense_110 (Dense)            (None, 3)                 132       
=================================================================
Total params: 35,196
Trainable params: 35,196
Non-trainable params: 0
_________________________________________________________________
{'l1_nodes': 13, 'l1_filter': 23, 'l1_dropout': 0.7253349013372922, 'l2_nodes': 13, 'l2_filter': 16, 'l2_dropout': 0.6941577668788121, 'l3_nodes': 6, 'l3_filter': 4, 'l3_dropout': 0.533481846103547, 'dense_nodes': 43}
…
subject 14, avg accuracy 0.3457489880834996 over 5 splits
subject 15, avg accuracy 0.3705705706511174 over 5 splits
subject 16, avg accuracy 0.39568151316822947 over 5 splits
subject 17, avg accuracy 0.45789473652839663 over 5 splits
subject 18, avg accuracy 0.38918919136395325 over 5 splits
subject 19, avg accuracy 0.3094594596205531 over 5 splits
avg accuracy over all subjects 0.3530067862084398
_________________________________________________________________
Layer (type)                 Output Shape              Param #   
=================================================================
conv1d_166 (Conv1D)          (None, 755, 12)           5220      
_________________________________________________________________
max_pooling1d_166 (MaxPoolin (None, 377, 12)           0         
_________________________________________________________________
dropout_166 (Dropout)        (None, 377, 12)           0         
_________________________________________________________________
conv1d_167 (Conv1D)          (None, 369, 12)           1308      
_________________________________________________________________
max_pooling1d_167 (MaxPoolin (None, 184, 12)           0         
_________________________________________________________________
dropout_167 (Dropout)        (None, 184, 12)           0         
_________________________________________________________________
conv1d_168 (Conv1D)          (None, 177, 2)            194       
_________________________________________________________________
max_pooling1d_168 (MaxPoolin (None, 88, 2)             0         
_________________________________________________________________
dropout_168 (Dropout)        (None, 88, 2)             0         
_________________________________________________________________
flatten_56 (Flatten)         (None, 176)               0         
_________________________________________________________________
dense_111 (Dense)            (None, 35)                6195      
_________________________________________________________________
dense_112 (Dense)            (None, 3)                 108       
=================================================================
Total params: 13,025
Trainable params: 13,025
Non-trainable params: 0
_________________________________________________________________
{'l1_nodes': 12, 'l1_filter': 14, 'l1_dropout': 0.4202939605871425, 'l2_nodes': 12, 'l2_filter': 9, 'l2_dropout': 0.23493539541825764, 'l3_nodes': 2, 'l3_filter': 8, 'l3_dropout': 0.5937393786684727, 'dense_nodes': 35}
…
subject 14, avg accuracy 0.34588394140505435 over 5 splits
subject 15, avg accuracy 0.4527027027832495 over 5 splits
subject 16, avg accuracy 0.4012145767569059 over 5 splits
subject 17, avg accuracy 0.48421052600208087 over 5 splits
subject 18, avg accuracy 0.4108108118579195 over 5 splits
subject 19, avg accuracy 0.31486486494541166 over 5 splits
avg accuracy over all subjects 0.4024466782435039
_________________________________________________________________
Layer (type)                 Output Shape              Param #   
=================================================================
conv1d_169 (Conv1D)          (None, 755, 28)           12180     
_________________________________________________________________
max_pooling1d_169 (MaxPoolin (None, 377, 28)           0         
_________________________________________________________________
dropout_169 (Dropout)        (None, 377, 28)           0         
_________________________________________________________________
conv1d_170 (Conv1D)          (None, 364, 27)           10611     
_________________________________________________________________
max_pooling1d_170 (MaxPoolin (None, 182, 27)           0         
_________________________________________________________________
dropout_170 (Dropout)        (None, 182, 27)           0         
_________________________________________________________________
conv1d_171 (Conv1D)          (None, 169, 4)            1516      
_________________________________________________________________
max_pooling1d_171 (MaxPoolin (None, 84, 4)             0         
_________________________________________________________________
dropout_171 (Dropout)        (None, 84, 4)             0         
_________________________________________________________________
flatten_57 (Flatten)         (None, 336)               0         
_________________________________________________________________
dense_113 (Dense)            (None, 37)                12469     
_________________________________________________________________
dense_114 (Dense)            (None, 3)                 114       
=================================================================
Total params: 36,890
Trainable params: 36,890
Non-trainable params: 0
_________________________________________________________________
{'l1_nodes': 28, 'l1_filter': 14, 'l1_dropout': 0.33740079708614024, 'l2_nodes': 27, 'l2_filter': 14, 'l2_dropout': 0.09751043635225981, 'l3_nodes': 4, 'l3_filter': 14, 'l3_dropout': 0.5127796952909633, 'dense_nodes': 37}
…
subject 14, avg accuracy 0.4929824572343093 over 5 splits
subject 15, avg accuracy 0.44759759759759765 over 5 splits
subject 16, avg accuracy 0.3964912293933825 over 5 splits
subject 17, avg accuracy 0.6052631591495714 over 5 splits
subject 18, avg accuracy 0.44324324501527324 over 5 splits
subject 19, avg accuracy 0.3749249252471122 over 5 splits
avg accuracy over all subjects 0.4124558778050201
_________________________________________________________________
Layer (type)                 Output Shape              Param #   
=================================================================
conv1d_172 (Conv1D)          (None, 746, 31)           22134     
_________________________________________________________________
max_pooling1d_172 (MaxPoolin (None, 373, 31)           0         
_________________________________________________________________
dropout_172 (Dropout)        (None, 373, 31)           0         
_________________________________________________________________
conv1d_173 (Conv1D)          (None, 361, 11)           4444      
_________________________________________________________________
max_pooling1d_173 (MaxPoolin (None, 180, 11)           0         
_________________________________________________________________
dropout_173 (Dropout)        (None, 180, 11)           0         
_________________________________________________________________
conv1d_174 (Conv1D)          (None, 178, 6)            204       
_________________________________________________________________
max_pooling1d_174 (MaxPoolin (None, 89, 6)             0         
_________________________________________________________________
dropout_174 (Dropout)        (None, 89, 6)             0         
_________________________________________________________________
flatten_58 (Flatten)         (None, 534)               0         
_________________________________________________________________
dense_115 (Dense)            (None, 47)                25145     
_________________________________________________________________
dense_116 (Dense)            (None, 3)                 144       
=================================================================
Total params: 52,071
Trainable params: 52,071
Non-trainable params: 0
_________________________________________________________________
{'l1_nodes': 31, 'l1_filter': 23, 'l1_dropout': 0.44968475396519103, 'l2_nodes': 11, 'l2_filter': 13, 'l2_dropout': 0.5600030604068937, 'l3_nodes': 6, 'l3_filter': 3, 'l3_dropout': 0.4632795273457253, 'dense_nodes': 47}
…
subject 14, avg accuracy 0.41875843657092693 over 5 splits
subject 15, avg accuracy 0.42507507523616866 over 5 splits
subject 16, avg accuracy 0.4273954139305995 over 5 splits
subject 17, avg accuracy 0.6105263157894736 over 5 splits
subject 18, avg accuracy 0.4216216226687302 over 5 splits
subject 19, avg accuracy 0.39264264272318944 over 5 splits
avg accuracy over all subjects 0.4086241109942065
_________________________________________________________________
Layer (type)                 Output Shape              Param #   
=================================================================
conv1d_175 (Conv1D)          (None, 755, 36)           15660     
_________________________________________________________________
max_pooling1d_175 (MaxPoolin (None, 377, 36)           0         
_________________________________________________________________
dropout_175 (Dropout)        (None, 377, 36)           0         
_________________________________________________________________
conv1d_176 (Conv1D)          (None, 365, 24)           11256     
_________________________________________________________________
max_pooling1d_176 (MaxPoolin (None, 182, 24)           0         
_________________________________________________________________
dropout_176 (Dropout)        (None, 182, 24)           0         
_________________________________________________________________
conv1d_177 (Conv1D)          (None, 169, 1)            337       
_________________________________________________________________
max_pooling1d_177 (MaxPoolin (None, 84, 1)             0         
_________________________________________________________________
dropout_177 (Dropout)        (None, 84, 1)             0         
_________________________________________________________________
flatten_59 (Flatten)         (None, 84)                0         
_________________________________________________________________
dense_117 (Dense)            (None, 29)                2465      
_________________________________________________________________
dense_118 (Dense)            (None, 3)                 90        
=================================================================
Total params: 29,808
Trainable params: 29,808
Non-trainable params: 0
_________________________________________________________________
{'l1_nodes': 36, 'l1_filter': 14, 'l1_dropout': 0.32069043455402313, 'l2_nodes': 24, 'l2_filter': 13, 'l2_dropout': 0.38055734892383764, 'l3_nodes': 1, 'l3_filter': 14, 'l3_dropout': 0.615344116571521, 'dense_nodes': 29}
…
subject 14, avg accuracy 0.3870445345657879 over 5 splits
subject 15, avg accuracy 0.34264264264264266 over 5 splits
…
_________________________________________________________________
dropout_241 (Dropout)        (None, 372, 21)           0         
_________________________________________________________________
conv1d_242 (Conv1D)          (None, 367, 28)           3556      
_________________________________________________________________
max_pooling1d_242 (MaxPoolin (None, 183, 28)           0         
_________________________________________________________________
dropout_242 (Dropout)        (None, 183, 28)           0         
_________________________________________________________________
conv1d_243 (Conv1D)          (None, 182, 11)           627       
_________________________________________________________________
max_pooling1d_243 (MaxPoolin (None, 91, 11)            0         
_________________________________________________________________
dropout_243 (Dropout)        (None, 91, 11)            0         
_________________________________________________________________
flatten_81 (Flatten)         (None, 1001)              0         
_________________________________________________________________
dense_161 (Dense)            (None, 13)                13026     
_________________________________________________________________
dense_162 (Dense)            (None, 3)                 42        
=================================================================
Total params: 33,547
Trainable params: 33,547
Non-trainable params: 0
_________________________________________________________________
{'l1_nodes': 21, 'l1_filter': 25, 'l1_dropout': 0.050688040806287665, 'l2_nodes': 28, 'l2_filter': 6, 'l2_dropout': 0.552074418025581, 'l3_nodes': 11, 'l3_filter': 2, 'l3_dropout': 0.6208136171254388, 'dense_nodes': 13}
…
subject 14, avg accuracy 0.32982456296803014 over 5 splits
subject 15, avg accuracy 0.48093093109202456 over 5 splits
subject 16, avg accuracy 0.32807017636363484 over 5 splits
subject 17, avg accuracy 0.431578948309547 over 5 splits
subject 18, avg accuracy 0.40540540580813944 over 5 splits
subject 19, avg accuracy 0.30405405405405406 over 5 splits
avg accuracy over all subjects 0.36943303042425246
_________________________________________________________________
Layer (type)                 Output Shape              Param #   
=================================================================
conv1d_244 (Conv1D)          (None, 758, 33)           11286     
_________________________________________________________________
max_pooling1d_244 (MaxPoolin (None, 379, 33)           0         
_________________________________________________________________
dropout_244 (Dropout)        (None, 379, 33)           0         
_________________________________________________________________
conv1d_245 (Conv1D)          (None, 374, 28)           5572      
_________________________________________________________________
max_pooling1d_245 (MaxPoolin (None, 187, 28)           0         
_________________________________________________________________
dropout_245 (Dropout)        (None, 187, 28)           0         
_________________________________________________________________
conv1d_246 (Conv1D)          (None, 181, 10)           1970      
_________________________________________________________________
max_pooling1d_246 (MaxPoolin (None, 90, 10)            0         
_________________________________________________________________
dropout_246 (Dropout)        (None, 90, 10)            0         
_________________________________________________________________
flatten_82 (Flatten)         (None, 900)               0         
_________________________________________________________________
dense_163 (Dense)            (None, 49)                44149     
_________________________________________________________________
dense_164 (Dense)            (None, 3)                 150       
=================================================================
Total params: 63,127
Trainable params: 63,127
Non-trainable params: 0
_________________________________________________________________
{'l1_nodes': 33, 'l1_filter': 11, 'l1_dropout': 0.012454378426453777, 'l2_nodes': 28, 'l2_filter': 6, 'l2_dropout': 0.2948574026718535, 'l3_nodes': 10, 'l3_filter': 7, 'l3_dropout': 0.07568080690647916, 'dense_nodes': 49}
…
subject 14, avg accuracy 0.5913630232476351 over 5 splits
subject 15, avg accuracy 0.5741741743352677 over 5 splits
subject 16, avg accuracy 0.5574898789245912 over 5 splits
subject 17, avg accuracy 0.6578947387243572 over 5 splits
subject 18, avg accuracy 0.6810810826920174 over 5 splits
subject 19, avg accuracy 0.558408409052783 over 5 splits
avg accuracy over all subjects 0.6083411696526885
_________________________________________________________________
Layer (type)                 Output Shape              Param #   
=================================================================
conv1d_247 (Conv1D)          (None, 744, 23)           17848     
_________________________________________________________________
max_pooling1d_247 (MaxPoolin (None, 372, 23)           0         
_________________________________________________________________
dropout_247 (Dropout)        (None, 372, 23)           0         
_________________________________________________________________
conv1d_248 (Conv1D)          (None, 365, 18)           3330      
_________________________________________________________________
max_pooling1d_248 (MaxPoolin (None, 182, 18)           0         
_________________________________________________________________
dropout_248 (Dropout)        (None, 182, 18)           0         
_________________________________________________________________
conv1d_249 (Conv1D)          (None, 179, 2)            146       
_________________________________________________________________
max_pooling1d_249 (MaxPoolin (None, 89, 2)             0         
_________________________________________________________________
dropout_249 (Dropout)        (None, 89, 2)             0         
_________________________________________________________________
flatten_83 (Flatten)         (None, 178)               0         
_________________________________________________________________
dense_165 (Dense)            (None, 35)                6265      
_________________________________________________________________
dense_166 (Dense)            (None, 3)                 108       
=================================================================
Total params: 27,697
Trainable params: 27,697
Non-trainable params: 0
_________________________________________________________________
{'l1_nodes': 23, 'l1_filter': 25, 'l1_dropout': 0.3796904812458154, 'l2_nodes': 18, 'l2_filter': 8, 'l2_dropout': 0.5593871013638223, 'l3_nodes': 2, 'l3_filter': 4, 'l3_dropout': 0.7048235642899923, 'dense_nodes': 35}
…
subject 14, avg accuracy 0.37624831510539314 over 5 splits
subject 15, avg accuracy 0.48018018034127385 over 5 splits
subject 16, avg accuracy 0.3284750346712738 over 5 splits
subject 17, avg accuracy 0.4578947380969399 over 5 splits
subject 18, avg accuracy 0.3945945951584223 over 5 splits
subject 19, avg accuracy 0.336486487130861 over 5 splits
avg accuracy over all subjects 0.37165748826147554
_________________________________________________________________
Layer (type)                 Output Shape              Param #   
=================================================================
conv1d_250 (Conv1D)          (None, 747, 19)           12977     
_________________________________________________________________
max_pooling1d_250 (MaxPoolin (None, 373, 19)           0         
_________________________________________________________________
dropout_250 (Dropout)        (None, 373, 19)           0         
_________________________________________________________________
conv1d_251 (Conv1D)          (None, 365, 29)           4988      
_________________________________________________________________
max_pooling1d_251 (MaxPoolin (None, 182, 29)           0         
_________________________________________________________________
dropout_251 (Dropout)        (None, 182, 29)           0         
_________________________________________________________________
conv1d_252 (Conv1D)          (None, 173, 13)           3783      
_________________________________________________________________
max_pooling1d_252 (MaxPoolin (None, 86, 13)            0         
_________________________________________________________________
dropout_252 (Dropout)        (None, 86, 13)            0         
_________________________________________________________________
flatten_84 (Flatten)         (None, 1118)              0         
_________________________________________________________________
dense_167 (Dense)            (None, 5)                 5595      
_________________________________________________________________
dense_168 (Dense)            (None, 3)                 18        
=================================================================
Total params: 27,361
Trainable params: 27,361
Non-trainable params: 0
_________________________________________________________________
{'l1_nodes': 19, 'l1_filter': 22, 'l1_dropout': 0.7141679361626482, 'l2_nodes': 29, 'l2_filter': 9, 'l2_dropout': 0.5108817290286654, 'l3_nodes': 13, 'l3_filter': 10, 'l3_dropout': 0.6972088937825298, 'dense_nodes': 5}
…
subject 14, avg accuracy 0.39311740953027796 over 5 splits
subject 15, avg accuracy 0.37522522530577207 over 5 splits
subject 16, avg accuracy 0.3124156552167074 over 5 splits
subject 17, avg accuracy 0.3473684215231946 over 5 splits
subject 18, avg accuracy 0.3243243248076052 over 5 splits
subject 19, avg accuracy 0.3265765766571234 over 5 splits
avg accuracy over all subjects 0.33836913891181186
_________________________________________________________________
Layer (type)                 Output Shape              Param #   
=================================================================
conv1d_253 (Conv1D)          (None, 762, 33)           7194      
_________________________________________________________________
max_pooling1d_253 (MaxPoolin (None, 381, 33)           0         
_________________________________________________________________
dropout_253 (Dropout)        (None, 381, 33)           0         
_________________________________________________________________
conv1d_254 (Conv1D)          (None, 365, 5)            2810      
_________________________________________________________________
max_pooling1d_254 (MaxPoolin (None, 182, 5)            0         
_________________________________________________________________
dropout_254 (Dropout)        (None, 182, 5)            0         
_________________________________________________________________
conv1d_255 (Conv1D)          (None, 178, 2)            52        
_________________________________________________________________
max_pooling1d_255 (MaxPoolin (None, 89, 2)             0         
_________________________________________________________________
dropout_255 (Dropout)        (None, 89, 2)             0         
_________________________________________________________________
flatten_85 (Flatten)         (None, 178)               0         
_________________________________________________________________
dense_169 (Dense)            (None, 9)                 1611      
_________________________________________________________________
dense_170 (Dense)            (None, 3)                 30        
=================================================================
Total params: 11,697
Trainable params: 11,697
Non-trainable params: 0
_________________________________________________________________
{'l1_nodes': 33, 'l1_filter': 7, 'l1_dropout': 0.005295455574617913, 'l2_nodes': 5, 'l2_filter': 17, 'l2_dropout': 0.37155557969238606, 'l3_nodes': 2, 'l3_filter': 5, 'l3_dropout': 0.35726584004423956, 'dense_nodes': 9}
…
subject 14, avg accuracy 0.39271255183799064 over 5 splits
subject 15, avg accuracy 0.3701201202812137 over 5 splits
subject 16, avg accuracy 0.3120107977617125 over 5 splits
subject 17, avg accuracy 0.4631578937957161 over 5 splits
subject 18, avg accuracy 0.3945945959638905 over 5 splits
subject 19, avg accuracy 0.33768768776823455 over 5 splits
avg accuracy over all subjects 0.37012218088693233
_________________________________________________________________
Layer (type)                 Output Shape              Param #   
=================================================================
conv1d_256 (Conv1D)          (None, 741, 31)           26939     
_________________________________________________________________
max_pooling1d_256 (MaxPoolin (None, 370, 31)           0         
_________________________________________________________________
dropout_256 (Dropout)        (None, 370, 31)           0         
_________________________________________________________________
conv1d_257 (Conv1D)          (None, 355, 22)           10934     
_________________________________________________________________
max_pooling1d_257 (MaxPoolin (None, 177, 22)           0         
_________________________________________________________________
dropout_257 (Dropout)        (None, 177, 22)           0         
_________________________________________________________________
conv1d_258 (Conv1D)          (None, 172, 7)            931       
_________________________________________________________________
max_pooling1d_258 (MaxPoolin (None, 86, 7)             0         
_________________________________________________________________
dropout_258 (Dropout)        (None, 86, 7)             0         
_________________________________________________________________
flatten_86 (Flatten)         (None, 602)               0         
_________________________________________________________________
dense_171 (Dense)            (None, 10)                6030      
_________________________________________________________________
dense_172 (Dense)            (None, 3)                 33        
=================================================================
Total params: 44,867
Trainable params: 44,867
Non-trainable params: 0
_________________________________________________________________
{'l1_nodes': 31, 'l1_filter': 28, 'l1_dropout': 0.40982558218015175, 'l2_nodes': 22, 'l2_filter': 16, 'l2_dropout': 0.37637545024123065, 'l3_nodes': 7, 'l3_filter': 6, 'l3_dropout': 0.09186533772645228, 'dense_nodes': 10}
…
subject 14, avg accuracy 0.3661268563807895 over 5 splits
subject 15, avg accuracy 0.326126126206673 over 5 splits
subject 16, avg accuracy 0.302024292724657 over 5 splits
subject 17, avg accuracy 0.2736842111537331 over 5 splits
subject 18, avg accuracy 0.30270270350817086 over 5 splits
subject 19, avg accuracy 0.2543543544349012 over 5 splits
avg accuracy over all subjects 0.3086045903967128
_________________________________________________________________
Layer (type)                 Output Shape              Param #   
=================================================================
conv1d_259 (Conv1D)          (None, 744, 32)           24832     
_________________________________________________________________
max_pooling1d_259 (MaxPoolin (None, 372, 32)           0         
_________________________________________________________________
dropout_259 (Dropout)        (None, 372, 32)           0         
_________________________________________________________________
conv1d_260 (Conv1D)          (None, 362, 14)           4942      
_________________________________________________________________
max_pooling1d_260 (MaxPoolin (None, 181, 14)           0         
_________________________________________________________________
dropout_260 (Dropout)        (None, 181, 14)           0         
_________________________________________________________________
conv1d_261 (Conv1D)          (None, 176, 4)            340       
_________________________________________________________________
max_pooling1d_261 (MaxPoolin (None, 88, 4)             0         
_________________________________________________________________
dropout_261 (Dropout)        (None, 88, 4)             0         
_________________________________________________________________
flatten_87 (Flatten)         (None, 352)               0         
_________________________________________________________________
dense_173 (Dense)            (None, 48)                16944     
_________________________________________________________________
dense_174 (Dense)            (None, 3)                 147       
=================================================================
Total params: 47,205
Trainable params: 47,205
Non-trainable params: 0
_________________________________________________________________
{'l1_nodes': 32, 'l1_filter': 25, 'l1_dropout': 0.654815158500294, 'l2_nodes': 14, 'l2_filter': 11, 'l2_dropout': 0.13062187565285227, 'l3_nodes': 4, 'l3_filter': 6, 'l3_dropout': 0.19846110328130476, 'dense_nodes': 48}
…
subject 14, avg accuracy 0.5184885299398831 over 5 splits
subject 15, avg accuracy 0.49174174238611623 over 5 splits
subject 16, avg accuracy 0.4276653184420988 over 5 splits
subject 17, avg accuracy 0.6368421052631579 over 5 splits
subject 18, avg accuracy 0.524324325774167 over 5 splits
subject 19, avg accuracy 0.4701201207644948 over 5 splits
avg accuracy over all subjects 0.47556078449287614
_________________________________________________________________
Layer (type)                 Output Shape              Param #   
=================================================================
conv1d_262 (Conv1D)          (None, 741, 11)           9559      
_________________________________________________________________
max_pooling1d_262 (MaxPoolin (None, 370, 11)           0         
_________________________________________________________________
dropout_262 (Dropout)        (None, 370, 11)           0         
_________________________________________________________________
conv1d_263 (Conv1D)          (None, 358, 6)            864       
_________________________________________________________________
max_pooling1d_263 (MaxPoolin (None, 179, 6)            0         
_________________________________________________________________
dropout_263 (Dropout)        (None, 179, 6)            0         
_________________________________________________________________
conv1d_264 (Conv1D)          (None, 176, 2)            50        
_________________________________________________________________
max_pooling1d_264 (MaxPoolin (None, 88, 2)             0         
_________________________________________________________________
dropout_264 (Dropout)        (None, 88, 2)             0         
_________________________________________________________________
flatten_88 (Flatten)         (None, 176)               0         
_________________________________________________________________
dense_175 (Dense)            (None, 34)                6018      
_________________________________________________________________
dense_176 (Dense)            (None, 3)                 105       
=================================================================
Total params: 16,596
Trainable params: 16,596
Non-trainable params: 0
_________________________________________________________________
{'l1_nodes': 11, 'l1_filter': 28, 'l1_dropout': 0.2037200872793052, 'l2_nodes': 6, 'l2_filter': 13, 'l2_dropout': 0.2675441227459897, 'l3_nodes': 2, 'l3_filter': 4, 'l3_dropout': 0.29974370207321166, 'dense_nodes': 34}
…
subject 14, avg accuracy 0.3927125526222623 over 5 splits
subject 15, avg accuracy 0.4747747750969621 over 5 splits
subject 16, avg accuracy 0.4000000016972442 over 5 splits
subject 17, avg accuracy 0.5473684216800488 over 5 splits
subject 18, avg accuracy 0.42702702783249524 over 5 splits
subject 19, avg accuracy 0.3585585592029331 over 5 splits
avg accuracy over all subjects 0.412257366398358
_________________________________________________________________
Layer (type)                 Output Shape              Param #   
=================================================================
conv1d_265 (Conv1D)          (None, 750, 32)           18880     
_________________________________________________________________
max_pooling1d_265 (MaxPoolin (None, 375, 32)           0         
_________________________________________________________________
dropout_265 (Dropout)        (None, 375, 32)           0         
_________________________________________________________________
conv1d_266 (Conv1D)          (None, 366, 18)           5778      
_________________________________________________________________
max_pooling1d_266 (MaxPoolin (None, 183, 18)           0         
_________________________________________________________________
dropout_266 (Dropout)        (None, 183, 18)           0         
_________________________________________________________________
conv1d_267 (Conv1D)          (None, 178, 5)            545       
_________________________________________________________________
max_pooling1d_267 (MaxPoolin (None, 89, 5)             0         
_________________________________________________________________
dropout_267 (Dropout)        (None, 89, 5)             0         
_________________________________________________________________
flatten_89 (Flatten)         (None, 445)               0         
_________________________________________________________________
dense_177 (Dense)            (None, 15)                6690      
_________________________________________________________________
dense_178 (Dense)            (None, 3)                 48        
=================================================================
Total params: 31,941
Trainable params: 31,941
Non-trainable params: 0
_________________________________________________________________
{'l1_nodes': 32, 'l1_filter': 19, 'l1_dropout': 0.6460626800987654, 'l2_nodes': 18, 'l2_filter': 10, 'l2_dropout': 0.6801087586498573, 'l3_nodes': 5, 'l3_filter': 6, 'l3_dropout': 0.7432971191751052, 'dense_nodes': 15}
…
subject 14, avg accuracy 0.4082321193737862 over 5 splits
subject 15, avg accuracy 0.40945945954000623 over 5 splits
subject 16, avg accuracy 0.3233468301423327 over 5 splits
subject 17, avg accuracy 0.42631578994424724 over 5 splits
subject 18, avg accuracy 0.3891891908001255 over 5 splits
subject 19, avg accuracy 0.34264264280373624 over 5 splits
avg accuracy over all subjects 0.3641988488908522
_________________________________________________________________
Layer (type)                 Output Shape              Param #   
=================================================================
conv1d_268 (Conv1D)          (None, 754, 30)           13980     
_________________________________________________________________
max_pooling1d_268 (MaxPoolin (None, 377, 30)           0         
_________________________________________________________________
dropout_268 (Dropout)        (None, 377, 30)           0         
_________________________________________________________________
conv1d_269 (Conv1D)          (None, 362, 15)           7215      
_________________________________________________________________
max_pooling1d_269 (MaxPoolin (None, 181, 15)           0         
_________________________________________________________________
dropout_269 (Dropout)        (None, 181, 15)           0         
_________________________________________________________________
conv1d_270 (Conv1D)          (None, 179, 5)            230       
_________________________________________________________________
max_pooling1d_270 (MaxPoolin (None, 89, 5)             0         
_________________________________________________________________
dropout_270 (Dropout)        (None, 89, 5)             0         
_________________________________________________________________
flatten_90 (Flatten)         (None, 445)               0         
_________________________________________________________________
dense_179 (Dense)            (None, 43)                19178     
_________________________________________________________________
dense_180 (Dense)            (None, 3)                 132       
=================================================================
Total params: 40,735
Trainable params: 40,735
Non-trainable params: 0
_________________________________________________________________
{'l1_nodes': 30, 'l1_filter': 15, 'l1_dropout': 0.3730928581294479, 'l2_nodes': 15, 'l2_filter': 16, 'l2_dropout': 0.31367594242359786, 'l3_nodes': 5, 'l3_filter': 3, 'l3_dropout': 0.34837115303662247, 'dense_nodes': 43}
…
subject 14, avg accuracy 0.49757085222946973 over 5 splits
subject 15, avg accuracy 0.44744744752799426 over 5 splits
subject 16, avg accuracy 0.40620782835039543 over 5 splits
subject 17, avg accuracy 0.5999999998431457 over 5 splits
subject 18, avg accuracy 0.5243243264185415 over 5 splits
subject 19, avg accuracy 0.4253753754559222 over 5 splits
avg accuracy over all subjects 0.4372579404104786
_________________________________________________________________
Layer (type)                 Output Shape              Param #   
=================================================================
conv1d_271 (Conv1D)          (None, 757, 16)           5968      
_________________________________________________________________
max_pooling1d_271 (MaxPoolin (None, 378, 16)           0         
_________________________________________________________________
dropout_271 (Dropout)        (None, 378, 16)           0         
_________________________________________________________________
conv1d_272 (Conv1D)          (None, 369, 20)           3220      
_________________________________________________________________
max_pooling1d_272 (MaxPoolin (None, 184, 20)           0         
_________________________________________________________________
dropout_272 (Dropout)        (None, 184, 20)           0         
_________________________________________________________________
conv1d_273 (Conv1D)          (None, 172, 3)            783       
_________________________________________________________________
max_pooling1d_273 (MaxPoolin (None, 86, 3)             0         
_________________________________________________________________
dropout_273 (Dropout)        (None, 86, 3)             0         
_________________________________________________________________
flatten_91 (Flatten)         (None, 258)               0         
_________________________________________________________________
dense_181 (Dense)            (None, 35)                9065      
_________________________________________________________________
dense_182 (Dense)            (None, 3)                 108       
=================================================================
Total params: 19,144
Trainable params: 19,144
Non-trainable params: 0
_________________________________________________________________
{'l1_nodes': 16, 'l1_filter': 12, 'l1_dropout': 0.004297559599516165, 'l2_nodes': 20, 'l2_filter': 10, 'l2_dropout': 0.2126332801872136, 'l3_nodes': 3, 'l3_filter': 13, 'l3_dropout': 0.7232122497454441, 'dense_nodes': 35}
…
subject 14, avg accuracy 0.41929824717051273 over 5 splits
subject 15, avg accuracy 0.4310810811616279 over 5 splits
subject 16, avg accuracy 0.3848852920025466 over 5 splits
subject 17, avg accuracy 0.5210526318926559 over 5 splits
subject 18, avg accuracy 0.4000000011276555 over 5 splits
subject 19, avg accuracy 0.2983483484288952 over 5 splits
avg accuracy over all subjects 0.3953674669898702
_________________________________________________________________
Layer (type)                 Output Shape              Param #   
=================================================================
conv1d_274 (Conv1D)          (None, 764, 17)           2652      
_________________________________________________________________
max_pooling1d_274 (MaxPoolin (None, 382, 17)           0         
_________________________________________________________________
dropout_274 (Dropout)        (None, 382, 17)           0         
_________________________________________________________________
conv1d_275 (Conv1D)          (None, 374, 13)           2002      
_________________________________________________________________
max_pooling1d_275 (MaxPoolin (None, 187, 13)           0         
_________________________________________________________________
dropout_275 (Dropout)        (None, 187, 13)           0         
_________________________________________________________________
conv1d_276 (Conv1D)          (None, 180, 6)            630       
_________________________________________________________________
max_pooling1d_276 (MaxPoolin (None, 90, 6)             0         
_________________________________________________________________
dropout_276 (Dropout)        (None, 90, 6)             0         
_________________________________________________________________
flatten_92 (Flatten)         (None, 540)               0         
_________________________________________________________________
dense_183 (Dense)            (None, 47)                25427     
_________________________________________________________________
dense_184 (Dense)            (None, 3)                 144       
=================================================================
Total params: 30,855
Trainable params: 30,855
Non-trainable params: 0
_________________________________________________________________
{'l1_nodes': 17, 'l1_filter': 5, 'l1_dropout': 0.7008896964583985, 'l2_nodes': 13, 'l2_filter': 9, 'l2_dropout': 0.12489278537734086, 'l3_nodes': 6, 'l3_filter': 8, 'l3_dropout': 0.7220995666918625, 'dense_nodes': 47}
…
subject 14, avg accuracy 0.3928475047613767 over 5 splits
subject 15, avg accuracy 0.5193693694499162 over 5 splits
subject 16, avg accuracy 0.4998650481504628 over 5 splits
subject 17, avg accuracy 0.510526317358017 over 5 splits
subject 18, avg accuracy 0.43243243372118156 over 5 splits
subject 19, avg accuracy 0.39324324332379007 over 5 splits
avg accuracy over all subjects 0.4194975011110859
_________________________________________________________________
Layer (type)                 Output Shape              Param #   
=================================================================
conv1d_277 (Conv1D)          (None, 754, 36)           16776     
_________________________________________________________________
max_pooling1d_277 (MaxPoolin (None, 377, 36)           0         
_________________________________________________________________
dropout_277 (Dropout)        (None, 377, 36)           0         
_________________________________________________________________
conv1d_278 (Conv1D)          (None, 367, 17)           6749      
_________________________________________________________________
max_pooling1d_278 (MaxPoolin (None, 183, 17)           0         
_________________________________________________________________
dropout_278 (Dropout)        (None, 183, 17)           0         
_________________________________________________________________
conv1d_279 (Conv1D)          (None, 172, 10)           2050      
_________________________________________________________________
max_pooling1d_279 (MaxPoolin (None, 86, 10)            0         
_________________________________________________________________
dropout_279 (Dropout)        (None, 86, 10)            0         
_________________________________________________________________
flatten_93 (Flatten)         (None, 860)               0         
_________________________________________________________________
dense_185 (Dense)            (None, 33)                28413     
_________________________________________________________________
dense_186 (Dense)            (None, 3)                 102       
=================================================================
Total params: 54,090
Trainable params: 54,090
Non-trainable params: 0
_________________________________________________________________
{'l1_nodes': 36, 'l1_filter': 15, 'l1_dropout': 0.1262724017218322, 'l2_nodes': 17, 'l2_filter': 11, 'l2_dropout': 0.6130108815227182, 'l3_nodes': 10, 'l3_filter': 12, 'l3_dropout': 0.49089561532177806, 'dense_nodes': 33}
…
subject 14, avg accuracy 0.45587044659494225 over 5 splits
subject 15, avg accuracy 0.4918918925362664 over 5 splits
subject 16, avg accuracy 0.3380566808496892 over 5 splits
subject 17, avg accuracy 0.521052633774908 over 5 splits
subject 18, avg accuracy 0.4432432444514455 over 5 splits
subject 19, avg accuracy 0.39189189221407916 over 5 splits
avg accuracy over all subjects 0.3980610175419621
_________________________________________________________________
Layer (type)                 Output Shape              Param #   
=================================================================
conv1d_280 (Conv1D)          (None, 746, 20)           14280     
_________________________________________________________________
max_pooling1d_280 (MaxPoolin (None, 373, 20)           0         
_________________________________________________________________
dropout_280 (Dropout)        (None, 373, 20)           0         
_________________________________________________________________
conv1d_281 (Conv1D)          (None, 365, 10)           1810      
_________________________________________________________________
max_pooling1d_281 (MaxPoolin (None, 182, 10)           0         
_________________________________________________________________
dropout_281 (Dropout)        (None, 182, 10)           0         
_________________________________________________________________
conv1d_282 (Conv1D)          (None, 180, 2)            62        
_________________________________________________________________
max_pooling1d_282 (MaxPoolin (None, 90, 2)             0         
_________________________________________________________________
dropout_282 (Dropout)        (None, 90, 2)             0         
_________________________________________________________________
flatten_94 (Flatten)         (None, 180)               0         
_________________________________________________________________
dense_187 (Dense)            (None, 5)                 905       
_________________________________________________________________
dense_188 (Dense)            (None, 3)                 18        
=================================================================
Total params: 17,075
Trainable params: 17,075
Non-trainable params: 0
_________________________________________________________________
{'l1_nodes': 20, 'l1_filter': 23, 'l1_dropout': 0.05807353782528096, 'l2_nodes': 10, 'l2_filter': 9, 'l2_dropout': 0.18826369891077166, 'l3_nodes': 2, 'l3_filter': 3, 'l3_dropout': 0.5906069613629981, 'dense_nodes': 5}
…
subject 14, avg accuracy 0.3354925783780905 over 5 splits
subject 15, avg accuracy 0.35345345353400026 over 5 splits
subject 16, avg accuracy 0.38542510291181914 over 5 splits
subject 17, avg accuracy 0.42105263283378197 over 5 splits
subject 18, avg accuracy 0.35135135175408544 over 5 splits
subject 19, avg accuracy 0.3261261261261262 over 5 splits
avg accuracy over all subjects 0.3664563358438105
_________________________________________________________________
Layer (type)                 Output Shape              Param #   
=================================================================
conv1d_283 (Conv1D)          (None, 744, 19)           14744     
_________________________________________________________________
max_pooling1d_283 (MaxPoolin (None, 372, 19)           0         
_________________________________________________________________
dropout_283 (Dropout)        (None, 372, 19)           0         
_________________________________________________________________
conv1d_284 (Conv1D)          (None, 361, 19)           4351      
_________________________________________________________________
max_pooling1d_284 (MaxPoolin (None, 180, 19)           0         
_________________________________________________________________
dropout_284 (Dropout)        (None, 180, 19)           0         
_________________________________________________________________
conv1d_285 (Conv1D)          (None, 173, 4)            612       
_________________________________________________________________
max_pooling1d_285 (MaxPoolin (None, 86, 4)             0         
_________________________________________________________________
dropout_285 (Dropout)        (None, 86, 4)             0         
_________________________________________________________________
flatten_95 (Flatten)         (None, 344)               0         
_________________________________________________________________
dense_189 (Dense)            (None, 9)                 3105      
_________________________________________________________________
dense_190 (Dense)            (None, 3)                 30        
=================================================================
Total params: 22,842
Trainable params: 22,842
Non-trainable params: 0
_________________________________________________________________
{'l1_nodes': 19, 'l1_filter': 25, 'l1_dropout': 0.40890562719795953, 'l2_nodes': 19, 'l2_filter': 12, 'l2_dropout': 0.2649300702430875, 'l3_nodes': 4, 'l3_filter': 8, 'l3_dropout': 0.05999704911600948, 'dense_nodes': 9}
…
subject 14, avg accuracy 0.45546558844415763 over 5 splits
subject 15, avg accuracy 0.46456456520893913 over 5 splits
subject 16, avg accuracy 0.4422402178549413 over 5 splits
subject 17, avg accuracy 0.5526315792610771 over 5 splits
subject 18, avg accuracy 0.5243243260158075 over 5 splits
subject 19, avg accuracy 0.39834834834834837 over 5 splits
avg accuracy over all subjects 0.45357449316263676
_________________________________________________________________
Layer (type)                 Output Shape              Param #   
=================================================================
conv1d_286 (Conv1D)          (None, 747, 13)           8879      
_________________________________________________________________
max_pooling1d_286 (MaxPoolin (None, 373, 13)           0         
_________________________________________________________________
dropout_286 (Dropout)        (None, 373, 13)           0         
_________________________________________________________________
conv1d_287 (Conv1D)          (None, 367, 28)           2576      
_________________________________________________________________
max_pooling1d_287 (MaxPoolin (None, 183, 28)           0         
_________________________________________________________________
dropout_287 (Dropout)        (None, 183, 28)           0         
_________________________________________________________________
conv1d_288 (Conv1D)          (None, 170, 5)            1965      
_________________________________________________________________
max_pooling1d_288 (MaxPoolin (None, 85, 5)             0         
_________________________________________________________________
dropout_288 (Dropout)        (None, 85, 5)             0         
_________________________________________________________________
flatten_96 (Flatten)         (None, 425)               0         
_________________________________________________________________
dense_191 (Dense)            (None, 35)                14910     
_________________________________________________________________
dense_192 (Dense)            (None, 3)                 108       
=================================================================
Total params: 28,438
Trainable params: 28,438
Non-trainable params: 0
_________________________________________________________________
{'l1_nodes': 13, 'l1_filter': 22, 'l1_dropout': 0.6442802124022788, 'l2_nodes': 28, 'l2_filter': 7, 'l2_dropout': 0.3651087229327129, 'l3_nodes': 5, 'l3_filter': 14, 'l3_dropout': 0.14474000854123104, 'dense_nodes': 35}
…
subject 14, avg accuracy 0.31943319916081653 over 5 splits
subject 15, avg accuracy 0.4475975976781445 over 5 splits
subject 16, avg accuracy 0.3072874506274377 over 5 splits
subject 17, avg accuracy 0.4947368416347001 over 5 splits
subject 18, avg accuracy 0.3945945949973287 over 5 splits
subject 19, avg accuracy 0.32657657665712336 over 5 splits
avg accuracy over all subjects 0.3697597739933035
_________________________________________________________________
Layer (type)                 Output Shape              Param #   
=================================================================
conv1d_289 (Conv1D)          (None, 762, 21)           4578      
_________________________________________________________________
max_pooling1d_289 (MaxPoolin (None, 381, 21)           0         
_________________________________________________________________
dropout_289 (Dropout)        (None, 381, 21)           0         
_________________________________________________________________
conv1d_290 (Conv1D)          (None, 376, 23)           2921      
_________________________________________________________________
max_pooling1d_290 (MaxPoolin (None, 188, 23)           0         
_________________________________________________________________
dropout_290 (Dropout)        (None, 188, 23)           0         
_________________________________________________________________
conv1d_291 (Conv1D)          (None, 181, 8)            1480      
_________________________________________________________________
max_pooling1d_291 (MaxPoolin (None, 90, 8)             0         
_________________________________________________________________
dropout_291 (Dropout)        (None, 90, 8)             0         
_________________________________________________________________
flatten_97 (Flatten)         (None, 720)               0         
_________________________________________________________________
dense_193 (Dense)            (None, 7)                 5047      
_________________________________________________________________
dense_194 (Dense)            (None, 3)                 24        
=================================================================
Total params: 14,050
Trainable params: 14,050
Non-trainable params: 0
_________________________________________________________________
{'l1_nodes': 21, 'l1_filter': 7, 'l1_dropout': 0.5904013925483697, 'l2_nodes': 23, 'l2_filter': 6, 'l2_dropout': 0.7044341494659112, 'l3_nodes': 8, 'l3_filter': 8, 'l3_dropout': 0.5172503838283903, 'dense_nodes': 7}
…
subject 14, avg accuracy 0.3404858307397639 over 5 splits
subject 15, avg accuracy 0.41996997005051684 over 5 splits
subject 16, avg accuracy 0.33819163470213554 over 5 splits
subject 17, avg accuracy 0.29473684320324345 over 5 splits
subject 18, avg accuracy 0.2648648653481458 over 5 splits
subject 19, avg accuracy 0.27102102110156784 over 5 splits
avg accuracy over all subjects 0.3280420103643514
_________________________________________________________________
Layer (type)                 Output Shape              Param #   
=================================================================
conv1d_292 (Conv1D)          (None, 740, 21)           18900     
_________________________________________________________________
max_pooling1d_292 (MaxPoolin (None, 370, 21)           0         
_________________________________________________________________
dropout_292 (Dropout)        (None, 370, 21)           0         
_________________________________________________________________
conv1d_293 (Conv1D)          (None, 361, 9)            1899      
_________________________________________________________________
max_pooling1d_293 (MaxPoolin (None, 180, 9)            0         
_________________________________________________________________
dropout_293 (Dropout)        (None, 180, 9)            0         
_________________________________________________________________
conv1d_294 (Conv1D)          (None, 170, 9)            900       
_________________________________________________________________
max_pooling1d_294 (MaxPoolin (None, 85, 9)             0         
_________________________________________________________________
dropout_294 (Dropout)        (None, 85, 9)             0         
_________________________________________________________________
flatten_98 (Flatten)         (None, 765)               0         
_________________________________________________________________
dense_195 (Dense)            (None, 17)                13022     
_________________________________________________________________
dense_196 (Dense)            (None, 3)                 54        
=================================================================
Total params: 34,775
Trainable params: 34,775
Non-trainable params: 0
_________________________________________________________________
{'l1_nodes': 21, 'l1_filter': 29, 'l1_dropout': 0.17838087909515804, 'l2_nodes': 9, 'l2_filter': 10, 'l2_dropout': 0.12221010372234248, 'l3_nodes': 9, 'l3_filter': 11, 'l3_dropout': 0.5259245962715573, 'dense_nodes': 17}
…
subject 14, avg accuracy 0.4242914990495573 over 5 splits
subject 15, avg accuracy 0.44159159223596617 over 5 splits
subject 16, avg accuracy 0.3647773297812774 over 5 splits
subject 17, avg accuracy 0.5578947373126681 over 5 splits
subject 18, avg accuracy 0.4324324334795411 over 5 splits
subject 19, avg accuracy 0.3198198199809134 over 5 splits
avg accuracy over all subjects 0.38555211859410593
_________________________________________________________________
Layer (type)                 Output Shape              Param #   
=================================================================
conv1d_295 (Conv1D)          (None, 752, 25)           13200     
_________________________________________________________________
max_pooling1d_295 (MaxPoolin (None, 376, 25)           0         
_________________________________________________________________
dropout_295 (Dropout)        (None, 376, 25)           0         
_________________________________________________________________
conv1d_296 (Conv1D)          (None, 366, 20)           5520      
_________________________________________________________________
max_pooling1d_296 (MaxPoolin (None, 183, 20)           0         
_________________________________________________________________
dropout_296 (Dropout)        (None, 183, 20)           0         
_________________________________________________________________
conv1d_297 (Conv1D)          (None, 174, 12)           2412      
_________________________________________________________________
max_pooling1d_297 (MaxPoolin (None, 87, 12)            0         
_________________________________________________________________
dropout_297 (Dropout)        (None, 87, 12)            0         
_________________________________________________________________
flatten_99 (Flatten)         (None, 1044)              0         
_________________________________________________________________
dense_197 (Dense)            (None, 22)                22990     
_________________________________________________________________
dense_198 (Dense)            (None, 3)                 69        
=================================================================
Total params: 44,191
Trainable params: 44,191
Non-trainable params: 0
_________________________________________________________________
{'l1_nodes': 25, 'l1_filter': 17, 'l1_dropout': 0.701187833921169, 'l2_nodes': 20, 'l2_filter': 11, 'l2_dropout': 0.46002179688907646, 'l3_nodes': 12, 'l3_filter': 10, 'l3_dropout': 0.47793583682747165, 'dense_nodes': 22}
…
subject 14, avg accuracy 0.3402159247361375 over 5 splits
subject 15, avg accuracy 0.480780781102968 over 5 splits
subject 16, avg accuracy 0.3390013502998713 over 5 splits
subject 17, avg accuracy 0.43157894736842106 over 5 splits
subject 18, avg accuracy 0.37297297369789434 over 5 splits
subject 19, avg accuracy 0.3701201202006669 over 5 splits
avg accuracy over all subjects 0.3544931578150848
_________________________________________________________________
Layer (type)                 Output Shape              Param #   
=================================================================
conv1d_298 (Conv1D)          (None, 757, 30)           11190     
_________________________________________________________________
max_pooling1d_298 (MaxPoolin (None, 378, 30)           0         
_________________________________________________________________
dropout_298 (Dropout)        (None, 378, 30)           0         
_________________________________________________________________
conv1d_299 (Conv1D)          (None, 372, 25)           5275      
_________________________________________________________________
max_pooling1d_299 (MaxPoolin (None, 186, 25)           0         
_________________________________________________________________
dropout_299 (Dropout)        (None, 186, 25)           0         
_________________________________________________________________
conv1d_300 (Conv1D)          (None, 185, 2)            102       
_________________________________________________________________
max_pooling1d_300 (MaxPoolin (None, 92, 2)             0         
_________________________________________________________________
dropout_300 (Dropout)        (None, 92, 2)             0         
_________________________________________________________________
flatten_100 (Flatten)        (None, 184)               0         
_________________________________________________________________
dense_199 (Dense)            (None, 5)                 925       
_________________________________________________________________
dense_200 (Dense)            (None, 3)                 18        
=================================================================
Total params: 17,510
Trainable params: 17,510
Non-trainable params: 0
_________________________________________________________________
{'l1_nodes': 30, 'l1_filter': 12, 'l1_dropout': 0.4738190551848671, 'l2_nodes': 25, 'l2_filter': 7, 'l2_dropout': 0.7297319132719533, 'l3_nodes': 2, 'l3_filter': 2, 'l3_dropout': 0.6788867490522932, 'dense_nodes': 5}
…
