…
loading:  Subj16_CleanData_study_OB
loading:  Subj17_CleanData_study_FA
loading:  Subj17_CleanData_study_LM
loading:  Subj17_CleanData_study_OB
loading:  Subj18_CleanData_study_FA
loading:  Subj18_CleanData_study_LM
loading:  Subj18_CleanData_study_OB
loading:  Subj19_CleanData_study_FA
loading:  Subj19_CleanData_study_LM
loading:  Subj19_CleanData_study_OB
(185, 768, 31)
(185, 768, 31)
_________________________________________________________________
Layer (type)                 Output Shape              Param #   
=================================================================
conv1d_1 (Conv1D)            (None, 768, 23)           11431     
_________________________________________________________________
max_pooling1d_1 (MaxPooling1 (None, 256, 23)           0         
_________________________________________________________________
dropout_1 (Dropout)          (None, 256, 23)           0         
_________________________________________________________________
conv1d_2 (Conv1D)            (None, 256, 20)           8760      
_________________________________________________________________
max_pooling1d_2 (MaxPooling1 (None, 256, 20)           0         
_________________________________________________________________
dropout_2 (Dropout)          (None, 256, 20)           0         
_________________________________________________________________
conv1d_3 (Conv1D)            (None, 256, 5)            705       
_________________________________________________________________
max_pooling1d_3 (MaxPooling1 (None, 256, 5)            0         
_________________________________________________________________
dropout_3 (Dropout)          (None, 256, 5)            0         
_________________________________________________________________
flatten_1 (Flatten)          (None, 1280)              0         
_________________________________________________________________
dense_1 (Dense)              (None, 30)                38430     
_________________________________________________________________
dense_2 (Dense)              (None, 3)                 93        
=================================================================
Total params: 59,419
Trainable params: 59,419
Non-trainable params: 0
_________________________________________________________________
{'l1_nodes': 23, 'l1_filter': 16, 'l1_dropout': 0.149904364250886, 'l1_maxpool': 3, 'l2_nodes': 20, 'l2_filter': 19, 'l2_dropout': 0.42880610609423875, 'l2_maxpool': 1, 'l3_nodes': 5, 'l3_filter': 7, 'l3_dropout': 0.17589903838551982, 'l3_maxpool': 1, 'dense_nodes': 30}
…
subject 14, avg accuracy 0.40350877294334486 over 5 splits
subject 15, avg accuracy 0.425225225305772 over 5 splits
subject 16, avg accuracy 0.4429149822426228 over 5 splits
subject 17, avg accuracy 0.5263157893168299 over 5 splits
subject 18, avg accuracy 0.5837837857974542 over 5 splits
subject 19, avg accuracy 0.3755255256060724 over 5 splits
avg accuracy over all subjects 0.40174800397816013
_________________________________________________________________
Layer (type)                 Output Shape              Param #   
=================================================================
conv1d_4 (Conv1D)            (None, 768, 13)           11297     
_________________________________________________________________
max_pooling1d_4 (MaxPooling1 (None, 768, 13)           0         
_________________________________________________________________
dropout_4 (Dropout)          (None, 768, 13)           0         
_________________________________________________________________
conv1d_5 (Conv1D)            (None, 768, 27)           5994      
_________________________________________________________________
max_pooling1d_5 (MaxPooling1 (None, 768, 27)           0         
_________________________________________________________________
dropout_5 (Dropout)          (None, 768, 27)           0         
_________________________________________________________________
conv1d_6 (Conv1D)            (None, 768, 10)           3790      
_________________________________________________________________
max_pooling1d_6 (MaxPooling1 (None, 768, 10)           0         
_________________________________________________________________
dropout_6 (Dropout)          (None, 768, 10)           0         
_________________________________________________________________
flatten_2 (Flatten)          (None, 7680)              0         
_________________________________________________________________
dense_3 (Dense)              (None, 14)                107534    
_________________________________________________________________
dense_4 (Dense)              (None, 3)                 45        
=================================================================
Total params: 128,660
Trainable params: 128,660
Non-trainable params: 0
_________________________________________________________________
{'l1_nodes': 13, 'l1_filter': 28, 'l1_dropout': 0.6998943133270292, 'l1_maxpool': 1, 'l2_nodes': 27, 'l2_filter': 17, 'l2_dropout': 0.29202702791437074, 'l2_maxpool': 1, 'l3_nodes': 10, 'l3_filter': 14, 'l3_dropout': 0.18315772382598303, 'l3_maxpool': 1, 'dense_nodes': 14}
…
subject 14, avg accuracy 0.2825910945250759 over 5 splits
subject 15, avg accuracy 0.2816816823260562 over 5 splits
subject 16, avg accuracy 0.2970310405238598 over 5 splits
subject 17, avg accuracy 0.25789473731266827 over 5 splits
subject 18, avg accuracy 0.3081081093163104 over 5 splits
subject 19, avg accuracy 0.30405405421514764 over 5 splits
avg accuracy over all subjects 0.27962628701926495
_________________________________________________________________
Layer (type)                 Output Shape              Param #   
=================================================================
conv1d_7 (Conv1D)            (None, 768, 15)           10245     
_________________________________________________________________
max_pooling1d_7 (MaxPooling1 (None, 768, 15)           0         
_________________________________________________________________
dropout_7 (Dropout)          (None, 768, 15)           0         
_________________________________________________________________
conv1d_8 (Conv1D)            (None, 768, 29)           2639      
_________________________________________________________________
max_pooling1d_8 (MaxPooling1 (None, 384, 29)           0         
_________________________________________________________________
dropout_8 (Dropout)          (None, 384, 29)           0         
_________________________________________________________________
conv1d_9 (Conv1D)            (None, 384, 6)            1572      
_________________________________________________________________
max_pooling1d_9 (MaxPooling1 (None, 384, 6)            0         
_________________________________________________________________
dropout_9 (Dropout)          (None, 384, 6)            0         
_________________________________________________________________
flatten_3 (Flatten)          (None, 2304)              0         
_________________________________________________________________
dense_5 (Dense)              (None, 16)                36880     
_________________________________________________________________
dense_6 (Dense)              (None, 3)                 51        
=================================================================
Total params: 51,387
Trainable params: 51,387
Non-trainable params: 0
_________________________________________________________________
{'l1_nodes': 15, 'l1_filter': 22, 'l1_dropout': 0.4465311101848447, 'l1_maxpool': 1, 'l2_nodes': 29, 'l2_filter': 6, 'l2_dropout': 0.1254611171485001, 'l2_maxpool': 2, 'l3_nodes': 6, 'l3_filter': 9, 'l3_dropout': 0.5465077285317754, 'l3_maxpool': 1, 'dense_nodes': 16}
…
subject 14, avg accuracy 0.4140350890465272 over 5 splits
subject 15, avg accuracy 0.4906906913350652 over 5 splits
subject 16, avg accuracy 0.3130904190493659 over 5 splits
subject 17, avg accuracy 0.5842105274137698 over 5 splits
subject 18, avg accuracy 0.5567567590120677 over 5 splits
subject 19, avg accuracy 0.32072072088181436 over 5 splits
avg accuracy over all subjects 0.3805812231996614
_________________________________________________________________
Layer (type)                 Output Shape              Param #   
=================================================================
conv1d_10 (Conv1D)           (None, 768, 34)           20060     
_________________________________________________________________
max_pooling1d_10 (MaxPooling (None, 768, 34)           0         
_________________________________________________________________
dropout_10 (Dropout)         (None, 768, 34)           0         
_________________________________________________________________
conv1d_11 (Conv1D)           (None, 768, 14)           8582      
_________________________________________________________________
max_pooling1d_11 (MaxPooling (None, 768, 14)           0         
_________________________________________________________________
dropout_11 (Dropout)         (None, 768, 14)           0         
_________________________________________________________________
conv1d_12 (Conv1D)           (None, 768, 10)           430       
_________________________________________________________________
max_pooling1d_12 (MaxPooling (None, 384, 10)           0         
_________________________________________________________________
dropout_12 (Dropout)         (None, 384, 10)           0         
_________________________________________________________________
flatten_4 (Flatten)          (None, 3840)              0         
_________________________________________________________________
dense_7 (Dense)              (None, 48)                184368    
_________________________________________________________________
dense_8 (Dense)              (None, 3)                 147       
=================================================================
Total params: 213,587
Trainable params: 213,587
Non-trainable params: 0
_________________________________________________________________
{'l1_nodes': 34, 'l1_filter': 19, 'l1_dropout': 0.740832878754329, 'l1_maxpool': 1, 'l2_nodes': 14, 'l2_filter': 18, 'l2_dropout': 0.7074895296679105, 'l2_maxpool': 1, 'l3_nodes': 10, 'l3_filter': 3, 'l3_dropout': 0.6888328033310404, 'l3_maxpool': 2, 'dense_nodes': 48}
…
subject 14, avg accuracy 0.31390013636043357 over 5 splits
subject 15, avg accuracy 0.30945946010383396 over 5 splits
subject 16, avg accuracy 0.3437246982143958 over 5 splits
subject 17, avg accuracy 0.31052631688745397 over 5 splits
subject 18, avg accuracy 0.3621621629676303 over 5 splits
subject 19, avg accuracy 0.29309309325418675 over 5 splits
avg accuracy over all subjects 0.3018517852418341
_________________________________________________________________
Layer (type)                 Output Shape              Param #   
=================================================================
conv1d_13 (Conv1D)           (None, 768, 25)           6225      
_________________________________________________________________
max_pooling1d_13 (MaxPooling (None, 384, 25)           0         
_________________________________________________________________
dropout_13 (Dropout)         (None, 384, 25)           0         
_________________________________________________________________
conv1d_14 (Conv1D)           (None, 384, 15)           4140      
_________________________________________________________________
max_pooling1d_14 (MaxPooling (None, 192, 15)           0         
_________________________________________________________________
dropout_14 (Dropout)         (None, 192, 15)           0         
_________________________________________________________________
conv1d_15 (Conv1D)           (None, 192, 10)           1960      
_________________________________________________________________
max_pooling1d_15 (MaxPooling (None, 192, 10)           0         
_________________________________________________________________
dropout_15 (Dropout)         (None, 192, 10)           0         
_________________________________________________________________
flatten_5 (Flatten)          (None, 1920)              0         
_________________________________________________________________
dense_9 (Dense)              (None, 32)                61472     
_________________________________________________________________
dense_10 (Dense)             (None, 3)                 99        
=================================================================
Total params: 73,896
Trainable params: 73,896
Non-trainable params: 0
_________________________________________________________________
{'l1_nodes': 25, 'l1_filter': 8, 'l1_dropout': 0.2866765205426485, 'l1_maxpool': 2, 'l2_nodes': 15, 'l2_filter': 11, 'l2_dropout': 0.11910826442827835, 'l2_maxpool': 2, 'l3_nodes': 10, 'l3_filter': 13, 'l3_dropout': 0.38463129992139955, 'l3_maxpool': 1, 'dense_nodes': 32}
…
subject 14, avg accuracy 0.2825910945250759 over 5 splits
subject 15, avg accuracy 0.4807807814251553 over 5 splits
subject 16, avg accuracy 0.364237518570362 over 5 splits
subject 17, avg accuracy 0.6526315798884944 over 5 splits
subject 18, avg accuracy 0.39459459588334367 over 5 splits
subject 19, avg accuracy 0.3596096097707032 over 5 splits
avg accuracy over all subjects 0.4013231189936426
_________________________________________________________________
Layer (type)                 Output Shape              Param #   
=================================================================
conv1d_16 (Conv1D)           (None, 768, 28)           11312     
_________________________________________________________________
max_pooling1d_16 (MaxPooling (None, 384, 28)           0         
_________________________________________________________________
dropout_16 (Dropout)         (None, 384, 28)           0         
_________________________________________________________________
conv1d_17 (Conv1D)           (None, 384, 9)            1269      
_________________________________________________________________
max_pooling1d_17 (MaxPooling (None, 192, 9)            0         
_________________________________________________________________
dropout_17 (Dropout)         (None, 192, 9)            0         
_________________________________________________________________
conv1d_18 (Conv1D)           (None, 192, 11)           1298      
_________________________________________________________________
max_pooling1d_18 (MaxPooling (None, 192, 11)           0         
_________________________________________________________________
dropout_18 (Dropout)         (None, 192, 11)           0         
_________________________________________________________________
flatten_6 (Flatten)          (None, 2112)              0         
_________________________________________________________________
dense_11 (Dense)             (None, 47)                99311     
_________________________________________________________________
dense_12 (Dense)             (None, 3)                 144       
=================================================================
Total params: 113,334
Trainable params: 113,334
Non-trainable params: 0
_________________________________________________________________
{'l1_nodes': 28, 'l1_filter': 13, 'l1_dropout': 0.2524069572349177, 'l1_maxpool': 2, 'l2_nodes': 9, 'l2_filter': 5, 'l2_dropout': 0.30093921228534676, 'l2_maxpool': 2, 'l3_nodes': 11, 'l3_filter': 13, 'l3_dropout': 0.14315970405780346, 'l3_maxpool': 1, 'dense_nodes': 47}
…
subject 14, avg accuracy 0.35033738300224393 over 5 splits
subject 15, avg accuracy 0.3855855862299601 over 5 splits
subject 16, avg accuracy 0.4055330655996293 over 5 splits
subject 17, avg accuracy 0.6631578969328027 over 5 splits
subject 18, avg accuracy 0.4702702722033939 over 5 splits
subject 19, avg accuracy 0.32072072088181436 over 5 splits
avg accuracy over all subjects 0.4154342275188953
_________________________________________________________________
Layer (type)                 Output Shape              Param #   
=================================================================
conv1d_19 (Conv1D)           (None, 768, 13)           6864      
_________________________________________________________________
max_pooling1d_19 (MaxPooling (None, 768, 13)           0         
_________________________________________________________________
dropout_19 (Dropout)         (None, 768, 13)           0         
_________________________________________________________________
conv1d_20 (Conv1D)           (None, 768, 19)           2242      
_________________________________________________________________
max_pooling1d_20 (MaxPooling (None, 384, 19)           0         
_________________________________________________________________
dropout_20 (Dropout)         (None, 384, 19)           0         
_________________________________________________________________
conv1d_21 (Conv1D)           (None, 384, 13)           2730      
_________________________________________________________________
max_pooling1d_21 (MaxPooling (None, 192, 13)           0         
_________________________________________________________________
dropout_21 (Dropout)         (None, 192, 13)           0         
_________________________________________________________________
flatten_7 (Flatten)          (None, 2496)              0         
_________________________________________________________________
dense_13 (Dense)             (None, 16)                39952     
_________________________________________________________________
dense_14 (Dense)             (None, 3)                 51        
=================================================================
Total params: 51,839
Trainable params: 51,839
Non-trainable params: 0
_________________________________________________________________
{'l1_nodes': 13, 'l1_filter': 17, 'l1_dropout': 0.1958963865844145, 'l1_maxpool': 1, 'l2_nodes': 19, 'l2_filter': 9, 'l2_dropout': 0.0864793032876362, 'l2_maxpool': 2, 'l3_nodes': 13, 'l3_filter': 11, 'l3_dropout': 0.050302361370080845, 'l3_maxpool': 2, 'dense_nodes': 16}
…
subject 14, avg accuracy 0.2825910945250759 over 5 splits
subject 15, avg accuracy 0.29279279343716735 over 5 splits
subject 16, avg accuracy 0.3074224032451588 over 5 splits
subject 17, avg accuracy 0.48421052678635246 over 5 splits
subject 18, avg accuracy 0.3135135148022626 over 5 splits
subject 19, avg accuracy 0.2981981983592918 over 5 splits
avg accuracy over all subjects 0.2958029561612683
_________________________________________________________________
Layer (type)                 Output Shape              Param #   
=================================================================
conv1d_22 (Conv1D)           (None, 768, 32)           21856     
_________________________________________________________________
max_pooling1d_22 (MaxPooling (None, 384, 32)           0         
_________________________________________________________________
dropout_22 (Dropout)         (None, 384, 32)           0         
_________________________________________________________________
conv1d_23 (Conv1D)           (None, 384, 16)           8208      
_________________________________________________________________
max_pooling1d_23 (MaxPooling (None, 384, 16)           0         
_________________________________________________________________
dropout_23 (Dropout)         (None, 384, 16)           0         
_________________________________________________________________
conv1d_24 (Conv1D)           (None, 384, 13)           2301      
_________________________________________________________________
max_pooling1d_24 (MaxPooling (None, 384, 13)           0         
_________________________________________________________________
dropout_24 (Dropout)         (None, 384, 13)           0         
_________________________________________________________________
flatten_8 (Flatten)          (None, 4992)              0         
_________________________________________________________________
dense_15 (Dense)             (None, 26)                129818    
_________________________________________________________________
dense_16 (Dense)             (None, 3)                 81        
=================================================================
Total params: 162,264
Trainable params: 162,264
Non-trainable params: 0
_________________________________________________________________
{'l1_nodes': 32, 'l1_filter': 22, 'l1_dropout': 0.6048810673480471, 'l1_maxpool': 2, 'l2_nodes': 16, 'l2_filter': 16, 'l2_dropout': 0.25269155124786746, 'l2_maxpool': 1, 'l3_nodes': 13, 'l3_filter': 11, 'l3_dropout': 0.043888434612724375, 'l3_maxpool': 1, 'dense_nodes': 26}
…
subject 14, avg accuracy 0.324696357369262 over 5 splits
subject 15, avg accuracy 0.2983483489927229 over 5 splits
subject 16, avg accuracy 0.2813765198474953 over 5 splits
subject 17, avg accuracy 0.25789473731266827 over 5 splits
subject 18, avg accuracy 0.3081081093163104 over 5 splits
subject 19, avg accuracy 0.30405405421514764 over 5 splits
avg accuracy over all subjects 0.2807550810475951
_________________________________________________________________
Layer (type)                 Output Shape              Param #   
=================================================================
conv1d_25 (Conv1D)           (None, 768, 32)           4992      
_________________________________________________________________
max_pooling1d_25 (MaxPooling (None, 256, 32)           0         
_________________________________________________________________
dropout_25 (Dropout)         (None, 256, 32)           0         
_________________________________________________________________
conv1d_26 (Conv1D)           (None, 256, 5)            2565      
_________________________________________________________________
max_pooling1d_26 (MaxPooling (None, 128, 5)            0         
_________________________________________________________________
dropout_26 (Dropout)         (None, 128, 5)            0         
_________________________________________________________________
conv1d_27 (Conv1D)           (None, 128, 8)            448       
_________________________________________________________________
max_pooling1d_27 (MaxPooling (None, 128, 8)            0         
_________________________________________________________________
dropout_27 (Dropout)         (None, 128, 8)            0         
_________________________________________________________________
flatten_9 (Flatten)          (None, 1024)              0         
_________________________________________________________________
dense_17 (Dense)             (None, 38)                38950     
_________________________________________________________________
dense_18 (Dense)             (None, 3)                 117       
=================================================================
Total params: 47,072
Trainable params: 47,072
Non-trainable params: 0
_________________________________________________________________
{'l1_nodes': 32, 'l1_filter': 5, 'l1_dropout': 0.46475349416444606, 'l1_maxpool': 3, 'l2_nodes': 5, 'l2_filter': 16, 'l2_dropout': 0.04323104007282347, 'l2_maxpool': 2, 'l3_nodes': 8, 'l3_filter': 11, 'l3_dropout': 0.6731486574620771, 'l3_maxpool': 1, 'dense_nodes': 38}
…
subject 14, avg accuracy 0.5128205138943616 over 5 splits
subject 15, avg accuracy 0.5196696703140442 over 5 splits
subject 16, avg accuracy 0.34939271293268837 over 5 splits
subject 17, avg accuracy 0.6315789489369643 over 5 splits
subject 18, avg accuracy 0.49189189318064097 over 5 splits
subject 19, avg accuracy 0.38663663671718346 over 5 splits
avg accuracy over all subjects 0.453289896766741
_________________________________________________________________
Layer (type)                 Output Shape              Param #   
=================================================================
conv1d_28 (Conv1D)           (None, 768, 10)           7450      
_________________________________________________________________
max_pooling1d_28 (MaxPooling (None, 768, 10)           0         
_________________________________________________________________
dropout_28 (Dropout)         (None, 768, 10)           0         
_________________________________________________________________
conv1d_29 (Conv1D)           (None, 768, 18)           2538      
_________________________________________________________________
max_pooling1d_29 (MaxPooling (None, 384, 18)           0         
_________________________________________________________________
dropout_29 (Dropout)         (None, 384, 18)           0         
_________________________________________________________________
conv1d_30 (Conv1D)           (None, 384, 12)           3036      
_________________________________________________________________
max_pooling1d_30 (MaxPooling (None, 192, 12)           0         
_________________________________________________________________
dropout_30 (Dropout)         (None, 192, 12)           0         
_________________________________________________________________
flatten_10 (Flatten)         (None, 2304)              0         
_________________________________________________________________
dense_19 (Dense)             (None, 13)                29965     
_________________________________________________________________
dense_20 (Dense)             (None, 3)                 42        
=================================================================
Total params: 43,031
Trainable params: 43,031
Non-trainable params: 0
_________________________________________________________________
{'l1_nodes': 10, 'l1_filter': 24, 'l1_dropout': 0.20709283293691957, 'l1_maxpool': 1, 'l2_nodes': 18, 'l2_filter': 14, 'l2_dropout': 0.5266298505884147, 'l2_maxpool': 2, 'l3_nodes': 12, 'l3_filter': 14, 'l3_dropout': 0.6317155603296352, 'l3_maxpool': 2, 'dense_nodes': 13}
…
subject 14, avg accuracy 0.3244264523067616 over 5 splits
subject 15, avg accuracy 0.3807807811029681 over 5 splits
subject 16, avg accuracy 0.3122807031459654 over 5 splits
subject 17, avg accuracy 0.489473684524235 over 5 splits
subject 18, avg accuracy 0.5027027041525455 over 5 splits
subject 19, avg accuracy 0.2762762764373699 over 5 splits
avg accuracy over all subjects 0.35396577505791743
_________________________________________________________________
Layer (type)                 Output Shape              Param #   
=================================================================
conv1d_31 (Conv1D)           (None, 768, 17)           2652      
_________________________________________________________________
max_pooling1d_31 (MaxPooling (None, 384, 17)           0         
_________________________________________________________________
dropout_31 (Dropout)         (None, 384, 17)           0         
_________________________________________________________________
conv1d_32 (Conv1D)           (None, 384, 11)           2255      
_________________________________________________________________
max_pooling1d_32 (MaxPooling (None, 384, 11)           0         
_________________________________________________________________
dropout_32 (Dropout)         (None, 384, 11)           0         
_________________________________________________________________
conv1d_33 (Conv1D)           (None, 384, 6)            534       
_________________________________________________________________
max_pooling1d_33 (MaxPooling (None, 384, 6)            0         
_________________________________________________________________
dropout_33 (Dropout)         (None, 384, 6)            0         
_________________________________________________________________
flatten_11 (Flatten)         (None, 2304)              0         
_________________________________________________________________
dense_21 (Dense)             (None, 9)                 20745     
_________________________________________________________________
dense_22 (Dense)             (None, 3)                 30        
=================================================================
Total params: 26,216
Trainable params: 26,216
Non-trainable params: 0
_________________________________________________________________
{'l1_nodes': 17, 'l1_filter': 5, 'l1_dropout': 0.4700441822735738, 'l1_maxpool': 2, 'l2_nodes': 11, 'l2_filter': 12, 'l2_dropout': 0.7124121918779132, 'l2_maxpool': 1, 'l3_nodes': 6, 'l3_filter': 8, 'l3_dropout': 0.09615158046706046, 'l3_maxpool': 1, 'dense_nodes': 9}
…
subject 14, avg accuracy 0.2877192997296973 over 5 splits
subject 15, avg accuracy 0.2870870871676339 over 5 splits
subject 16, avg accuracy 0.2813765195337867 over 5 splits
subject 17, avg accuracy 0.3263157899442472 over 5 splits
subject 18, avg accuracy 0.3081081087524826 over 5 splits
subject 19, avg accuracy 0.28183183199292544 over 5 splits
avg accuracy over all subjects 0.2765587456209474
_________________________________________________________________
Layer (type)                 Output Shape              Param #   
=================================================================
conv1d_34 (Conv1D)           (None, 768, 23)           3588      
_________________________________________________________________
max_pooling1d_34 (MaxPooling (None, 256, 23)           0         
_________________________________________________________________
dropout_34 (Dropout)         (None, 256, 23)           0         
_________________________________________________________________
conv1d_35 (Conv1D)           (None, 256, 27)           4374      
_________________________________________________________________
max_pooling1d_35 (MaxPooling (None, 256, 27)           0         
_________________________________________________________________
dropout_35 (Dropout)         (None, 256, 27)           0         
_________________________________________________________________
conv1d_36 (Conv1D)           (None, 256, 8)            1088      
_________________________________________________________________
max_pooling1d_36 (MaxPooling (None, 256, 8)            0         
_________________________________________________________________
dropout_36 (Dropout)         (None, 256, 8)            0         
_________________________________________________________________
flatten_12 (Flatten)         (None, 2048)              0         
_________________________________________________________________
dense_23 (Dense)             (None, 5)                 10245     
_________________________________________________________________
dense_24 (Dense)             (None, 3)                 18        
=================================================================
Total params: 19,313
Trainable params: 19,313
Non-trainable params: 0
_________________________________________________________________
{'l1_nodes': 23, 'l1_filter': 5, 'l1_dropout': 0.2666398295406348, 'l1_maxpool': 3, 'l2_nodes': 27, 'l2_filter': 7, 'l2_dropout': 0.3521675927123564, 'l2_maxpool': 1, 'l3_nodes': 8, 'l3_filter': 5, 'l3_dropout': 0.5079358830662826, 'l3_maxpool': 1, 'dense_nodes': 5}
…
subject 14, avg accuracy 0.42429149938337557 over 5 splits
subject 15, avg accuracy 0.4975975976781445 over 5 splits
subject 16, avg accuracy 0.39581646576986296 over 5 splits
subject 17, avg accuracy 0.5526315798884943 over 5 splits
subject 18, avg accuracy 0.4162162178271525 over 5 splits
subject 19, avg accuracy 0.3540540542151477 over 5 splits
avg accuracy over all subjects 0.3841066784086845
_________________________________________________________________
Layer (type)                 Output Shape              Param #   
=================================================================
conv1d_37 (Conv1D)           (None, 768, 27)           16767     
_________________________________________________________________
max_pooling1d_37 (MaxPooling (None, 384, 27)           0         
_________________________________________________________________
dropout_37 (Dropout)         (None, 384, 27)           0         
_________________________________________________________________
conv1d_38 (Conv1D)           (None, 384, 17)           3689      
_________________________________________________________________
max_pooling1d_38 (MaxPooling (None, 192, 17)           0         
_________________________________________________________________
dropout_38 (Dropout)         (None, 192, 17)           0         
_________________________________________________________________
conv1d_39 (Conv1D)           (None, 192, 3)            513       
_________________________________________________________________
max_pooling1d_39 (MaxPooling (None, 192, 3)            0         
_________________________________________________________________
dropout_39 (Dropout)         (None, 192, 3)            0         
_________________________________________________________________
flatten_13 (Flatten)         (None, 576)               0         
_________________________________________________________________
dense_25 (Dense)             (None, 27)                15579     
_________________________________________________________________
dense_26 (Dense)             (None, 3)                 84        
=================================================================
Total params: 36,632
Trainable params: 36,632
Non-trainable params: 0
_________________________________________________________________
{'l1_nodes': 27, 'l1_filter': 20, 'l1_dropout': 0.7391232559564749, 'l1_maxpool': 2, 'l2_nodes': 17, 'l2_filter': 8, 'l2_dropout': 0.5182045718016346, 'l2_maxpool': 2, 'l3_nodes': 3, 'l3_filter': 10, 'l3_dropout': 0.24533401363276772, 'l3_maxpool': 1, 'dense_nodes': 27}
…
subject 14, avg accuracy 0.407962215409266 over 5 splits
subject 15, avg accuracy 0.3483483489927229 over 5 splits
subject 16, avg accuracy 0.3287449409001269 over 5 splits
subject 17, avg accuracy 0.5842105263157895 over 5 splits
subject 18, avg accuracy 0.4810810829336579 over 5 splits
subject 19, avg accuracy 0.37042042058151403 over 5 splits
avg accuracy over all subjects 0.38349574365408007
_________________________________________________________________
Layer (type)                 Output Shape              Param #   
=================================================================
conv1d_40 (Conv1D)           (None, 768, 22)           16390     
_________________________________________________________________
max_pooling1d_40 (MaxPooling (None, 256, 22)           0         
_________________________________________________________________
dropout_40 (Dropout)         (None, 256, 22)           0         
_________________________________________________________________
conv1d_41 (Conv1D)           (None, 256, 17)           3757      
_________________________________________________________________
max_pooling1d_41 (MaxPooling (None, 128, 17)           0         
_________________________________________________________________
dropout_41 (Dropout)         (None, 128, 17)           0         
_________________________________________________________________
conv1d_42 (Conv1D)           (None, 128, 2)            240       
_________________________________________________________________
max_pooling1d_42 (MaxPooling (None, 64, 2)             0         
_________________________________________________________________
dropout_42 (Dropout)         (None, 64, 2)             0         
_________________________________________________________________
flatten_14 (Flatten)         (None, 128)               0         
_________________________________________________________________
dense_27 (Dense)             (None, 33)                4257      
_________________________________________________________________
dense_28 (Dense)             (None, 3)                 102       
=================================================================
Total params: 24,746
Trainable params: 24,746
Non-trainable params: 0
_________________________________________________________________
{'l1_nodes': 22, 'l1_filter': 24, 'l1_dropout': 0.5996607071765117, 'l1_maxpool': 3, 'l2_nodes': 17, 'l2_filter': 10, 'l2_dropout': 0.5448864463685077, 'l2_maxpool': 2, 'l3_nodes': 2, 'l3_filter': 7, 'l3_dropout': 0.6398400191947665, 'l3_maxpool': 2, 'dense_nodes': 33}
…
subject 14, avg accuracy 0.3461538472397607 over 5 splits
subject 15, avg accuracy 0.3975975977586912 over 5 splits
subject 16, avg accuracy 0.36963562853181886 over 5 splits
subject 17, avg accuracy 0.5315789489369644 over 5 splits
subject 18, avg accuracy 0.4108108122606535 over 5 splits
subject 19, avg accuracy 0.3870870871676339 over 5 splits
avg accuracy over all subjects 0.385491632825866
_________________________________________________________________
Layer (type)                 Output Shape              Param #   
=================================================================
conv1d_43 (Conv1D)           (None, 768, 13)           2028      
_________________________________________________________________
max_pooling1d_43 (MaxPooling (None, 256, 13)           0         
_________________________________________________________________
dropout_43 (Dropout)         (None, 256, 13)           0         
_________________________________________________________________
conv1d_44 (Conv1D)           (None, 256, 10)           1180      
_________________________________________________________________
max_pooling1d_44 (MaxPooling (None, 256, 10)           0         
_________________________________________________________________
dropout_44 (Dropout)         (None, 256, 10)           0         
_________________________________________________________________
conv1d_45 (Conv1D)           (None, 256, 1)            101       
_________________________________________________________________
max_pooling1d_45 (MaxPooling (None, 128, 1)            0         
_________________________________________________________________
dropout_45 (Dropout)         (None, 128, 1)            0         
_________________________________________________________________
flatten_15 (Flatten)         (None, 128)               0         
_________________________________________________________________
dense_29 (Dense)             (None, 34)                4386      
_________________________________________________________________
dense_30 (Dense)             (None, 3)                 105       
=================================================================
Total params: 7,800
Trainable params: 7,800
Non-trainable params: 0
_________________________________________________________________
{'l1_nodes': 13, 'l1_filter': 5, 'l1_dropout': 0.640921660411602, 'l1_maxpool': 3, 'l2_nodes': 10, 'l2_filter': 9, 'l2_dropout': 0.5908833132646824, 'l2_maxpool': 1, 'l3_nodes': 1, 'l3_filter': 10, 'l3_dropout': 0.29260816135490075, 'l3_maxpool': 2, 'dense_nodes': 34}
…
subject 14, avg accuracy 0.418893388251544 over 5 splits
subject 15, avg accuracy 0.486186186266733 over 5 splits
subject 16, avg accuracy 0.3442645083474405 over 5 splits
subject 17, avg accuracy 0.5210526315789473 over 5 splits
subject 18, avg accuracy 0.37837837990876794 over 5 splits
subject 19, avg accuracy 0.32657657657657657 over 5 splits
avg accuracy over all subjects 0.40398995572331264
_________________________________________________________________
Layer (type)                 Output Shape              Param #   
=================================================================
conv1d_46 (Conv1D)           (None, 768, 34)           7412      
_________________________________________________________________
max_pooling1d_46 (MaxPooling (None, 384, 34)           0         
_________________________________________________________________
dropout_46 (Dropout)         (None, 384, 34)           0         
_________________________________________________________________
conv1d_47 (Conv1D)           (None, 384, 20)           8860      
_________________________________________________________________
max_pooling1d_47 (MaxPooling (None, 384, 20)           0         
_________________________________________________________________
dropout_47 (Dropout)         (None, 384, 20)           0         
_________________________________________________________________
conv1d_48 (Conv1D)           (None, 384, 14)           3654      
_________________________________________________________________
max_pooling1d_48 (MaxPooling (None, 384, 14)           0         
_________________________________________________________________
dropout_48 (Dropout)         (None, 384, 14)           0         
_________________________________________________________________
flatten_16 (Flatten)         (None, 5376)              0         
_________________________________________________________________
dense_31 (Dense)             (None, 26)                139802    
_________________________________________________________________
dense_32 (Dense)             (None, 3)                 81        
=================================================================
Total params: 159,809
Trainable params: 159,809
Non-trainable params: 0
_________________________________________________________________
{'l1_nodes': 34, 'l1_filter': 7, 'l1_dropout': 0.6218602851361849, 'l1_maxpool': 2, 'l2_nodes': 20, 'l2_filter': 13, 'l2_dropout': 0.2030643772807907, 'l2_maxpool': 1, 'l3_nodes': 14, 'l3_filter': 13, 'l3_dropout': 0.228043867041904, 'l3_maxpool': 1, 'dense_nodes': 26}
…
subject 14, avg accuracy 0.2877192997296973 over 5 splits
subject 15, avg accuracy 0.31486486494541166 over 5 splits
subject 16, avg accuracy 0.2813765198474953 over 5 splits
subject 17, avg accuracy 0.2842105267863525 over 5 splits
subject 18, avg accuracy 0.3081081088330294 over 5 splits
subject 19, avg accuracy 0.2762762764373699 over 5 splits
avg accuracy over all subjects 0.2832461348659847
_________________________________________________________________
Layer (type)                 Output Shape              Param #   
=================================================================
conv1d_49 (Conv1D)           (None, 768, 38)           34200     
_________________________________________________________________
max_pooling1d_49 (MaxPooling (None, 768, 38)           0         
_________________________________________________________________
dropout_49 (Dropout)         (None, 768, 38)           0         
_________________________________________________________________
conv1d_50 (Conv1D)           (None, 768, 23)           3519      
_________________________________________________________________
max_pooling1d_50 (MaxPooling (None, 768, 23)           0         
_________________________________________________________________
dropout_50 (Dropout)         (None, 768, 23)           0         
_________________________________________________________________
conv1d_51 (Conv1D)           (None, 768, 14)           1946      
_________________________________________________________________
max_pooling1d_51 (MaxPooling (None, 768, 14)           0         
_________________________________________________________________
dropout_51 (Dropout)         (None, 768, 14)           0         
_________________________________________________________________
flatten_17 (Flatten)         (None, 10752)             0         
_________________________________________________________________
dense_33 (Dense)             (None, 31)                333343    
_________________________________________________________________
dense_34 (Dense)             (None, 3)                 96        
=================================================================
Total params: 373,104
Trainable params: 373,104
Non-trainable params: 0
_________________________________________________________________
{'l1_nodes': 38, 'l1_filter': 29, 'l1_dropout': 0.4174749588304374, 'l1_maxpool': 1, 'l2_nodes': 23, 'l2_filter': 4, 'l2_dropout': 0.5439075312639169, 'l2_maxpool': 1, 'l3_nodes': 14, 'l3_filter': 6, 'l3_dropout': 0.20146986973860942, 'l3_maxpool': 1, 'dense_nodes': 31}
…
subject 14, avg accuracy 0.2931174101576953 over 5 splits
subject 15, avg accuracy 0.3037537538343006 over 5 splits
subject 16, avg accuracy 0.3072874503941671 over 5 splits
subject 17, avg accuracy 0.3842105274137698 over 5 splits
subject 18, avg accuracy 0.3081081093968572 over 5 splits
subject 19, avg accuracy 0.3148648650259585 over 5 splits
avg accuracy over all subjects 0.2863197549921062
_________________________________________________________________
Layer (type)                 Output Shape              Param #   
=================================================================
conv1d_52 (Conv1D)           (None, 768, 26)           4862      
_________________________________________________________________
max_pooling1d_52 (MaxPooling (None, 256, 26)           0         
_________________________________________________________________
dropout_52 (Dropout)         (None, 256, 26)           0         
_________________________________________________________________
conv1d_53 (Conv1D)           (None, 256, 13)           2717      
_________________________________________________________________
max_pooling1d_53 (MaxPooling (None, 128, 13)           0         
_________________________________________________________________
dropout_53 (Dropout)         (None, 128, 13)           0         
_________________________________________________________________
conv1d_54 (Conv1D)           (None, 128, 12)           1104      
_________________________________________________________________
max_pooling1d_54 (MaxPooling (None, 128, 12)           0         
_________________________________________________________________
dropout_54 (Dropout)         (None, 128, 12)           0         
_________________________________________________________________
flatten_18 (Flatten)         (None, 1536)              0         
_________________________________________________________________
dense_35 (Dense)             (None, 45)                69165     
_________________________________________________________________
dense_36 (Dense)             (None, 3)                 138       
=================================================================
Total params: 77,986
Trainable params: 77,986
Non-trainable params: 0
_________________________________________________________________
{'l1_nodes': 26, 'l1_filter': 6, 'l1_dropout': 0.35760594660581435, 'l1_maxpool': 3, 'l2_nodes': 13, 'l2_filter': 8, 'l2_dropout': 0.40560629755070976, 'l2_maxpool': 2, 'l3_nodes': 12, 'l3_filter': 7, 'l3_dropout': 0.6940628921951291, 'l3_maxpool': 1, 'dense_nodes': 45}
…
subject 14, avg accuracy 0.5404858319865548 over 5 splits
subject 15, avg accuracy 0.5249249250860186 over 5 splits
subject 16, avg accuracy 0.4838056707993532 over 5 splits
subject 17, avg accuracy 0.6210526320495104 over 5 splits
subject 18, avg accuracy 0.6054054076607163 over 5 splits
subject 19, avg accuracy 0.3971471477915217 over 5 splits
avg accuracy over all subjects 0.48410684769011414
_________________________________________________________________
Layer (type)                 Output Shape              Param #   
=================================================================
conv1d_55 (Conv1D)           (None, 768, 28)           7840      
_________________________________________________________________
max_pooling1d_55 (MaxPooling (None, 384, 28)           0         
_________________________________________________________________
dropout_55 (Dropout)         (None, 384, 28)           0         
_________________________________________________________________
conv1d_56 (Conv1D)           (None, 384, 8)            4264      
_________________________________________________________________
max_pooling1d_56 (MaxPooling (None, 384, 8)            0         
_________________________________________________________________
dropout_56 (Dropout)         (None, 384, 8)            0         
_________________________________________________________________
conv1d_57 (Conv1D)           (None, 384, 2)            146       
_________________________________________________________________
max_pooling1d_57 (MaxPooling (None, 192, 2)            0         
_________________________________________________________________
dropout_57 (Dropout)         (None, 192, 2)            0         
_________________________________________________________________
flatten_19 (Flatten)         (None, 384)               0         
_________________________________________________________________
dense_37 (Dense)             (None, 22)                8470      
_________________________________________________________________
dense_38 (Dense)             (None, 3)                 69        
=================================================================
Total params: 20,789
Trainable params: 20,789
Non-trainable params: 0
_________________________________________________________________
{'l1_nodes': 28, 'l1_filter': 9, 'l1_dropout': 0.6928921807404514, 'l1_maxpool': 2, 'l2_nodes': 8, 'l2_filter': 19, 'l2_dropout': 0.31682577176472004, 'l2_maxpool': 1, 'l3_nodes': 2, 'l3_filter': 9, 'l3_dropout': 0.6094445656745626, 'l3_maxpool': 2, 'dense_nodes': 22}
…
subject 14, avg accuracy 0.42375168830920484 over 5 splits
subject 15, avg accuracy 0.49189189205298556 over 5 splits
subject 16, avg accuracy 0.3747638333543592 over 5 splits
subject 17, avg accuracy 0.47894736951903294 over 5 splits
subject 18, avg accuracy 0.3891891908806724 over 5 splits
subject 19, avg accuracy 0.33738738754848097 over 5 splits
avg accuracy over all subjects 0.4042152487011391
_________________________________________________________________
Layer (type)                 Output Shape              Param #   
=================================================================
conv1d_58 (Conv1D)           (None, 768, 20)           7460      
_________________________________________________________________
max_pooling1d_58 (MaxPooling (None, 256, 20)           0         
_________________________________________________________________
dropout_58 (Dropout)         (None, 256, 20)           0         
_________________________________________________________________
conv1d_59 (Conv1D)           (None, 256, 29)           10469     
_________________________________________________________________
max_pooling1d_59 (MaxPooling (None, 128, 29)           0         
_________________________________________________________________
dropout_59 (Dropout)         (None, 128, 29)           0         
_________________________________________________________________
conv1d_60 (Conv1D)           (None, 128, 14)           3668      
_________________________________________________________________
max_pooling1d_60 (MaxPooling (None, 128, 14)           0         
_________________________________________________________________
dropout_60 (Dropout)         (None, 128, 14)           0         
_________________________________________________________________
flatten_20 (Flatten)         (None, 1792)              0         
_________________________________________________________________
dense_39 (Dense)             (None, 6)                 10758     
_________________________________________________________________
dense_40 (Dense)             (None, 3)                 21        
=================================================================
Total params: 32,376
Trainable params: 32,376
Non-trainable params: 0
_________________________________________________________________
{'l1_nodes': 20, 'l1_filter': 12, 'l1_dropout': 0.42673190593342103, 'l1_maxpool': 3, 'l2_nodes': 29, 'l2_filter': 18, 'l2_dropout': 0.45103937580064923, 'l2_maxpool': 2, 'l3_nodes': 14, 'l3_filter': 9, 'l3_dropout': 0.5525297825158403, 'l3_maxpool': 1, 'dense_nodes': 6}
…
subject 14, avg accuracy 0.31390013620357926 over 5 splits
subject 15, avg accuracy 0.3088588589394057 over 5 splits
subject 16, avg accuracy 0.30242915111273405 over 5 splits
subject 17, avg accuracy 0.37894736936217865 over 5 splits
subject 18, avg accuracy 0.378378380311502 over 5 splits
subject 19, avg accuracy 0.3262762764373699 over 5 splits
avg accuracy over all subjects 0.2979616938939143
_________________________________________________________________
Layer (type)                 Output Shape              Param #   
=================================================================
conv1d_61 (Conv1D)           (None, 768, 17)           14246     
_________________________________________________________________
max_pooling1d_61 (MaxPooling (None, 256, 17)           0         
_________________________________________________________________
dropout_61 (Dropout)         (None, 256, 17)           0         
_________________________________________________________________
conv1d_62 (Conv1D)           (None, 256, 16)           1104      
_________________________________________________________________
max_pooling1d_62 (MaxPooling (None, 256, 16)           0         
_________________________________________________________________
dropout_62 (Dropout)         (None, 256, 16)           0         
_________________________________________________________________
conv1d_63 (Conv1D)           (None, 256, 7)            1575      
_________________________________________________________________
max_pooling1d_63 (MaxPooling (None, 256, 7)            0         
_________________________________________________________________
dropout_63 (Dropout)         (None, 256, 7)            0         
_________________________________________________________________
flatten_21 (Flatten)         (None, 1792)              0         
_________________________________________________________________
dense_41 (Dense)             (None, 31)                55583     
_________________________________________________________________
dense_42 (Dense)             (None, 3)                 96        
=================================================================
Total params: 72,604
Trainable params: 72,604
Non-trainable params: 0
_________________________________________________________________
{'l1_nodes': 17, 'l1_filter': 27, 'l1_dropout': 0.6926911834756533, 'l1_maxpool': 3, 'l2_nodes': 16, 'l2_filter': 4, 'l2_dropout': 0.49633842458928434, 'l2_maxpool': 1, 'l3_nodes': 7, 'l3_filter': 14, 'l3_dropout': 0.025360737899916524, 'l3_maxpool': 1, 'dense_nodes': 31}
…
subject 14, avg accuracy 0.2983805678955779 over 5 splits
subject 15, avg accuracy 0.298198198278745 over 5 splits
subject 16, avg accuracy 0.3178137664973495 over 5 splits
subject 17, avg accuracy 0.2736842109968788 over 5 splits
subject 18, avg accuracy 0.3297297313406661 over 5 splits
subject 19, avg accuracy 0.303453454097828 over 5 splits
avg accuracy over all subjects 0.2992072038779107
_________________________________________________________________
Layer (type)                 Output Shape              Param #   
=================================================================
conv1d_64 (Conv1D)           (None, 768, 16)           4976      
_________________________________________________________________
max_pooling1d_64 (MaxPooling (None, 384, 16)           0         
_________________________________________________________________
dropout_64 (Dropout)         (None, 384, 16)           0         
_________________________________________________________________
conv1d_65 (Conv1D)           (None, 384, 13)           2925      
_________________________________________________________________
max_pooling1d_65 (MaxPooling (None, 192, 13)           0         
_________________________________________________________________
dropout_65 (Dropout)         (None, 192, 13)           0         
_________________________________________________________________
conv1d_66 (Conv1D)           (None, 192, 11)           869       
_________________________________________________________________
max_pooling1d_66 (MaxPooling (None, 192, 11)           0         
_________________________________________________________________
dropout_66 (Dropout)         (None, 192, 11)           0         
_________________________________________________________________
flatten_22 (Flatten)         (None, 2112)              0         
_________________________________________________________________
dense_43 (Dense)             (None, 5)                 10565     
_________________________________________________________________
dense_44 (Dense)             (None, 3)                 18        
=================================================================
Total params: 19,353
Trainable params: 19,353
Non-trainable params: 0
_________________________________________________________________
{'l1_nodes': 16, 'l1_filter': 10, 'l1_dropout': 0.23568028961943632, 'l1_maxpool': 2, 'l2_nodes': 13, 'l2_filter': 14, 'l2_dropout': 0.6966641014258054, 'l2_maxpool': 2, 'l3_nodes': 11, 'l3_filter': 6, 'l3_dropout': 0.26140317632906784, 'l3_maxpool': 1, 'dense_nodes': 5}
…
subject 14, avg accuracy 0.2877192997296973 over 5 splits
subject 15, avg accuracy 0.2816816823260562 over 5 splits
subject 16, avg accuracy 0.2813765195337867 over 5 splits
subject 17, avg accuracy 0.46315789567796806 over 5 splits
subject 18, avg accuracy 0.3081081093163104 over 5 splits
subject 19, avg accuracy 0.29264264280373625 over 5 splits
avg accuracy over all subjects 0.30598115056673486
_________________________________________________________________
Layer (type)                 Output Shape              Param #   
=================================================================
conv1d_67 (Conv1D)           (None, 768, 14)           11298     
_________________________________________________________________
max_pooling1d_67 (MaxPooling (None, 384, 14)           0         
_________________________________________________________________
dropout_67 (Dropout)         (None, 384, 14)           0         
_________________________________________________________________
conv1d_68 (Conv1D)           (None, 384, 24)           3720      
_________________________________________________________________
max_pooling1d_68 (MaxPooling (None, 384, 24)           0         
_________________________________________________________________
dropout_68 (Dropout)         (None, 384, 24)           0         
_________________________________________________________________
conv1d_69 (Conv1D)           (None, 384, 7)            511       
_________________________________________________________________
max_pooling1d_69 (MaxPooling (None, 192, 7)            0         
_________________________________________________________________
dropout_69 (Dropout)         (None, 192, 7)            0         
_________________________________________________________________
flatten_23 (Flatten)         (None, 1344)              0         
_________________________________________________________________
dense_45 (Dense)             (None, 46)                61870     
_________________________________________________________________
dense_46 (Dense)             (None, 3)                 141       
=================================================================
Total params: 77,540
Trainable params: 77,540
Non-trainable params: 0
_________________________________________________________________
{'l1_nodes': 14, 'l1_filter': 26, 'l1_dropout': 0.743695400983412, 'l1_maxpool': 2, 'l2_nodes': 24, 'l2_filter': 11, 'l2_dropout': 0.18767092153079504, 'l2_maxpool': 1, 'l3_nodes': 7, 'l3_filter': 3, 'l3_dropout': 0.26461572829809377, 'l3_maxpool': 2, 'dense_nodes': 46}
…
subject 14, avg accuracy 0.5132253728414837 over 5 splits
subject 15, avg accuracy 0.4860360363582233 over 5 splits
subject 16, avg accuracy 0.43724696480150005 over 5 splits
subject 17, avg accuracy 0.6684210513767443 over 5 splits
subject 18, avg accuracy 0.648648650259585 over 5 splits
subject 19, avg accuracy 0.3708708715152454 over 5 splits
avg accuracy over all subjects 0.47016743559879143
_________________________________________________________________
Layer (type)                 Output Shape              Param #   
=================================================================
conv1d_70 (Conv1D)           (None, 768, 18)           13410     
_________________________________________________________________
max_pooling1d_70 (MaxPooling (None, 384, 18)           0         
_________________________________________________________________
dropout_70 (Dropout)         (None, 384, 18)           0         
_________________________________________________________________
conv1d_71 (Conv1D)           (None, 384, 18)           3582      
_________________________________________________________________
max_pooling1d_71 (MaxPooling (None, 192, 18)           0         
_________________________________________________________________
dropout_71 (Dropout)         (None, 192, 18)           0         
_________________________________________________________________
conv1d_72 (Conv1D)           (None, 192, 4)            364       
_________________________________________________________________
max_pooling1d_72 (MaxPooling (None, 192, 4)            0         
_________________________________________________________________
dropout_72 (Dropout)         (None, 192, 4)            0         
_________________________________________________________________
flatten_24 (Flatten)         (None, 768)               0         
_________________________________________________________________
dense_47 (Dense)             (None, 29)                22301     
_________________________________________________________________
dense_48 (Dense)             (None, 3)                 90        
=================================================================
Total params: 39,747
Trainable params: 39,747
Non-trainable params: 0
_________________________________________________________________
{'l1_nodes': 18, 'l1_filter': 24, 'l1_dropout': 0.13356915878023615, 'l1_maxpool': 2, 'l2_nodes': 18, 'l2_filter': 11, 'l2_dropout': 0.30431886294777555, 'l2_maxpool': 2, 'l3_nodes': 4, 'l3_filter': 5, 'l3_dropout': 0.06727584209358028, 'l3_maxpool': 1, 'dense_nodes': 29}
…
subject 14, avg accuracy 0.3878542533528949 over 5 splits
subject 15, avg accuracy 0.4249249250860186 over 5 splits
subject 16, avg accuracy 0.45870445529941606 over 5 splits
subject 17, avg accuracy 0.6631578958348224 over 5 splits
subject 18, avg accuracy 0.6702702725255812 over 5 splits
subject 19, avg accuracy 0.35990990990990995 over 5 splits
avg accuracy over all subjects 0.49439375360449556
_________________________________________________________________
Layer (type)                 Output Shape              Param #   
=================================================================
conv1d_73 (Conv1D)           (None, 768, 25)           7775      
_________________________________________________________________
max_pooling1d_73 (MaxPooling (None, 768, 25)           0         
_________________________________________________________________
dropout_73 (Dropout)         (None, 768, 25)           0         
_________________________________________________________________
conv1d_74 (Conv1D)           (None, 768, 20)           5020      
_________________________________________________________________
max_pooling1d_74 (MaxPooling (None, 384, 20)           0         
_________________________________________________________________
dropout_74 (Dropout)         (None, 384, 20)           0         
_________________________________________________________________
conv1d_75 (Conv1D)           (None, 384, 1)            181       
_________________________________________________________________
max_pooling1d_75 (MaxPooling (None, 192, 1)            0         
_________________________________________________________________
dropout_75 (Dropout)         (None, 192, 1)            0         
_________________________________________________________________
flatten_25 (Flatten)         (None, 192)               0         
_________________________________________________________________
dense_49 (Dense)             (None, 27)                5211      
_________________________________________________________________
dense_50 (Dense)             (None, 3)                 84        
=================================================================
Total params: 18,271
Trainable params: 18,271
Non-trainable params: 0
_________________________________________________________________
{'l1_nodes': 25, 'l1_filter': 10, 'l1_dropout': 0.5896745927084097, 'l1_maxpool': 1, 'l2_nodes': 20, 'l2_filter': 10, 'l2_dropout': 0.5608226943825019, 'l2_maxpool': 2, 'l3_nodes': 1, 'l3_filter': 9, 'l3_dropout': 0.19896865955159126, 'l3_maxpool': 2, 'dense_nodes': 27}
…
subject 14, avg accuracy 0.4244264516793443 over 5 splits
subject 15, avg accuracy 0.5364864866475801 over 5 splits
subject 16, avg accuracy 0.328475034277127 over 5 splits
subject 17, avg accuracy 0.5000000007842715 over 5 splits
subject 18, avg accuracy 0.42702702791304203 over 5 splits
subject 19, avg accuracy 0.39849849865959214 over 5 splits
avg accuracy over all subjects 0.41233916192026254
_________________________________________________________________
Layer (type)                 Output Shape              Param #   
=================================================================
conv1d_76 (Conv1D)           (None, 768, 17)           6868      
_________________________________________________________________
max_pooling1d_76 (MaxPooling (None, 384, 17)           0         
_________________________________________________________________
dropout_76 (Dropout)         (None, 384, 17)           0         
_________________________________________________________________
conv1d_77 (Conv1D)           (None, 384, 20)           6140      
_________________________________________________________________
max_pooling1d_77 (MaxPooling (None, 384, 20)           0         
_________________________________________________________________
dropout_77 (Dropout)         (None, 384, 20)           0         
_________________________________________________________________
conv1d_78 (Conv1D)           (None, 384, 11)           1331      
_________________________________________________________________
max_pooling1d_78 (MaxPooling (None, 384, 11)           0         
_________________________________________________________________
dropout_78 (Dropout)         (None, 384, 11)           0         
_________________________________________________________________
flatten_26 (Flatten)         (None, 4224)              0         
_________________________________________________________________
dense_51 (Dense)             (None, 38)                160550    
_________________________________________________________________
dense_52 (Dense)             (None, 3)                 117       
=================================================================
Total params: 175,006
Trainable params: 175,006
Non-trainable params: 0
_________________________________________________________________
{'l1_nodes': 17, 'l1_filter': 13, 'l1_dropout': 0.19719334510201642, 'l1_maxpool': 2, 'l2_nodes': 20, 'l2_filter': 18, 'l2_dropout': 0.4055339346343857, 'l2_maxpool': 1, 'l3_nodes': 11, 'l3_filter': 6, 'l3_dropout': 0.292369382942106, 'l3_maxpool': 1, 'dense_nodes': 38}
…
subject 14, avg accuracy 0.36666666752333266 over 5 splits
subject 15, avg accuracy 0.5141141142752078 over 5 splits
subject 16, avg accuracy 0.4488529021802701 over 5 splits
subject 17, avg accuracy 0.6526315808296204 over 5 splits
subject 18, avg accuracy 0.6108108118579194 over 5 splits
subject 19, avg accuracy 0.4975975982419721 over 5 splits
avg accuracy over all subjects 0.4557820314678403
_________________________________________________________________
Layer (type)                 Output Shape              Param #   
=================================================================
conv1d_79 (Conv1D)           (None, 768, 35)           16310     
_________________________________________________________________
max_pooling1d_79 (MaxPooling (None, 768, 35)           0         
_________________________________________________________________
dropout_79 (Dropout)         (None, 768, 35)           0         
_________________________________________________________________
conv1d_80 (Conv1D)           (None, 768, 7)            2212      
_________________________________________________________________
max_pooling1d_80 (MaxPooling (None, 768, 7)            0         
_________________________________________________________________
dropout_80 (Dropout)         (None, 768, 7)            0         
_________________________________________________________________
conv1d_81 (Conv1D)           (None, 768, 10)           570       
_________________________________________________________________
max_pooling1d_81 (MaxPooling (None, 384, 10)           0         
_________________________________________________________________
dropout_81 (Dropout)         (None, 384, 10)           0         
_________________________________________________________________
flatten_27 (Flatten)         (None, 3840)              0         
_________________________________________________________________
dense_53 (Dense)             (None, 30)                115230    
_________________________________________________________________
dense_54 (Dense)             (None, 3)                 93        
=================================================================
Total params: 134,415
Trainable params: 134,415
Non-trainable params: 0
_________________________________________________________________
{'l1_nodes': 35, 'l1_filter': 15, 'l1_dropout': 0.13003981735670694, 'l1_maxpool': 1, 'l2_nodes': 7, 'l2_filter': 9, 'l2_dropout': 0.7201220997878603, 'l2_maxpool': 1, 'l3_nodes': 10, 'l3_filter': 8, 'l3_dropout': 0.026238931335114207, 'l3_maxpool': 2, 'dense_nodes': 30}
…
subject 14, avg accuracy 0.2877192997296973 over 5 splits
subject 15, avg accuracy 0.2870870871676339 over 5 splits
subject 16, avg accuracy 0.29676113523211073 over 5 splits
subject 17, avg accuracy 0.32631579072851885 over 5 splits
subject 18, avg accuracy 0.31891892012712114 over 5 splits
subject 19, avg accuracy 0.27072072088181437 over 5 splits
avg accuracy over all subjects 0.28423035130282165
_________________________________________________________________
Layer (type)                 Output Shape              Param #   
=================================================================
conv1d_82 (Conv1D)           (None, 768, 38)           31844     
_________________________________________________________________
max_pooling1d_82 (MaxPooling (None, 768, 38)           0         
_________________________________________________________________
dropout_82 (Dropout)         (None, 768, 38)           0         
_________________________________________________________________
conv1d_83 (Conv1D)           (None, 768, 16)           3664      
_________________________________________________________________
max_pooling1d_83 (MaxPooling (None, 768, 16)           0         
_________________________________________________________________
dropout_83 (Dropout)         (None, 768, 16)           0         
_________________________________________________________________
conv1d_84 (Conv1D)           (None, 768, 6)            1254      
_________________________________________________________________
max_pooling1d_84 (MaxPooling (None, 768, 6)            0         
_________________________________________________________________
dropout_84 (Dropout)         (None, 768, 6)            0         
_________________________________________________________________
flatten_28 (Flatten)         (None, 4608)              0         
_________________________________________________________________
dense_55 (Dense)             (None, 30)                138270    
_________________________________________________________________
dense_56 (Dense)             (None, 3)                 93        
=================================================================
Total params: 175,125
Trainable params: 175,125
Non-trainable params: 0
_________________________________________________________________
{'l1_nodes': 38, 'l1_filter': 27, 'l1_dropout': 0.532508041145605, 'l1_maxpool': 1, 'l2_nodes': 16, 'l2_filter': 6, 'l2_dropout': 0.5559862570113296, 'l2_maxpool': 1, 'l3_nodes': 6, 'l3_filter': 13, 'l3_dropout': 0.06014652170713938, 'l3_maxpool': 1, 'dense_nodes': 30}
…
subject 14, avg accuracy 0.2877192997296973 over 5 splits
subject 15, avg accuracy 0.3037537538343006 over 5 splits
subject 16, avg accuracy 0.291632929874657 over 5 splits
subject 17, avg accuracy 0.3000000014116889 over 5 splits
subject 18, avg accuracy 0.3405405415876491 over 5 splits
subject 19, avg accuracy 0.2762762764373699 over 5 splits
avg accuracy over all subjects 0.2816154894423233
_________________________________________________________________
Layer (type)                 Output Shape              Param #   
=================================================================
conv1d_85 (Conv1D)           (None, 768, 36)           22356     
_________________________________________________________________
max_pooling1d_85 (MaxPooling (None, 768, 36)           0         
_________________________________________________________________
dropout_85 (Dropout)         (None, 768, 36)           0         
_________________________________________________________________
conv1d_86 (Conv1D)           (None, 768, 14)           2030      
_________________________________________________________________
max_pooling1d_86 (MaxPooling (None, 384, 14)           0         
_________________________________________________________________
dropout_86 (Dropout)         (None, 384, 14)           0         
_________________________________________________________________
conv1d_87 (Conv1D)           (None, 384, 4)            732       
_________________________________________________________________
max_pooling1d_87 (MaxPooling (None, 192, 4)            0         
_________________________________________________________________
dropout_87 (Dropout)         (None, 192, 4)            0         
_________________________________________________________________
flatten_29 (Flatten)         (None, 768)               0         
_________________________________________________________________
dense_57 (Dense)             (None, 29)                22301     
_________________________________________________________________
dense_58 (Dense)             (None, 3)                 90        
=================================================================
Total params: 47,509
Trainable params: 47,509
Non-trainable params: 0
_________________________________________________________________
{'l1_nodes': 36, 'l1_filter': 20, 'l1_dropout': 0.04439533596149545, 'l1_maxpool': 1, 'l2_nodes': 14, 'l2_filter': 4, 'l2_dropout': 0.19496835127252785, 'l2_maxpool': 2, 'l3_nodes': 4, 'l3_filter': 13, 'l3_dropout': 0.08038082608866273, 'l3_maxpool': 2, 'dense_nodes': 29}
…
subject 14, avg accuracy 0.5391363027567162 over 5 splits
subject 15, avg accuracy 0.547447448091822 over 5 splits
subject 16, avg accuracy 0.5418353594909956 over 5 splits
subject 17, avg accuracy 0.7105263167305996 over 5 splits
subject 18, avg accuracy 0.6864864871308611 over 5 splits
subject 19, avg accuracy 0.44744744809182196 over 5 splits
avg accuracy over all subjects 0.5728088423397222
_________________________________________________________________
Layer (type)                 Output Shape              Param #   
=================================================================
conv1d_88 (Conv1D)           (None, 768, 27)           5049      
_________________________________________________________________
max_pooling1d_88 (MaxPooling (None, 768, 27)           0         
_________________________________________________________________
dropout_88 (Dropout)         (None, 768, 27)           0         
_________________________________________________________________
conv1d_89 (Conv1D)           (None, 768, 28)           3808      
_________________________________________________________________
max_pooling1d_89 (MaxPooling (None, 768, 28)           0         
_________________________________________________________________
dropout_89 (Dropout)         (None, 768, 28)           0         
_________________________________________________________________
conv1d_90 (Conv1D)           (None, 768, 8)            904       
_________________________________________________________________
max_pooling1d_90 (MaxPooling (None, 768, 8)            0         
_________________________________________________________________
dropout_90 (Dropout)         (None, 768, 8)            0         
_________________________________________________________________
flatten_30 (Flatten)         (None, 6144)              0         
_________________________________________________________________
dense_59 (Dense)             (None, 12)                73740     
_________________________________________________________________
dense_60 (Dense)             (None, 3)                 39        
=================================================================
Total params: 83,540
Trainable params: 83,540
Non-trainable params: 0
_________________________________________________________________
{'l1_nodes': 27, 'l1_filter': 6, 'l1_dropout': 0.19906967322733152, 'l1_maxpool': 1, 'l2_nodes': 28, 'l2_filter': 5, 'l2_dropout': 0.1376585181841219, 'l2_maxpool': 1, 'l3_nodes': 8, 'l3_filter': 4, 'l3_dropout': 0.4973377926388917, 'l3_maxpool': 1, 'dense_nodes': 12}
…
subject 14, avg accuracy 0.49703103958273387 over 5 splits
subject 15, avg accuracy 0.591291291371838 over 5 splits
subject 16, avg accuracy 0.3751686926594308 over 5 splits
subject 17, avg accuracy 0.557894737626377 over 5 splits
subject 18, avg accuracy 0.5567567588509739 over 5 splits
subject 19, avg accuracy 0.44759759791978493 over 5 splits
avg accuracy over all subjects 0.4483198795502143
_________________________________________________________________
Layer (type)                 Output Shape              Param #   
=================================================================
conv1d_91 (Conv1D)           (None, 768, 26)           19370     
_________________________________________________________________
max_pooling1d_91 (MaxPooling (None, 384, 26)           0         
_________________________________________________________________
dropout_91 (Dropout)         (None, 384, 26)           0         
_________________________________________________________________
conv1d_92 (Conv1D)           (None, 384, 11)           4301      
_________________________________________________________________
max_pooling1d_92 (MaxPooling (None, 384, 11)           0         
_________________________________________________________________
dropout_92 (Dropout)         (None, 384, 11)           0         
_________________________________________________________________
conv1d_93 (Conv1D)           (None, 384, 10)           670       
_________________________________________________________________
max_pooling1d_93 (MaxPooling (None, 384, 10)           0         
_________________________________________________________________
dropout_93 (Dropout)         (None, 384, 10)           0         
_________________________________________________________________
flatten_31 (Flatten)         (None, 3840)              0         
_________________________________________________________________
dense_61 (Dense)             (None, 16)                61456     
_________________________________________________________________
dense_62 (Dense)             (None, 3)                 51        
=================================================================
Total params: 85,848
Trainable params: 85,848
Non-trainable params: 0
_________________________________________________________________
{'l1_nodes': 26, 'l1_filter': 24, 'l1_dropout': 0.740299125343894, 'l1_maxpool': 2, 'l2_nodes': 11, 'l2_filter': 15, 'l2_dropout': 0.07308947248296457, 'l2_maxpool': 1, 'l3_nodes': 10, 'l3_filter': 6, 'l3_dropout': 0.6019939673767485, 'l3_maxpool': 1, 'dense_nodes': 16}
…
subject 14, avg accuracy 0.30877193177920764 over 5 splits
subject 15, avg accuracy 0.5072072078515817 over 5 splits
subject 16, avg accuracy 0.3125506093748186 over 5 splits
subject 17, avg accuracy 0.5368421065179925 over 5 splits
subject 18, avg accuracy 0.3945945954000628 over 5 splits
subject 19, avg accuracy 0.3540540542151477 over 5 splits
avg accuracy over all subjects 0.3368285636639476
_________________________________________________________________
Layer (type)                 Output Shape              Param #   
=================================================================
conv1d_94 (Conv1D)           (None, 768, 36)           24588     
_________________________________________________________________
max_pooling1d_94 (MaxPooling (None, 256, 36)           0         
_________________________________________________________________
dropout_94 (Dropout)         (None, 256, 36)           0         
_________________________________________________________________
conv1d_95 (Conv1D)           (None, 256, 6)            1734      
_________________________________________________________________
max_pooling1d_95 (MaxPooling (None, 128, 6)            0         
_________________________________________________________________
dropout_95 (Dropout)         (None, 128, 6)            0         
_________________________________________________________________
conv1d_96 (Conv1D)           (None, 128, 1)            25        
_________________________________________________________________
max_pooling1d_96 (MaxPooling (None, 128, 1)            0         
_________________________________________________________________
dropout_96 (Dropout)         (None, 128, 1)            0         
_________________________________________________________________
flatten_32 (Flatten)         (None, 128)               0         
_________________________________________________________________
dense_63 (Dense)             (None, 35)                4515      
_________________________________________________________________
dense_64 (Dense)             (None, 3)                 108       
=================================================================
Total params: 30,970
Trainable params: 30,970
Non-trainable params: 0
_________________________________________________________________
{'l1_nodes': 36, 'l1_filter': 22, 'l1_dropout': 0.5401595251872379, 'l1_maxpool': 3, 'l2_nodes': 6, 'l2_filter': 8, 'l2_dropout': 0.6076500930882787, 'l2_maxpool': 2, 'l3_nodes': 1, 'l3_filter': 4, 'l3_dropout': 0.3195091192907025, 'l3_maxpool': 1, 'dense_nodes': 35}
…
subject 14, avg accuracy 0.3612685570993565 over 5 splits
subject 15, avg accuracy 0.4472972973778441 over 5 splits
subject 16, avg accuracy 0.34453441372767146 over 5 splits
subject 17, avg accuracy 0.563157896619094 over 5 splits
subject 18, avg accuracy 0.4918918939055623 over 5 splits
subject 19, avg accuracy 0.3259759760565228 over 5 splits
avg accuracy over all subjects 0.392507555724485
_________________________________________________________________
Layer (type)                 Output Shape              Param #   
=================================================================
conv1d_97 (Conv1D)           (None, 768, 26)           16952     
_________________________________________________________________
max_pooling1d_97 (MaxPooling (None, 384, 26)           0         
_________________________________________________________________
dropout_97 (Dropout)         (None, 384, 26)           0         
_________________________________________________________________
conv1d_98 (Conv1D)           (None, 384, 17)           3111      
_________________________________________________________________
max_pooling1d_98 (MaxPooling (None, 384, 17)           0         
_________________________________________________________________
dropout_98 (Dropout)         (None, 384, 17)           0         
_________________________________________________________________
conv1d_99 (Conv1D)           (None, 384, 14)           1204      
_________________________________________________________________
max_pooling1d_99 (MaxPooling (None, 384, 14)           0         
_________________________________________________________________
dropout_99 (Dropout)         (None, 384, 14)           0         
_________________________________________________________________
flatten_33 (Flatten)         (None, 5376)              0         
_________________________________________________________________
dense_65 (Dense)             (None, 16)                86032     
_________________________________________________________________
dense_66 (Dense)             (None, 3)                 51        
=================================================================
Total params: 107,350
Trainable params: 107,350
Non-trainable params: 0
_________________________________________________________________
{'l1_nodes': 26, 'l1_filter': 21, 'l1_dropout': 0.7049355934567793, 'l1_maxpool': 2, 'l2_nodes': 17, 'l2_filter': 7, 'l2_dropout': 0.7172436283104858, 'l2_maxpool': 1, 'l3_nodes': 14, 'l3_filter': 5, 'l3_dropout': 0.26411966642401874, 'l3_maxpool': 1, 'dense_nodes': 16}
…
subject 14, avg accuracy 0.2877192997296973 over 5 splits
subject 15, avg accuracy 0.2816816823260562 over 5 splits
subject 16, avg accuracy 0.2813765198474953 over 5 splits
subject 17, avg accuracy 0.25789473731266827 over 5 splits
subject 18, avg accuracy 0.3027027033470772 over 5 splits
subject 19, avg accuracy 0.29294294310403657 over 5 splits
avg accuracy over all subjects 0.27746579314334036
_________________________________________________________________
Layer (type)                 Output Shape              Param #   
=================================================================
conv1d_100 (Conv1D)          (None, 768, 23)           20700     
_________________________________________________________________
max_pooling1d_100 (MaxPoolin (None, 256, 23)           0         
_________________________________________________________________
dropout_100 (Dropout)        (None, 256, 23)           0         
_________________________________________________________________
conv1d_101 (Conv1D)          (None, 256, 18)           2088      
_________________________________________________________________
max_pooling1d_101 (MaxPoolin (None, 256, 18)           0         
_________________________________________________________________
dropout_101 (Dropout)        (None, 256, 18)           0         
_________________________________________________________________
conv1d_102 (Conv1D)          (None, 256, 10)           2530      
_________________________________________________________________
max_pooling1d_102 (MaxPoolin (None, 256, 10)           0         
_________________________________________________________________
dropout_102 (Dropout)        (None, 256, 10)           0         
_________________________________________________________________
flatten_34 (Flatten)         (None, 2560)              0         
_________________________________________________________________
dense_67 (Dense)             (None, 33)                84513     
_________________________________________________________________
dense_68 (Dense)             (None, 3)                 102       
=================================================================
Total params: 109,933
Trainable params: 109,933
Non-trainable params: 0
_________________________________________________________________
{'l1_nodes': 23, 'l1_filter': 29, 'l1_dropout': 0.24614532249114238, 'l1_maxpool': 3, 'l2_nodes': 18, 'l2_filter': 5, 'l2_dropout': 0.4845973177587217, 'l2_maxpool': 1, 'l3_nodes': 10, 'l3_filter': 14, 'l3_dropout': 0.2671669546049489, 'l3_maxpool': 1, 'dense_nodes': 33}
…
subject 14, avg accuracy 0.3499325259454176 over 5 splits
subject 15, avg accuracy 0.3759759760565228 over 5 splits
subject 16, avg accuracy 0.4167341447511987 over 5 splits
subject 17, avg accuracy 0.5526315805159118 over 5 splits
subject 18, avg accuracy 0.37297297442281563 over 5 splits
subject 19, avg accuracy 0.2984984986595921 over 5 splits
avg accuracy over all subjects 0.3549483705399623
_________________________________________________________________
Layer (type)                 Output Shape              Param #   
=================================================================
conv1d_103 (Conv1D)          (None, 768, 27)           5886      
_________________________________________________________________
max_pooling1d_103 (MaxPoolin (None, 384, 27)           0         
_________________________________________________________________
dropout_103 (Dropout)        (None, 384, 27)           0         
_________________________________________________________________
conv1d_104 (Conv1D)          (None, 384, 8)            3896      
_________________________________________________________________
max_pooling1d_104 (MaxPoolin (None, 384, 8)            0         
_________________________________________________________________
dropout_104 (Dropout)        (None, 384, 8)            0         
_________________________________________________________________
conv1d_105 (Conv1D)          (None, 384, 7)            735       
_________________________________________________________________
max_pooling1d_105 (MaxPoolin (None, 384, 7)            0         
_________________________________________________________________
dropout_105 (Dropout)        (None, 384, 7)            0         
_________________________________________________________________
flatten_35 (Flatten)         (None, 2688)              0         
_________________________________________________________________
dense_69 (Dense)             (None, 30)                80670     
_________________________________________________________________
dense_70 (Dense)             (None, 3)                 93        
=================================================================
Total params: 91,280
Trainable params: 91,280
Non-trainable params: 0
_________________________________________________________________
{'l1_nodes': 27, 'l1_filter': 7, 'l1_dropout': 0.581205566082604, 'l1_maxpool': 2, 'l2_nodes': 8, 'l2_filter': 18, 'l2_dropout': 0.2687761778326493, 'l2_maxpool': 1, 'l3_nodes': 7, 'l3_filter': 13, 'l3_dropout': 0.12862004216187753, 'l3_maxpool': 1, 'dense_nodes': 30}
…
subject 14, avg accuracy 0.2825910945250759 over 5 splits
subject 15, avg accuracy 0.34819819827874504 over 5 splits
subject 16, avg accuracy 0.2865047252049491 over 5 splits
subject 17, avg accuracy 0.29473684288953483 over 5 splits
subject 18, avg accuracy 0.3243243255325266 over 5 splits
subject 19, avg accuracy 0.2984984986595921 over 5 splits
avg accuracy over all subjects 0.29347654082065966
_________________________________________________________________
Layer (type)                 Output Shape              Param #   
=================================================================
conv1d_106 (Conv1D)          (None, 768, 26)           21788     
_________________________________________________________________
max_pooling1d_106 (MaxPoolin (None, 768, 26)           0         
_________________________________________________________________
dropout_106 (Dropout)        (None, 768, 26)           0         
_________________________________________________________________
conv1d_107 (Conv1D)          (None, 768, 18)           5634      
_________________________________________________________________
max_pooling1d_107 (MaxPoolin (None, 384, 18)           0         
_________________________________________________________________
dropout_107 (Dropout)        (None, 384, 18)           0         
_________________________________________________________________
conv1d_108 (Conv1D)          (None, 384, 5)            815       
_________________________________________________________________
max_pooling1d_108 (MaxPoolin (None, 192, 5)            0         
_________________________________________________________________
dropout_108 (Dropout)        (None, 192, 5)            0         
_________________________________________________________________
flatten_36 (Flatten)         (None, 960)               0         
_________________________________________________________________
dense_71 (Dense)             (None, 48)                46128     
_________________________________________________________________
dense_72 (Dense)             (None, 3)                 147       
=================================================================
Total params: 74,512
Trainable params: 74,512
Non-trainable params: 0
_________________________________________________________________
{'l1_nodes': 26, 'l1_filter': 27, 'l1_dropout': 0.5951984343172215, 'l1_maxpool': 1, 'l2_nodes': 18, 'l2_filter': 12, 'l2_dropout': 0.580948963612561, 'l2_maxpool': 2, 'l3_nodes': 5, 'l3_filter': 9, 'l3_dropout': 0.032151355003278786, 'l3_maxpool': 2, 'dense_nodes': 48}
…
subject 14, avg accuracy 0.30364372594716904 over 5 splits
subject 15, avg accuracy 0.3701201202006669 over 5 splits
subject 16, avg accuracy 0.28151147252956704 over 5 splits
subject 17, avg accuracy 0.5000000015685433 over 5 splits
subject 18, avg accuracy 0.405405406452514 over 5 splits
subject 19, avg accuracy 0.3039039039844508 over 5 splits
avg accuracy over all subjects 0.34828448630102704
_________________________________________________________________
Layer (type)                 Output Shape              Param #   
=================================================================
conv1d_109 (Conv1D)          (None, 768, 15)           13500     
_________________________________________________________________
max_pooling1d_109 (MaxPoolin (None, 768, 15)           0         
_________________________________________________________________
dropout_109 (Dropout)        (None, 768, 15)           0         
_________________________________________________________________
conv1d_110 (Conv1D)          (None, 768, 25)           2275      
_________________________________________________________________
max_pooling1d_110 (MaxPoolin (None, 768, 25)           0         
_________________________________________________________________
dropout_110 (Dropout)        (None, 768, 25)           0         
_________________________________________________________________
conv1d_111 (Conv1D)          (None, 768, 3)            153       
_________________________________________________________________
max_pooling1d_111 (MaxPoolin (None, 768, 3)            0         
_________________________________________________________________
dropout_111 (Dropout)        (None, 768, 3)            0         
_________________________________________________________________
flatten_37 (Flatten)         (None, 2304)              0         
_________________________________________________________________
dense_73 (Dense)             (None, 11)                25355     
_________________________________________________________________
dense_74 (Dense)             (None, 3)                 36        
=================================================================
Total params: 41,319
Trainable params: 41,319
Non-trainable params: 0
_________________________________________________________________
{'l1_nodes': 15, 'l1_filter': 29, 'l1_dropout': 0.5932877257155093, 'l1_maxpool': 1, 'l2_nodes': 25, 'l2_filter': 6, 'l2_dropout': 0.4915098776357387, 'l2_maxpool': 1, 'l3_nodes': 3, 'l3_filter': 2, 'l3_dropout': 0.3339441762922447, 'l3_maxpool': 1, 'dense_nodes': 11}
…
subject 14, avg accuracy 0.3194331994745252 over 5 splits
subject 15, avg accuracy 0.3093093093898561 over 5 splits
subject 16, avg accuracy 0.3438596503535102 over 5 splits
subject 17, avg accuracy 0.47368421193800475 over 5 splits
subject 18, avg accuracy 0.5027027051191072 over 5 splits
subject 19, avg accuracy 0.3151651653262588 over 5 splits
avg accuracy over all subjects 0.3322349011562117
_________________________________________________________________
Layer (type)                 Output Shape              Param #   
=================================================================
conv1d_112 (Conv1D)          (None, 768, 32)           4992      
_________________________________________________________________
max_pooling1d_112 (MaxPoolin (None, 384, 32)           0         
_________________________________________________________________
dropout_112 (Dropout)        (None, 384, 32)           0         
_________________________________________________________________
conv1d_113 (Conv1D)          (None, 384, 28)           7196      
_________________________________________________________________
max_pooling1d_113 (MaxPoolin (None, 384, 28)           0         
_________________________________________________________________
dropout_113 (Dropout)        (None, 384, 28)           0         
_________________________________________________________________
conv1d_114 (Conv1D)          (None, 384, 11)           1859      
_________________________________________________________________
max_pooling1d_114 (MaxPoolin (None, 192, 11)           0         
_________________________________________________________________
dropout_114 (Dropout)        (None, 192, 11)           0         
_________________________________________________________________
flatten_38 (Flatten)         (None, 2112)              0         
_________________________________________________________________
dense_75 (Dense)             (None, 39)                82407     
_________________________________________________________________
dense_76 (Dense)             (None, 3)                 120       
=================================================================
Total params: 96,574
Trainable params: 96,574
Non-trainable params: 0
_________________________________________________________________
{'l1_nodes': 32, 'l1_filter': 5, 'l1_dropout': 0.5935577243207593, 'l1_maxpool': 2, 'l2_nodes': 28, 'l2_filter': 8, 'l2_dropout': 0.12985063031160593, 'l2_maxpool': 1, 'l3_nodes': 11, 'l3_filter': 6, 'l3_dropout': 0.6250433088026196, 'l3_maxpool': 2, 'dense_nodes': 39}
…
subject 14, avg accuracy 0.4035087731001991 over 5 splits
subject 15, avg accuracy 0.38153153161207837 over 5 splits
subject 16, avg accuracy 0.31295546690220777 over 5 splits
subject 17, avg accuracy 0.6368421043220319 over 5 splits
subject 18, avg accuracy 0.35135135199572587 over 5 splits
subject 19, avg accuracy 0.28738738754848103 over 5 splits
avg accuracy over all subjects 0.34943556997748093
_________________________________________________________________
Layer (type)                 Output Shape              Param #   
=================================================================
conv1d_115 (Conv1D)          (None, 768, 22)           13662     
_________________________________________________________________
max_pooling1d_115 (MaxPoolin (None, 768, 22)           0         
_________________________________________________________________
dropout_115 (Dropout)        (None, 768, 22)           0         
_________________________________________________________________
conv1d_116 (Conv1D)          (None, 768, 25)           4975      
_________________________________________________________________
max_pooling1d_116 (MaxPoolin (None, 768, 25)           0         
_________________________________________________________________
dropout_116 (Dropout)        (None, 768, 25)           0         
_________________________________________________________________
conv1d_117 (Conv1D)          (None, 768, 1)            201       
_________________________________________________________________
max_pooling1d_117 (MaxPoolin (None, 384, 1)            0         
_________________________________________________________________
dropout_117 (Dropout)        (None, 384, 1)            0         
_________________________________________________________________
flatten_39 (Flatten)         (None, 384)               0         
_________________________________________________________________
dense_77 (Dense)             (None, 22)                8470      
_________________________________________________________________
dense_78 (Dense)             (None, 3)                 69        
=================================================================
Total params: 27,377
Trainable params: 27,377
Non-trainable params: 0
_________________________________________________________________
{'l1_nodes': 22, 'l1_filter': 20, 'l1_dropout': 0.558366081204523, 'l1_maxpool': 1, 'l2_nodes': 25, 'l2_filter': 9, 'l2_dropout': 0.6767774519430778, 'l2_maxpool': 1, 'l3_nodes': 1, 'l3_filter': 8, 'l3_dropout': 0.12390445743453299, 'l3_maxpool': 2, 'dense_nodes': 22}
…
subject 14, avg accuracy 0.43495276738837985 over 5 splits
subject 15, avg accuracy 0.491741742063929 over 5 splits
subject 16, avg accuracy 0.34426450858071106 over 5 splits
subject 17, avg accuracy 0.5157894758801712 over 5 splits
subject 18, avg accuracy 0.4918918928584537 over 5 splits
subject 19, avg accuracy 0.3540540541346009 over 5 splits
avg accuracy over all subjects 0.3862670372840712
_________________________________________________________________
Layer (type)                 Output Shape              Param #   
=================================================================
conv1d_118 (Conv1D)          (None, 768, 26)           10504     
_________________________________________________________________
max_pooling1d_118 (MaxPoolin (None, 768, 26)           0         
_________________________________________________________________
dropout_118 (Dropout)        (None, 768, 26)           0         
_________________________________________________________________
conv1d_119 (Conv1D)          (None, 768, 13)           4745      
_________________________________________________________________
max_pooling1d_119 (MaxPoolin (None, 384, 13)           0         
_________________________________________________________________
dropout_119 (Dropout)        (None, 384, 13)           0         
_________________________________________________________________
conv1d_120 (Conv1D)          (None, 384, 5)            720       
_________________________________________________________________
max_pooling1d_120 (MaxPoolin (None, 192, 5)            0         
_________________________________________________________________
dropout_120 (Dropout)        (None, 192, 5)            0         
_________________________________________________________________
flatten_40 (Flatten)         (None, 960)               0         
_________________________________________________________________
dense_79 (Dense)             (None, 13)                12493     
_________________________________________________________________
dense_80 (Dense)             (None, 3)                 42        
=================================================================
Total params: 28,504
Trainable params: 28,504
Non-trainable params: 0
_________________________________________________________________
{'l1_nodes': 26, 'l1_filter': 13, 'l1_dropout': 0.18257939974537898, 'l1_maxpool': 1, 'l2_nodes': 13, 'l2_filter': 14, 'l2_dropout': 0.24058585675670646, 'l2_maxpool': 2, 'l3_nodes': 5, 'l3_filter': 11, 'l3_dropout': 0.012077738612798039, 'l3_maxpool': 2, 'dense_nodes': 13}
…
subject 14, avg accuracy 0.3812415673102123 over 5 splits
subject 15, avg accuracy 0.4525525531969271 over 5 splits
subject 16, avg accuracy 0.4699055337592175 over 5 splits
subject 17, avg accuracy 0.7000000018822521 over 5 splits
subject 18, avg accuracy 0.5621621635314581 over 5 splits
subject 19, avg accuracy 0.4596096097707032 over 5 splits
avg accuracy over all subjects 0.40835579273633626
_________________________________________________________________
Layer (type)                 Output Shape              Param #   
=================================================================
conv1d_121 (Conv1D)          (None, 768, 21)           14994     
_________________________________________________________________
max_pooling1d_121 (MaxPoolin (None, 256, 21)           0         
_________________________________________________________________
dropout_121 (Dropout)        (None, 256, 21)           0         
_________________________________________________________________
conv1d_122 (Conv1D)          (None, 256, 28)           2968      
_________________________________________________________________
max_pooling1d_122 (MaxPoolin (None, 256, 28)           0         
_________________________________________________________________
dropout_122 (Dropout)        (None, 256, 28)           0         
_________________________________________________________________
conv1d_123 (Conv1D)          (None, 256, 11)           2167      
_________________________________________________________________
max_pooling1d_123 (MaxPoolin (None, 128, 11)           0         
_________________________________________________________________
dropout_123 (Dropout)        (None, 128, 11)           0         
_________________________________________________________________
flatten_41 (Flatten)         (None, 1408)              0         
_________________________________________________________________
dense_81 (Dense)             (None, 31)                43679     
_________________________________________________________________
dense_82 (Dense)             (None, 3)                 96        
=================================================================
Total params: 63,904
Trainable params: 63,904
Non-trainable params: 0
_________________________________________________________________
{'l1_nodes': 21, 'l1_filter': 23, 'l1_dropout': 0.08777824806308265, 'l1_maxpool': 3, 'l2_nodes': 28, 'l2_filter': 5, 'l2_dropout': 0.011485394553602257, 'l2_maxpool': 1, 'l3_nodes': 11, 'l3_filter': 7, 'l3_dropout': 0.16561519563868976, 'l3_maxpool': 2, 'dense_nodes': 31}
…
subject 14, avg accuracy 0.5078272624738143 over 5 splits
subject 15, avg accuracy 0.5307807814251554 over 5 splits
subject 16, avg accuracy 0.5676113371022156 over 5 splits
subject 17, avg accuracy 0.731578947838984 over 5 splits
subject 18, avg accuracy 0.6864864887417974 over 5 splits
subject 19, avg accuracy 0.42057057073166415 over 5 splits
avg accuracy over all subjects 0.5346074154432074
_________________________________________________________________
Layer (type)                 Output Shape              Param #   
=================================================================
conv1d_124 (Conv1D)          (None, 768, 23)           17135     
_________________________________________________________________
max_pooling1d_124 (MaxPoolin (None, 384, 23)           0         
_________________________________________________________________
dropout_124 (Dropout)        (None, 384, 23)           0         
_________________________________________________________________
conv1d_125 (Conv1D)          (None, 384, 13)           1807      
_________________________________________________________________
max_pooling1d_125 (MaxPoolin (None, 192, 13)           0         
_________________________________________________________________
dropout_125 (Dropout)        (None, 192, 13)           0         
_________________________________________________________________
conv1d_126 (Conv1D)          (None, 192, 3)            276       
_________________________________________________________________
max_pooling1d_126 (MaxPoolin (None, 192, 3)            0         
_________________________________________________________________
dropout_126 (Dropout)        (None, 192, 3)            0         
_________________________________________________________________
flatten_42 (Flatten)         (None, 576)               0         
_________________________________________________________________
dense_83 (Dense)             (None, 15)                8655      
_________________________________________________________________
dense_84 (Dense)             (None, 3)                 48        
=================================================================
Total params: 27,921
Trainable params: 27,921
Non-trainable params: 0
_________________________________________________________________
{'l1_nodes': 23, 'l1_filter': 24, 'l1_dropout': 0.25442535057064347, 'l1_maxpool': 2, 'l2_nodes': 13, 'l2_filter': 6, 'l2_dropout': 0.41102343951897, 'l2_maxpool': 2, 'l3_nodes': 3, 'l3_filter': 7, 'l3_dropout': 0.6038493344306023, 'l3_maxpool': 1, 'dense_nodes': 15}
…
subject 14, avg accuracy 0.42968960878176565 over 5 splits
subject 15, avg accuracy 0.3977477478282946 over 5 splits
subject 16, avg accuracy 0.35937921858911737 over 5 splits
subject 17, avg accuracy 0.4947368425758262 over 5 splits
subject 18, avg accuracy 0.4486486501790382 over 5 splits
subject 19, avg accuracy 0.34849849865959215 over 5 splits
avg accuracy over all subjects 0.38850638839542206
_________________________________________________________________
Layer (type)                 Output Shape              Param #   
=================================================================
conv1d_127 (Conv1D)          (None, 768, 28)           5236      
_________________________________________________________________
max_pooling1d_127 (MaxPoolin (None, 768, 28)           0         
_________________________________________________________________
dropout_127 (Dropout)        (None, 768, 28)           0         
_________________________________________________________________
conv1d_128 (Conv1D)          (None, 768, 15)           5475      
_________________________________________________________________
max_pooling1d_128 (MaxPoolin (None, 768, 15)           0         
_________________________________________________________________
dropout_128 (Dropout)        (None, 768, 15)           0         
_________________________________________________________________
conv1d_129 (Conv1D)          (None, 768, 11)           1166      
_________________________________________________________________
max_pooling1d_129 (MaxPoolin (None, 384, 11)           0         
_________________________________________________________________
dropout_129 (Dropout)        (None, 384, 11)           0         
_________________________________________________________________
flatten_43 (Flatten)         (None, 4224)              0         
_________________________________________________________________
dense_85 (Dense)             (None, 46)                194350    
_________________________________________________________________
dense_86 (Dense)             (None, 3)                 141       
=================================================================
Total params: 206,368
Trainable params: 206,368
Non-trainable params: 0
_________________________________________________________________
{'l1_nodes': 28, 'l1_filter': 6, 'l1_dropout': 0.03860618402410121, 'l1_maxpool': 1, 'l2_nodes': 15, 'l2_filter': 13, 'l2_dropout': 0.026074720735510176, 'l2_maxpool': 1, 'l3_nodes': 11, 'l3_filter': 7, 'l3_dropout': 0.7356665504538175, 'l3_maxpool': 2, 'dense_nodes': 46}
…
subject 14, avg accuracy 0.5232118783370364 over 5 splits
subject 15, avg accuracy 0.5527027028637963 over 5 splits
subject 16, avg accuracy 0.45883940713688764 over 5 splits
subject 17, avg accuracy 0.657894736214688 over 5 splits
subject 18, avg accuracy 0.6108108122606535 over 5 splits
subject 19, avg accuracy 0.46471471487580834 over 5 splits
avg accuracy over all subjects 0.5164887568398258
_________________________________________________________________
Layer (type)                 Output Shape              Param #   
=================================================================
conv1d_130 (Conv1D)          (None, 768, 25)           11650     
_________________________________________________________________
max_pooling1d_130 (MaxPoolin (None, 768, 25)           0         
_________________________________________________________________
dropout_130 (Dropout)        (None, 768, 25)           0         
_________________________________________________________________
conv1d_131 (Conv1D)          (None, 768, 15)           7140      
_________________________________________________________________
max_pooling1d_131 (MaxPoolin (None, 384, 15)           0         
_________________________________________________________________
dropout_131 (Dropout)        (None, 384, 15)           0         
_________________________________________________________________
conv1d_132 (Conv1D)          (None, 384, 1)            106       
_________________________________________________________________
max_pooling1d_132 (MaxPoolin (None, 192, 1)            0         
_________________________________________________________________
dropout_132 (Dropout)        (None, 192, 1)            0         
_________________________________________________________________
flatten_44 (Flatten)         (None, 192)               0         
_________________________________________________________________
dense_87 (Dense)             (None, 19)                3667      
_________________________________________________________________
dense_88 (Dense)             (None, 3)                 60        
=================================================================
Total params: 22,623
Trainable params: 22,623
Non-trainable params: 0
_________________________________________________________________
{'l1_nodes': 25, 'l1_filter': 15, 'l1_dropout': 0.5697948820740033, 'l1_maxpool': 1, 'l2_nodes': 15, 'l2_filter': 19, 'l2_dropout': 0.5795624607392723, 'l2_maxpool': 2, 'l3_nodes': 1, 'l3_filter': 7, 'l3_dropout': 0.536877885350871, 'l3_maxpool': 2, 'dense_nodes': 19}
…
subject 14, avg accuracy 0.35627530472963925 over 5 splits
subject 15, avg accuracy 0.3860360361971297 over 5 splits
subject 16, avg accuracy 0.40175438782303285 over 5 splits
subject 17, avg accuracy 0.48947368530850655 over 5 splits
subject 18, avg accuracy 0.43243243444610285 over 5 splits
subject 19, avg accuracy 0.2983483489927229 over 5 splits
avg accuracy over all subjects 0.3759584493017829
_________________________________________________________________
Layer (type)                 Output Shape              Param #   
=================================================================
conv1d_133 (Conv1D)          (None, 768, 36)           23472     
_________________________________________________________________
max_pooling1d_133 (MaxPoolin (None, 256, 36)           0         
_________________________________________________________________
dropout_133 (Dropout)        (None, 256, 36)           0         
_________________________________________________________________
conv1d_134 (Conv1D)          (None, 256, 19)           11647     
_________________________________________________________________
max_pooling1d_134 (MaxPoolin (None, 256, 19)           0         
_________________________________________________________________
dropout_134 (Dropout)        (None, 256, 19)           0         
_________________________________________________________________
conv1d_135 (Conv1D)          (None, 256, 9)            2061      
_________________________________________________________________
max_pooling1d_135 (MaxPoolin (None, 256, 9)            0         
_________________________________________________________________
dropout_135 (Dropout)        (None, 256, 9)            0         
_________________________________________________________________
flatten_45 (Flatten)         (None, 2304)              0         
_________________________________________________________________
dense_89 (Dense)             (None, 22)                50710     
_________________________________________________________________
dense_90 (Dense)             (None, 3)                 69        
=================================================================
Total params: 87,959
Trainable params: 87,959
Non-trainable params: 0
_________________________________________________________________
{'l1_nodes': 36, 'l1_filter': 21, 'l1_dropout': 0.2913293353451333, 'l1_maxpool': 3, 'l2_nodes': 19, 'l2_filter': 17, 'l2_dropout': 0.31990298893072117, 'l2_maxpool': 1, 'l3_nodes': 9, 'l3_filter': 12, 'l3_dropout': 0.03330783874330945, 'l3_maxpool': 1, 'dense_nodes': 22}
…
subject 14, avg accuracy 0.2825910945250759 over 5 splits
subject 15, avg accuracy 0.3261261267705007 over 5 splits
subject 16, avg accuracy 0.3021592450367133 over 5 splits
subject 17, avg accuracy 0.33684210620428384 over 5 splits
subject 18, avg accuracy 0.33513513569896286 over 5 splits
subject 19, avg accuracy 0.28738738754848103 over 5 splits
avg accuracy over all subjects 0.2921967183876037
_________________________________________________________________
Layer (type)                 Output Shape              Param #   
=================================================================
conv1d_136 (Conv1D)          (None, 768, 34)           6358      
_________________________________________________________________
max_pooling1d_136 (MaxPoolin (None, 256, 34)           0         
_________________________________________________________________
dropout_136 (Dropout)        (None, 256, 34)           0         
_________________________________________________________________
conv1d_137 (Conv1D)          (None, 256, 8)            4360      
_________________________________________________________________
max_pooling1d_137 (MaxPoolin (None, 256, 8)            0         
_________________________________________________________________
dropout_137 (Dropout)        (None, 256, 8)            0         
_________________________________________________________________
conv1d_138 (Conv1D)          (None, 256, 3)            147       
_________________________________________________________________
max_pooling1d_138 (MaxPoolin (None, 128, 3)            0         
_________________________________________________________________
dropout_138 (Dropout)        (None, 128, 3)            0         
_________________________________________________________________
flatten_46 (Flatten)         (None, 384)               0         
_________________________________________________________________
dense_91 (Dense)             (None, 45)                17325     
_________________________________________________________________
dense_92 (Dense)             (None, 3)                 138       
=================================================================
Total params: 28,328
Trainable params: 28,328
Non-trainable params: 0
_________________________________________________________________
{'l1_nodes': 34, 'l1_filter': 6, 'l1_dropout': 0.20980108888310023, 'l1_maxpool': 3, 'l2_nodes': 8, 'l2_filter': 16, 'l2_dropout': 0.5319215964957505, 'l2_maxpool': 1, 'l3_nodes': 3, 'l3_filter': 6, 'l3_dropout': 0.37302790634168087, 'l3_maxpool': 2, 'dense_nodes': 45}
…
subject 14, avg accuracy 0.46099865156629305 over 5 splits
subject 15, avg accuracy 0.4857357358968294 over 5 splits
subject 16, avg accuracy 0.3172739554312226 over 5 splits
subject 17, avg accuracy 0.5947368424189718 over 5 splits
subject 18, avg accuracy 0.486486488016876 over 5 splits
subject 19, avg accuracy 0.4475975977586913 over 5 splits
avg accuracy over all subjects 0.4477914834882513
_________________________________________________________________
Layer (type)                 Output Shape              Param #   
=================================================================
conv1d_139 (Conv1D)          (None, 768, 16)           12416     
_________________________________________________________________
max_pooling1d_139 (MaxPoolin (None, 384, 16)           0         
_________________________________________________________________
dropout_139 (Dropout)        (None, 384, 16)           0         
_________________________________________________________________
conv1d_140 (Conv1D)          (None, 384, 10)           2090      
_________________________________________________________________
max_pooling1d_140 (MaxPoolin (None, 192, 10)           0         
_________________________________________________________________
dropout_140 (Dropout)        (None, 192, 10)           0         
_________________________________________________________________
conv1d_141 (Conv1D)          (None, 192, 9)            999       
_________________________________________________________________
max_pooling1d_141 (MaxPoolin (None, 96, 9)             0         
_________________________________________________________________
dropout_141 (Dropout)        (None, 96, 9)             0         
_________________________________________________________________
flatten_47 (Flatten)         (None, 864)               0         
_________________________________________________________________
dense_93 (Dense)             (None, 15)                12975     
_________________________________________________________________
dense_94 (Dense)             (None, 3)                 48        
=================================================================
Total params: 28,528
Trainable params: 28,528
Non-trainable params: 0
_________________________________________________________________
{'l1_nodes': 16, 'l1_filter': 25, 'l1_dropout': 0.6205863921536854, 'l1_maxpool': 2, 'l2_nodes': 10, 'l2_filter': 13, 'l2_dropout': 0.5699582963032601, 'l2_maxpool': 2, 'l3_nodes': 9, 'l3_filter': 11, 'l3_dropout': 0.3648481183319073, 'l3_maxpool': 2, 'dense_nodes': 15}
…
subject 14, avg accuracy 0.3612685570993565 over 5 splits
subject 15, avg accuracy 0.48603603611658286 over 5 splits
subject 16, avg accuracy 0.3596491237320559 over 5 splits
subject 17, avg accuracy 0.57368421068317 over 5 splits
subject 18, avg accuracy 0.41081081242174716 over 5 splits
subject 19, avg accuracy 0.3262762764373699 over 5 splits
avg accuracy over all subjects 0.3696665635772517
_________________________________________________________________
Layer (type)                 Output Shape              Param #   
=================================================================
conv1d_142 (Conv1D)          (None, 768, 23)           4301      
_________________________________________________________________
max_pooling1d_142 (MaxPoolin (None, 768, 23)           0         
_________________________________________________________________
dropout_142 (Dropout)        (None, 768, 23)           0         
_________________________________________________________________
conv1d_143 (Conv1D)          (None, 768, 24)           7752      
_________________________________________________________________
max_pooling1d_143 (MaxPoolin (None, 384, 24)           0         
_________________________________________________________________
dropout_143 (Dropout)        (None, 384, 24)           0         
_________________________________________________________________
conv1d_144 (Conv1D)          (None, 384, 2)            674       
_________________________________________________________________
max_pooling1d_144 (MaxPoolin (None, 384, 2)            0         
_________________________________________________________________
dropout_144 (Dropout)        (None, 384, 2)            0         
_________________________________________________________________
flatten_48 (Flatten)         (None, 768)               0         
_________________________________________________________________
dense_95 (Dense)             (None, 9)                 6921      
_________________________________________________________________
dense_96 (Dense)             (None, 3)                 30        
=================================================================
Total params: 19,678
Trainable params: 19,678
Non-trainable params: 0
_________________________________________________________________
{'l1_nodes': 23, 'l1_filter': 6, 'l1_dropout': 0.07894401189346592, 'l1_maxpool': 1, 'l2_nodes': 24, 'l2_filter': 14, 'l2_dropout': 0.7323816666123159, 'l2_maxpool': 2, 'l3_nodes': 2, 'l3_filter': 14, 'l3_dropout': 0.2588372091124953, 'l3_maxpool': 1, 'dense_nodes': 9}
…
subject 14, avg accuracy 0.3506072883784529 over 5 splits
subject 15, avg accuracy 0.3585585592029331 over 5 splits
subject 16, avg accuracy 0.32874493933962745 over 5 splits
subject 17, avg accuracy 0.4631578952074051 over 5 splits
subject 18, avg accuracy 0.35675675804550583 over 5 splits
subject 19, avg accuracy 0.29264264280373625 over 5 splits
avg accuracy over all subjects 0.33868615668433033
_________________________________________________________________
Layer (type)                 Output Shape              Param #   
=================================================================
conv1d_145 (Conv1D)          (None, 768, 24)           12672     
_________________________________________________________________
max_pooling1d_145 (MaxPoolin (None, 384, 24)           0         
_________________________________________________________________
dropout_145 (Dropout)        (None, 384, 24)           0         
_________________________________________________________________
conv1d_146 (Conv1D)          (None, 384, 7)            1687      
_________________________________________________________________
max_pooling1d_146 (MaxPoolin (None, 192, 7)            0         
_________________________________________________________________
dropout_146 (Dropout)        (None, 192, 7)            0         
_________________________________________________________________
conv1d_147 (Conv1D)          (None, 192, 7)            203       
_________________________________________________________________
max_pooling1d_147 (MaxPoolin (None, 96, 7)             0         
_________________________________________________________________
dropout_147 (Dropout)        (None, 96, 7)             0         
_________________________________________________________________
flatten_49 (Flatten)         (None, 672)               0         
_________________________________________________________________
dense_97 (Dense)             (None, 20)                13460     
_________________________________________________________________
dense_98 (Dense)             (None, 3)                 63        
=================================================================
Total params: 28,085
Trainable params: 28,085
Non-trainable params: 0
_________________________________________________________________
{'l1_nodes': 24, 'l1_filter': 17, 'l1_dropout': 0.5348312595647118, 'l1_maxpool': 2, 'l2_nodes': 7, 'l2_filter': 10, 'l2_dropout': 0.5262816250715309, 'l2_maxpool': 2, 'l3_nodes': 7, 'l3_filter': 4, 'l3_dropout': 0.513825222937601, 'l3_maxpool': 2, 'dense_nodes': 20}
…
subject 14, avg accuracy 0.3819163301414163 over 5 splits
subject 15, avg accuracy 0.3699699700505168 over 5 splits
subject 16, avg accuracy 0.3757085030337899 over 5 splits
subject 17, avg accuracy 0.552631579261077 over 5 splits
subject 18, avg accuracy 0.4162162173438716 over 5 splits
subject 19, avg accuracy 0.3310810812421747 over 5 splits
avg accuracy over all subjects 0.3847013012510714
_________________________________________________________________
Layer (type)                 Output Shape              Param #   
=================================================================
conv1d_148 (Conv1D)          (None, 768, 12)           1872      
_________________________________________________________________
max_pooling1d_148 (MaxPoolin (None, 384, 12)           0         
_________________________________________________________________
dropout_148 (Dropout)        (None, 384, 12)           0         
_________________________________________________________________
conv1d_149 (Conv1D)          (None, 384, 29)           6293      
_________________________________________________________________
max_pooling1d_149 (MaxPoolin (None, 192, 29)           0         
_________________________________________________________________
dropout_149 (Dropout)        (None, 192, 29)           0         
_________________________________________________________________
conv1d_150 (Conv1D)          (None, 192, 3)            177       
_________________________________________________________________
max_pooling1d_150 (MaxPoolin (None, 192, 3)            0         
_________________________________________________________________
dropout_150 (Dropout)        (None, 192, 3)            0         
_________________________________________________________________
flatten_50 (Flatten)         (None, 576)               0         
_________________________________________________________________
dense_99 (Dense)             (None, 36)                20772     
_________________________________________________________________
dense_100 (Dense)            (None, 3)                 111       
=================================================================
Total params: 29,225
Trainable params: 29,225
Non-trainable params: 0
_________________________________________________________________
{'l1_nodes': 12, 'l1_filter': 5, 'l1_dropout': 0.14280857958342155, 'l1_maxpool': 2, 'l2_nodes': 29, 'l2_filter': 18, 'l2_dropout': 0.6486348333413512, 'l2_maxpool': 2, 'l3_nodes': 3, 'l3_filter': 2, 'l3_dropout': 0.013715863874076029, 'l3_maxpool': 1, 'dense_nodes': 36}
…
subject 14, avg accuracy 0.46572199792434005 over 5 splits
subject 15, avg accuracy 0.4148648649454117 over 5 splits
subject 16, avg accuracy 0.40661268623573416 over 5 splits
subject 17, avg accuracy 0.573684212565422 over 5 splits
subject 18, avg accuracy 0.5621621642563794 over 5 splits
subject 19, avg accuracy 0.32072072088181436 over 5 splits
avg accuracy over all subjects 0.44464606398526363
_________________________________________________________________
Layer (type)                 Output Shape              Param #   
=================================================================
conv1d_151 (Conv1D)          (None, 768, 19)           4142      
_________________________________________________________________
max_pooling1d_151 (MaxPoolin (None, 256, 19)           0         
_________________________________________________________________
dropout_151 (Dropout)        (None, 256, 19)           0         
_________________________________________________________________
conv1d_152 (Conv1D)          (None, 256, 11)           1056      
_________________________________________________________________
max_pooling1d_152 (MaxPoolin (None, 256, 11)           0         
_________________________________________________________________
dropout_152 (Dropout)        (None, 256, 11)           0         
_________________________________________________________________
conv1d_153 (Conv1D)          (None, 256, 6)            402       
_________________________________________________________________
max_pooling1d_153 (MaxPoolin (None, 128, 6)            0         
_________________________________________________________________
dropout_153 (Dropout)        (None, 128, 6)            0         
_________________________________________________________________
flatten_51 (Flatten)         (None, 768)               0         
_________________________________________________________________
dense_101 (Dense)            (None, 34)                26146     
_________________________________________________________________
dense_102 (Dense)            (None, 3)                 105       
=================================================================
Total params: 31,851
Trainable params: 31,851
Non-trainable params: 0
_________________________________________________________________
{'l1_nodes': 19, 'l1_filter': 7, 'l1_dropout': 0.003908023627566176, 'l1_maxpool': 3, 'l2_nodes': 11, 'l2_filter': 5, 'l2_dropout': 0.2907195523145413, 'l2_maxpool': 1, 'l3_nodes': 6, 'l3_filter': 6, 'l3_dropout': 0.4356581784110911, 'l3_maxpool': 2, 'dense_nodes': 34}
…
subject 14, avg accuracy 0.6175438608878698 over 5 splits
subject 15, avg accuracy 0.5854354357576227 over 5 splits
subject 16, avg accuracy 0.5523616753649294 over 5 splits
subject 17, avg accuracy 0.6631578948936964 over 5 splits
subject 18, avg accuracy 0.6540540551817094 over 5 splits
subject 19, avg accuracy 0.5199699701310636 over 5 splits
avg accuracy over all subjects 0.5988061960536828
_________________________________________________________________
Layer (type)                 Output Shape              Param #   
=================================================================
conv1d_154 (Conv1D)          (None, 768, 39)           31473     
_________________________________________________________________
max_pooling1d_154 (MaxPoolin (None, 768, 39)           0         
_________________________________________________________________
dropout_154 (Dropout)        (None, 768, 39)           0         
_________________________________________________________________
conv1d_155 (Conv1D)          (None, 768, 5)            785       
_________________________________________________________________
max_pooling1d_155 (MaxPoolin (None, 768, 5)            0         
_________________________________________________________________
dropout_155 (Dropout)        (None, 768, 5)            0         
_________________________________________________________________
conv1d_156 (Conv1D)          (None, 768, 3)            63        
_________________________________________________________________
max_pooling1d_156 (MaxPoolin (None, 384, 3)            0         
_________________________________________________________________
dropout_156 (Dropout)        (None, 384, 3)            0         
_________________________________________________________________
flatten_52 (Flatten)         (None, 1152)              0         
_________________________________________________________________
dense_103 (Dense)            (None, 31)                35743     
_________________________________________________________________
dense_104 (Dense)            (None, 3)                 96        
=================================================================
Total params: 68,160
Trainable params: 68,160
Non-trainable params: 0
_________________________________________________________________
{'l1_nodes': 39, 'l1_filter': 26, 'l1_dropout': 0.3352445385971076, 'l1_maxpool': 1, 'l2_nodes': 5, 'l2_filter': 4, 'l2_dropout': 0.16498796001483637, 'l2_maxpool': 1, 'l3_nodes': 3, 'l3_filter': 4, 'l3_dropout': 0.2948206997629246, 'l3_maxpool': 2, 'dense_nodes': 31}
…
subject 14, avg accuracy 0.37246963679790496 over 5 splits
subject 15, avg accuracy 0.46936936953046293 over 5 splits
subject 16, avg accuracy 0.3597840770455668 over 5 splits
subject 17, avg accuracy 0.5105263164168911 over 5 splits
subject 18, avg accuracy 0.5567567578844121 over 5 splits
subject 19, avg accuracy 0.3204204205009672 over 5 splits
avg accuracy over all subjects 0.40655277490971087
_________________________________________________________________
Layer (type)                 Output Shape              Param #   
=================================================================
conv1d_157 (Conv1D)          (None, 768, 24)           8208      
_________________________________________________________________
max_pooling1d_157 (MaxPoolin (None, 384, 24)           0         
_________________________________________________________________
dropout_157 (Dropout)        (None, 384, 24)           0         
_________________________________________________________________
conv1d_158 (Conv1D)          (None, 384, 11)           3707      
_________________________________________________________________
max_pooling1d_158 (MaxPoolin (None, 384, 11)           0         
_________________________________________________________________
dropout_158 (Dropout)        (None, 384, 11)           0         
_________________________________________________________________
conv1d_159 (Conv1D)          (None, 384, 13)           1586      
_________________________________________________________________
max_pooling1d_159 (MaxPoolin (None, 192, 13)           0         
_________________________________________________________________
dropout_159 (Dropout)        (None, 192, 13)           0         
_________________________________________________________________
flatten_53 (Flatten)         (None, 2496)              0         
_________________________________________________________________
dense_105 (Dense)            (None, 47)                117359    
_________________________________________________________________
dense_106 (Dense)            (None, 3)                 144       
=================================================================
Total params: 131,004
Trainable params: 131,004
Non-trainable params: 0
_________________________________________________________________
{'l1_nodes': 24, 'l1_filter': 11, 'l1_dropout': 0.48353421186649115, 'l1_maxpool': 2, 'l2_nodes': 11, 'l2_filter': 14, 'l2_dropout': 0.0036139027995956696, 'l2_maxpool': 1, 'l3_nodes': 13, 'l3_filter': 11, 'l3_dropout': 0.6971054170487849, 'l3_maxpool': 2, 'dense_nodes': 47}
…
subject 14, avg accuracy 0.34561403663213114 over 5 splits
subject 15, avg accuracy 0.5301801808245546 over 5 splits
subject 16, avg accuracy 0.35978407741960405 over 5 splits
subject 17, avg accuracy 0.6631578944231334 over 5 splits
subject 18, avg accuracy 0.6162162181493398 over 5 splits
subject 19, avg accuracy 0.4151651653262588 over 5 splits
avg accuracy over all subjects 0.43792919208057074
_________________________________________________________________
Layer (type)                 Output Shape              Param #   
=================================================================
conv1d_160 (Conv1D)          (None, 768, 17)           3706      
_________________________________________________________________
max_pooling1d_160 (MaxPoolin (None, 384, 17)           0         
_________________________________________________________________
dropout_160 (Dropout)        (None, 384, 17)           0         
_________________________________________________________________
conv1d_161 (Conv1D)          (None, 384, 17)           1462      
_________________________________________________________________
max_pooling1d_161 (MaxPoolin (None, 192, 17)           0         
_________________________________________________________________
dropout_161 (Dropout)        (None, 192, 17)           0         
_________________________________________________________________
conv1d_162 (Conv1D)          (None, 192, 3)            360       
_________________________________________________________________
max_pooling1d_162 (MaxPoolin (None, 96, 3)             0         
_________________________________________________________________
dropout_162 (Dropout)        (None, 96, 3)             0         
_________________________________________________________________
flatten_54 (Flatten)         (None, 288)               0         
_________________________________________________________________
dense_107 (Dense)            (None, 18)                5202      
_________________________________________________________________
dense_108 (Dense)            (None, 3)                 57        
=================================================================
Total params: 10,787
Trainable params: 10,787
Non-trainable params: 0
_________________________________________________________________
{'l1_nodes': 17, 'l1_filter': 7, 'l1_dropout': 0.6559370127444916, 'l1_maxpool': 2, 'l2_nodes': 17, 'l2_filter': 5, 'l2_dropout': 0.40962258353990666, 'l2_maxpool': 2, 'l3_nodes': 3, 'l3_filter': 7, 'l3_dropout': 0.49494707803666504, 'l3_maxpool': 2, 'dense_nodes': 18}
…
subject 14, avg accuracy 0.4035087727864905 over 5 splits
subject 15, avg accuracy 0.4475975977586912 over 5 splits
subject 16, avg accuracy 0.38043185017610853 over 5 splits
subject 17, avg accuracy 0.5578947384106485 over 5 splits
subject 18, avg accuracy 0.41081081242174716 over 5 splits
subject 19, avg accuracy 0.2707207208012676 over 5 splits
avg accuracy over all subjects 0.36754028071976275
_________________________________________________________________
Layer (type)                 Output Shape              Param #   
=================================================================
conv1d_163 (Conv1D)          (None, 768, 30)           22350     
_________________________________________________________________
max_pooling1d_163 (MaxPoolin (None, 768, 30)           0         
_________________________________________________________________
dropout_163 (Dropout)        (None, 768, 30)           0         
_________________________________________________________________
conv1d_164 (Conv1D)          (None, 768, 5)            1805      
_________________________________________________________________
max_pooling1d_164 (MaxPoolin (None, 384, 5)            0         
_________________________________________________________________
dropout_164 (Dropout)        (None, 384, 5)            0         
_________________________________________________________________
conv1d_165 (Conv1D)          (None, 384, 14)           434       
_________________________________________________________________
max_pooling1d_165 (MaxPoolin (None, 384, 14)           0         
_________________________________________________________________
dropout_165 (Dropout)        (None, 384, 14)           0         
_________________________________________________________________
flatten_55 (Flatten)         (None, 5376)              0         
_________________________________________________________________
dense_109 (Dense)            (None, 47)                252719    
_________________________________________________________________
dense_110 (Dense)            (None, 3)                 144       
=================================================================
Total params: 277,452
Trainable params: 277,452
Non-trainable params: 0
_________________________________________________________________
{'l1_nodes': 30, 'l1_filter': 24, 'l1_dropout': 0.40429937553912076, 'l1_maxpool': 1, 'l2_nodes': 5, 'l2_filter': 12, 'l2_dropout': 0.29273134660656863, 'l2_maxpool': 2, 'l3_nodes': 14, 'l3_filter': 6, 'l3_dropout': 0.6677667330485434, 'l3_maxpool': 1, 'dense_nodes': 47}
…
subject 14, avg accuracy 0.47678812525050357 over 5 splits
subject 15, avg accuracy 0.5078078084521824 over 5 splits
subject 16, avg accuracy 0.45276653371680925 over 5 splits
subject 17, avg accuracy 0.6526315800453487 over 5 splits
subject 18, avg accuracy 0.6162162181493398 over 5 splits
subject 19, avg accuracy 0.33168168184277536 over 5 splits
avg accuracy over all subjects 0.4592249479059819
_________________________________________________________________
Layer (type)                 Output Shape              Param #   
=================================================================
conv1d_166 (Conv1D)          (None, 768, 27)           5886      
_________________________________________________________________
max_pooling1d_166 (MaxPoolin (None, 384, 27)           0         
_________________________________________________________________
dropout_166 (Dropout)        (None, 384, 27)           0         
_________________________________________________________________
conv1d_167 (Conv1D)          (None, 384, 15)           4470      
_________________________________________________________________
max_pooling1d_167 (MaxPoolin (None, 384, 15)           0         
_________________________________________________________________
dropout_167 (Dropout)        (None, 384, 15)           0         
_________________________________________________________________
conv1d_168 (Conv1D)          (None, 384, 8)            1448      
_________________________________________________________________
max_pooling1d_168 (MaxPoolin (None, 192, 8)            0         
_________________________________________________________________
dropout_168 (Dropout)        (None, 192, 8)            0         
_________________________________________________________________
flatten_56 (Flatten)         (None, 1536)              0         
_________________________________________________________________
dense_111 (Dense)            (None, 39)                59943     
_________________________________________________________________
dense_112 (Dense)            (None, 3)                 120       
=================================================================
Total params: 71,867
Trainable params: 71,867
Non-trainable params: 0
_________________________________________________________________
{'l1_nodes': 27, 'l1_filter': 7, 'l1_dropout': 0.643816197940899, 'l1_maxpool': 2, 'l2_nodes': 15, 'l2_filter': 11, 'l2_dropout': 0.5699916260477925, 'l2_maxpool': 1, 'l3_nodes': 8, 'l3_filter': 12, 'l3_dropout': 0.03909566692565061, 'l3_maxpool': 2, 'dense_nodes': 39}
…
subject 14, avg accuracy 0.2825910945250759 over 5 splits
subject 15, avg accuracy 0.2870870871676339 over 5 splits
subject 16, avg accuracy 0.291902835166406 over 5 splits
subject 17, avg accuracy 0.3894736856222153 over 5 splits
subject 18, avg accuracy 0.3081081088330294 over 5 splits
subject 19, avg accuracy 0.3096096097707032 over 5 splits
avg accuracy over all subjects 0.2982927942377326
_________________________________________________________________
Layer (type)                 Output Shape              Param #   
=================================================================
conv1d_169 (Conv1D)          (None, 768, 30)           18630     
_________________________________________________________________
max_pooling1d_169 (MaxPoolin (None, 768, 30)           0         
_________________________________________________________________
dropout_169 (Dropout)        (None, 768, 30)           0         
_________________________________________________________________
conv1d_170 (Conv1D)          (None, 768, 10)           3010      
_________________________________________________________________
max_pooling1d_170 (MaxPoolin (None, 384, 10)           0         
_________________________________________________________________
dropout_170 (Dropout)        (None, 384, 10)           0         
_________________________________________________________________
conv1d_171 (Conv1D)          (None, 384, 12)           1452      
_________________________________________________________________
max_pooling1d_171 (MaxPoolin (None, 384, 12)           0         
_________________________________________________________________
dropout_171 (Dropout)        (None, 384, 12)           0         
_________________________________________________________________
flatten_57 (Flatten)         (None, 4608)              0         
_________________________________________________________________
dense_113 (Dense)            (None, 40)                184360    
_________________________________________________________________
dense_114 (Dense)            (None, 3)                 123       
=================================================================
Total params: 207,575
Trainable params: 207,575
Non-trainable params: 0
_________________________________________________________________
{'l1_nodes': 30, 'l1_filter': 20, 'l1_dropout': 0.208562246024874, 'l1_maxpool': 1, 'l2_nodes': 10, 'l2_filter': 10, 'l2_dropout': 0.7412734519530688, 'l2_maxpool': 2, 'l3_nodes': 12, 'l3_filter': 12, 'l3_dropout': 0.024881585296945424, 'l3_maxpool': 1, 'dense_nodes': 40}
…
subject 14, avg accuracy 0.2824561418349605 over 5 splits
subject 15, avg accuracy 0.3259759760565228 over 5 splits
subject 16, avg accuracy 0.2970310408375684 over 5 splits
subject 17, avg accuracy 0.3789473699895959 over 5 splits
subject 18, avg accuracy 0.3081081088330294 over 5 splits
subject 19, avg accuracy 0.2762762764373699 over 5 splits
avg accuracy over all subjects 0.28925869267604615
_________________________________________________________________
Layer (type)                 Output Shape              Param #   
=================================================================
conv1d_172 (Conv1D)          (None, 768, 31)           8680      
_________________________________________________________________
max_pooling1d_172 (MaxPoolin (None, 256, 31)           0         
_________________________________________________________________
dropout_172 (Dropout)        (None, 256, 31)           0         
_________________________________________________________________
conv1d_173 (Conv1D)          (None, 256, 16)           2992      
_________________________________________________________________
max_pooling1d_173 (MaxPoolin (None, 256, 16)           0         
_________________________________________________________________
dropout_173 (Dropout)        (None, 256, 16)           0         
_________________________________________________________________
conv1d_174 (Conv1D)          (None, 256, 6)            1062      
_________________________________________________________________
max_pooling1d_174 (MaxPoolin (None, 256, 6)            0         
_________________________________________________________________
dropout_174 (Dropout)        (None, 256, 6)            0         
_________________________________________________________________
flatten_58 (Flatten)         (None, 1536)              0         
_________________________________________________________________
dense_115 (Dense)            (None, 32)                49184     
_________________________________________________________________
dense_116 (Dense)            (None, 3)                 99        
=================================================================
Total params: 62,017
Trainable params: 62,017
Non-trainable params: 0
_________________________________________________________________
…
flatten_81 (Flatten)         (None, 2112)              0         
_________________________________________________________________
dense_161 (Dense)            (None, 41)                86633     
_________________________________________________________________
dense_162 (Dense)            (None, 3)                 126       
=================================================================
Total params: 110,766
Trainable params: 110,766
Non-trainable params: 0
_________________________________________________________________
{'l1_nodes': 35, 'l1_filter': 9, 'l1_dropout': 0.3960738134735937, 'l1_maxpool': 1, 'l2_nodes': 26, 'l2_filter': 14, 'l2_dropout': 0.623612710153747, 'l2_maxpool': 2, 'l3_nodes': 11, 'l3_filter': 5, 'l3_dropout': 0.3205242590891181, 'l3_maxpool': 2, 'dense_nodes': 41}
…
subject 14, avg accuracy 0.31848853042251185 over 5 splits
subject 15, avg accuracy 0.3150150156593895 over 5 splits
subject 16, avg accuracy 0.2970310408375684 over 5 splits
subject 17, avg accuracy 0.4736842106831702 over 5 splits
subject 18, avg accuracy 0.3081081093968572 over 5 splits
subject 19, avg accuracy 0.30405405421514764 over 5 splits
avg accuracy over all subjects 0.324588117986046
_________________________________________________________________
Layer (type)                 Output Shape              Param #   
=================================================================
conv1d_244 (Conv1D)          (None, 768, 24)           18624     
_________________________________________________________________
max_pooling1d_244 (MaxPoolin (None, 768, 24)           0         
_________________________________________________________________
dropout_244 (Dropout)        (None, 768, 24)           0         
_________________________________________________________________
conv1d_245 (Conv1D)          (None, 768, 14)           3374      
_________________________________________________________________
max_pooling1d_245 (MaxPoolin (None, 768, 14)           0         
_________________________________________________________________
dropout_245 (Dropout)        (None, 768, 14)           0         
_________________________________________________________________
conv1d_246 (Conv1D)          (None, 768, 5)            845       
_________________________________________________________________
max_pooling1d_246 (MaxPoolin (None, 384, 5)            0         
_________________________________________________________________
dropout_246 (Dropout)        (None, 384, 5)            0         
_________________________________________________________________
flatten_82 (Flatten)         (None, 1920)              0         
_________________________________________________________________
dense_163 (Dense)            (None, 13)                24973     
_________________________________________________________________
dense_164 (Dense)            (None, 3)                 42        
=================================================================
Total params: 47,858
Trainable params: 47,858
Non-trainable params: 0
_________________________________________________________________
{'l1_nodes': 24, 'l1_filter': 25, 'l1_dropout': 0.4703126082895887, 'l1_maxpool': 1, 'l2_nodes': 14, 'l2_filter': 10, 'l2_dropout': 0.14283103433405228, 'l2_maxpool': 1, 'l3_nodes': 5, 'l3_filter': 12, 'l3_dropout': 0.5482519995489201, 'l3_maxpool': 2, 'dense_nodes': 13}
…
subject 14, avg accuracy 0.31376518451491836 over 5 splits
subject 15, avg accuracy 0.32072072088181436 over 5 splits
subject 16, avg accuracy 0.34817813965473093 over 5 splits
subject 17, avg accuracy 0.5105263164168911 over 5 splits
subject 18, avg accuracy 0.43243243396282194 over 5 splits
subject 19, avg accuracy 0.3478978980589916 over 5 splits
avg accuracy over all subjects 0.3348683375275246
_________________________________________________________________
Layer (type)                 Output Shape              Param #   
=================================================================
conv1d_247 (Conv1D)          (None, 768, 29)           5423      
_________________________________________________________________
max_pooling1d_247 (MaxPoolin (None, 384, 29)           0         
_________________________________________________________________
dropout_247 (Dropout)        (None, 384, 29)           0         
_________________________________________________________________
conv1d_248 (Conv1D)          (None, 384, 14)           6104      
_________________________________________________________________
max_pooling1d_248 (MaxPoolin (None, 192, 14)           0         
_________________________________________________________________
dropout_248 (Dropout)        (None, 192, 14)           0         
_________________________________________________________________
conv1d_249 (Conv1D)          (None, 192, 11)           1397      
_________________________________________________________________
max_pooling1d_249 (MaxPoolin (None, 192, 11)           0         
_________________________________________________________________
dropout_249 (Dropout)        (None, 192, 11)           0         
_________________________________________________________________
flatten_83 (Flatten)         (None, 2112)              0         
_________________________________________________________________
dense_165 (Dense)            (None, 29)                61277     
_________________________________________________________________
dense_166 (Dense)            (None, 3)                 90        
=================================================================
Total params: 74,291
Trainable params: 74,291
Non-trainable params: 0
_________________________________________________________________
{'l1_nodes': 29, 'l1_filter': 6, 'l1_dropout': 0.3340858882933384, 'l1_maxpool': 2, 'l2_nodes': 14, 'l2_filter': 15, 'l2_dropout': 0.30866556072206436, 'l2_maxpool': 2, 'l3_nodes': 11, 'l3_filter': 9, 'l3_dropout': 0.3473310471169096, 'l3_maxpool': 1, 'dense_nodes': 29}
…
subject 14, avg accuracy 0.34574898988933533 over 5 splits
subject 15, avg accuracy 0.36501501565938954 over 5 splits
subject 16, avg accuracy 0.3696356287691113 over 5 splits
subject 17, avg accuracy 0.5947368424189718 over 5 splits
subject 18, avg accuracy 0.5405405419903833 over 5 splits
subject 19, avg accuracy 0.39894894911004253 over 5 splits
avg accuracy over all subjects 0.39433721934303917
_________________________________________________________________
Layer (type)                 Output Shape              Param #   
=================================================================
conv1d_250 (Conv1D)          (None, 768, 27)           9234      
_________________________________________________________________
max_pooling1d_250 (MaxPoolin (None, 256, 27)           0         
_________________________________________________________________
dropout_250 (Dropout)        (None, 256, 27)           0         
_________________________________________________________________
conv1d_251 (Conv1D)          (None, 256, 11)           4763      
_________________________________________________________________
max_pooling1d_251 (MaxPoolin (None, 128, 11)           0         
_________________________________________________________________
dropout_251 (Dropout)        (None, 128, 11)           0         
_________________________________________________________________
conv1d_252 (Conv1D)          (None, 128, 13)           1586      
_________________________________________________________________
max_pooling1d_252 (MaxPoolin (None, 64, 13)            0         
_________________________________________________________________
dropout_252 (Dropout)        (None, 64, 13)            0         
_________________________________________________________________
flatten_84 (Flatten)         (None, 832)               0         
_________________________________________________________________
dense_167 (Dense)            (None, 6)                 4998      
_________________________________________________________________
dense_168 (Dense)            (None, 3)                 21        
=================================================================
Total params: 20,602
Trainable params: 20,602
Non-trainable params: 0
_________________________________________________________________
{'l1_nodes': 27, 'l1_filter': 11, 'l1_dropout': 0.3731186866607302, 'l1_maxpool': 3, 'l2_nodes': 11, 'l2_filter': 16, 'l2_dropout': 0.2675264218962832, 'l2_maxpool': 2, 'l3_nodes': 13, 'l3_filter': 11, 'l3_dropout': 0.36265355643267794, 'l3_maxpool': 2, 'dense_nodes': 6}
…
subject 14, avg accuracy 0.3141700420503514 over 5 splits
subject 15, avg accuracy 0.42507507571944964 over 5 splits
subject 16, avg accuracy 0.3075573567838965 over 5 splits
subject 17, avg accuracy 0.5000000006274173 over 5 splits
subject 18, avg accuracy 0.4108108120995599 over 5 splits
subject 19, avg accuracy 0.28183183199292544 over 5 splits
avg accuracy over all subjects 0.3499044600441846
_________________________________________________________________
Layer (type)                 Output Shape              Param #   
=================================================================
conv1d_253 (Conv1D)          (None, 768, 37)           10360     
_________________________________________________________________
max_pooling1d_253 (MaxPoolin (None, 768, 37)           0         
_________________________________________________________________
dropout_253 (Dropout)        (None, 768, 37)           0         
_________________________________________________________________
conv1d_254 (Conv1D)          (None, 768, 27)           18009     
_________________________________________________________________
max_pooling1d_254 (MaxPoolin (None, 384, 27)           0         
_________________________________________________________________
dropout_254 (Dropout)        (None, 384, 27)           0         
_________________________________________________________________
conv1d_255 (Conv1D)          (None, 384, 2)            110       
_________________________________________________________________
max_pooling1d_255 (MaxPoolin (None, 192, 2)            0         
_________________________________________________________________
dropout_255 (Dropout)        (None, 192, 2)            0         
_________________________________________________________________
flatten_85 (Flatten)         (None, 384)               0         
_________________________________________________________________
dense_169 (Dense)            (None, 46)                17710     
_________________________________________________________________
dense_170 (Dense)            (None, 3)                 141       
=================================================================
Total params: 46,330
Trainable params: 46,330
Non-trainable params: 0
_________________________________________________________________
{'l1_nodes': 37, 'l1_filter': 9, 'l1_dropout': 0.12901018636858808, 'l1_maxpool': 1, 'l2_nodes': 27, 'l2_filter': 18, 'l2_dropout': 0.628410987586236, 'l2_maxpool': 2, 'l3_nodes': 2, 'l3_filter': 2, 'l3_dropout': 0.053203539162022834, 'l3_maxpool': 2, 'dense_nodes': 46}
…
subject 14, avg accuracy 0.40256410332424275 over 5 splits
subject 15, avg accuracy 0.4642642644253579 over 5 splits
subject 16, avg accuracy 0.46869095886043216 over 5 splits
subject 17, avg accuracy 0.6105263175148713 over 5 splits
subject 18, avg accuracy 0.5513513529622877 over 5 splits
subject 19, avg accuracy 0.4370870871676339 over 5 splits
avg accuracy over all subjects 0.42725076717055854
_________________________________________________________________
Layer (type)                 Output Shape              Param #   
=================================================================
conv1d_256 (Conv1D)          (None, 768, 27)           11745     
_________________________________________________________________
max_pooling1d_256 (MaxPoolin (None, 768, 27)           0         
_________________________________________________________________
dropout_256 (Dropout)        (None, 768, 27)           0         
_________________________________________________________________
conv1d_257 (Conv1D)          (None, 768, 22)           7744      
_________________________________________________________________
max_pooling1d_257 (MaxPoolin (None, 768, 22)           0         
_________________________________________________________________
dropout_257 (Dropout)        (None, 768, 22)           0         
_________________________________________________________________
conv1d_258 (Conv1D)          (None, 768, 4)            444       
_________________________________________________________________
max_pooling1d_258 (MaxPoolin (None, 384, 4)            0         
_________________________________________________________________
dropout_258 (Dropout)        (None, 384, 4)            0         
_________________________________________________________________
flatten_86 (Flatten)         (None, 1536)              0         
_________________________________________________________________
dense_171 (Dense)            (None, 11)                16907     
_________________________________________________________________
dense_172 (Dense)            (None, 3)                 36        
=================================================================
Total params: 36,876
Trainable params: 36,876
Non-trainable params: 0
_________________________________________________________________
{'l1_nodes': 27, 'l1_filter': 14, 'l1_dropout': 0.4414451615200773, 'l1_maxpool': 1, 'l2_nodes': 22, 'l2_filter': 13, 'l2_dropout': 0.3497115051757155, 'l2_maxpool': 1, 'l3_nodes': 4, 'l3_filter': 5, 'l3_dropout': 0.5449432606092416, 'l3_maxpool': 2, 'dense_nodes': 11}
…
subject 14, avg accuracy 0.32968960926037244 over 5 splits
subject 15, avg accuracy 0.3483483489927229 over 5 splits
subject 16, avg accuracy 0.3798920388726892 over 5 splits
subject 17, avg accuracy 0.5736842116242962 over 5 splits
subject 18, avg accuracy 0.5405405419903833 over 5 splits
subject 19, avg accuracy 0.2984984986595921 over 5 splits
avg accuracy over all subjects 0.3591246788166925
_________________________________________________________________
Layer (type)                 Output Shape              Param #   
=================================================================
conv1d_259 (Conv1D)          (None, 768, 15)           2340      
_________________________________________________________________
max_pooling1d_259 (MaxPoolin (None, 256, 15)           0         
_________________________________________________________________
dropout_259 (Dropout)        (None, 256, 15)           0         
_________________________________________________________________
conv1d_260 (Conv1D)          (None, 256, 21)           2226      
_________________________________________________________________
max_pooling1d_260 (MaxPoolin (None, 128, 21)           0         
_________________________________________________________________
dropout_260 (Dropout)        (None, 128, 21)           0         
_________________________________________________________________
conv1d_261 (Conv1D)          (None, 128, 3)            192       
_________________________________________________________________
max_pooling1d_261 (MaxPoolin (None, 64, 3)             0         
_________________________________________________________________
dropout_261 (Dropout)        (None, 64, 3)             0         
_________________________________________________________________
flatten_87 (Flatten)         (None, 192)               0         
_________________________________________________________________
dense_173 (Dense)            (None, 46)                8878      
_________________________________________________________________
dense_174 (Dense)            (None, 3)                 141       
=================================================================
Total params: 13,777
Trainable params: 13,777
Non-trainable params: 0
_________________________________________________________________
{'l1_nodes': 15, 'l1_filter': 5, 'l1_dropout': 0.3528798976626133, 'l1_maxpool': 3, 'l2_nodes': 21, 'l2_filter': 7, 'l2_dropout': 0.05996691659761569, 'l2_maxpool': 2, 'l3_nodes': 3, 'l3_filter': 3, 'l3_dropout': 0.10303270657331473, 'l3_maxpool': 2, 'dense_nodes': 46}
…
subject 14, avg accuracy 0.5705802976642704 over 5 splits
subject 15, avg accuracy 0.6186186192629932 over 5 splits
subject 16, avg accuracy 0.5056680180604962 over 5 splits
subject 17, avg accuracy 0.60526315946328 over 5 splits
subject 18, avg accuracy 0.6270270281546824 over 5 splits
subject 19, avg accuracy 0.5911411411411411 over 5 splits
avg accuracy over all subjects 0.5824905889448518
_________________________________________________________________
Layer (type)                 Output Shape              Param #   
=================================================================
conv1d_262 (Conv1D)          (None, 768, 20)           3740      
_________________________________________________________________
max_pooling1d_262 (MaxPoolin (None, 256, 20)           0         
_________________________________________________________________
dropout_262 (Dropout)        (None, 256, 20)           0         
_________________________________________________________________
conv1d_263 (Conv1D)          (None, 256, 19)           1919      
_________________________________________________________________
max_pooling1d_263 (MaxPoolin (None, 256, 19)           0         
_________________________________________________________________
dropout_263 (Dropout)        (None, 256, 19)           0         
_________________________________________________________________
conv1d_264 (Conv1D)          (None, 256, 6)            234       
_________________________________________________________________
max_pooling1d_264 (MaxPoolin (None, 128, 6)            0         
_________________________________________________________________
dropout_264 (Dropout)        (None, 128, 6)            0         
_________________________________________________________________
flatten_88 (Flatten)         (None, 768)               0         
_________________________________________________________________
dense_175 (Dense)            (None, 37)                28453     
_________________________________________________________________
dense_176 (Dense)            (None, 3)                 114       
=================================================================
Total params: 34,460
Trainable params: 34,460
Non-trainable params: 0
_________________________________________________________________
{'l1_nodes': 20, 'l1_filter': 6, 'l1_dropout': 0.12084198161126186, 'l1_maxpool': 3, 'l2_nodes': 19, 'l2_filter': 5, 'l2_dropout': 0.4422114968509021, 'l2_maxpool': 1, 'l3_nodes': 6, 'l3_filter': 2, 'l3_dropout': 0.6740496665425225, 'l3_maxpool': 2, 'dense_nodes': 37}
…
subject 14, avg accuracy 0.48704453487949656 over 5 splits
subject 15, avg accuracy 0.508258258338805 over 5 splits
subject 16, avg accuracy 0.4224021604106173 over 5 splits
subject 17, avg accuracy 0.6157894752527537 over 5 splits
subject 18, avg accuracy 0.4756756780920803 over 5 splits
subject 19, avg accuracy 0.44804804869242265 over 5 splits
avg accuracy over all subjects 0.46191515516742726
_________________________________________________________________
Layer (type)                 Output Shape              Param #   
=================================================================
conv1d_265 (Conv1D)          (None, 768, 17)           4233      
_________________________________________________________________
max_pooling1d_265 (MaxPoolin (None, 384, 17)           0         
_________________________________________________________________
dropout_265 (Dropout)        (None, 384, 17)           0         
_________________________________________________________________
conv1d_266 (Conv1D)          (None, 384, 14)           3822      
_________________________________________________________________
max_pooling1d_266 (MaxPoolin (None, 192, 14)           0         
_________________________________________________________________
dropout_266 (Dropout)        (None, 192, 14)           0         
_________________________________________________________________
conv1d_267 (Conv1D)          (None, 192, 4)            508       
_________________________________________________________________
max_pooling1d_267 (MaxPoolin (None, 96, 4)             0         
_________________________________________________________________
dropout_267 (Dropout)        (None, 96, 4)             0         
_________________________________________________________________
flatten_89 (Flatten)         (None, 384)               0         
_________________________________________________________________
dense_177 (Dense)            (None, 8)                 3080      
_________________________________________________________________
dense_178 (Dense)            (None, 3)                 27        
=================================================================
Total params: 11,670
Trainable params: 11,670
Non-trainable params: 0
_________________________________________________________________
{'l1_nodes': 17, 'l1_filter': 8, 'l1_dropout': 0.14609537791503097, 'l1_maxpool': 2, 'l2_nodes': 14, 'l2_filter': 16, 'l2_dropout': 0.4901199597045005, 'l2_maxpool': 2, 'l3_nodes': 4, 'l3_filter': 9, 'l3_dropout': 0.464771441507699, 'l3_maxpool': 2, 'dense_nodes': 8}
…
subject 14, avg accuracy 0.3614035097854501 over 5 splits
subject 15, avg accuracy 0.4918918919724387 over 5 splits
subject 16, avg accuracy 0.32887989272553264 over 5 splits
subject 17, avg accuracy 0.5157894743116278 over 5 splits
subject 18, avg accuracy 0.3351351357795097 over 5 splits
subject 19, avg accuracy 0.3471471473082408 over 5 splits
avg accuracy over all subjects 0.3598091351598279
_________________________________________________________________
Layer (type)                 Output Shape              Param #   
=================================================================
conv1d_268 (Conv1D)          (None, 768, 30)           5610      
_________________________________________________________________
max_pooling1d_268 (MaxPoolin (None, 768, 30)           0         
_________________________________________________________________
dropout_268 (Dropout)        (None, 768, 30)           0         
_________________________________________________________________
conv1d_269 (Conv1D)          (None, 768, 5)            605       
_________________________________________________________________
max_pooling1d_269 (MaxPoolin (None, 384, 5)            0         
_________________________________________________________________
dropout_269 (Dropout)        (None, 384, 5)            0         
_________________________________________________________________
conv1d_270 (Conv1D)          (None, 384, 14)           924       
_________________________________________________________________
max_pooling1d_270 (MaxPoolin (None, 192, 14)           0         
_________________________________________________________________
dropout_270 (Dropout)        (None, 192, 14)           0         
_________________________________________________________________
flatten_90 (Flatten)         (None, 2688)              0         
_________________________________________________________________
dense_179 (Dense)            (None, 14)                37646     
_________________________________________________________________
dense_180 (Dense)            (None, 3)                 45        
=================================================================
Total params: 44,830
Trainable params: 44,830
Non-trainable params: 0
_________________________________________________________________
{'l1_nodes': 30, 'l1_filter': 6, 'l1_dropout': 0.008348455351273987, 'l1_maxpool': 1, 'l2_nodes': 5, 'l2_filter': 4, 'l2_dropout': 0.582495860590061, 'l2_maxpool': 2, 'l3_nodes': 14, 'l3_filter': 13, 'l3_dropout': 0.23126885568129502, 'l3_maxpool': 2, 'dense_nodes': 14}
…
subject 14, avg accuracy 0.3192982472549727 over 5 splits
subject 15, avg accuracy 0.5091591594813465 over 5 splits
subject 16, avg accuracy 0.33819163524509277 over 5 splits
subject 17, avg accuracy 0.6894736854653609 over 5 splits
subject 18, avg accuracy 0.4648648662341608 over 5 splits
subject 19, avg accuracy 0.33183183199292543 over 5 splits
avg accuracy over all subjects 0.36562736920067107
_________________________________________________________________
Layer (type)                 Output Shape              Param #   
=================================================================
conv1d_271 (Conv1D)          (None, 768, 23)           17135     
_________________________________________________________________
max_pooling1d_271 (MaxPoolin (None, 384, 23)           0         
_________________________________________________________________
dropout_271 (Dropout)        (None, 384, 23)           0         
_________________________________________________________________
conv1d_272 (Conv1D)          (None, 384, 23)           4784      
_________________________________________________________________
max_pooling1d_272 (MaxPoolin (None, 384, 23)           0         
_________________________________________________________________
dropout_272 (Dropout)        (None, 384, 23)           0         
_________________________________________________________________
conv1d_273 (Conv1D)          (None, 384, 14)           3234      
_________________________________________________________________
max_pooling1d_273 (MaxPoolin (None, 384, 14)           0         
_________________________________________________________________
dropout_273 (Dropout)        (None, 384, 14)           0         
_________________________________________________________________
flatten_91 (Flatten)         (None, 5376)              0         
_________________________________________________________________
dense_181 (Dense)            (None, 5)                 26885     
_________________________________________________________________
dense_182 (Dense)            (None, 3)                 18        
=================================================================
Total params: 52,056
Trainable params: 52,056
Non-trainable params: 0
_________________________________________________________________
{'l1_nodes': 23, 'l1_filter': 24, 'l1_dropout': 0.5164651502554216, 'l1_maxpool': 2, 'l2_nodes': 23, 'l2_filter': 9, 'l2_dropout': 0.4684603067260098, 'l2_maxpool': 1, 'l3_nodes': 14, 'l3_filter': 10, 'l3_dropout': 0.7074580844086961, 'l3_maxpool': 1, 'dense_nodes': 5}
…
subject 14, avg accuracy 0.2825910945250759 over 5 splits
subject 15, avg accuracy 0.2870870871676339 over 5 splits
subject 16, avg accuracy 0.2813765195337867 over 5 splits
subject 17, avg accuracy 0.2789473693621786 over 5 splits
subject 18, avg accuracy 0.32972973101847874 over 5 splits
subject 19, avg accuracy 0.28738738754848103 over 5 splits
avg accuracy over all subjects 0.28071293365751665
_________________________________________________________________
Layer (type)                 Output Shape              Param #   
=================================================================
conv1d_274 (Conv1D)          (None, 768, 25)           10875     
_________________________________________________________________
max_pooling1d_274 (MaxPoolin (None, 768, 25)           0         
_________________________________________________________________
dropout_274 (Dropout)        (None, 768, 25)           0         
_________________________________________________________________
conv1d_275 (Conv1D)          (None, 768, 19)           3819      
_________________________________________________________________
max_pooling1d_275 (MaxPoolin (None, 768, 19)           0         
_________________________________________________________________
dropout_275 (Dropout)        (None, 768, 19)           0         
_________________________________________________________________
conv1d_276 (Conv1D)          (None, 768, 10)           390       
_________________________________________________________________
max_pooling1d_276 (MaxPoolin (None, 384, 10)           0         
_________________________________________________________________
dropout_276 (Dropout)        (None, 384, 10)           0         
_________________________________________________________________
flatten_92 (Flatten)         (None, 3840)              0         
_________________________________________________________________
dense_183 (Dense)            (None, 25)                96025     
_________________________________________________________________
dense_184 (Dense)            (None, 3)                 78        
=================================================================
Total params: 111,187
Trainable params: 111,187
Non-trainable params: 0
_________________________________________________________________
{'l1_nodes': 25, 'l1_filter': 14, 'l1_dropout': 0.4198342597967084, 'l1_maxpool': 1, 'l2_nodes': 19, 'l2_filter': 8, 'l2_dropout': 0.07377659034725842, 'l2_maxpool': 1, 'l3_nodes': 10, 'l3_filter': 2, 'l3_dropout': 0.3391523537725803, 'l3_maxpool': 2, 'dense_nodes': 25}
…
subject 14, avg accuracy 0.29824561536231664 over 5 splits
subject 15, avg accuracy 0.3034534535340002 over 5 splits
subject 16, avg accuracy 0.31808367187355857 over 5 splits
subject 17, avg accuracy 0.44210526425587504 over 5 splits
subject 18, avg accuracy 0.3891891898335637 over 5 splits
subject 19, avg accuracy 0.28183183199292544 over 5 splits
avg accuracy over all subjects 0.30623487922843423
_________________________________________________________________
Layer (type)                 Output Shape              Param #   
=================================================================
conv1d_277 (Conv1D)          (None, 768, 20)           18000     
_________________________________________________________________
max_pooling1d_277 (MaxPoolin (None, 256, 20)           0         
_________________________________________________________________
dropout_277 (Dropout)        (None, 256, 20)           0         
_________________________________________________________________
conv1d_278 (Conv1D)          (None, 256, 26)           9386      
_________________________________________________________________
max_pooling1d_278 (MaxPoolin (None, 128, 26)           0         
_________________________________________________________________
dropout_278 (Dropout)        (None, 128, 26)           0         
_________________________________________________________________
conv1d_279 (Conv1D)          (None, 128, 3)            549       
_________________________________________________________________
max_pooling1d_279 (MaxPoolin (None, 128, 3)            0         
_________________________________________________________________
dropout_279 (Dropout)        (None, 128, 3)            0         
_________________________________________________________________
flatten_93 (Flatten)         (None, 384)               0         
_________________________________________________________________
dense_185 (Dense)            (None, 25)                9625      
_________________________________________________________________
dense_186 (Dense)            (None, 3)                 78        
=================================================================
Total params: 37,638
Trainable params: 37,638
Non-trainable params: 0
_________________________________________________________________
{'l1_nodes': 20, 'l1_filter': 29, 'l1_dropout': 0.306062222979859, 'l1_maxpool': 3, 'l2_nodes': 26, 'l2_filter': 18, 'l2_dropout': 0.6863805210039808, 'l2_maxpool': 2, 'l3_nodes': 3, 'l3_filter': 7, 'l3_dropout': 0.7464428556706688, 'l3_maxpool': 1, 'dense_nodes': 25}
…
subject 14, avg accuracy 0.37165992104331497 over 5 splits
subject 15, avg accuracy 0.4088588595032334 over 5 splits
subject 16, avg accuracy 0.31336032520984675 over 5 splits
subject 17, avg accuracy 0.4315789484664013 over 5 splits
subject 18, avg accuracy 0.41081081169682576 over 5 splits
subject 19, avg accuracy 0.30990990999045676 over 5 splits
avg accuracy over all subjects 0.3522019667627663
_________________________________________________________________
Layer (type)                 Output Shape              Param #   
=================================================================
conv1d_280 (Conv1D)          (None, 768, 26)           13728     
_________________________________________________________________
max_pooling1d_280 (MaxPoolin (None, 256, 26)           0         
_________________________________________________________________
dropout_280 (Dropout)        (None, 256, 26)           0         
_________________________________________________________________
conv1d_281 (Conv1D)          (None, 256, 18)           5166      
_________________________________________________________________
max_pooling1d_281 (MaxPoolin (None, 128, 18)           0         
_________________________________________________________________
dropout_281 (Dropout)        (None, 128, 18)           0         
_________________________________________________________________
conv1d_282 (Conv1D)          (None, 128, 5)            545       
_________________________________________________________________
max_pooling1d_282 (MaxPoolin (None, 128, 5)            0         
_________________________________________________________________
dropout_282 (Dropout)        (None, 128, 5)            0         
_________________________________________________________________
flatten_94 (Flatten)         (None, 640)               0         
_________________________________________________________________
dense_187 (Dense)            (None, 43)                27563     
_________________________________________________________________
dense_188 (Dense)            (None, 3)                 132       
=================================================================
Total params: 47,134
Trainable params: 47,134
Non-trainable params: 0
_________________________________________________________________
{'l1_nodes': 26, 'l1_filter': 17, 'l1_dropout': 0.2993990803851193, 'l1_maxpool': 3, 'l2_nodes': 18, 'l2_filter': 11, 'l2_dropout': 0.6229589100692312, 'l2_maxpool': 2, 'l3_nodes': 5, 'l3_filter': 6, 'l3_dropout': 0.11545929434818411, 'l3_maxpool': 1, 'dense_nodes': 43}
…
subject 14, avg accuracy 0.48704453532995 over 5 splits
subject 15, avg accuracy 0.5692192198635937 over 5 splits
subject 16, avg accuracy 0.36450742308990514 over 5 splits
subject 17, avg accuracy 0.6052631597769887 over 5 splits
subject 18, avg accuracy 0.5405405423125705 over 5 splits
subject 19, avg accuracy 0.38783783799893146 over 5 splits
avg accuracy over all subjects 0.458669804510405
_________________________________________________________________
Layer (type)                 Output Shape              Param #   
=================================================================
conv1d_283 (Conv1D)          (None, 768, 16)           6464      
_________________________________________________________________
max_pooling1d_283 (MaxPoolin (None, 768, 16)           0         
_________________________________________________________________
dropout_283 (Dropout)        (None, 768, 16)           0         
_________________________________________________________________
conv1d_284 (Conv1D)          (None, 768, 5)            645       
_________________________________________________________________
max_pooling1d_284 (MaxPoolin (None, 384, 5)            0         
_________________________________________________________________
dropout_284 (Dropout)        (None, 384, 5)            0         
_________________________________________________________________
conv1d_285 (Conv1D)          (None, 384, 5)            80        
_________________________________________________________________
max_pooling1d_285 (MaxPoolin (None, 384, 5)            0         
_________________________________________________________________
dropout_285 (Dropout)        (None, 384, 5)            0         
_________________________________________________________________
flatten_95 (Flatten)         (None, 1920)              0         
_________________________________________________________________
dense_189 (Dense)            (None, 27)                51867     
_________________________________________________________________
dense_190 (Dense)            (None, 3)                 84        
=================================================================
Total params: 59,140
Trainable params: 59,140
Non-trainable params: 0
_________________________________________________________________
{'l1_nodes': 16, 'l1_filter': 13, 'l1_dropout': 0.06674139060606388, 'l1_maxpool': 1, 'l2_nodes': 5, 'l2_filter': 8, 'l2_dropout': 0.6086523262914365, 'l2_maxpool': 2, 'l3_nodes': 5, 'l3_filter': 3, 'l3_dropout': 0.5237991906671129, 'l3_maxpool': 1, 'dense_nodes': 27}
…
subject 14, avg accuracy 0.4290148471330021 over 5 splits
subject 15, avg accuracy 0.491741742063929 over 5 splits
subject 16, avg accuracy 0.38083670909507716 over 5 splits
subject 17, avg accuracy 0.5947368430463891 over 5 splits
subject 18, avg accuracy 0.6000000024164045 over 5 splits
subject 19, avg accuracy 0.392342342503436 over 5 splits
avg accuracy over all subjects 0.43130569965037896
_________________________________________________________________
Layer (type)                 Output Shape              Param #   
=================================================================
conv1d_286 (Conv1D)          (None, 768, 32)           25824     
_________________________________________________________________
max_pooling1d_286 (MaxPoolin (None, 256, 32)           0         
_________________________________________________________________
dropout_286 (Dropout)        (None, 256, 32)           0         
_________________________________________________________________
conv1d_287 (Conv1D)          (None, 256, 12)           6156      
_________________________________________________________________
max_pooling1d_287 (MaxPoolin (None, 256, 12)           0         
_________________________________________________________________
dropout_287 (Dropout)        (None, 256, 12)           0         
_________________________________________________________________
conv1d_288 (Conv1D)          (None, 256, 9)            1413      
_________________________________________________________________
max_pooling1d_288 (MaxPoolin (None, 256, 9)            0         
_________________________________________________________________
dropout_288 (Dropout)        (None, 256, 9)            0         
_________________________________________________________________
flatten_96 (Flatten)         (None, 2304)              0         
_________________________________________________________________
dense_191 (Dense)            (None, 45)                103725    
_________________________________________________________________
dense_192 (Dense)            (None, 3)                 138       
=================================================================
Total params: 137,256
Trainable params: 137,256
Non-trainable params: 0
_________________________________________________________________
{'l1_nodes': 32, 'l1_filter': 26, 'l1_dropout': 0.5724436273990469, 'l1_maxpool': 3, 'l2_nodes': 12, 'l2_filter': 16, 'l2_dropout': 0.5388721608878655, 'l2_maxpool': 1, 'l3_nodes': 9, 'l3_filter': 13, 'l3_dropout': 0.5184316797629276, 'l3_maxpool': 1, 'dense_nodes': 45}
…
subject 14, avg accuracy 0.3089068825910931 over 5 splits
subject 15, avg accuracy 0.44234234242288906 over 5 splits
subject 16, avg accuracy 0.33360323995231134 over 5 splits
subject 17, avg accuracy 0.4526315800453487 over 5 splits
subject 18, avg accuracy 0.4054054066941545 over 5 splits
subject 19, avg accuracy 0.3696696703140442 over 5 splits
avg accuracy over all subjects 0.35003566399105485
_________________________________________________________________
Layer (type)                 Output Shape              Param #   
=================================================================
conv1d_289 (Conv1D)          (None, 768, 23)           4301      
_________________________________________________________________
max_pooling1d_289 (MaxPoolin (None, 768, 23)           0         
_________________________________________________________________
dropout_289 (Dropout)        (None, 768, 23)           0         
_________________________________________________________________
conv1d_290 (Conv1D)          (None, 768, 8)            2032      
_________________________________________________________________
max_pooling1d_290 (MaxPoolin (None, 384, 8)            0         
_________________________________________________________________
dropout_290 (Dropout)        (None, 384, 8)            0         
_________________________________________________________________
conv1d_291 (Conv1D)          (None, 384, 9)            585       
_________________________________________________________________
max_pooling1d_291 (MaxPoolin (None, 384, 9)            0         
_________________________________________________________________
dropout_291 (Dropout)        (None, 384, 9)            0         
_________________________________________________________________
flatten_97 (Flatten)         (None, 3456)              0         
_________________________________________________________________
dense_193 (Dense)            (None, 26)                89882     
_________________________________________________________________
dense_194 (Dense)            (None, 3)                 81        
=================================================================
Total params: 96,881
Trainable params: 96,881
Non-trainable params: 0
_________________________________________________________________
{'l1_nodes': 23, 'l1_filter': 6, 'l1_dropout': 0.28265370240187304, 'l1_maxpool': 1, 'l2_nodes': 8, 'l2_filter': 11, 'l2_dropout': 0.10298942935096181, 'l2_maxpool': 2, 'l3_nodes': 9, 'l3_filter': 8, 'l3_dropout': 0.26505346131988994, 'l3_maxpool': 1, 'dense_nodes': 26}
…
subject 14, avg accuracy 0.6021592470637539 over 5 splits
subject 15, avg accuracy 0.6186186192629932 over 5 splits
subject 16, avg accuracy 0.6246963582943004 over 5 splits
subject 17, avg accuracy 0.6736842119380048 over 5 splits
subject 18, avg accuracy 0.6540540559871777 over 5 splits
subject 19, avg accuracy 0.591291291452385 over 5 splits
avg accuracy over all subjects 0.5752929730777923
_________________________________________________________________
Layer (type)                 Output Shape              Param #   
=================================================================
conv1d_292 (Conv1D)          (None, 768, 13)           11700     
_________________________________________________________________
max_pooling1d_292 (MaxPoolin (None, 384, 13)           0         
_________________________________________________________________
dropout_292 (Dropout)        (None, 384, 13)           0         
_________________________________________________________________
conv1d_293 (Conv1D)          (None, 384, 11)           726       
_________________________________________________________________
max_pooling1d_293 (MaxPoolin (None, 384, 11)           0         
_________________________________________________________________
dropout_293 (Dropout)        (None, 384, 11)           0         
_________________________________________________________________
conv1d_294 (Conv1D)          (None, 384, 12)           540       
_________________________________________________________________
max_pooling1d_294 (MaxPoolin (None, 384, 12)           0         
_________________________________________________________________
dropout_294 (Dropout)        (None, 384, 12)           0         
_________________________________________________________________
flatten_98 (Flatten)         (None, 4608)              0         
_________________________________________________________________
dense_195 (Dense)            (None, 34)                156706    
_________________________________________________________________
dense_196 (Dense)            (None, 3)                 105       
=================================================================
Total params: 169,777
Trainable params: 169,777
Non-trainable params: 0
_________________________________________________________________
{'l1_nodes': 13, 'l1_filter': 29, 'l1_dropout': 0.30041446832980667, 'l1_maxpool': 2, 'l2_nodes': 11, 'l2_filter': 5, 'l2_dropout': 0.3019592728265815, 'l2_maxpool': 1, 'l3_nodes': 12, 'l3_filter': 4, 'l3_dropout': 0.0030302112212406973, 'l3_maxpool': 1, 'dense_nodes': 34}
…
subject 14, avg accuracy 0.37732793663033914 over 5 splits
subject 15, avg accuracy 0.4915915916721384 over 5 splits
subject 16, avg accuracy 0.4322537128902801 over 5 splits
subject 17, avg accuracy 0.5736842116242961 over 5 splits
subject 18, avg accuracy 0.4702702718812066 over 5 splits
subject 19, avg accuracy 0.38663663671718346 over 5 splits
avg accuracy over all subjects 0.3948138769183187
_________________________________________________________________
Layer (type)                 Output Shape              Param #   
=================================================================
conv1d_295 (Conv1D)          (None, 768, 22)           10252     
_________________________________________________________________
max_pooling1d_295 (MaxPoolin (None, 768, 22)           0         
_________________________________________________________________
dropout_295 (Dropout)        (None, 768, 22)           0         
_________________________________________________________________
conv1d_296 (Conv1D)          (None, 768, 26)           3458      
_________________________________________________________________
max_pooling1d_296 (MaxPoolin (None, 768, 26)           0         
_________________________________________________________________
dropout_296 (Dropout)        (None, 768, 26)           0         
_________________________________________________________________
conv1d_297 (Conv1D)          (None, 768, 7)            917       
_________________________________________________________________
max_pooling1d_297 (MaxPoolin (None, 768, 7)            0         
_________________________________________________________________
dropout_297 (Dropout)        (None, 768, 7)            0         
_________________________________________________________________
flatten_99 (Flatten)         (None, 5376)              0         
_________________________________________________________________
dense_197 (Dense)            (None, 37)                198949    
_________________________________________________________________
dense_198 (Dense)            (None, 3)                 114       
=================================================================
Total params: 213,690
Trainable params: 213,690
Non-trainable params: 0
_________________________________________________________________
{'l1_nodes': 22, 'l1_filter': 15, 'l1_dropout': 0.07291586846317868, 'l1_maxpool': 1, 'l2_nodes': 26, 'l2_filter': 6, 'l2_dropout': 0.41124805135980164, 'l2_maxpool': 1, 'l3_nodes': 7, 'l3_filter': 5, 'l3_dropout': 0.16961008816168174, 'l3_maxpool': 1, 'dense_nodes': 37}
…
subject 14, avg accuracy 0.38771929831800833 over 5 splits
subject 15, avg accuracy 0.45825825841935186 over 5 splits
subject 16, avg accuracy 0.29176788309968593 over 5 splits
subject 17, avg accuracy 0.5263157896305386 over 5 splits
subject 18, avg accuracy 0.4972972985860464 over 5 splits
subject 19, avg accuracy 0.3151651653262588 over 5 splits
avg accuracy over all subjects 0.3830801457393493
_________________________________________________________________
Layer (type)                 Output Shape              Param #   
=================================================================
conv1d_298 (Conv1D)          (None, 768, 20)           6840      
_________________________________________________________________
max_pooling1d_298 (MaxPoolin (None, 256, 20)           0         
_________________________________________________________________
dropout_298 (Dropout)        (None, 256, 20)           0         
_________________________________________________________________
conv1d_299 (Conv1D)          (None, 256, 6)            1326      
_________________________________________________________________
max_pooling1d_299 (MaxPoolin (None, 256, 6)            0         
_________________________________________________________________
dropout_299 (Dropout)        (None, 256, 6)            0         
_________________________________________________________________
conv1d_300 (Conv1D)          (None, 256, 9)            171       
_________________________________________________________________
max_pooling1d_300 (MaxPoolin (None, 128, 9)            0         
_________________________________________________________________
dropout_300 (Dropout)        (None, 128, 9)            0         
_________________________________________________________________
flatten_100 (Flatten)        (None, 1152)              0         
_________________________________________________________________
dense_199 (Dense)            (None, 41)                47273     
_________________________________________________________________
dense_200 (Dense)            (None, 3)                 126       
=================================================================
Total params: 55,736
Trainable params: 55,736
Non-trainable params: 0
_________________________________________________________________
{'l1_nodes': 20, 'l1_filter': 11, 'l1_dropout': 0.5373810122940135, 'l1_maxpool': 3, 'l2_nodes': 6, 'l2_filter': 11, 'l2_dropout': 0.39439758414553094, 'l2_maxpool': 1, 'l3_nodes': 9, 'l3_filter': 3, 'l3_dropout': 0.4688421925720113, 'l3_maxpool': 2, 'dense_nodes': 41}
…
