…
memory_limit: 268435456
locality {
}
incarnation: 3879289811138523326
, name: "/device:GPU:0"
device_type: "GPU"
memory_limit: 11324823962
locality {
  bus_id: 1
}
incarnation: 18023805052242069668
physical_device_desc: "device: 0, name: Tesla K80, pci bus id: 0000:05:00.0, compute capability: 3.7"
]
(1, 184)
184
(1, 184)
(184, 32, 2048, 31)
(32, 2048, 31)
(184, 32, 2048, 31)
_________________________________________________________________
Layer (type)                 Output Shape              Param #   
=================================================================
input_1 (InputLayer)         (None, 32, 2048, 31)      0         
_________________________________________________________________
conv2d_1 (Conv2D)            (None, 32, 2048, 4)       15876     
_________________________________________________________________
elu_1 (ELU)                  (None, 32, 2048, 4)       0         
_________________________________________________________________
average_pooling2d_1 (Average (None, 16, 128, 4)        0         
_________________________________________________________________
dropout_1 (Dropout)          (None, 16, 128, 4)        0         
_________________________________________________________________
conv2d_2 (Conv2D)            (None, 16, 128, 8)        4104      
_________________________________________________________________
elu_2 (ELU)                  (None, 16, 128, 8)        0         
_________________________________________________________________
average_pooling2d_2 (Average (None, 8, 16, 8)          0         
_________________________________________________________________
dropout_2 (Dropout)          (None, 8, 16, 8)          0         
_________________________________________________________________
conv2d_3 (Conv2D)            (None, 8, 16, 16)         4112      
_________________________________________________________________
elu_3 (ELU)                  (None, 8, 16, 16)         0         
_________________________________________________________________
average_pooling2d_3 (Average (None, 4, 2, 16)          0         
_________________________________________________________________
dropout_3 (Dropout)          (None, 4, 2, 16)          0         
_________________________________________________________________
flatten_1 (Flatten)          (None, 128)               0         
_________________________________________________________________
dense_1 (Dense)              (None, 15)                1935      
_________________________________________________________________
activation_1 (Activation)    (None, 15)                0         
_________________________________________________________________
dense_2 (Dense)              (None, 3)                 48        
=================================================================
Total params: 26,075
Trainable params: 26,075
Non-trainable params: 0
_________________________________________________________________
avg accuracy 0.6411411425909839 over 5 splits
end time
Sat Apr  7 17:29:00 CEST 2018
slurmstepd: error: Exceeded step memory limit at some point.
