…
physical_device_desc: "device: 0, name: Tesla K80, pci bus id: 0000:04:00.0, compute capability: 3.7"
, name: "/device:GPU:1"
device_type: "GPU"
memory_limit: 11322769408
locality {
  bus_id: 1
}
incarnation: 13949312013682543003
physical_device_desc: "device: 1, name: Tesla K80, pci bus id: 0000:05:00.0, compute capability: 3.7"
]
Subj01_CleanData_study_FA
Subj01_CleanData_study_LM
Subj01_CleanData_study_OB
(148, 31, 2049)
(148, 3)
(37, 31, 2049)
(37, 3)
_________________________________________________________________
Layer (type)                 Output Shape              Param #   
=================================================================
cu_dnnlstm_1 (CuDNNLSTM)     (None, 10)                82440     
_________________________________________________________________
dropout_1 (Dropout)          (None, 10)                0         
_________________________________________________________________
dense_1 (Dense)              (None, 32)                352       
_________________________________________________________________
dense_2 (Dense)              (None, 3)                 99        
=================================================================
Total params: 82,891
Trainable params: 82,891
Non-trainable params: 0
_________________________________________________________________
_________________________________________________________________
Layer (type)                 Output Shape              Param #   
=================================================================
cu_dnnlstm_2 (CuDNNLSTM)     (None, 15)                123960    
_________________________________________________________________
dropout_2 (Dropout)          (None, 15)                0         
_________________________________________________________________
dense_3 (Dense)              (None, 32)                512       
_________________________________________________________________
dense_4 (Dense)              (None, 3)                 99        
=================================================================
Total params: 124,571
Trainable params: 124,571
Non-trainable params: 0
_________________________________________________________________
_________________________________________________________________
Layer (type)                 Output Shape              Param #   
=================================================================
cu_dnnlstm_3 (CuDNNLSTM)     (None, 20)                165680    
_________________________________________________________________
dropout_3 (Dropout)          (None, 20)                0         
_________________________________________________________________
dense_5 (Dense)              (None, 32)                672       
_________________________________________________________________
dense_6 (Dense)              (None, 3)                 99        
=================================================================
Total params: 166,451
Trainable params: 166,451
Non-trainable params: 0
_________________________________________________________________
_________________________________________________________________
Layer (type)                 Output Shape              Param #   
=================================================================
cu_dnnlstm_4 (CuDNNLSTM)     (None, 25)                207600    
_________________________________________________________________
dropout_4 (Dropout)          (None, 25)                0         
_________________________________________________________________
dense_7 (Dense)              (None, 32)                832       
_________________________________________________________________
dense_8 (Dense)              (None, 3)                 99        
=================================================================
Total params: 208,531
Trainable params: 208,531
Non-trainable params: 0
_________________________________________________________________
_________________________________________________________________
Layer (type)                 Output Shape              Param #   
=================================================================
cu_dnnlstm_5 (CuDNNLSTM)     (None, 30)                249720    
_________________________________________________________________
dropout_5 (Dropout)          (None, 30)                0         
_________________________________________________________________
dense_9 (Dense)              (None, 32)                992       
_________________________________________________________________
dense_10 (Dense)             (None, 3)                 99        
=================================================================
Total params: 250,811
Trainable params: 250,811
Non-trainable params: 0
_________________________________________________________________
_________________________________________________________________
Layer (type)                 Output Shape              Param #   
=================================================================
cu_dnnlstm_6 (CuDNNLSTM)     (None, 35)                292040    
_________________________________________________________________
dropout_6 (Dropout)          (None, 35)                0         
_________________________________________________________________
dense_11 (Dense)             (None, 32)                1152      
_________________________________________________________________
dense_12 (Dense)             (None, 3)                 99        
=================================================================
Total params: 293,291
Trainable params: 293,291
Non-trainable params: 0
_________________________________________________________________
_________________________________________________________________
Layer (type)                 Output Shape              Param #   
=================================================================
cu_dnnlstm_7 (CuDNNLSTM)     (None, 40)                334560    
_________________________________________________________________
dropout_7 (Dropout)          (None, 40)                0         
_________________________________________________________________
dense_13 (Dense)             (None, 32)                1312      
_________________________________________________________________
dense_14 (Dense)             (None, 3)                 99        
=================================================================
Total params: 335,971
Trainable params: 335,971
Non-trainable params: 0
_________________________________________________________________
_________________________________________________________________
Layer (type)                 Output Shape              Param #   
=================================================================
cu_dnnlstm_8 (CuDNNLSTM)     (None, 45)                377280    
_________________________________________________________________
dropout_8 (Dropout)          (None, 45)                0         
_________________________________________________________________
dense_15 (Dense)             (None, 32)                1472      
_________________________________________________________________
dense_16 (Dense)             (None, 3)                 99        
=================================================================
Total params: 378,851
Trainable params: 378,851
Non-trainable params: 0
_________________________________________________________________
_________________________________________________________________
Layer (type)                 Output Shape              Param #   
=================================================================
cu_dnnlstm_9 (CuDNNLSTM)     (None, 50)                420200    
_________________________________________________________________
dropout_9 (Dropout)          (None, 50)                0         
_________________________________________________________________
dense_17 (Dense)             (None, 32)                1632      
_________________________________________________________________
dense_18 (Dense)             (None, 3)                 99        
=================================================================
Total params: 421,931
Trainable params: 421,931
Non-trainable params: 0
_________________________________________________________________
_________________________________________________________________
Layer (type)                 Output Shape              Param #   
=================================================================
cu_dnnlstm_10 (CuDNNLSTM)    (None, 55)                463320    
_________________________________________________________________
dropout_10 (Dropout)         (None, 55)                0         
_________________________________________________________________
dense_19 (Dense)             (None, 32)                1792      
_________________________________________________________________
dense_20 (Dense)             (None, 3)                 99        
=================================================================
Total params: 465,211
Trainable params: 465,211
Non-trainable params: 0
_________________________________________________________________
10, accuracy: 0.37190476804971695
15, accuracy: 0.3923809602856636
20, accuracy: 0.424285726249218
25, accuracy: 0.4528571516275406
30, accuracy: 0.41238096356391907
35, accuracy: 0.46000000834465027
…
