…
physical_device_desc: "device: 0, name: Tesla K80, pci bus id: 0000:04:00.0, compute capability: 3.7"
, name: "/device:GPU:1"
device_type: "GPU"
memory_limit: 11322831668
locality {
  bus_id: 1
}
incarnation: 11782780869390333354
physical_device_desc: "device: 1, name: Tesla K80, pci bus id: 0000:05:00.0, compute capability: 3.7"
]
Subj01_CleanData_study_FA
Subj01_CleanData_study_LM
Subj01_CleanData_study_OB
(185, 31, 2049)
(185, 3)
(0, 31, 2049)
(0, 3)
_________________________________________________________________
Layer (type)                 Output Shape              Param #   
=================================================================
lstm_1 (LSTM)                (None, 10)                82400     
_________________________________________________________________
dropout_1 (Dropout)          (None, 10)                0         
_________________________________________________________________
dense_1 (Dense)              (None, 32)                352       
_________________________________________________________________
dense_2 (Dense)              (None, 3)                 99        
=================================================================
Total params: 82,851
Trainable params: 82,851
Non-trainable params: 0
_________________________________________________________________
_________________________________________________________________
Layer (type)                 Output Shape              Param #   
=================================================================
lstm_2 (LSTM)                (None, 15)                123900    
_________________________________________________________________
dropout_2 (Dropout)          (None, 15)                0         
_________________________________________________________________
dense_3 (Dense)              (None, 32)                512       
_________________________________________________________________
dense_4 (Dense)              (None, 3)                 99        
=================================================================
Total params: 124,511
Trainable params: 124,511
Non-trainable params: 0
_________________________________________________________________
_________________________________________________________________
Layer (type)                 Output Shape              Param #   
=================================================================
lstm_3 (LSTM)                (None, 20)                165600    
_________________________________________________________________
dropout_3 (Dropout)          (None, 20)                0         
_________________________________________________________________
dense_5 (Dense)              (None, 32)                672       
_________________________________________________________________
dense_6 (Dense)              (None, 3)                 99        
=================================================================
Total params: 166,371
Trainable params: 166,371
Non-trainable params: 0
_________________________________________________________________
_________________________________________________________________
Layer (type)                 Output Shape              Param #   
=================================================================
lstm_4 (LSTM)                (None, 25)                207500    
_________________________________________________________________
dropout_4 (Dropout)          (None, 25)                0         
_________________________________________________________________
dense_7 (Dense)              (None, 32)                832       
_________________________________________________________________
dense_8 (Dense)              (None, 3)                 99        
=================================================================
Total params: 208,431
Trainable params: 208,431
Non-trainable params: 0
_________________________________________________________________
_________________________________________________________________
Layer (type)                 Output Shape              Param #   
=================================================================
lstm_5 (LSTM)                (None, 30)                249600    
_________________________________________________________________
dropout_5 (Dropout)          (None, 30)                0         
_________________________________________________________________
dense_9 (Dense)              (None, 32)                992       
_________________________________________________________________
dense_10 (Dense)             (None, 3)                 99        
=================================================================
Total params: 250,691
Trainable params: 250,691
Non-trainable params: 0
_________________________________________________________________
_________________________________________________________________
Layer (type)                 Output Shape              Param #   
=================================================================
lstm_6 (LSTM)                (None, 35)                291900    
_________________________________________________________________
dropout_6 (Dropout)          (None, 35)                0         
_________________________________________________________________
dense_11 (Dense)             (None, 32)                1152      
_________________________________________________________________
dense_12 (Dense)             (None, 3)                 99        
=================================================================
Total params: 293,151
Trainable params: 293,151
Non-trainable params: 0
_________________________________________________________________
_________________________________________________________________
Layer (type)                 Output Shape              Param #   
=================================================================
lstm_7 (LSTM)                (None, 40)                334400    
_________________________________________________________________
dropout_7 (Dropout)          (None, 40)                0         
_________________________________________________________________
dense_13 (Dense)             (None, 32)                1312      
_________________________________________________________________
dense_14 (Dense)             (None, 3)                 99        
=================================================================
Total params: 335,811
Trainable params: 335,811
Non-trainable params: 0
_________________________________________________________________
_________________________________________________________________
Layer (type)                 Output Shape              Param #   
=================================================================
lstm_8 (LSTM)                (None, 45)                377100    
_________________________________________________________________
dropout_8 (Dropout)          (None, 45)                0         
_________________________________________________________________
dense_15 (Dense)             (None, 32)                1472      
_________________________________________________________________
dense_16 (Dense)             (None, 3)                 99        
=================================================================
Total params: 378,671
Trainable params: 378,671
Non-trainable params: 0
_________________________________________________________________
_________________________________________________________________
Layer (type)                 Output Shape              Param #   
=================================================================
lstm_9 (LSTM)                (None, 50)                420000    
_________________________________________________________________
dropout_9 (Dropout)          (None, 50)                0         
_________________________________________________________________
dense_17 (Dense)             (None, 32)                1632      
_________________________________________________________________
dense_18 (Dense)             (None, 3)                 99        
=================================================================
Total params: 421,731
Trainable params: 421,731
Non-trainable params: 0
_________________________________________________________________
_________________________________________________________________
Layer (type)                 Output Shape              Param #   
=================================================================
lstm_10 (LSTM)               (None, 55)                463100    
_________________________________________________________________
dropout_10 (Dropout)         (None, 55)                0         
_________________________________________________________________
dense_19 (Dense)             (None, 32)                1792      
_________________________________________________________________
dense_20 (Dense)             (None, 3)                 99        
=================================================================
Total params: 464,991
Trainable params: 464,991
Non-trainable params: 0
_________________________________________________________________
10, accuracy: 0.4116959050297737
15, accuracy: 0.4230994194746017
20, accuracy: 0.432748544216156
25, accuracy: 0.4099415272474289
30, accuracy: 0.4055555537343025
35, accuracy: 0.40584795624017717
…
