…
loading:  Subj17_CleanData_test_FA_visual
loading:  Subj17_CleanData_test_LM_visual
loading:  Subj17_CleanData_test_OB_visual
loading:  Subj18_CleanData_test_FA_visual
loading:  Subj18_CleanData_test_LM_visual
loading:  Subj18_CleanData_test_OB_visual
loading:  Subj19_CleanData_test_FA_visual
loading:  Subj19_CleanData_test_LM_visual
loading:  Subj19_CleanData_test_OB_visual
(185, 768, 31)
_________________________________________________________________
Layer (type)                 Output Shape              Param #   
=================================================================
input_1 (InputLayer)         (None, 768, 2)            0         
_________________________________________________________________
lambda_1 (Lambda)            (None, 630, 2)            0         
_________________________________________________________________
gaussian_noise_1 (GaussianNo (None, 630, 2)            0         
_________________________________________________________________
conv1d_1 (Conv1D)            (None, 630, 22)           638       
_________________________________________________________________
batch_normalization_1 (Batch (None, 630, 22)           88        
_________________________________________________________________
elu_1 (ELU)                  (None, 630, 22)           0         
_________________________________________________________________
average_pooling1d_1 (Average (None, 315, 22)           0         
_________________________________________________________________
dropout_1 (Dropout)          (None, 315, 22)           0         
_________________________________________________________________
conv1d_2 (Conv1D)            (None, 315, 25)           13225     
_________________________________________________________________
batch_normalization_2 (Batch (None, 315, 25)           100       
_________________________________________________________________
elu_2 (ELU)                  (None, 315, 25)           0         
_________________________________________________________________
average_pooling1d_2 (Average (None, 157, 25)           0         
_________________________________________________________________
dropout_2 (Dropout)          (None, 157, 25)           0         
_________________________________________________________________
conv1d_3 (Conv1D)            (None, 157, 12)           1212      
_________________________________________________________________
batch_normalization_3 (Batch (None, 157, 12)           48        
_________________________________________________________________
elu_3 (ELU)                  (None, 157, 12)           0         
_________________________________________________________________
average_pooling1d_3 (Average (None, 78, 12)            0         
_________________________________________________________________
dropout_3 (Dropout)          (None, 78, 12)            0         
_________________________________________________________________
flatten_1 (Flatten)          (None, 936)               0         
_________________________________________________________________
dense_1 (Dense)              (None, 26)                24362     
_________________________________________________________________
batch_normalization_4 (Batch (None, 26)                104       
_________________________________________________________________
activation_1 (Activation)    (None, 26)                0         
_________________________________________________________________
dense_2 (Dense)              (None, 23)                621       
_________________________________________________________________
batch_normalization_5 (Batch (None, 23)                92        
_________________________________________________________________
activation_2 (Activation)    (None, 23)                0         
_________________________________________________________________
dense_3 (Dense)              (None, 3)                 72        
=================================================================
Total params: 40,562
Trainable params: 40,346
Non-trainable params: 216
_________________________________________________________________
subject 1, avg accuracy 0.5385964930057525/0.31666666792498693 over 10 splits
subject 2, avg accuracy 0.5561403602361679/0.4405405414265555 over 10 splits
subject 3, avg accuracy 0.6345029205083847/0.3592307692307693 over 10 splits
…
subject 16, avg accuracy 0.5005263179540634/0.35645161626800415 over 10 splits
subject 17, avg accuracy 0.6052631586790085/0.33823529411764713 over 10 splits
subject 18, avg accuracy 0.6654970735311508/0.26857142891202657 over 10 splits
subject 19, avg accuracy 0.48538011908531187/0.3186813193526897 over 10 splits
avg accuracy over all subjects 0.5552582871582773/0.34032558891658576
_________________________________________________________________
Layer (type)                 Output Shape              Param #   
=================================================================
input_1 (InputLayer)         (None, 768, 2)            0         
_________________________________________________________________
lambda_1 (Lambda)            (None, 630, 2)            0         
_________________________________________________________________
gaussian_noise_1 (GaussianNo (None, 630, 2)            0         
_________________________________________________________________
conv1d_1 (Conv1D)            (None, 630, 13)           637       
_________________________________________________________________
batch_normalization_1 (Batch (None, 630, 13)           52        
_________________________________________________________________
elu_1 (ELU)                  (None, 630, 13)           0         
_________________________________________________________________
average_pooling1d_1 (Average (None, 315, 13)           0         
_________________________________________________________________
dropout_1 (Dropout)          (None, 315, 13)           0         
_________________________________________________________________
conv1d_2 (Conv1D)            (None, 315, 21)           3024      
_________________________________________________________________
batch_normalization_2 (Batch (None, 315, 21)           84        
_________________________________________________________________
elu_2 (ELU)                  (None, 315, 21)           0         
_________________________________________________________________
average_pooling1d_2 (Average (None, 157, 21)           0         
_________________________________________________________________
dropout_2 (Dropout)          (None, 157, 21)           0         
_________________________________________________________________
conv1d_3 (Conv1D)            (None, 157, 6)            1266      
_________________________________________________________________
batch_normalization_3 (Batch (None, 157, 6)            24        
_________________________________________________________________
elu_3 (ELU)                  (None, 157, 6)            0         
_________________________________________________________________
average_pooling1d_3 (Average (None, 78, 6)             0         
_________________________________________________________________
dropout_3 (Dropout)          (None, 78, 6)             0         
_________________________________________________________________
flatten_1 (Flatten)          (None, 468)               0         
_________________________________________________________________
dense_1 (Dense)              (None, 7)                 3283      
_________________________________________________________________
batch_normalization_4 (Batch (None, 7)                 28        
_________________________________________________________________
activation_1 (Activation)    (None, 7)                 0         
_________________________________________________________________
dense_2 (Dense)              (None, 16)                128       
_________________________________________________________________
batch_normalization_5 (Batch (None, 16)                64        
_________________________________________________________________
activation_2 (Activation)    (None, 16)                0         
_________________________________________________________________
dense_3 (Dense)              (None, 3)                 51        
=================================================================
Total params: 8,641
Trainable params: 8,515
Non-trainable params: 126
_________________________________________________________________
subject 1, avg accuracy 0.511988314986229/0.34444444649749334 over 10 splits
subject 2, avg accuracy 0.5339181274175644/0.4162162169612743 over 10 splits
subject 3, avg accuracy 0.6505847990512847/0.35769230769230775 over 10 splits
…
subject 16, avg accuracy 0.5055263191461563/0.3629032307094143 over 10 splits
subject 17, avg accuracy 0.6000000029802323/0.3588235294117647 over 10 splits
subject 18, avg accuracy 0.666374272108078/0.28428571492433546 over 10 splits
subject 19, avg accuracy 0.5359649181365966/0.3263736250472593 over 10 splits
avg accuracy over all subjects 0.5581221618586115/0.34058724798329953
_________________________________________________________________
Layer (type)                 Output Shape              Param #   
=================================================================
input_1 (InputLayer)         (None, 768, 2)            0         
_________________________________________________________________
lambda_1 (Lambda)            (None, 630, 2)            0         
_________________________________________________________________
gaussian_noise_1 (GaussianNo (None, 630, 2)            0         
_________________________________________________________________
conv1d_1 (Conv1D)            (None, 630, 30)           630       
_________________________________________________________________
batch_normalization_1 (Batch (None, 630, 30)           120       
_________________________________________________________________
elu_1 (ELU)                  (None, 630, 30)           0         
_________________________________________________________________
average_pooling1d_1 (Average (None, 315, 30)           0         
_________________________________________________________________
dropout_1 (Dropout)          (None, 315, 30)           0         
_________________________________________________________________
conv1d_2 (Conv1D)            (None, 315, 18)           7578      
_________________________________________________________________
batch_normalization_2 (Batch (None, 315, 18)           72        
_________________________________________________________________
elu_2 (ELU)                  (None, 315, 18)           0         
_________________________________________________________________
average_pooling1d_2 (Average (None, 157, 18)           0         
_________________________________________________________________
dropout_2 (Dropout)          (None, 157, 18)           0         
_________________________________________________________________
conv1d_3 (Conv1D)            (None, 157, 18)           2934      
_________________________________________________________________
batch_normalization_3 (Batch (None, 157, 18)           72        
_________________________________________________________________
elu_3 (ELU)                  (None, 157, 18)           0         
_________________________________________________________________
average_pooling1d_3 (Average (None, 78, 18)            0         
_________________________________________________________________
dropout_3 (Dropout)          (None, 78, 18)            0         
_________________________________________________________________
flatten_1 (Flatten)          (None, 1404)              0         
_________________________________________________________________
dense_1 (Dense)              (None, 43)                60415     
_________________________________________________________________
batch_normalization_4 (Batch (None, 43)                172       
_________________________________________________________________
activation_1 (Activation)    (None, 43)                0         
_________________________________________________________________
dense_2 (Dense)              (None, 18)                792       
_________________________________________________________________
batch_normalization_5 (Batch (None, 18)                72        
_________________________________________________________________
activation_2 (Activation)    (None, 18)                0         
_________________________________________________________________
dense_3 (Dense)              (None, 3)                 57        
=================================================================
Total params: 72,914
Trainable params: 72,660
Non-trainable params: 254
_________________________________________________________________
subject 1, avg accuracy 0.5517543822526931/0.3388888931274414 over 10 splits
subject 2, avg accuracy 0.5391812890768051/0.40135135219709284 over 10 splits
subject 3, avg accuracy 0.6558479547500611/0.3576923076923077 over 10 splits
…
subject 16, avg accuracy 0.5218421012163162/0.33064516527998833 over 10 splits
subject 17, avg accuracy 0.6263157844543457/0.33382352941176474 over 10 splits
subject 18, avg accuracy 0.6871345043182373/0.26714285752602984 over 10 splits
subject 19, avg accuracy 0.48070175796747205/0.3021978008223104 over 10 splits
avg accuracy over all subjects 0.5679970776869191/0.3330812139457272
_________________________________________________________________
Layer (type)                 Output Shape              Param #   
=================================================================
input_1 (InputLayer)         (None, 768, 2)            0         
_________________________________________________________________
lambda_1 (Lambda)            (None, 630, 2)            0         
_________________________________________________________________
gaussian_noise_1 (GaussianNo (None, 630, 2)            0         
_________________________________________________________________
conv1d_1 (Conv1D)            (None, 630, 30)           750       
_________________________________________________________________
batch_normalization_1 (Batch (None, 630, 30)           120       
_________________________________________________________________
elu_1 (ELU)                  (None, 630, 30)           0         
_________________________________________________________________
average_pooling1d_1 (Average (None, 315, 30)           0         
_________________________________________________________________
dropout_1 (Dropout)          (None, 315, 30)           0         
_________________________________________________________________
conv1d_2 (Conv1D)            (None, 315, 10)           4510      
_________________________________________________________________
batch_normalization_2 (Batch (None, 315, 10)           40        
_________________________________________________________________
elu_2 (ELU)                  (None, 315, 10)           0         
_________________________________________________________________
average_pooling1d_2 (Average (None, 157, 10)           0         
_________________________________________________________________
dropout_2 (Dropout)          (None, 157, 10)           0         
_________________________________________________________________
conv1d_3 (Conv1D)            (None, 157, 14)           574       
_________________________________________________________________
batch_normalization_3 (Batch (None, 157, 14)           56        
_________________________________________________________________
elu_3 (ELU)                  (None, 157, 14)           0         
_________________________________________________________________
average_pooling1d_3 (Average (None, 78, 14)            0         
_________________________________________________________________
dropout_3 (Dropout)          (None, 78, 14)            0         
_________________________________________________________________
flatten_1 (Flatten)          (None, 1092)              0         
_________________________________________________________________
dense_1 (Dense)              (None, 5)                 5465      
_________________________________________________________________
batch_normalization_4 (Batch (None, 5)                 20        
_________________________________________________________________
activation_1 (Activation)    (None, 5)                 0         
_________________________________________________________________
dense_2 (Dense)              (None, 17)                102       
_________________________________________________________________
batch_normalization_5 (Batch (None, 17)                68        
_________________________________________________________________
activation_2 (Activation)    (None, 17)                0         
_________________________________________________________________
dense_3 (Dense)              (None, 3)                 54        
=================================================================
Total params: 11,759
Trainable params: 11,607
Non-trainable params: 152
_________________________________________________________________
subject 1, avg accuracy 0.6096491366624832/0.3277777791685529 over 10 splits
subject 2, avg accuracy 0.49707601964473724/0.38513513586005643 over 10 splits
subject 3, avg accuracy 0.6564327448606491/0.3623076923076923 over 10 splits
…
subject 16, avg accuracy 0.5110526382923126/0.33548387500547594 over 10 splits
subject 17, avg accuracy 0.6473684191703797/0.34852941176470587 over 10 splits
subject 18, avg accuracy 0.7309941530227662/0.27714285735573085 over 10 splits
subject 19, avg accuracy 0.4687134504318237/0.3142857142693394 over 10 splits
avg accuracy over all subjects 0.5735006526112558/0.33396576616622414
_________________________________________________________________
Layer (type)                 Output Shape              Param #   
=================================================================
input_1 (InputLayer)         (None, 768, 2)            0         
_________________________________________________________________
lambda_1 (Lambda)            (None, 630, 2)            0         
_________________________________________________________________
gaussian_noise_1 (GaussianNo (None, 630, 2)            0         
_________________________________________________________________
conv1d_1 (Conv1D)            (None, 630, 29)           1943      
_________________________________________________________________
batch_normalization_1 (Batch (None, 630, 29)           116       
_________________________________________________________________
elu_1 (ELU)                  (None, 630, 29)           0         
_________________________________________________________________
average_pooling1d_1 (Average (None, 315, 29)           0         
_________________________________________________________________
dropout_1 (Dropout)          (None, 315, 29)           0         
_________________________________________________________________
conv1d_2 (Conv1D)            (None, 315, 15)           5235      
_________________________________________________________________
batch_normalization_2 (Batch (None, 315, 15)           60        
_________________________________________________________________
elu_2 (ELU)                  (None, 315, 15)           0         
_________________________________________________________________
average_pooling1d_2 (Average (None, 157, 15)           0         
_________________________________________________________________
dropout_2 (Dropout)          (None, 157, 15)           0         
_________________________________________________________________
conv1d_3 (Conv1D)            (None, 157, 19)           3724      
_________________________________________________________________
batch_normalization_3 (Batch (None, 157, 19)           76        
_________________________________________________________________
elu_3 (ELU)                  (None, 157, 19)           0         
_________________________________________________________________
average_pooling1d_3 (Average (None, 78, 19)            0         
_________________________________________________________________
dropout_3 (Dropout)          (None, 78, 19)            0         
_________________________________________________________________
flatten_1 (Flatten)          (None, 1482)              0         
_________________________________________________________________
dense_1 (Dense)              (None, 9)                 13347     
_________________________________________________________________
batch_normalization_4 (Batch (None, 9)                 36        
_________________________________________________________________
activation_1 (Activation)    (None, 9)                 0         
_________________________________________________________________
dense_2 (Dense)              (None, 6)                 60        
_________________________________________________________________
batch_normalization_5 (Batch (None, 6)                 24        
_________________________________________________________________
activation_2 (Activation)    (None, 6)                 0         
_________________________________________________________________
dense_3 (Dense)              (None, 3)                 21        
=================================================================
Total params: 24,642
Trainable params: 24,486
Non-trainable params: 156
_________________________________________________________________
subject 1, avg accuracy 0.5076023459434509/0.3488888917366663 over 10 splits
subject 2, avg accuracy 0.5716374278068542/0.41621621754523874 over 10 splits
subject 3, avg accuracy 0.6669590711593628/0.35076923076923083 over 10 splits
…
subject 16, avg accuracy 0.5471052646636962/0.33870968184163497 over 10 splits
subject 17, avg accuracy 0.5789473682641983/0.3205882352941177 over 10 splits
subject 18, avg accuracy 0.6704678416252137/0.26000000034059795 over 10 splits
subject 19, avg accuracy 0.4967836320400238/0.30659340678990543 over 10 splits
avg accuracy over all subjects 0.5537085817919838/0.33410759073225704
_________________________________________________________________
Layer (type)                 Output Shape              Param #   
=================================================================
input_1 (InputLayer)         (None, 768, 2)            0         
_________________________________________________________________
lambda_1 (Lambda)            (None, 630, 2)            0         
_________________________________________________________________
gaussian_noise_1 (GaussianNo (None, 630, 2)            0         
_________________________________________________________________
conv1d_1 (Conv1D)            (None, 630, 36)           2772      
_________________________________________________________________
batch_normalization_1 (Batch (None, 630, 36)           144       
_________________________________________________________________
elu_1 (ELU)                  (None, 630, 36)           0         
_________________________________________________________________
average_pooling1d_1 (Average (None, 315, 36)           0         
_________________________________________________________________
dropout_1 (Dropout)          (None, 315, 36)           0         
_________________________________________________________________
conv1d_2 (Conv1D)            (None, 315, 18)           15570     
_________________________________________________________________
batch_normalization_2 (Batch (None, 315, 18)           72        
_________________________________________________________________
elu_2 (ELU)                  (None, 315, 18)           0         
_________________________________________________________________
average_pooling1d_2 (Average (None, 157, 18)           0         
_________________________________________________________________
dropout_2 (Dropout)          (None, 157, 18)           0         
_________________________________________________________________
conv1d_3 (Conv1D)            (None, 157, 19)           1729      
_________________________________________________________________
batch_normalization_3 (Batch (None, 157, 19)           76        
_________________________________________________________________
elu_3 (ELU)                  (None, 157, 19)           0         
_________________________________________________________________
average_pooling1d_3 (Average (None, 78, 19)            0         
_________________________________________________________________
dropout_3 (Dropout)          (None, 78, 19)            0         
_________________________________________________________________
flatten_1 (Flatten)          (None, 1482)              0         
_________________________________________________________________
dense_1 (Dense)              (None, 12)                17796     
_________________________________________________________________
batch_normalization_4 (Batch (None, 12)                48        
_________________________________________________________________
activation_1 (Activation)    (None, 12)                0         
_________________________________________________________________
dense_2 (Dense)              (None, 10)                130       
_________________________________________________________________
batch_normalization_5 (Batch (None, 10)                40        
_________________________________________________________________
activation_2 (Activation)    (None, 10)                0         
_________________________________________________________________
dense_3 (Dense)              (None, 3)                 33        
=================================================================
Total params: 38,410
Trainable params: 38,220
Non-trainable params: 190
_________________________________________________________________
subject 1, avg accuracy 0.5137426882982254/0.35555555846956044 over 10 splits
subject 2, avg accuracy 0.5818713456392288/0.4297297308976586 over 10 splits
subject 3, avg accuracy 0.6929824590682984/0.3530769230769231 over 10 splits
…
subject 16, avg accuracy 0.5002631574869156/0.3629032298441856 over 10 splits
subject 17, avg accuracy 0.6105263113975525/0.31617647058823534 over 10 splits
subject 18, avg accuracy 0.6380116939544678/0.28428571466888697 over 10 splits
subject 19, avg accuracy 0.49122807681560515/0.3175824174022937 over 10 splits
avg accuracy over all subjects 0.5594883059461913/0.33542132783622364
_________________________________________________________________
Layer (type)                 Output Shape              Param #   
=================================================================
input_1 (InputLayer)         (None, 768, 2)            0         
_________________________________________________________________
lambda_1 (Lambda)            (None, 630, 2)            0         
_________________________________________________________________
gaussian_noise_1 (GaussianNo (None, 630, 2)            0         
_________________________________________________________________
conv1d_1 (Conv1D)            (None, 630, 22)           946       
_________________________________________________________________
batch_normalization_1 (Batch (None, 630, 22)           88        
_________________________________________________________________
elu_1 (ELU)                  (None, 630, 22)           0         
_________________________________________________________________
average_pooling1d_1 (Average (None, 315, 22)           0         
_________________________________________________________________
dropout_1 (Dropout)          (None, 315, 22)           0         
_________________________________________________________________
conv1d_2 (Conv1D)            (None, 315, 27)           13095     
_________________________________________________________________
batch_normalization_2 (Batch (None, 315, 27)           108       
_________________________________________________________________
elu_2 (ELU)                  (None, 315, 27)           0         
_________________________________________________________________
average_pooling1d_2 (Average (None, 157, 27)           0         
_________________________________________________________________
dropout_2 (Dropout)          (None, 157, 27)           0         
_________________________________________________________________
conv1d_3 (Conv1D)            (None, 157, 17)           5984      
_________________________________________________________________
batch_normalization_3 (Batch (None, 157, 17)           68        
_________________________________________________________________
elu_3 (ELU)                  (None, 157, 17)           0         
_________________________________________________________________
average_pooling1d_3 (Average (None, 78, 17)            0         
_________________________________________________________________
dropout_3 (Dropout)          (None, 78, 17)            0         
_________________________________________________________________
flatten_1 (Flatten)          (None, 1326)              0         
_________________________________________________________________
dense_1 (Dense)              (None, 12)                15924     
_________________________________________________________________
batch_normalization_4 (Batch (None, 12)                48        
_________________________________________________________________
activation_1 (Activation)    (None, 12)                0         
_________________________________________________________________
dense_2 (Dense)              (None, 29)                377       
_________________________________________________________________
batch_normalization_5 (Batch (None, 29)                116       
_________________________________________________________________
activation_2 (Activation)    (None, 29)                0         
_________________________________________________________________
dense_3 (Dense)              (None, 3)                 90        
=================================================================
Total params: 36,844
Trainable params: 36,630
Non-trainable params: 214
_________________________________________________________________
subject 1, avg accuracy 0.5236842140555382/0.3311111119720671 over 10 splits
subject 2, avg accuracy 0.5921052634716034/0.4297297304949244 over 10 splits
subject 3, avg accuracy 0.650877195596695/0.35923076923076924 over 10 splits
…
subject 16, avg accuracy 0.4636842101812363/0.34516129522554334 over 10 splits
subject 17, avg accuracy 0.6105263262987137/0.3323529411764706 over 10 splits
subject 18, avg accuracy 0.6321637600660324/0.2828571431125913 over 10 splits
subject 19, avg accuracy 0.4643274903297424/0.3076923076759328 over 10 splits
avg accuracy over all subjects 0.5547742077873813/0.3385733584276191
_________________________________________________________________
Layer (type)                 Output Shape              Param #   
=================================================================
input_1 (InputLayer)         (None, 768, 2)            0         
_________________________________________________________________
lambda_1 (Lambda)            (None, 630, 2)            0         
_________________________________________________________________
gaussian_noise_1 (GaussianNo (None, 630, 2)            0         
_________________________________________________________________
conv1d_1 (Conv1D)            (None, 630, 34)           1666      
_________________________________________________________________
batch_normalization_1 (Batch (None, 630, 34)           136       
_________________________________________________________________
elu_1 (ELU)                  (None, 630, 34)           0         
_________________________________________________________________
average_pooling1d_1 (Average (None, 315, 34)           0         
_________________________________________________________________
dropout_1 (Dropout)          (None, 315, 34)           0         
_________________________________________________________________
conv1d_2 (Conv1D)            (None, 315, 11)           4125      
_________________________________________________________________
batch_normalization_2 (Batch (None, 315, 11)           44        
_________________________________________________________________
elu_2 (ELU)                  (None, 315, 11)           0         
_________________________________________________________________
average_pooling1d_2 (Average (None, 157, 11)           0         
_________________________________________________________________
dropout_2 (Dropout)          (None, 157, 11)           0         
_________________________________________________________________
conv1d_3 (Conv1D)            (None, 157, 6)            864       
_________________________________________________________________
batch_normalization_3 (Batch (None, 157, 6)            24        
_________________________________________________________________
elu_3 (ELU)                  (None, 157, 6)            0         
_________________________________________________________________
average_pooling1d_3 (Average (None, 78, 6)             0         
_________________________________________________________________
dropout_3 (Dropout)          (None, 78, 6)             0         
_________________________________________________________________
flatten_1 (Flatten)          (None, 468)               0         
_________________________________________________________________
dense_1 (Dense)              (None, 46)                21574     
_________________________________________________________________
batch_normalization_4 (Batch (None, 46)                184       
_________________________________________________________________
activation_1 (Activation)    (None, 46)                0         
_________________________________________________________________
dense_2 (Dense)              (None, 21)                987       
_________________________________________________________________
batch_normalization_5 (Batch (None, 21)                84        
_________________________________________________________________
activation_2 (Activation)    (None, 21)                0         
_________________________________________________________________
dense_3 (Dense)              (None, 3)                 66        
=================================================================
Total params: 29,754
Trainable params: 29,518
Non-trainable params: 236
_________________________________________________________________
subject 1, avg accuracy 0.4698830470442772/0.34111111336284217 over 10 splits
subject 2, avg accuracy 0.5622807025909424/0.427027027711675 over 10 splits
subject 3, avg accuracy 0.6342105299234391/0.37153846153846154 over 10 splits
…
subject 16, avg accuracy 0.5157894730567932/0.33709677842355545 over 10 splits
subject 17, avg accuracy 0.6368421018123627/0.35000000000000003 over 10 splits
subject 18, avg accuracy 0.6608187168836593/0.2685714287843023 over 10 splits
subject 19, avg accuracy 0.4757309973239899/0.29340659401246477 over 10 splits
avg accuracy over all subjects 0.5770630314118332/0.3380481830087129
_________________________________________________________________
Layer (type)                 Output Shape              Param #   
=================================================================
input_1 (InputLayer)         (None, 768, 2)            0         
_________________________________________________________________
lambda_1 (Lambda)            (None, 630, 2)            0         
_________________________________________________________________
gaussian_noise_1 (GaussianNo (None, 630, 2)            0         
_________________________________________________________________
conv1d_1 (Conv1D)            (None, 630, 23)           1587      
_________________________________________________________________
batch_normalization_1 (Batch (None, 630, 23)           92        
_________________________________________________________________
elu_1 (ELU)                  (None, 630, 23)           0         
_________________________________________________________________
average_pooling1d_1 (Average (None, 315, 23)           0         
_________________________________________________________________
dropout_1 (Dropout)          (None, 315, 23)           0         
_________________________________________________________________
conv1d_2 (Conv1D)            (None, 315, 29)           13369     
_________________________________________________________________
batch_normalization_2 (Batch (None, 315, 29)           116       
_________________________________________________________________
elu_2 (ELU)                  (None, 315, 29)           0         
_________________________________________________________________
average_pooling1d_2 (Average (None, 157, 29)           0         
_________________________________________________________________
dropout_2 (Dropout)          (None, 157, 29)           0         
_________________________________________________________________
conv1d_3 (Conv1D)            (None, 157, 15)           1755      
_________________________________________________________________
batch_normalization_3 (Batch (None, 157, 15)           60        
_________________________________________________________________
elu_3 (ELU)                  (None, 157, 15)           0         
_________________________________________________________________
average_pooling1d_3 (Average (None, 78, 15)            0         
_________________________________________________________________
dropout_3 (Dropout)          (None, 78, 15)            0         
_________________________________________________________________
flatten_1 (Flatten)          (None, 1170)              0         
_________________________________________________________________
dense_1 (Dense)              (None, 49)                57379     
_________________________________________________________________
batch_normalization_4 (Batch (None, 49)                196       
_________________________________________________________________
activation_1 (Activation)    (None, 49)                0         
_________________________________________________________________
dense_2 (Dense)              (None, 6)                 300       
_________________________________________________________________
batch_normalization_5 (Batch (None, 6)                 24        
_________________________________________________________________
activation_2 (Activation)    (None, 6)                 0         
_________________________________________________________________
dense_3 (Dense)              (None, 3)                 21        
=================================================================
Total params: 74,899
Trainable params: 74,655
Non-trainable params: 244
_________________________________________________________________
subject 1, avg accuracy 0.5406432777643204/0.33888889061080085 over 10 splits
subject 2, avg accuracy 0.560526317358017/0.3972972982839958 over 10 splits
subject 3, avg accuracy 0.6070175468921661/0.3638461538461539 over 10 splits
…
subject 16, avg accuracy 0.516052633523941/0.3306451654722614 over 10 splits
subject 17, avg accuracy 0.5526315838098526/0.34705882352941175 over 10 splits
subject 18, avg accuracy 0.6757309913635254/0.25142857164144516 over 10 splits
subject 19, avg accuracy 0.5467836350202561/0.29560439442540265 over 10 splits
avg accuracy over all subjects 0.5554564676351018/0.3328567825851299
_________________________________________________________________
Layer (type)                 Output Shape              Param #   
=================================================================
input_1 (InputLayer)         (None, 768, 2)            0         
_________________________________________________________________
lambda_1 (Lambda)            (None, 630, 2)            0         
_________________________________________________________________
gaussian_noise_1 (GaussianNo (None, 630, 2)            0         
_________________________________________________________________
conv1d_1 (Conv1D)            (None, 630, 28)           2156      
_________________________________________________________________
batch_normalization_1 (Batch (None, 630, 28)           112       
_________________________________________________________________
elu_1 (ELU)                  (None, 630, 28)           0         
_________________________________________________________________
average_pooling1d_1 (Average (None, 315, 28)           0         
_________________________________________________________________
dropout_1 (Dropout)          (None, 315, 28)           0         
_________________________________________________________________
conv1d_2 (Conv1D)            (None, 315, 21)           5901      
_________________________________________________________________
batch_normalization_2 (Batch (None, 315, 21)           84        
_________________________________________________________________
elu_2 (ELU)                  (None, 315, 21)           0         
_________________________________________________________________
average_pooling1d_2 (Average (None, 157, 21)           0         
_________________________________________________________________
dropout_2 (Dropout)          (None, 157, 21)           0         
_________________________________________________________________
conv1d_3 (Conv1D)            (None, 157, 8)            2360      
_________________________________________________________________
batch_normalization_3 (Batch (None, 157, 8)            32        
_________________________________________________________________
elu_3 (ELU)                  (None, 157, 8)            0         
_________________________________________________________________
average_pooling1d_3 (Average (None, 78, 8)             0         
_________________________________________________________________
dropout_3 (Dropout)          (None, 78, 8)             0         
_________________________________________________________________
flatten_1 (Flatten)          (None, 624)               0         
_________________________________________________________________
dense_1 (Dense)              (None, 15)                9375      
_________________________________________________________________
batch_normalization_4 (Batch (None, 15)                60        
_________________________________________________________________
activation_1 (Activation)    (None, 15)                0         
_________________________________________________________________
dense_2 (Dense)              (None, 24)                384       
_________________________________________________________________
batch_normalization_5 (Batch (None, 24)                96        
_________________________________________________________________
activation_2 (Activation)    (None, 24)                0         
_________________________________________________________________
dense_3 (Dense)              (None, 3)                 75        
=================================================================
Total params: 20,635
Trainable params: 20,443
Non-trainable params: 192
_________________________________________________________________
subject 1, avg accuracy 0.5722222268581391/0.33888889027966396 over 10 splits
subject 2, avg accuracy 0.587134501338005/0.4175675682924889 over 10 splits
subject 3, avg accuracy 0.6181286603212357/0.37384615384615383 over 10 splits
…
subject 16, avg accuracy 0.5478947341442109/0.3483871004754497 over 10 splits
subject 17, avg accuracy 0.584210529923439/0.33529411764705885 over 10 splits
subject 18, avg accuracy 0.724269014596939/0.2700000001277242 over 10 splits
subject 19, avg accuracy 0.5078947365283966/0.2813186810403079 over 10 splits
avg accuracy over all subjects 0.5663352863656149/0.3359800039079841
_________________________________________________________________
Layer (type)                 Output Shape              Param #   
=================================================================
input_1 (InputLayer)         (None, 768, 2)            0         
_________________________________________________________________
lambda_1 (Lambda)            (None, 630, 2)            0         
_________________________________________________________________
gaussian_noise_1 (GaussianNo (None, 630, 2)            0         
_________________________________________________________________
conv1d_1 (Conv1D)            (None, 630, 19)           1235      
_________________________________________________________________
batch_normalization_1 (Batch (None, 630, 19)           76        
_________________________________________________________________
elu_1 (ELU)                  (None, 630, 19)           0         
_________________________________________________________________
average_pooling1d_1 (Average (None, 315, 19)           0         
_________________________________________________________________
dropout_1 (Dropout)          (None, 315, 19)           0         
_________________________________________________________________
conv1d_2 (Conv1D)            (None, 315, 17)           4539      
_________________________________________________________________
batch_normalization_2 (Batch (None, 315, 17)           68        
_________________________________________________________________
elu_2 (ELU)                  (None, 315, 17)           0         
_________________________________________________________________
average_pooling1d_2 (Average (None, 157, 17)           0         
_________________________________________________________________
dropout_2 (Dropout)          (None, 157, 17)           0         
_________________________________________________________________
conv1d_3 (Conv1D)            (None, 157, 19)           4218      
_________________________________________________________________
batch_normalization_3 (Batch (None, 157, 19)           76        
_________________________________________________________________
elu_3 (ELU)                  (None, 157, 19)           0         
_________________________________________________________________
average_pooling1d_3 (Average (None, 78, 19)            0         
_________________________________________________________________
dropout_3 (Dropout)          (None, 78, 19)            0         
_________________________________________________________________
flatten_1 (Flatten)          (None, 1482)              0         
_________________________________________________________________
dense_1 (Dense)              (None, 27)                40041     
_________________________________________________________________
batch_normalization_4 (Batch (None, 27)                108       
_________________________________________________________________
activation_1 (Activation)    (None, 27)                0         
_________________________________________________________________
dense_2 (Dense)              (None, 26)                728       
_________________________________________________________________
batch_normalization_5 (Batch (None, 26)                104       
_________________________________________________________________
activation_2 (Activation)    (None, 26)                0         
_________________________________________________________________
dense_3 (Dense)              (None, 3)                 81        
=================================================================
Total params: 51,274
Trainable params: 51,058
Non-trainable params: 216
_________________________________________________________________
subject 1, avg accuracy 0.5128655001521111/0.3366666690508525 over 10 splits
subject 2, avg accuracy 0.5502923965454102/0.41351351431898176 over 10 splits
subject 3, avg accuracy 0.693274849653244/0.36615384615384616 over 10 splits
…
subject 16, avg accuracy 0.48447369039058685/0.3161290369206859 over 10 splits
subject 17, avg accuracy 0.5684210568666458/0.34117647058823536 over 10 splits
subject 18, avg accuracy 0.6976608157157898/0.2771428574834551 over 10 splits
subject 19, avg accuracy 0.4470760315656662/0.3131868127774406 over 10 splits
avg accuracy over all subjects 0.5639847340683142/0.33808245977652196
_________________________________________________________________
Layer (type)                 Output Shape              Param #   
=================================================================
input_1 (InputLayer)         (None, 768, 2)            0         
_________________________________________________________________
lambda_1 (Lambda)            (None, 630, 2)            0         
_________________________________________________________________
gaussian_noise_1 (GaussianNo (None, 630, 2)            0         
_________________________________________________________________
conv1d_1 (Conv1D)            (None, 630, 37)           1295      
_________________________________________________________________
batch_normalization_1 (Batch (None, 630, 37)           148       
_________________________________________________________________
elu_1 (ELU)                  (None, 630, 37)           0         
_________________________________________________________________
average_pooling1d_1 (Average (None, 315, 37)           0         
_________________________________________________________________
dropout_1 (Dropout)          (None, 315, 37)           0         
_________________________________________________________________
conv1d_2 (Conv1D)            (None, 315, 22)           8162      
_________________________________________________________________
batch_normalization_2 (Batch (None, 315, 22)           88        
_________________________________________________________________
elu_2 (ELU)                  (None, 315, 22)           0         
_________________________________________________________________
average_pooling1d_2 (Average (None, 157, 22)           0         
_________________________________________________________________
dropout_2 (Dropout)          (None, 157, 22)           0         
_________________________________________________________________
conv1d_3 (Conv1D)            (None, 157, 5)            1545      
_________________________________________________________________
batch_normalization_3 (Batch (None, 157, 5)            20        
_________________________________________________________________
elu_3 (ELU)                  (None, 157, 5)            0         
_________________________________________________________________
average_pooling1d_3 (Average (None, 78, 5)             0         
_________________________________________________________________
dropout_3 (Dropout)          (None, 78, 5)             0         
_________________________________________________________________
flatten_1 (Flatten)          (None, 390)               0         
_________________________________________________________________
dense_1 (Dense)              (None, 37)                14467     
_________________________________________________________________
batch_normalization_4 (Batch (None, 37)                148       
_________________________________________________________________
activation_1 (Activation)    (None, 37)                0         
_________________________________________________________________
dense_2 (Dense)              (None, 28)                1064      
_________________________________________________________________
batch_normalization_5 (Batch (None, 28)                112       
_________________________________________________________________
activation_2 (Activation)    (None, 28)                0         
_________________________________________________________________
dense_3 (Dense)              (None, 3)                 87        
=================================================================
Total params: 27,136
Trainable params: 26,878
Non-trainable params: 258
_________________________________________________________________
subject 1, avg accuracy 0.5833333343267441/0.33666666792498695 over 10 splits
subject 2, avg accuracy 0.571637424826622/0.4175675680508485 over 10 splits
subject 3, avg accuracy 0.7046783566474915/0.37384615384615383 over 10 splits
…
subject 15, avg accuracy 0.5476608246564865/0.26719999989271165 over 10 splits
subject 16, avg accuracy 0.4742105185985565/0.32258065044879913 over 10 splits
subject 17, avg accuracy 0.6473684191703797/0.35 over 10 splits
subject 18, avg accuracy 0.7456140339374542/0.2742857145837375 over 10 splits
subject 19, avg accuracy 0.469298255443573/0.3054945049705086 over 10 splits
avg accuracy over all subjects 0.5701673176553513/0.3375582117118138
_________________________________________________________________
Layer (type)                 Output Shape              Param #   
=================================================================
input_1 (InputLayer)         (None, 768, 2)            0         
_________________________________________________________________
lambda_1 (Lambda)            (None, 630, 2)            0         
_________________________________________________________________
gaussian_noise_1 (GaussianNo (None, 630, 2)            0         
_________________________________________________________________
conv1d_1 (Conv1D)            (None, 630, 31)           2697      
_________________________________________________________________
batch_normalization_1 (Batch (None, 630, 31)           124       
_________________________________________________________________
elu_1 (ELU)                  (None, 630, 31)           0         
_________________________________________________________________
average_pooling1d_1 (Average (None, 315, 31)           0         
_________________________________________________________________
dropout_1 (Dropout)          (None, 315, 31)           0         
_________________________________________________________________
conv1d_2 (Conv1D)            (None, 315, 17)           8449      
_________________________________________________________________
batch_normalization_2 (Batch (None, 315, 17)           68        
_________________________________________________________________
elu_2 (ELU)                  (None, 315, 17)           0         
_________________________________________________________________
average_pooling1d_2 (Average (None, 157, 17)           0         
_________________________________________________________________
dropout_2 (Dropout)          (None, 157, 17)           0         
_________________________________________________________________
conv1d_3 (Conv1D)            (None, 157, 6)            414       
_________________________________________________________________
batch_normalization_3 (Batch (None, 157, 6)            24        
_________________________________________________________________
elu_3 (ELU)                  (None, 157, 6)            0         
_________________________________________________________________
average_pooling1d_3 (Average (None, 78, 6)             0         
_________________________________________________________________
dropout_3 (Dropout)          (None, 78, 6)             0         
_________________________________________________________________
flatten_1 (Flatten)          (None, 468)               0         
_________________________________________________________________
dense_1 (Dense)              (None, 26)                12194     
_________________________________________________________________
batch_normalization_4 (Batch (None, 26)                104       
_________________________________________________________________
activation_1 (Activation)    (None, 26)                0         
_________________________________________________________________
dense_2 (Dense)              (None, 27)                729       
_________________________________________________________________
batch_normalization_5 (Batch (None, 27)                108       
_________________________________________________________________
activation_2 (Activation)    (None, 27)                0         
_________________________________________________________________
dense_3 (Dense)              (None, 3)                 84        
=================================================================
Total params: 24,995
Trainable params: 24,781
Non-trainable params: 214
_________________________________________________________________
subject 1, avg accuracy 0.5500000029802322/0.34555555827087825 over 10 splits
subject 2, avg accuracy 0.5713450282812118/0.4270270280338623 over 10 splits
subject 3, avg accuracy 0.6982456088066101/0.36615384615384616 over 10 splits
…
subject 16, avg accuracy 0.5521052658557892/0.3387096810244745 over 10 splits
subject 17, avg accuracy 0.6263157844543457/0.32352941176470595 over 10 splits
subject 18, avg accuracy 0.7245614051818847/0.27571428584200997 over 10 splits
subject 19, avg accuracy 0.5134503036737442/0.2945054946692435 over 10 splits
avg accuracy over all subjects 0.5756513986322614/0.334678854028608
_________________________________________________________________
Layer (type)                 Output Shape              Param #   
=================================================================
input_1 (InputLayer)         (None, 768, 2)            0         
_________________________________________________________________
lambda_1 (Lambda)            (None, 630, 2)            0         
_________________________________________________________________
gaussian_noise_1 (GaussianNo (None, 630, 2)            0         
_________________________________________________________________
conv1d_1 (Conv1D)            (None, 630, 10)           230       
_________________________________________________________________
batch_normalization_1 (Batch (None, 630, 10)           40        
_________________________________________________________________
elu_1 (ELU)                  (None, 630, 10)           0         
_________________________________________________________________
average_pooling1d_1 (Average (None, 315, 10)           0         
_________________________________________________________________
dropout_1 (Dropout)          (None, 315, 10)           0         
_________________________________________________________________
conv1d_2 (Conv1D)            (None, 315, 25)           4775      
_________________________________________________________________
batch_normalization_2 (Batch (None, 315, 25)           100       
_________________________________________________________________
elu_2 (ELU)                  (None, 315, 25)           0         
_________________________________________________________________
average_pooling1d_2 (Average (None, 157, 25)           0         
_________________________________________________________________
dropout_2 (Dropout)          (None, 157, 25)           0         
_________________________________________________________________
conv1d_3 (Conv1D)            (None, 157, 14)           3514      
_________________________________________________________________
batch_normalization_3 (Batch (None, 157, 14)           56        
_________________________________________________________________
elu_3 (ELU)                  (None, 157, 14)           0         
_________________________________________________________________
average_pooling1d_3 (Average (None, 78, 14)            0         
_________________________________________________________________
dropout_3 (Dropout)          (None, 78, 14)            0         
_________________________________________________________________
flatten_1 (Flatten)          (None, 1092)              0         
_________________________________________________________________
dense_1 (Dense)              (None, 41)                44813     
_________________________________________________________________
batch_normalization_4 (Batch (None, 41)                164       
_________________________________________________________________
activation_1 (Activation)    (None, 41)                0         
_________________________________________________________________
dense_2 (Dense)              (None, 22)                924       
_________________________________________________________________
batch_normalization_5 (Batch (None, 22)                88        
_________________________________________________________________
activation_2 (Activation)    (None, 22)                0         
_________________________________________________________________
dense_3 (Dense)              (None, 3)                 69        
=================================================================
Total params: 54,773
Trainable params: 54,549
Non-trainable params: 224
_________________________________________________________________
subject 1, avg accuracy 0.5614035114645958/0.33444444722599453 over 10 splits
subject 2, avg accuracy 0.5657894730567932/0.41621621690086413 over 10 splits
subject 3, avg accuracy 0.640350878238678/0.35461538461538467 over 10 splits
…
subject 16, avg accuracy 0.521842098236084/0.34032258468289533 over 10 splits
subject 17, avg accuracy 0.6052631556987762/0.34558823529411764 over 10 splits
subject 18, avg accuracy 0.7078947365283966/0.25571428584200995 over 10 splits
subject 19, avg accuracy 0.5026315897703171/0.31648351605776903 over 10 splits
avg accuracy over all subjects 0.5651218337317307/0.33831247972486683
_________________________________________________________________
Layer (type)                 Output Shape              Param #   
=================================================================
input_1 (InputLayer)         (None, 768, 2)            0         
_________________________________________________________________
lambda_1 (Lambda)            (None, 630, 2)            0         
_________________________________________________________________
gaussian_noise_1 (GaussianNo (None, 630, 2)            0         
_________________________________________________________________
conv1d_1 (Conv1D)            (None, 630, 38)           1102      
_________________________________________________________________
batch_normalization_1 (Batch (None, 630, 38)           152       
_________________________________________________________________
elu_1 (ELU)                  (None, 630, 38)           0         
_________________________________________________________________
average_pooling1d_1 (Average (None, 315, 38)           0         
_________________________________________________________________
dropout_1 (Dropout)          (None, 315, 38)           0         
_________________________________________________________________
conv1d_2 (Conv1D)            (None, 315, 10)           5330      
_________________________________________________________________
batch_normalization_2 (Batch (None, 315, 10)           40        
_________________________________________________________________
elu_2 (ELU)                  (None, 315, 10)           0         
_________________________________________________________________
average_pooling1d_2 (Average (None, 157, 10)           0         
_________________________________________________________________
dropout_2 (Dropout)          (None, 157, 10)           0         
_________________________________________________________________
conv1d_3 (Conv1D)            (None, 157, 15)           2115      
_________________________________________________________________
batch_normalization_3 (Batch (None, 157, 15)           60        
_________________________________________________________________
elu_3 (ELU)                  (None, 157, 15)           0         
_________________________________________________________________
average_pooling1d_3 (Average (None, 78, 15)            0         
_________________________________________________________________
dropout_3 (Dropout)          (None, 78, 15)            0         
_________________________________________________________________
flatten_1 (Flatten)          (None, 1170)              0         
_________________________________________________________________
dense_1 (Dense)              (None, 34)                39814     
_________________________________________________________________
batch_normalization_4 (Batch (None, 34)                136       
_________________________________________________________________
activation_1 (Activation)    (None, 34)                0         
_________________________________________________________________
dense_2 (Dense)              (None, 6)                 210       
_________________________________________________________________
batch_normalization_5 (Batch (None, 6)                 24        
_________________________________________________________________
activation_2 (Activation)    (None, 6)                 0         
_________________________________________________________________
dense_3 (Dense)              (None, 3)                 21        
=================================================================
Total params: 49,004
Trainable params: 48,798
Non-trainable params: 206
_________________________________________________________________
subject 1, avg accuracy 0.5766081899404526/0.3488888896173901 over 10 splits
subject 2, avg accuracy 0.5239766091108322/0.3851351361016969 over 10 splits
subject 3, avg accuracy 0.6295321673154831/0.36230769230769233 over 10 splits
…
subject 16, avg accuracy 0.5357894778251648/0.3387096813128841 over 10 splits
subject 17, avg accuracy 0.5736842066049576/0.3397058823529412 over 10 splits
subject 18, avg accuracy 0.6868421077728272/0.2557142861826079 over 10 splits
subject 19, avg accuracy 0.4918128699064255/0.3230769220125544 over 10 splits
avg accuracy over all subjects 0.5653752482599683/0.3375511185852804
_________________________________________________________________
Layer (type)                 Output Shape              Param #   
=================================================================
input_1 (InputLayer)         (None, 768, 2)            0         
_________________________________________________________________
lambda_1 (Lambda)            (None, 630, 2)            0         
_________________________________________________________________
gaussian_noise_1 (GaussianNo (None, 630, 2)            0         
_________________________________________________________________
conv1d_1 (Conv1D)            (None, 630, 20)           700       
_________________________________________________________________
batch_normalization_1 (Batch (None, 630, 20)           80        
_________________________________________________________________
elu_1 (ELU)                  (None, 630, 20)           0         
_________________________________________________________________
average_pooling1d_1 (Average (None, 315, 20)           0         
_________________________________________________________________
dropout_1 (Dropout)          (None, 315, 20)           0         
_________________________________________________________________
conv1d_2 (Conv1D)            (None, 315, 21)           5481      
_________________________________________________________________
batch_normalization_2 (Batch (None, 315, 21)           84        
_________________________________________________________________
elu_2 (ELU)                  (None, 315, 21)           0         
_________________________________________________________________
average_pooling1d_2 (Average (None, 157, 21)           0         
_________________________________________________________________
dropout_2 (Dropout)          (None, 157, 21)           0         
_________________________________________________________________
conv1d_3 (Conv1D)            (None, 157, 10)           1900      
_________________________________________________________________
batch_normalization_3 (Batch (None, 157, 10)           40        
_________________________________________________________________
elu_3 (ELU)                  (None, 157, 10)           0         
_________________________________________________________________
average_pooling1d_3 (Average (None, 78, 10)            0         
_________________________________________________________________
dropout_3 (Dropout)          (None, 78, 10)            0         
_________________________________________________________________
flatten_1 (Flatten)          (None, 780)               0         
_________________________________________________________________
dense_1 (Dense)              (None, 20)                15620     
_________________________________________________________________
batch_normalization_4 (Batch (None, 20)                80        
_________________________________________________________________
activation_1 (Activation)    (None, 20)                0         
_________________________________________________________________
dense_2 (Dense)              (None, 17)                357       
_________________________________________________________________
batch_normalization_5 (Batch (None, 17)                68        
_________________________________________________________________
activation_2 (Activation)    (None, 17)                0         
_________________________________________________________________
dense_3 (Dense)              (None, 3)                 54        
=================================================================
Total params: 24,464
Trainable params: 24,288
Non-trainable params: 176
_________________________________________________________________
subject 1, avg accuracy 0.5131579011678695/0.3377777791023254 over 10 splits
subject 2, avg accuracy 0.5289473682641983/0.43783783888494643 over 10 splits
subject 3, avg accuracy 0.650584802031517/0.37846153846153846 over 10 splits
…
subject 16, avg accuracy 0.5268421053886414/0.3290322611408849 over 10 splits
subject 17, avg accuracy 0.6210526317358017/0.3411764705882353 over 10 splits
subject 18, avg accuracy 0.6599415123462677/0.2642857147114618 over 10 splits
subject 19, avg accuracy 0.48625731766223906/0.3131868123189433 over 10 splits
avg accuracy over all subjects 0.5614002618524765/0.3365684456519279
_________________________________________________________________
Layer (type)                 Output Shape              Param #   
=================================================================
input_1 (InputLayer)         (None, 768, 2)            0         
_________________________________________________________________
lambda_1 (Lambda)            (None, 630, 2)            0         
_________________________________________________________________
gaussian_noise_1 (GaussianNo (None, 630, 2)            0         
_________________________________________________________________
conv1d_1 (Conv1D)            (None, 630, 39)           1833      
_________________________________________________________________
batch_normalization_1 (Batch (None, 630, 39)           156       
_________________________________________________________________
elu_1 (ELU)                  (None, 630, 39)           0         
_________________________________________________________________
average_pooling1d_1 (Average (None, 315, 39)           0         
_________________________________________________________________
dropout_1 (Dropout)          (None, 315, 39)           0         
_________________________________________________________________
conv1d_2 (Conv1D)            (None, 315, 28)           17500     
_________________________________________________________________
batch_normalization_2 (Batch (None, 315, 28)           112       
_________________________________________________________________
elu_2 (ELU)                  (None, 315, 28)           0         
_________________________________________________________________
average_pooling1d_2 (Average (None, 157, 28)           0         
_________________________________________________________________
dropout_2 (Dropout)          (None, 157, 28)           0         
_________________________________________________________________
conv1d_3 (Conv1D)            (None, 157, 10)           3930      
_________________________________________________________________
batch_normalization_3 (Batch (None, 157, 10)           40        
_________________________________________________________________
elu_3 (ELU)                  (None, 157, 10)           0         
_________________________________________________________________
average_pooling1d_3 (Average (None, 78, 10)            0         
_________________________________________________________________
dropout_3 (Dropout)          (None, 78, 10)            0         
_________________________________________________________________
flatten_1 (Flatten)          (None, 780)               0         
_________________________________________________________________
dense_1 (Dense)              (None, 31)                24211     
_________________________________________________________________
batch_normalization_4 (Batch (None, 31)                124       
_________________________________________________________________
activation_1 (Activation)    (None, 31)                0         
_________________________________________________________________
dense_2 (Dense)              (None, 25)                800       
_________________________________________________________________
batch_normalization_5 (Batch (None, 25)                100       
_________________________________________________________________
activation_2 (Activation)    (None, 25)                0         
_________________________________________________________________
dense_3 (Dense)              (None, 3)                 78        
=================================================================
Total params: 48,884
Trainable params: 48,618
Non-trainable params: 266
_________________________________________________________________
subject 1, avg accuracy 0.5988304108381272/0.33888889094193775 over 10 splits
subject 2, avg accuracy 0.5505847960710526/0.4270270273894877 over 10 splits
subject 3, avg accuracy 0.6488304138183594/0.3615384615384616 over 10 splits
…
subject 16, avg accuracy 0.5207894712686538/0.31935484361264016 over 10 splits
subject 17, avg accuracy 0.5473684221506119/0.3441176470588236 over 10 splits
subject 18, avg accuracy 0.6058479636907578/0.26142857172659467 over 10 splits
subject 19, avg accuracy 0.5131578937172889/0.29230769245506644 over 10 splits
avg accuracy over all subjects 0.5624772610763709/0.3374314953573902
_________________________________________________________________
Layer (type)                 Output Shape              Param #   
=================================================================
input_1 (InputLayer)         (None, 768, 2)            0         
_________________________________________________________________
lambda_1 (Lambda)            (None, 630, 2)            0         
_________________________________________________________________
gaussian_noise_1 (GaussianNo (None, 630, 2)            0         
_________________________________________________________________
conv1d_1 (Conv1D)            (None, 630, 39)           1365      
_________________________________________________________________
batch_normalization_1 (Batch (None, 630, 39)           156       
_________________________________________________________________
elu_1 (ELU)                  (None, 630, 39)           0         
_________________________________________________________________
average_pooling1d_1 (Average (None, 315, 39)           0         
_________________________________________________________________
dropout_1 (Dropout)          (None, 315, 39)           0         
_________________________________________________________________
conv1d_2 (Conv1D)            (None, 315, 26)           13208     
_________________________________________________________________
batch_normalization_2 (Batch (None, 315, 26)           104       
_________________________________________________________________
elu_2 (ELU)                  (None, 315, 26)           0         
_________________________________________________________________
average_pooling1d_2 (Average (None, 157, 26)           0         
_________________________________________________________________
dropout_2 (Dropout)          (None, 157, 26)           0         
_________________________________________________________________
conv1d_3 (Conv1D)            (None, 157, 15)           3525      
_________________________________________________________________
batch_normalization_3 (Batch (None, 157, 15)           60        
_________________________________________________________________
elu_3 (ELU)                  (None, 157, 15)           0         
_________________________________________________________________
average_pooling1d_3 (Average (None, 78, 15)            0         
_________________________________________________________________
dropout_3 (Dropout)          (None, 78, 15)            0         
_________________________________________________________________
flatten_1 (Flatten)          (None, 1170)              0         
_________________________________________________________________
dense_1 (Dense)              (None, 49)                57379     
_________________________________________________________________
batch_normalization_4 (Batch (None, 49)                196       
_________________________________________________________________
activation_1 (Activation)    (None, 49)                0         
_________________________________________________________________
dense_2 (Dense)              (None, 28)                1400      
_________________________________________________________________
batch_normalization_5 (Batch (None, 28)                112       
_________________________________________________________________
activation_2 (Activation)    (None, 28)                0         
_________________________________________________________________
dense_3 (Dense)              (None, 3)                 87        
=================================================================
Total params: 77,592
Trainable params: 77,278
Non-trainable params: 314
_________________________________________________________________
subject 1, avg accuracy 0.5570175498723984/0.3277777794996897 over 10 splits
subject 2, avg accuracy 0.5450292468070984/0.4229729743422689 over 10 splits
subject 3, avg accuracy 0.6073099434375763/0.356923076923077 over 10 splits
…
subject 16, avg accuracy 0.5415789514780045/0.3209677463096957 over 10 splits
subject 17, avg accuracy 0.6052631646394729/0.34558823529411764 over 10 splits
subject 18, avg accuracy 0.6874269038438797/0.2614285716840199 over 10 splits
subject 19, avg accuracy 0.4912280797958374/0.3054945052325071 over 10 splits
avg accuracy over all subjects 0.5638255402445793/0.3360119260343043
_________________________________________________________________
Layer (type)                 Output Shape              Param #   
=================================================================
input_1 (InputLayer)         (None, 768, 2)            0         
_________________________________________________________________
lambda_1 (Lambda)            (None, 630, 2)            0         
_________________________________________________________________
gaussian_noise_1 (GaussianNo (None, 630, 2)            0         
_________________________________________________________________
conv1d_1 (Conv1D)            (None, 630, 18)           198       
_________________________________________________________________
batch_normalization_1 (Batch (None, 630, 18)           72        
_________________________________________________________________
elu_1 (ELU)                  (None, 630, 18)           0         
_________________________________________________________________
average_pooling1d_1 (Average (None, 315, 18)           0         
_________________________________________________________________
dropout_1 (Dropout)          (None, 315, 18)           0         
_________________________________________________________________
conv1d_2 (Conv1D)            (None, 315, 14)           4046      
_________________________________________________________________
batch_normalization_2 (Batch (None, 315, 14)           56        
_________________________________________________________________
elu_2 (ELU)                  (None, 315, 14)           0         
_________________________________________________________________
average_pooling1d_2 (Average (None, 157, 14)           0         
_________________________________________________________________
dropout_2 (Dropout)          (None, 157, 14)           0         
_________________________________________________________________
conv1d_3 (Conv1D)            (None, 157, 18)           1530      
_________________________________________________________________
batch_normalization_3 (Batch (None, 157, 18)           72        
_________________________________________________________________
elu_3 (ELU)                  (None, 157, 18)           0         
_________________________________________________________________
average_pooling1d_3 (Average (None, 78, 18)            0         
_________________________________________________________________
dropout_3 (Dropout)          (None, 78, 18)            0         
_________________________________________________________________
flatten_1 (Flatten)          (None, 1404)              0         
_________________________________________________________________
dense_1 (Dense)              (None, 44)                61820     
_________________________________________________________________
batch_normalization_4 (Batch (None, 44)                176       
_________________________________________________________________
activation_1 (Activation)    (None, 44)                0         
_________________________________________________________________
dense_2 (Dense)              (None, 19)                855       
_________________________________________________________________
batch_normalization_5 (Batch (None, 19)                76        
_________________________________________________________________
activation_2 (Activation)    (None, 19)                0         
_________________________________________________________________
dense_3 (Dense)              (None, 3)                 60        
=================================================================
Total params: 68,961
Trainable params: 68,735
Non-trainable params: 226
_________________________________________________________________
subject 1, avg accuracy 0.5447368502616883/0.35000000185436675 over 10 splits
subject 2, avg accuracy 0.555263164639473/0.42567567640059706 over 10 splits
subject 3, avg accuracy 0.6444444507360458/0.36230769230769233 over 10 splits
…
subject 16, avg accuracy 0.5210526347160339/0.348387100331245 over 10 splits
subject 17, avg accuracy 0.5842105269432067/0.34264705882352936 over 10 splits
subject 18, avg accuracy 0.7190058529376984/0.25571428618260794 over 10 splits
subject 19, avg accuracy 0.5078947395086288/0.3219780216013992 over 10 splits
avg accuracy over all subjects 0.5638076720966233/0.33635586596863937
_________________________________________________________________
Layer (type)                 Output Shape              Param #   
=================================================================
input_1 (InputLayer)         (None, 768, 2)            0         
_________________________________________________________________
lambda_1 (Lambda)            (None, 630, 2)            0         
_________________________________________________________________
gaussian_noise_1 (GaussianNo (None, 630, 2)            0         
_________________________________________________________________
conv1d_1 (Conv1D)            (None, 630, 20)           620       
_________________________________________________________________
batch_normalization_1 (Batch (None, 630, 20)           80        
_________________________________________________________________
elu_1 (ELU)                  (None, 630, 20)           0         
_________________________________________________________________
average_pooling1d_1 (Average (None, 315, 20)           0         
_________________________________________________________________
dropout_1 (Dropout)          (None, 315, 20)           0         
_________________________________________________________________
conv1d_2 (Conv1D)            (None, 315, 12)           5532      
_________________________________________________________________
batch_normalization_2 (Batch (None, 315, 12)           48        
_________________________________________________________________
elu_2 (ELU)                  (None, 315, 12)           0         
_________________________________________________________________
average_pooling1d_2 (Average (None, 157, 12)           0         
_________________________________________________________________
dropout_2 (Dropout)          (None, 157, 12)           0         
_________________________________________________________________
conv1d_3 (Conv1D)            (None, 157, 5)            845       
_________________________________________________________________
batch_normalization_3 (Batch (None, 157, 5)            20        
_________________________________________________________________
elu_3 (ELU)                  (None, 157, 5)            0         
_________________________________________________________________
average_pooling1d_3 (Average (None, 78, 5)             0         
_________________________________________________________________
dropout_3 (Dropout)          (None, 78, 5)             0         
_________________________________________________________________
flatten_1 (Flatten)          (None, 390)               0         
_________________________________________________________________
dense_1 (Dense)              (None, 33)                12903     
_________________________________________________________________
batch_normalization_4 (Batch (None, 33)                132       
_________________________________________________________________
activation_1 (Activation)    (None, 33)                0         
_________________________________________________________________
dense_2 (Dense)              (None, 25)                850       
_________________________________________________________________
batch_normalization_5 (Batch (None, 25)                100       
_________________________________________________________________
activation_2 (Activation)    (None, 25)                0         
_________________________________________________________________
dense_3 (Dense)              (None, 3)                 78        
=================================================================
Total params: 21,208
Trainable params: 21,018
Non-trainable params: 190
_________________________________________________________________
subject 1, avg accuracy 0.5233918219804764/0.3111111133628422 over 10 splits
subject 2, avg accuracy 0.6093567281961441/0.41351351431898176 over 10 splits
subject 3, avg accuracy 0.6824561387300492/0.35000000000000003 over 10 splits
…
subject 16, avg accuracy 0.5050000041723252/0.32903226315975187 over 10 splits
subject 17, avg accuracy 0.6684210538864136/0.3279411764705883 over 10 splits
subject 18, avg accuracy 0.6274853825569153/0.2828571433254651 over 10 splits
subject 19, avg accuracy 0.5190058559179306/0.3065934056436623 over 10 splits
avg accuracy over all subjects 0.5669753128455746/0.3343017730053334
_________________________________________________________________
Layer (type)                 Output Shape              Param #   
=================================================================
input_1 (InputLayer)         (None, 768, 2)            0         
_________________________________________________________________
lambda_1 (Lambda)            (None, 630, 2)            0         
_________________________________________________________________
gaussian_noise_1 (GaussianNo (None, 630, 2)            0         
_________________________________________________________________
conv1d_1 (Conv1D)            (None, 630, 22)           1518      
_________________________________________________________________
batch_normalization_1 (Batch (None, 630, 22)           88        
_________________________________________________________________
elu_1 (ELU)                  (None, 630, 22)           0         
_________________________________________________________________
average_pooling1d_1 (Average (None, 315, 22)           0         
_________________________________________________________________
dropout_1 (Dropout)          (None, 315, 22)           0         
_________________________________________________________________
conv1d_2 (Conv1D)            (None, 315, 15)           7935      
_________________________________________________________________
batch_normalization_2 (Batch (None, 315, 15)           60        
_________________________________________________________________
elu_2 (ELU)                  (None, 315, 15)           0         
_________________________________________________________________
average_pooling1d_2 (Average (None, 157, 15)           0         
_________________________________________________________________
dropout_2 (Dropout)          (None, 157, 15)           0         
_________________________________________________________________
conv1d_3 (Conv1D)            (None, 157, 6)            906       
_________________________________________________________________
batch_normalization_3 (Batch (None, 157, 6)            24        
_________________________________________________________________
elu_3 (ELU)                  (None, 157, 6)            0         
_________________________________________________________________
average_pooling1d_3 (Average (None, 78, 6)             0         
_________________________________________________________________
dropout_3 (Dropout)          (None, 78, 6)             0         
_________________________________________________________________
flatten_1 (Flatten)          (None, 468)               0         
_________________________________________________________________
dense_1 (Dense)              (None, 15)                7035      
_________________________________________________________________
batch_normalization_4 (Batch (None, 15)                60        
_________________________________________________________________
activation_1 (Activation)    (None, 15)                0         
_________________________________________________________________
dense_2 (Dense)              (None, 25)                400       
_________________________________________________________________
batch_normalization_5 (Batch (None, 25)                100       
_________________________________________________________________
activation_2 (Activation)    (None, 25)                0         
_________________________________________________________________
dense_3 (Dense)              (None, 3)                 78        
=================================================================
Total params: 18,204
Trainable params: 18,038
Non-trainable params: 166
_________________________________________________________________
subject 1, avg accuracy 0.5596491366624832/0.33111111217074923 over 10 splits
subject 2, avg accuracy 0.5865497142076492/0.42027027163956615 over 10 splits
subject 3, avg accuracy 0.6508771926164627/0.3646153846153846 over 10 splits
…
subject 16, avg accuracy 0.526315787434578/0.32258064905481953 over 10 splits
subject 17, avg accuracy 0.6526315808296204/0.34558823529411764 over 10 splits
subject 18, avg accuracy 0.6491228073835373/0.2671428575686046 over 10 splits
subject 19, avg accuracy 0.5195906445384025/0.3076923068244379 over 10 splits
avg accuracy over all subjects 0.5719655666914251/0.3361250167870418
_________________________________________________________________
Layer (type)                 Output Shape              Param #   
=================================================================
input_1 (InputLayer)         (None, 768, 2)            0         
_________________________________________________________________
lambda_1 (Lambda)            (None, 630, 2)            0         
_________________________________________________________________
gaussian_noise_1 (GaussianNo (None, 630, 2)            0         
_________________________________________________________________
conv1d_1 (Conv1D)            (None, 630, 23)           759       
_________________________________________________________________
batch_normalization_1 (Batch (None, 630, 23)           92        
_________________________________________________________________
elu_1 (ELU)                  (None, 630, 23)           0         
_________________________________________________________________
average_pooling1d_1 (Average (None, 315, 23)           0         
_________________________________________________________________
dropout_1 (Dropout)          (None, 315, 23)           0         
_________________________________________________________________
conv1d_2 (Conv1D)            (None, 315, 27)           14931     
_________________________________________________________________
batch_normalization_2 (Batch (None, 315, 27)           108       
_________________________________________________________________
elu_2 (ELU)                  (None, 315, 27)           0         
_________________________________________________________________
average_pooling1d_2 (Average (None, 157, 27)           0         
_________________________________________________________________
dropout_2 (Dropout)          (None, 157, 27)           0         
_________________________________________________________________
conv1d_3 (Conv1D)            (None, 157, 16)           2176      
_________________________________________________________________
batch_normalization_3 (Batch (None, 157, 16)           64        
_________________________________________________________________
elu_3 (ELU)                  (None, 157, 16)           0         
_________________________________________________________________
average_pooling1d_3 (Average (None, 78, 16)            0         
_________________________________________________________________
dropout_3 (Dropout)          (None, 78, 16)            0         
_________________________________________________________________
flatten_1 (Flatten)          (None, 1248)              0         
_________________________________________________________________
dense_1 (Dense)              (None, 24)                29976     
_________________________________________________________________
batch_normalization_4 (Batch (None, 24)                96        
_________________________________________________________________
activation_1 (Activation)    (None, 24)                0         
_________________________________________________________________
dense_2 (Dense)              (None, 5)                 125       
_________________________________________________________________
batch_normalization_5 (Batch (None, 5)                 20        
_________________________________________________________________
activation_2 (Activation)    (None, 5)                 0         
_________________________________________________________________
dense_3 (Dense)              (None, 3)                 18        
=================================================================
Total params: 48,365
Trainable params: 48,175
Non-trainable params: 190
_________________________________________________________________
subject 1, avg accuracy 0.5459064453840256/0.3366666683885786 over 10 splits
subject 2, avg accuracy 0.5444444417953491/0.42027027099519165 over 10 splits
subject 3, avg accuracy 0.6020467817783356/0.36307692307692313 over 10 splits
…
subject 16, avg accuracy 0.537105268239975/0.3338709715393282 over 10 splits
subject 17, avg accuracy 0.6263157933950424/0.3279411764705883 over 10 splits
subject 18, avg accuracy 0.6766081809997558/0.2571428574408804 over 10 splits
subject 19, avg accuracy 0.5137427002191544/0.3076923081344301 over 10 splits
avg accuracy over all subjects 0.5669233300619655/0.335900746587886
_________________________________________________________________
Layer (type)                 Output Shape              Param #   
=================================================================
input_1 (InputLayer)         (None, 768, 2)            0         
_________________________________________________________________
lambda_1 (Lambda)            (None, 630, 2)            0         
_________________________________________________________________
gaussian_noise_1 (GaussianNo (None, 630, 2)            0         
_________________________________________________________________
conv1d_1 (Conv1D)            (None, 630, 25)           1425      
_________________________________________________________________
batch_normalization_1 (Batch (None, 630, 25)           100       
_________________________________________________________________
elu_1 (ELU)                  (None, 630, 25)           0         
_________________________________________________________________
average_pooling1d_1 (Average (None, 315, 25)           0         
_________________________________________________________________
dropout_1 (Dropout)          (None, 315, 25)           0         
_________________________________________________________________
conv1d_2 (Conv1D)            (None, 315, 21)           11046     
_________________________________________________________________
batch_normalization_2 (Batch (None, 315, 21)           84        
_________________________________________________________________
elu_2 (ELU)                  (None, 315, 21)           0         
_________________________________________________________________
average_pooling1d_2 (Average (None, 157, 21)           0         
_________________________________________________________________
dropout_2 (Dropout)          (None, 157, 21)           0         
_________________________________________________________________
conv1d_3 (Conv1D)            (None, 157, 19)           1615      
_________________________________________________________________
batch_normalization_3 (Batch (None, 157, 19)           76        
_________________________________________________________________
elu_3 (ELU)                  (None, 157, 19)           0         
_________________________________________________________________
average_pooling1d_3 (Average (None, 78, 19)            0         
_________________________________________________________________
dropout_3 (Dropout)          (None, 78, 19)            0         
_________________________________________________________________
flatten_1 (Flatten)          (None, 1482)              0         
_________________________________________________________________
dense_1 (Dense)              (None, 34)                50422     
_________________________________________________________________
batch_normalization_4 (Batch (None, 34)                136       
_________________________________________________________________
activation_1 (Activation)    (None, 34)                0         
_________________________________________________________________
dense_2 (Dense)              (None, 19)                665       
_________________________________________________________________
batch_normalization_5 (Batch (None, 19)                76        
_________________________________________________________________
activation_2 (Activation)    (None, 19)                0         
_________________________________________________________________
dense_3 (Dense)              (None, 3)                 60        
=================================================================
Total params: 65,705
Trainable params: 65,469
Non-trainable params: 236
_________________________________________________________________
subject 1, avg accuracy 0.5500000029802322/0.325555557012558 over 10 splits
subject 2, avg accuracy 0.5833333402872085/0.40405405510116266 over 10 splits
subject 3, avg accuracy 0.7093567252159119/0.36 over 10 splits
…
subject 16, avg accuracy 0.5315789431333542/0.3370967782312824 over 10 splits
subject 17, avg accuracy 0.6473684132099151/0.3161764705882353 over 10 splits
subject 18, avg accuracy 0.7461988270282746/0.25857142882687706 over 10 splits
subject 19, avg accuracy 0.5517543971538543/0.2901098909450101 over 10 splits
avg accuracy over all subjects 0.5796734920806353/0.3327441211762643
_________________________________________________________________
Layer (type)                 Output Shape              Param #   
=================================================================
input_1 (InputLayer)         (None, 768, 2)            0         
_________________________________________________________________
lambda_1 (Lambda)            (None, 630, 2)            0         
_________________________________________________________________
gaussian_noise_1 (GaussianNo (None, 630, 2)            0         
_________________________________________________________________
conv1d_1 (Conv1D)            (None, 630, 36)           3132      
_________________________________________________________________
batch_normalization_1 (Batch (None, 630, 36)           144       
_________________________________________________________________
elu_1 (ELU)                  (None, 630, 36)           0         
_________________________________________________________________
average_pooling1d_1 (Average (None, 315, 36)           0         
_________________________________________________________________
dropout_1 (Dropout)          (None, 315, 36)           0         
_________________________________________________________________
conv1d_2 (Conv1D)            (None, 315, 25)           10825     
_________________________________________________________________
batch_normalization_2 (Batch (None, 315, 25)           100       
_________________________________________________________________
elu_2 (ELU)                  (None, 315, 25)           0         
_________________________________________________________________
average_pooling1d_2 (Average (None, 157, 25)           0         
_________________________________________________________________
dropout_2 (Dropout)          (None, 157, 25)           0         
_________________________________________________________________
conv1d_3 (Conv1D)            (None, 157, 14)           4914      
_________________________________________________________________
batch_normalization_3 (Batch (None, 157, 14)           56        
_________________________________________________________________
elu_3 (ELU)                  (None, 157, 14)           0         
_________________________________________________________________
average_pooling1d_3 (Average (None, 78, 14)            0         
_________________________________________________________________
dropout_3 (Dropout)          (None, 78, 14)            0         
_________________________________________________________________
flatten_1 (Flatten)          (None, 1092)              0         
_________________________________________________________________
dense_1 (Dense)              (None, 12)                13116     
_________________________________________________________________
batch_normalization_4 (Batch (None, 12)                48        
_________________________________________________________________
activation_1 (Activation)    (None, 12)                0         
_________________________________________________________________
dense_2 (Dense)              (None, 27)                351       
_________________________________________________________________
batch_normalization_5 (Batch (None, 27)                108       
_________________________________________________________________
activation_2 (Activation)    (None, 27)                0         
_________________________________________________________________
dense_3 (Dense)              (None, 3)                 84        
=================================================================
Total params: 32,878
Trainable params: 32,650
Non-trainable params: 228
_________________________________________________________________
subject 1, avg accuracy 0.5660818725824356/0.33888889041211867 over 10 splits
subject 2, avg accuracy 0.5555555492639541/0.4229729735972108 over 10 splits
subject 3, avg accuracy 0.65/0.37153846153846154 over 10 splits
…
subject 16, avg accuracy 0.5363157868385315/0.34677419648055113 over 10 splits
subject 17, avg accuracy 0.6473684161901474/0.3411764705882353 over 10 splits
subject 18, avg accuracy 0.6643274843692779/0.26714285752602984 over 10 splits
subject 19, avg accuracy 0.5084795385599137/0.2956043951458983 over 10 splits
avg accuracy over all subjects 0.555833334972461/0.3397695977685022
_________________________________________________________________
Layer (type)                 Output Shape              Param #   
=================================================================
input_1 (InputLayer)         (None, 768, 2)            0         
_________________________________________________________________
lambda_1 (Lambda)            (None, 630, 2)            0         
_________________________________________________________________
gaussian_noise_1 (GaussianNo (None, 630, 2)            0         
_________________________________________________________________
conv1d_1 (Conv1D)            (None, 630, 20)           1980      
_________________________________________________________________
batch_normalization_1 (Batch (None, 630, 20)           80        
_________________________________________________________________
elu_1 (ELU)                  (None, 630, 20)           0         
_________________________________________________________________
average_pooling1d_1 (Average (None, 315, 20)           0         
_________________________________________________________________
dropout_1 (Dropout)          (None, 315, 20)           0         
_________________________________________________________________
conv1d_2 (Conv1D)            (None, 315, 10)           2810      
_________________________________________________________________
batch_normalization_2 (Batch (None, 315, 10)           40        
_________________________________________________________________
elu_2 (ELU)                  (None, 315, 10)           0         
_________________________________________________________________
average_pooling1d_2 (Average (None, 157, 10)           0         
_________________________________________________________________
dropout_2 (Dropout)          (None, 157, 10)           0         
_________________________________________________________________
conv1d_3 (Conv1D)            (None, 157, 6)            366       
_________________________________________________________________
batch_normalization_3 (Batch (None, 157, 6)            24        
_________________________________________________________________
elu_3 (ELU)                  (None, 157, 6)            0         
_________________________________________________________________
average_pooling1d_3 (Average (None, 78, 6)             0         
_________________________________________________________________
dropout_3 (Dropout)          (None, 78, 6)             0         
_________________________________________________________________
flatten_1 (Flatten)          (None, 468)               0         
_________________________________________________________________
dense_1 (Dense)              (None, 25)                11725     
_________________________________________________________________
batch_normalization_4 (Batch (None, 25)                100       
_________________________________________________________________
activation_1 (Activation)    (None, 25)                0         
_________________________________________________________________
dense_2 (Dense)              (None, 6)                 156       
_________________________________________________________________
batch_normalization_5 (Batch (None, 6)                 24        
_________________________________________________________________
activation_2 (Activation)    (None, 6)                 0         
_________________________________________________________________
dense_3 (Dense)              (None, 3)                 21        
=================================================================
Total params: 17,326
Trainable params: 17,192
Non-trainable params: 134
_________________________________________________________________
subject 1, avg accuracy 0.6254385977983474/0.33111111256811354 over 10 splits
subject 2, avg accuracy 0.5391812860965729/0.4270270279533155 over 10 splits
subject 3, avg accuracy 0.6391812920570373/0.36846153846153845 over 10 splits
…
subject 16, avg accuracy 0.526315787434578/0.31935484265127495 over 10 splits
subject 17, avg accuracy 0.6052631616592408/0.36323529411764705 over 10 splits
subject 18, avg accuracy 0.7254385948181152/0.2871428573131561 over 10 splits
subject 19, avg accuracy 0.497076028585434/0.2989010988519742 over 10 splits
avg accuracy over all subjects 0.5763823947972723/0.3335756086979402
_________________________________________________________________
Layer (type)                 Output Shape              Param #   
=================================================================
input_1 (InputLayer)         (None, 768, 2)            0         
_________________________________________________________________
lambda_1 (Lambda)            (None, 630, 2)            0         
_________________________________________________________________
gaussian_noise_1 (GaussianNo (None, 630, 2)            0         
_________________________________________________________________
conv1d_1 (Conv1D)            (None, 630, 31)           1705      
_________________________________________________________________
batch_normalization_1 (Batch (None, 630, 31)           124       
_________________________________________________________________
elu_1 (ELU)                  (None, 630, 31)           0         
_________________________________________________________________
average_pooling1d_1 (Average (None, 315, 31)           0         
_________________________________________________________________
dropout_1 (Dropout)          (None, 315, 31)           0         
_________________________________________________________________
conv1d_2 (Conv1D)            (None, 315, 29)           12615     
_________________________________________________________________
batch_normalization_2 (Batch (None, 315, 29)           116       
_________________________________________________________________
elu_2 (ELU)                  (None, 315, 29)           0         
_________________________________________________________________
average_pooling1d_2 (Average (None, 157, 29)           0         
_________________________________________________________________
dropout_2 (Dropout)          (None, 157, 29)           0         
_________________________________________________________________
conv1d_3 (Conv1D)            (None, 157, 6)            1746      
_________________________________________________________________
batch_normalization_3 (Batch (None, 157, 6)            24        
_________________________________________________________________
elu_3 (ELU)                  (None, 157, 6)            0         
_________________________________________________________________
average_pooling1d_3 (Average (None, 78, 6)             0         
_________________________________________________________________
dropout_3 (Dropout)          (None, 78, 6)             0         
_________________________________________________________________
flatten_1 (Flatten)          (None, 468)               0         
_________________________________________________________________
dense_1 (Dense)              (None, 32)                15008     
_________________________________________________________________
batch_normalization_4 (Batch (None, 32)                128       
_________________________________________________________________
activation_1 (Activation)    (None, 32)                0         
_________________________________________________________________
dense_2 (Dense)              (None, 27)                891       
_________________________________________________________________
batch_normalization_5 (Batch (None, 27)                108       
_________________________________________________________________
activation_2 (Activation)    (None, 27)                0         
_________________________________________________________________
dense_3 (Dense)              (None, 3)                 84        
=================================================================
Total params: 32,549
Trainable params: 32,299
Non-trainable params: 250
_________________________________________________________________
subject 1, avg accuracy 0.5444444507360459/0.32888889094193774 over 10 splits
subject 2, avg accuracy 0.5605263113975525/0.40945946058711497 over 10 splits
subject 3, avg accuracy 0.6511695921421051/0.3584615384615385 over 10 splits
…
subject 16, avg accuracy 0.5365789502859115/0.33387097120285036 over 10 splits
subject 17, avg accuracy 0.6052631616592408/0.3426470588235294 over 10 splits
subject 18, avg accuracy 0.7035087704658508/0.2700000002980233 over 10 splits
subject 19, avg accuracy 0.4748538061976433/0.31538461538461543 over 10 splits
avg accuracy over all subjects 0.5642332726882563/0.33690939037051154
_________________________________________________________________
Layer (type)                 Output Shape              Param #   
=================================================================
input_1 (InputLayer)         (None, 768, 2)            0         
_________________________________________________________________
lambda_1 (Lambda)            (None, 630, 2)            0         
_________________________________________________________________
gaussian_noise_1 (GaussianNo (None, 630, 2)            0         
_________________________________________________________________
conv1d_1 (Conv1D)            (None, 630, 11)           363       
_________________________________________________________________
batch_normalization_1 (Batch (None, 630, 11)           44        
_________________________________________________________________
elu_1 (ELU)                  (None, 630, 11)           0         
_________________________________________________________________
average_pooling1d_1 (Average (None, 315, 11)           0         
_________________________________________________________________
dropout_1 (Dropout)          (None, 315, 11)           0         
_________________________________________________________________
conv1d_2 (Conv1D)            (None, 315, 27)           5076      
_________________________________________________________________
batch_normalization_2 (Batch (None, 315, 27)           108       
_________________________________________________________________
elu_2 (ELU)                  (None, 315, 27)           0         
_________________________________________________________________
average_pooling1d_2 (Average (None, 157, 27)           0         
_________________________________________________________________
dropout_2 (Dropout)          (None, 157, 27)           0         
_________________________________________________________________
conv1d_3 (Conv1D)            (None, 157, 11)           2981      
_________________________________________________________________
batch_normalization_3 (Batch (None, 157, 11)           44        
_________________________________________________________________
elu_3 (ELU)                  (None, 157, 11)           0         
_________________________________________________________________
average_pooling1d_3 (Average (None, 78, 11)            0         
_________________________________________________________________
dropout_3 (Dropout)          (None, 78, 11)            0         
_________________________________________________________________
flatten_1 (Flatten)          (None, 858)               0         
_________________________________________________________________
dense_1 (Dense)              (None, 32)                27488     
_________________________________________________________________
batch_normalization_4 (Batch (None, 32)                128       
_________________________________________________________________
activation_1 (Activation)    (None, 32)                0         
_________________________________________________________________
dense_2 (Dense)              (None, 21)                693       
_________________________________________________________________
batch_normalization_5 (Batch (None, 21)                84        
_________________________________________________________________
activation_2 (Activation)    (None, 21)                0         
_________________________________________________________________
dense_3 (Dense)              (None, 3)                 66        
=================================================================
Total params: 37,075
Trainable params: 36,871
Non-trainable params: 204
_________________________________________________________________
subject 1, avg accuracy 0.5397660881280899/0.34000000072850123 over 10 splits
subject 2, avg accuracy 0.5549707740545273/0.3986486496957572 over 10 splits
subject 3, avg accuracy 0.6505847990512847/0.36538461538461536 over 10 splits
…
subject 16, avg accuracy 0.506052628159523/0.3306451665778314 over 10 splits
subject 17, avg accuracy 0.6210526287555694/0.33235294117647063 over 10 splits
subject 18, avg accuracy 0.6748537987470626/0.25428571466888705 over 10 splits
subject 19, avg accuracy 0.5134502977132798/0.30219780195217866 over 10 splits
avg accuracy over all subjects 0.5659015629026625/0.3321332648454037
_________________________________________________________________
Layer (type)                 Output Shape              Param #   
=================================================================
input_1 (InputLayer)         (None, 768, 2)            0         
_________________________________________________________________
lambda_1 (Lambda)            (None, 630, 2)            0         
_________________________________________________________________
gaussian_noise_1 (GaussianNo (None, 630, 2)            0         
_________________________________________________________________
conv1d_1 (Conv1D)            (None, 630, 18)           1170      
_________________________________________________________________
batch_normalization_1 (Batch (None, 630, 18)           72        
_________________________________________________________________
elu_1 (ELU)                  (None, 630, 18)           0         
_________________________________________________________________
average_pooling1d_1 (Average (None, 315, 18)           0         
_________________________________________________________________
dropout_1 (Dropout)          (None, 315, 18)           0         
_________________________________________________________________
conv1d_2 (Conv1D)            (None, 315, 16)           5488      
_________________________________________________________________
batch_normalization_2 (Batch (None, 315, 16)           64        
_________________________________________________________________
elu_2 (ELU)                  (None, 315, 16)           0         
_________________________________________________________________
average_pooling1d_2 (Average (None, 157, 16)           0         
_________________________________________________________________
dropout_2 (Dropout)          (None, 157, 16)           0         
_________________________________________________________________
conv1d_3 (Conv1D)            (None, 157, 15)           975       
_________________________________________________________________
batch_normalization_3 (Batch (None, 157, 15)           60        
_________________________________________________________________
elu_3 (ELU)                  (None, 157, 15)           0         
_________________________________________________________________
average_pooling1d_3 (Average (None, 78, 15)            0         
_________________________________________________________________
dropout_3 (Dropout)          (None, 78, 15)            0         
_________________________________________________________________
flatten_1 (Flatten)          (None, 1170)              0         
_________________________________________________________________
dense_1 (Dense)              (None, 20)                23420     
_________________________________________________________________
batch_normalization_4 (Batch (None, 20)                80        
_________________________________________________________________
activation_1 (Activation)    (None, 20)                0         
_________________________________________________________________
dense_2 (Dense)              (None, 24)                504       
_________________________________________________________________
batch_normalization_5 (Batch (None, 24)                96        
_________________________________________________________________
activation_2 (Activation)    (None, 24)                0         
_________________________________________________________________
dense_3 (Dense)              (None, 3)                 75        
=================================================================
Total params: 32,004
Trainable params: 31,818
Non-trainable params: 186
_________________________________________________________________
subject 1, avg accuracy 0.5233918264508247/0.3533333343929715 over 10 splits
subject 2, avg accuracy 0.5769005864858627/0.4202702714381991 over 10 splits
subject 3, avg accuracy 0.6511695981025696/0.3646153846153846 over 10 splits
…
subject 15, avg accuracy 0.5421052634716034/0.27199999970793726 over 10 splits
subject 16, avg accuracy 0.5255263149738312/0.32419355247289905 over 10 splits
subject 17, avg accuracy 0.6/0.34411764705882353 over 10 splits
subject 18, avg accuracy 0.6874269127845765/0.2357142861826079 over 10 splits
subject 19, avg accuracy 0.5187134563922882/0.3076923072010606 over 10 splits
avg accuracy over all subjects 0.5645809005531999/0.3360582593243076
_________________________________________________________________
Layer (type)                 Output Shape              Param #   
=================================================================
input_1 (InputLayer)         (None, 768, 2)            0         
_________________________________________________________________
lambda_1 (Lambda)            (None, 630, 2)            0         
_________________________________________________________________
gaussian_noise_1 (GaussianNo (None, 630, 2)            0         
_________________________________________________________________
conv1d_1 (Conv1D)            (None, 630, 35)           2065      
_________________________________________________________________
batch_normalization_1 (Batch (None, 630, 35)           140       
_________________________________________________________________
elu_1 (ELU)                  (None, 630, 35)           0         
_________________________________________________________________
average_pooling1d_1 (Average (None, 315, 35)           0         
_________________________________________________________________
dropout_1 (Dropout)          (None, 315, 35)           0         
_________________________________________________________________
conv1d_2 (Conv1D)            (None, 315, 28)           8848      
_________________________________________________________________
batch_normalization_2 (Batch (None, 315, 28)           112       
_________________________________________________________________
elu_2 (ELU)                  (None, 315, 28)           0         
_________________________________________________________________
average_pooling1d_2 (Average (None, 157, 28)           0         
_________________________________________________________________
dropout_2 (Dropout)          (None, 157, 28)           0         
_________________________________________________________________
conv1d_3 (Conv1D)            (None, 157, 7)            2751      
_________________________________________________________________
batch_normalization_3 (Batch (None, 157, 7)            28        
_________________________________________________________________
elu_3 (ELU)                  (None, 157, 7)            0         
_________________________________________________________________
average_pooling1d_3 (Average (None, 78, 7)             0         
_________________________________________________________________
dropout_3 (Dropout)          (None, 78, 7)             0         
_________________________________________________________________
flatten_1 (Flatten)          (None, 546)               0         
_________________________________________________________________
dense_1 (Dense)              (None, 39)                21333     
_________________________________________________________________
batch_normalization_4 (Batch (None, 39)                156       
_________________________________________________________________
activation_1 (Activation)    (None, 39)                0         
_________________________________________________________________
dense_2 (Dense)              (None, 10)                400       
_________________________________________________________________
batch_normalization_5 (Batch (None, 10)                40        
_________________________________________________________________
activation_2 (Activation)    (None, 10)                0         
_________________________________________________________________
dense_3 (Dense)              (None, 3)                 33        
=================================================================
Total params: 35,906
Trainable params: 35,668
Non-trainable params: 238
_________________________________________________________________
subject 1, avg accuracy 0.5923976600170135/0.34888889061080086 over 10 splits
subject 2, avg accuracy 0.5657894730567932/0.4297297304546511 over 10 splits
subject 3, avg accuracy 0.6497076034545899/0.3707692307692308 over 10 splits
…
subject 16, avg accuracy 0.5323684215545654/0.32903226133315794 over 10 splits
subject 17, avg accuracy 0.6473684191703797/0.3426470588235294 over 10 splits
subject 18, avg accuracy 0.6532163798809052/0.28285714324031563 over 10 splits
subject 19, avg accuracy 0.5017544016242027/0.3087912085455852 over 10 splits
avg accuracy over all subjects 0.5786159867213833/0.3413439128361626
_________________________________________________________________
Layer (type)                 Output Shape              Param #   
=================================================================
input_1 (InputLayer)         (None, 768, 2)            0         
_________________________________________________________________
lambda_1 (Lambda)            (None, 630, 2)            0         
_________________________________________________________________
gaussian_noise_1 (GaussianNo (None, 630, 2)            0         
_________________________________________________________________
conv1d_1 (Conv1D)            (None, 630, 16)           1296      
_________________________________________________________________
batch_normalization_1 (Batch (None, 630, 16)           64        
_________________________________________________________________
elu_1 (ELU)                  (None, 630, 16)           0         
_________________________________________________________________
average_pooling1d_1 (Average (None, 315, 16)           0         
_________________________________________________________________
dropout_1 (Dropout)          (None, 315, 16)           0         
_________________________________________________________________
conv1d_2 (Conv1D)            (None, 315, 14)           4494      
_________________________________________________________________
batch_normalization_2 (Batch (None, 315, 14)           56        
_________________________________________________________________
elu_2 (ELU)                  (None, 315, 14)           0         
_________________________________________________________________
average_pooling1d_2 (Average (None, 157, 14)           0         
_________________________________________________________________
dropout_2 (Dropout)          (None, 157, 14)           0         
_________________________________________________________________
conv1d_3 (Conv1D)            (None, 157, 15)           2535      
_________________________________________________________________
batch_normalization_3 (Batch (None, 157, 15)           60        
_________________________________________________________________
elu_3 (ELU)                  (None, 157, 15)           0         
_________________________________________________________________
average_pooling1d_3 (Average (None, 78, 15)            0         
_________________________________________________________________
dropout_3 (Dropout)          (None, 78, 15)            0         
_________________________________________________________________
flatten_1 (Flatten)          (None, 1170)              0         
_________________________________________________________________
dense_1 (Dense)              (None, 5)                 5855      
_________________________________________________________________
batch_normalization_4 (Batch (None, 5)                 20        
_________________________________________________________________
activation_1 (Activation)    (None, 5)                 0         
_________________________________________________________________
dense_2 (Dense)              (None, 13)                78        
_________________________________________________________________
batch_normalization_5 (Batch (None, 13)                52        
_________________________________________________________________
activation_2 (Activation)    (None, 13)                0         
_________________________________________________________________
dense_3 (Dense)              (None, 3)                 42        
=================================================================
Total params: 14,552
Trainable params: 14,426
Non-trainable params: 126
_________________________________________________________________
subject 1, avg accuracy 0.5339181363582611/0.3155555574099223 over 10 splits
subject 2, avg accuracy 0.545029240846634/0.391891892495993 over 10 splits
subject 3, avg accuracy 0.6394736856222153/0.3576923076923077 over 10 splits
…
subject 16, avg accuracy 0.5215789437294006/0.3387096812648158 over 10 splits
subject 17, avg accuracy 0.6789473712444305/0.31029411764705883 over 10 splits
subject 18, avg accuracy 0.6660818725824356/0.2728571432403156 over 10 splits
subject 19, avg accuracy 0.46842106282711027/0.2934065927515973 over 10 splits
avg accuracy over all subjects 0.5702566633621851/0.33611975676741856
_________________________________________________________________
Layer (type)                 Output Shape              Param #   
=================================================================
input_1 (InputLayer)         (None, 768, 2)            0         
_________________________________________________________________
lambda_1 (Lambda)            (None, 630, 2)            0         
_________________________________________________________________
gaussian_noise_1 (GaussianNo (None, 630, 2)            0         
_________________________________________________________________
conv1d_1 (Conv1D)            (None, 630, 28)           924       
_________________________________________________________________
batch_normalization_1 (Batch (None, 630, 28)           112       
_________________________________________________________________
elu_1 (ELU)                  (None, 630, 28)           0         
_________________________________________________________________
average_pooling1d_1 (Average (None, 315, 28)           0         
_________________________________________________________________
dropout_1 (Dropout)          (None, 315, 28)           0         
_________________________________________________________________
conv1d_2 (Conv1D)            (None, 315, 29)           17893     
_________________________________________________________________
batch_normalization_2 (Batch (None, 315, 29)           116       
_________________________________________________________________
elu_2 (ELU)                  (None, 315, 29)           0         
_________________________________________________________________
average_pooling1d_2 (Average (None, 157, 29)           0         
_________________________________________________________________
dropout_2 (Dropout)          (None, 157, 29)           0         
_________________________________________________________________
conv1d_3 (Conv1D)            (None, 157, 14)           4074      
_________________________________________________________________
batch_normalization_3 (Batch (None, 157, 14)           56        
_________________________________________________________________
elu_3 (ELU)                  (None, 157, 14)           0         
_________________________________________________________________
average_pooling1d_3 (Average (None, 78, 14)            0         
_________________________________________________________________
dropout_3 (Dropout)          (None, 78, 14)            0         
_________________________________________________________________
flatten_1 (Flatten)          (None, 1092)              0         
_________________________________________________________________
dense_1 (Dense)              (None, 45)                49185     
_________________________________________________________________
batch_normalization_4 (Batch (None, 45)                180       
_________________________________________________________________
activation_1 (Activation)    (None, 45)                0         
_________________________________________________________________
dense_2 (Dense)              (None, 6)                 276       
_________________________________________________________________
batch_normalization_5 (Batch (None, 6)                 24        
_________________________________________________________________
activation_2 (Activation)    (None, 6)                 0         
_________________________________________________________________
dense_3 (Dense)              (None, 3)                 21        
=================================================================
Total params: 72,861
Trainable params: 72,617
Non-trainable params: 244
_________________________________________________________________
subject 1, avg accuracy 0.5988304138183593/0.35222222341431514 over 10 splits
subject 2, avg accuracy 0.5181286603212356/0.39864864937357003 over 10 splits
subject 3, avg accuracy 0.6488304167985917/0.37769230769230766 over 10 splits
…
subject 16, avg accuracy 0.5097368448972702/0.3435483919997369 over 10 splits
subject 17, avg accuracy 0.6000000089406967/0.35882352941176476 over 10 splits
subject 18, avg accuracy 0.6821637451648712/0.2514285717691694 over 10 splits
subject 19, avg accuracy 0.508187147974968/0.3010989010661513 over 10 splits
avg accuracy over all subjects 0.5610380159484015/0.3414956614477728
_________________________________________________________________
Layer (type)                 Output Shape              Param #   
=================================================================
input_1 (InputLayer)         (None, 768, 2)            0         
_________________________________________________________________
lambda_1 (Lambda)            (None, 630, 2)            0         
_________________________________________________________________
gaussian_noise_1 (GaussianNo (None, 630, 2)            0         
_________________________________________________________________
conv1d_1 (Conv1D)            (None, 630, 14)           322       
_________________________________________________________________
batch_normalization_1 (Batch (None, 630, 14)           56        
_________________________________________________________________
elu_1 (ELU)                  (None, 630, 14)           0         
_________________________________________________________________
average_pooling1d_1 (Average (None, 315, 14)           0         
_________________________________________________________________
dropout_1 (Dropout)          (None, 315, 14)           0         
_________________________________________________________________
conv1d_2 (Conv1D)            (None, 315, 20)           4220      
_________________________________________________________________
batch_normalization_2 (Batch (None, 315, 20)           80        
_________________________________________________________________
elu_2 (ELU)                  (None, 315, 20)           0         
_________________________________________________________________
average_pooling1d_2 (Average (None, 157, 20)           0         
_________________________________________________________________
dropout_2 (Dropout)          (None, 157, 20)           0         
_________________________________________________________________
conv1d_3 (Conv1D)            (None, 157, 10)           2810      
_________________________________________________________________
batch_normalization_3 (Batch (None, 157, 10)           40        
_________________________________________________________________
elu_3 (ELU)                  (None, 157, 10)           0         
_________________________________________________________________
average_pooling1d_3 (Average (None, 78, 10)            0         
_________________________________________________________________
dropout_3 (Dropout)          (None, 78, 10)            0         
_________________________________________________________________
flatten_1 (Flatten)          (None, 780)               0         
_________________________________________________________________
dense_1 (Dense)              (None, 48)                37488     
_________________________________________________________________
batch_normalization_4 (Batch (None, 48)                192       
_________________________________________________________________
activation_1 (Activation)    (None, 48)                0         
_________________________________________________________________
dense_2 (Dense)              (None, 7)                 343       
_________________________________________________________________
batch_normalization_5 (Batch (None, 7)                 28        
_________________________________________________________________
activation_2 (Activation)    (None, 7)                 0         
_________________________________________________________________
dense_3 (Dense)              (None, 3)                 24        
=================================================================
Total params: 45,603
Trainable params: 45,405
Non-trainable params: 198
_________________________________________________________________
subject 1, avg accuracy 0.5450292438268661/0.33555555767483186 over 10 splits
subject 2, avg accuracy 0.5450292289257049/0.41621621718277807 over 10 splits
subject 3, avg accuracy 0.6932748675346374/0.3576923076923077 over 10 splits
…
subject 16, avg accuracy 0.5157894760370254/0.325806455794842 over 10 splits
subject 17, avg accuracy 0.6263157874345779/0.3264705882352942 over 10 splits
subject 18, avg accuracy 0.6763157844543457/0.26428571454116273 over 10 splits
subject 19, avg accuracy 0.46900584995746614/0.31648351669639024 over 10 splits
avg accuracy over all subjects 0.5585266429517003/0.3391638377007305
_________________________________________________________________
Layer (type)                 Output Shape              Param #   
=================================================================
input_1 (InputLayer)         (None, 768, 2)            0         
_________________________________________________________________
lambda_1 (Lambda)            (None, 630, 2)            0         
_________________________________________________________________
gaussian_noise_1 (GaussianNo (None, 630, 2)            0         
_________________________________________________________________
conv1d_1 (Conv1D)            (None, 630, 14)           882       
_________________________________________________________________
batch_normalization_1 (Batch (None, 630, 14)           56        
_________________________________________________________________
elu_1 (ELU)                  (None, 630, 14)           0         
_________________________________________________________________
average_pooling1d_1 (Average (None, 315, 14)           0         
_________________________________________________________________
dropout_1 (Dropout)          (None, 315, 14)           0         
_________________________________________________________________
conv1d_2 (Conv1D)            (None, 315, 20)           4780      
_________________________________________________________________
batch_normalization_2 (Batch (None, 315, 20)           80        
_________________________________________________________________
elu_2 (ELU)                  (None, 315, 20)           0         
_________________________________________________________________
average_pooling1d_2 (Average (None, 157, 20)           0         
_________________________________________________________________
dropout_2 (Dropout)          (None, 157, 20)           0         
_________________________________________________________________
conv1d_3 (Conv1D)            (None, 157, 11)           1331      
_________________________________________________________________
batch_normalization_3 (Batch (None, 157, 11)           44        
_________________________________________________________________
elu_3 (ELU)                  (None, 157, 11)           0         
_________________________________________________________________
average_pooling1d_3 (Average (None, 78, 11)            0         
_________________________________________________________________
dropout_3 (Dropout)          (None, 78, 11)            0         
_________________________________________________________________
flatten_1 (Flatten)          (None, 858)               0         
_________________________________________________________________
dense_1 (Dense)              (None, 13)                11167     
_________________________________________________________________
batch_normalization_4 (Batch (None, 13)                52        
_________________________________________________________________
activation_1 (Activation)    (None, 13)                0         
_________________________________________________________________
dense_2 (Dense)              (None, 11)                154       
_________________________________________________________________
batch_normalization_5 (Batch (None, 11)                44        
_________________________________________________________________
activation_2 (Activation)    (None, 11)                0         
_________________________________________________________________
dense_3 (Dense)              (None, 3)                 36        
=================================================================
Total params: 18,626
Trainable params: 18,488
Non-trainable params: 138
_________________________________________________________________
subject 1, avg accuracy 0.6099415183067322/0.32555555760860444 over 10 splits
subject 2, avg accuracy 0.5397660911083222/0.39189189269736 over 10 splits
subject 3, avg accuracy 0.6444444417953491/0.35615384615384615 over 10 splits
…
subject 16, avg accuracy 0.5052631586790085/0.30483871424390424 over 10 splits
subject 17, avg accuracy 0.6473684221506119/0.34117647058823536 over 10 splits
subject 18, avg accuracy 0.674561420083046/0.2671428573557309 over 10 splits
subject 19, avg accuracy 0.5134502947330475/0.30549450523250704 over 10 splits
avg accuracy over all subjects 0.5684697887963719/0.3337228589485392
_________________________________________________________________
Layer (type)                 Output Shape              Param #   
=================================================================
input_1 (InputLayer)         (None, 768, 2)            0         
_________________________________________________________________
lambda_1 (Lambda)            (None, 630, 2)            0         
_________________________________________________________________
gaussian_noise_1 (GaussianNo (None, 630, 2)            0         
_________________________________________________________________
conv1d_1 (Conv1D)            (None, 630, 36)           756       
_________________________________________________________________
batch_normalization_1 (Batch (None, 630, 36)           144       
_________________________________________________________________
elu_1 (ELU)                  (None, 630, 36)           0         
_________________________________________________________________
average_pooling1d_1 (Average (None, 315, 36)           0         
_________________________________________________________________
dropout_1 (Dropout)          (None, 315, 36)           0         
_________________________________________________________________
conv1d_2 (Conv1D)            (None, 315, 13)           9841      
_________________________________________________________________
batch_normalization_2 (Batch (None, 315, 13)           52        
_________________________________________________________________
elu_2 (ELU)                  (None, 315, 13)           0         
_________________________________________________________________
average_pooling1d_2 (Average (None, 157, 13)           0         
_________________________________________________________________
dropout_2 (Dropout)          (None, 157, 13)           0         
_________________________________________________________________
conv1d_3 (Conv1D)            (None, 157, 17)           3111      
_________________________________________________________________
batch_normalization_3 (Batch (None, 157, 17)           68        
_________________________________________________________________
elu_3 (ELU)                  (None, 157, 17)           0         
_________________________________________________________________
average_pooling1d_3 (Average (None, 78, 17)            0         
_________________________________________________________________
dropout_3 (Dropout)          (None, 78, 17)            0         
_________________________________________________________________
flatten_1 (Flatten)          (None, 1326)              0         
_________________________________________________________________
dense_1 (Dense)              (None, 13)                17251     
_________________________________________________________________
batch_normalization_4 (Batch (None, 13)                52        
_________________________________________________________________
activation_1 (Activation)    (None, 13)                0         
_________________________________________________________________
dense_2 (Dense)              (None, 12)                168       
_________________________________________________________________
batch_normalization_5 (Batch (None, 12)                48        
_________________________________________________________________
activation_2 (Activation)    (None, 12)                0         
_________________________________________________________________
dense_3 (Dense)              (None, 3)                 39        
=================================================================
Total params: 31,530
Trainable params: 31,348
Non-trainable params: 182
_________________________________________________________________
subject 1, avg accuracy 0.5342105329036713/0.3566666682561239 over 10 splits
subject 2, avg accuracy 0.5236842066049576/0.4337837852738999 over 10 splits
subject 3, avg accuracy 0.6245613992214203/0.3592307692307693 over 10 splits
…
subject 16, avg accuracy 0.5468421071767807/0.3693548421705923 over 10 splits
subject 17, avg accuracy 0.5421052634716034/0.3558823529411765 over 10 splits
subject 18, avg accuracy 0.6377193003892898/0.2771428576111794 over 10 splits
subject 19, avg accuracy 0.5248538047075272/0.3021978008386853 over 10 splits
avg accuracy over all subjects 0.5562914279599984/0.34048625259411774
_________________________________________________________________
Layer (type)                 Output Shape              Param #   
=================================================================
input_1 (InputLayer)         (None, 768, 2)            0         
_________________________________________________________________
lambda_1 (Lambda)            (None, 630, 2)            0         
…
_________________________________________________________________
average_pooling1d_3 (Average (None, 78, 6)             0         
_________________________________________________________________
dropout_3 (Dropout)          (None, 78, 6)             0         
_________________________________________________________________
flatten_1 (Flatten)          (None, 468)               0         
_________________________________________________________________
dense_1 (Dense)              (None, 14)                6566      
_________________________________________________________________
batch_normalization_4 (Batch (None, 14)                56        
_________________________________________________________________
activation_1 (Activation)    (None, 14)                0         
_________________________________________________________________
dense_2 (Dense)              (None, 15)                225       
_________________________________________________________________
batch_normalization_5 (Batch (None, 15)                60        
_________________________________________________________________
activation_2 (Activation)    (None, 15)                0         
_________________________________________________________________
dense_3 (Dense)              (None, 3)                 48        
=================================================================
Total params: 15,366
Trainable params: 15,222
Non-trainable params: 144
_________________________________________________________________
subject 1, avg accuracy 0.5830409333109856/0.32333333565129174 over 10 splits
subject 2, avg accuracy 0.5818713456392288/0.4121621632898176 over 10 splits
subject 3, avg accuracy 0.6342105269432068/0.3676923076923077 over 10 splits
…
subject 16, avg accuracy 0.5368421077728271/0.3177419404829702 over 10 splits
subject 17, avg accuracy 0.605263152718544/0.34558823529411764 over 10 splits
subject 18, avg accuracy 0.7260233879089355/0.2585714287417275 over 10 splits
subject 19, avg accuracy 0.5081871420145034/0.32967032904808335 over 10 splits
avg accuracy over all subjects 0.5725194945103591/0.33478005300070224
_________________________________________________________________
Layer (type)                 Output Shape              Param #   
=================================================================
input_1 (InputLayer)         (None, 768, 2)            0         
_________________________________________________________________
lambda_1 (Lambda)            (None, 630, 2)            0         
_________________________________________________________________
gaussian_noise_1 (GaussianNo (None, 630, 2)            0         
_________________________________________________________________
conv1d_1 (Conv1D)            (None, 630, 39)           3627      
_________________________________________________________________
batch_normalization_1 (Batch (None, 630, 39)           156       
_________________________________________________________________
elu_1 (ELU)                  (None, 630, 39)           0         
_________________________________________________________________
average_pooling1d_1 (Average (None, 315, 39)           0         
_________________________________________________________________
dropout_1 (Dropout)          (None, 315, 39)           0         
_________________________________________________________________
conv1d_2 (Conv1D)            (None, 315, 29)           18125     
_________________________________________________________________
batch_normalization_2 (Batch (None, 315, 29)           116       
_________________________________________________________________
elu_2 (ELU)                  (None, 315, 29)           0         
_________________________________________________________________
average_pooling1d_2 (Average (None, 157, 29)           0         
_________________________________________________________________
dropout_2 (Dropout)          (None, 157, 29)           0         
_________________________________________________________________
conv1d_3 (Conv1D)            (None, 157, 6)            1920      
_________________________________________________________________
batch_normalization_3 (Batch (None, 157, 6)            24        
_________________________________________________________________
elu_3 (ELU)                  (None, 157, 6)            0         
_________________________________________________________________
average_pooling1d_3 (Average (None, 78, 6)             0         
_________________________________________________________________
dropout_3 (Dropout)          (None, 78, 6)             0         
_________________________________________________________________
flatten_1 (Flatten)          (None, 468)               0         
_________________________________________________________________
dense_1 (Dense)              (None, 43)                20167     
_________________________________________________________________
batch_normalization_4 (Batch (None, 43)                172       
_________________________________________________________________
activation_1 (Activation)    (None, 43)                0         
_________________________________________________________________
dense_2 (Dense)              (None, 20)                880       
_________________________________________________________________
batch_normalization_5 (Batch (None, 20)                80        
_________________________________________________________________
activation_2 (Activation)    (None, 20)                0         
_________________________________________________________________
dense_3 (Dense)              (None, 3)                 63        
=================================================================
Total params: 45,330
Trainable params: 45,056
Non-trainable params: 274
_________________________________________________________________
subject 1, avg accuracy 0.5450292378664017/0.33555555760860445 over 10 splits
subject 2, avg accuracy 0.5184210568666459/0.4283783795060339 over 10 splits
subject 3, avg accuracy 0.6336257368326187/0.37 over 10 splits
…
subject 16, avg accuracy 0.5265789479017258/0.3500000048068262 over 10 splits
subject 17, avg accuracy 0.6315789490938186/0.33676470588235297 over 10 splits
subject 18, avg accuracy 0.6912280678749084/0.2771428574408804 over 10 splits
subject 19, avg accuracy 0.5020467892289162/0.28571428496104023 over 10 splits
avg accuracy over all subjects 0.5490740770267116/0.33407745820215173
_________________________________________________________________
Layer (type)                 Output Shape              Param #   
=================================================================
input_1 (InputLayer)         (None, 768, 2)            0         
_________________________________________________________________
lambda_1 (Lambda)            (None, 630, 2)            0         
_________________________________________________________________
gaussian_noise_1 (GaussianNo (None, 630, 2)            0         
_________________________________________________________________
conv1d_1 (Conv1D)            (None, 630, 39)           1911      
_________________________________________________________________
batch_normalization_1 (Batch (None, 630, 39)           156       
_________________________________________________________________
elu_1 (ELU)                  (None, 630, 39)           0         
_________________________________________________________________
average_pooling1d_1 (Average (None, 315, 39)           0         
_________________________________________________________________
dropout_1 (Dropout)          (None, 315, 39)           0         
_________________________________________________________________
conv1d_2 (Conv1D)            (None, 315, 12)           8436      
_________________________________________________________________
batch_normalization_2 (Batch (None, 315, 12)           48        
_________________________________________________________________
elu_2 (ELU)                  (None, 315, 12)           0         
_________________________________________________________________
average_pooling1d_2 (Average (None, 157, 12)           0         
_________________________________________________________________
dropout_2 (Dropout)          (None, 157, 12)           0         
_________________________________________________________________
conv1d_3 (Conv1D)            (None, 157, 9)            1197      
_________________________________________________________________
batch_normalization_3 (Batch (None, 157, 9)            36        
_________________________________________________________________
elu_3 (ELU)                  (None, 157, 9)            0         
_________________________________________________________________
average_pooling1d_3 (Average (None, 78, 9)             0         
_________________________________________________________________
dropout_3 (Dropout)          (None, 78, 9)             0         
_________________________________________________________________
flatten_1 (Flatten)          (None, 702)               0         
_________________________________________________________________
dense_1 (Dense)              (None, 14)                9842      
_________________________________________________________________
batch_normalization_4 (Batch (None, 14)                56        
_________________________________________________________________
activation_1 (Activation)    (None, 14)                0         
_________________________________________________________________
dense_2 (Dense)              (None, 13)                195       
_________________________________________________________________
batch_normalization_5 (Batch (None, 13)                52        
_________________________________________________________________
activation_2 (Activation)    (None, 13)                0         
_________________________________________________________________
dense_3 (Dense)              (None, 3)                 42        
=================================================================
Total params: 21,971
Trainable params: 21,797
Non-trainable params: 174
_________________________________________________________________
subject 1, avg accuracy 0.5084795415401459/0.31555555701255805 over 10 splits
subject 2, avg accuracy 0.48625731468200684/0.42702702787276864 over 10 splits
subject 3, avg accuracy 0.6128655016422272/0.35615384615384615 over 10 splits
…
subject 16, avg accuracy 0.5473684281110763/0.36451613220476337 over 10 splits
subject 17, avg accuracy 0.6368421018123627/0.3426470588235294 over 10 splits
subject 18, avg accuracy 0.6453216403722764/0.2614285717691694 over 10 splits
subject 19, avg accuracy 0.5020467907190322/0.31098901254462674 over 10 splits
avg accuracy over all subjects 0.5441065677338176/0.33524988910659276
_________________________________________________________________
Layer (type)                 Output Shape              Param #   
=================================================================
input_1 (InputLayer)         (None, 768, 2)            0         
_________________________________________________________________
lambda_1 (Lambda)            (None, 630, 2)            0         
_________________________________________________________________
gaussian_noise_1 (GaussianNo (None, 630, 2)            0         
_________________________________________________________________
conv1d_1 (Conv1D)            (None, 630, 11)           913       
_________________________________________________________________
batch_normalization_1 (Batch (None, 630, 11)           44        
_________________________________________________________________
elu_1 (ELU)                  (None, 630, 11)           0         
_________________________________________________________________
average_pooling1d_1 (Average (None, 315, 11)           0         
_________________________________________________________________
dropout_1 (Dropout)          (None, 315, 11)           0         
_________________________________________________________________
conv1d_2 (Conv1D)            (None, 315, 28)           2800      
_________________________________________________________________
batch_normalization_2 (Batch (None, 315, 28)           112       
_________________________________________________________________
elu_2 (ELU)                  (None, 315, 28)           0         
_________________________________________________________________
average_pooling1d_2 (Average (None, 157, 28)           0         
_________________________________________________________________
dropout_2 (Dropout)          (None, 157, 28)           0         
_________________________________________________________________
conv1d_3 (Conv1D)            (None, 157, 10)           1130      
_________________________________________________________________
batch_normalization_3 (Batch (None, 157, 10)           40        
_________________________________________________________________
elu_3 (ELU)                  (None, 157, 10)           0         
_________________________________________________________________
average_pooling1d_3 (Average (None, 78, 10)            0         
_________________________________________________________________
dropout_3 (Dropout)          (None, 78, 10)            0         
_________________________________________________________________
flatten_1 (Flatten)          (None, 780)               0         
_________________________________________________________________
dense_1 (Dense)              (None, 14)                10934     
_________________________________________________________________
batch_normalization_4 (Batch (None, 14)                56        
_________________________________________________________________
activation_1 (Activation)    (None, 14)                0         
_________________________________________________________________
dense_2 (Dense)              (None, 27)                405       
_________________________________________________________________
batch_normalization_5 (Batch (None, 27)                108       
_________________________________________________________________
activation_2 (Activation)    (None, 27)                0         
_________________________________________________________________
dense_3 (Dense)              (None, 3)                 84        
=================================================================
Total params: 16,626
Trainable params: 16,446
Non-trainable params: 180
_________________________________________________________________
subject 1, avg accuracy 0.5730994194746017/0.3233333355850644 over 10 splits
subject 2, avg accuracy 0.5122806996107101/0.4094594607482086 over 10 splits
subject 3, avg accuracy 0.6447368532419204/0.3584615384615385 over 10 splits
…
subject 16, avg accuracy 0.511578944325447/0.3274193593090581 over 10 splits
subject 17, avg accuracy 0.6315789490938186/0.3323529411764706 over 10 splits
subject 18, avg accuracy 0.6380116999149322/0.2900000002554485 over 10 splits
subject 19, avg accuracy 0.49766082763671876/0.3131868129739395 over 10 splits
avg accuracy over all subjects 0.562855755123827/0.33571032271316276
_________________________________________________________________
Layer (type)                 Output Shape              Param #   
=================================================================
input_1 (InputLayer)         (None, 768, 2)            0         
_________________________________________________________________
lambda_1 (Lambda)            (None, 630, 2)            0         
_________________________________________________________________
gaussian_noise_1 (GaussianNo (None, 630, 2)            0         
_________________________________________________________________
conv1d_1 (Conv1D)            (None, 630, 22)           2134      
_________________________________________________________________
batch_normalization_1 (Batch (None, 630, 22)           88        
_________________________________________________________________
elu_1 (ELU)                  (None, 630, 22)           0         
_________________________________________________________________
average_pooling1d_1 (Average (None, 315, 22)           0         
_________________________________________________________________
dropout_1 (Dropout)          (None, 315, 22)           0         
_________________________________________________________________
conv1d_2 (Conv1D)            (None, 315, 27)           8937      
_________________________________________________________________
batch_normalization_2 (Batch (None, 315, 27)           108       
_________________________________________________________________
elu_2 (ELU)                  (None, 315, 27)           0         
_________________________________________________________________
average_pooling1d_2 (Average (None, 157, 27)           0         
_________________________________________________________________
dropout_2 (Dropout)          (None, 157, 27)           0         
_________________________________________________________________
conv1d_3 (Conv1D)            (None, 157, 16)           2176      
_________________________________________________________________
batch_normalization_3 (Batch (None, 157, 16)           64        
_________________________________________________________________
elu_3 (ELU)                  (None, 157, 16)           0         
_________________________________________________________________
average_pooling1d_3 (Average (None, 78, 16)            0         
_________________________________________________________________
dropout_3 (Dropout)          (None, 78, 16)            0         
_________________________________________________________________
flatten_1 (Flatten)          (None, 1248)              0         
_________________________________________________________________
dense_1 (Dense)              (None, 33)                41217     
_________________________________________________________________
batch_normalization_4 (Batch (None, 33)                132       
_________________________________________________________________
activation_1 (Activation)    (None, 33)                0         
_________________________________________________________________
dense_2 (Dense)              (None, 15)                510       
_________________________________________________________________
batch_normalization_5 (Batch (None, 15)                60        
_________________________________________________________________
activation_2 (Activation)    (None, 15)                0         
_________________________________________________________________
dense_3 (Dense)              (None, 3)                 48        
=================================================================
Total params: 55,474
Trainable params: 55,248
Non-trainable params: 226
_________________________________________________________________
subject 1, avg accuracy 0.5394736871123313/0.3388888897498449 over 10 splits
subject 2, avg accuracy 0.5771929889917373/0.43513513606142357 over 10 splits
subject 3, avg accuracy 0.6456140369176865/0.36230769230769233 over 10 splits
…
subject 15, avg accuracy 0.5634503036737442/0.2767999994397163 over 10 splits
subject 16, avg accuracy 0.4902631551027298/0.3177419393293319 over 10 splits
subject 17, avg accuracy 0.6473684191703797/0.3 over 10 splits
subject 18, avg accuracy 0.6473684221506119/0.28571428618260797 over 10 splits
subject 19, avg accuracy 0.4640350937843323/0.3054945059693777 over 10 splits
avg accuracy over all subjects 0.5527095553775629/0.3355267684345974
_________________________________________________________________
Layer (type)                 Output Shape              Param #   
=================================================================
input_1 (InputLayer)         (None, 768, 2)            0         
_________________________________________________________________
lambda_1 (Lambda)            (None, 630, 2)            0         
_________________________________________________________________
gaussian_noise_1 (GaussianNo (None, 630, 2)            0         
_________________________________________________________________
conv1d_1 (Conv1D)            (None, 630, 13)           273       
_________________________________________________________________
batch_normalization_1 (Batch (None, 630, 13)           52        
_________________________________________________________________
elu_1 (ELU)                  (None, 630, 13)           0         
_________________________________________________________________
average_pooling1d_1 (Average (None, 315, 13)           0         
_________________________________________________________________
dropout_1 (Dropout)          (None, 315, 13)           0         
_________________________________________________________________
conv1d_2 (Conv1D)            (None, 315, 22)           3168      
_________________________________________________________________
batch_normalization_2 (Batch (None, 315, 22)           88        
_________________________________________________________________
elu_2 (ELU)                  (None, 315, 22)           0         
_________________________________________________________________
average_pooling1d_2 (Average (None, 157, 22)           0         
_________________________________________________________________
dropout_2 (Dropout)          (None, 157, 22)           0         
_________________________________________________________________
conv1d_3 (Conv1D)            (None, 157, 5)            1435      
_________________________________________________________________
batch_normalization_3 (Batch (None, 157, 5)            20        
_________________________________________________________________
elu_3 (ELU)                  (None, 157, 5)            0         
_________________________________________________________________
average_pooling1d_3 (Average (None, 78, 5)             0         
_________________________________________________________________
dropout_3 (Dropout)          (None, 78, 5)             0         
_________________________________________________________________
flatten_1 (Flatten)          (None, 390)               0         
_________________________________________________________________
dense_1 (Dense)              (None, 35)                13685     
_________________________________________________________________
batch_normalization_4 (Batch (None, 35)                140       
_________________________________________________________________
activation_1 (Activation)    (None, 35)                0         
_________________________________________________________________
dense_2 (Dense)              (None, 10)                360       
_________________________________________________________________
batch_normalization_5 (Batch (None, 10)                40        
_________________________________________________________________
activation_2 (Activation)    (None, 10)                0         
_________________________________________________________________
dense_3 (Dense)              (None, 3)                 33        
=================================================================
Total params: 19,294
Trainable params: 19,124
Non-trainable params: 170
_________________________________________________________________
subject 1, avg accuracy 0.588304090499878/0.3366666677925322 over 10 splits
subject 2, avg accuracy 0.5070175439119339/0.3986486494138434 over 10 splits
subject 3, avg accuracy 0.65/0.3769230769230769 over 10 splits
…
subject 16, avg accuracy 0.49052631556987764/0.3177419390889906 over 10 splits
subject 17, avg accuracy 0.6684210419654846/0.33529411764705885 over 10 splits
subject 18, avg accuracy 0.6605263203382492/0.26428571449858806 over 10 splits
subject 19, avg accuracy 0.5017543911933899/0.3054945055272553 over 10 splits
avg accuracy over all subjects 0.5705425620079041/0.3375096665781337
_________________________________________________________________
Layer (type)                 Output Shape              Param #   
=================================================================
input_1 (InputLayer)         (None, 768, 2)            0         
_________________________________________________________________
lambda_1 (Lambda)            (None, 630, 2)            0         
_________________________________________________________________
gaussian_noise_1 (GaussianNo (None, 630, 2)            0         
_________________________________________________________________
conv1d_1 (Conv1D)            (None, 630, 37)           1295      
_________________________________________________________________
batch_normalization_1 (Batch (None, 630, 37)           148       
_________________________________________________________________
elu_1 (ELU)                  (None, 630, 37)           0         
_________________________________________________________________
average_pooling1d_1 (Average (None, 315, 37)           0         
_________________________________________________________________
dropout_1 (Dropout)          (None, 315, 37)           0         
_________________________________________________________________
conv1d_2 (Conv1D)            (None, 315, 11)           9779      
_________________________________________________________________
batch_normalization_2 (Batch (None, 315, 11)           44        
_________________________________________________________________
elu_2 (ELU)                  (None, 315, 11)           0         
_________________________________________________________________
average_pooling1d_2 (Average (None, 157, 11)           0         
_________________________________________________________________
dropout_2 (Dropout)          (None, 157, 11)           0         
_________________________________________________________________
conv1d_3 (Conv1D)            (None, 157, 15)           675       
_________________________________________________________________
batch_normalization_3 (Batch (None, 157, 15)           60        
_________________________________________________________________
elu_3 (ELU)                  (None, 157, 15)           0         
_________________________________________________________________
average_pooling1d_3 (Average (None, 78, 15)            0         
_________________________________________________________________
dropout_3 (Dropout)          (None, 78, 15)            0         
_________________________________________________________________
flatten_1 (Flatten)          (None, 1170)              0         
_________________________________________________________________
dense_1 (Dense)              (None, 34)                39814     
_________________________________________________________________
batch_normalization_4 (Batch (None, 34)                136       
_________________________________________________________________
activation_1 (Activation)    (None, 34)                0         
_________________________________________________________________
dense_2 (Dense)              (None, 22)                770       
_________________________________________________________________
batch_normalization_5 (Batch (None, 22)                88        
_________________________________________________________________
activation_2 (Activation)    (None, 22)                0         
_________________________________________________________________
dense_3 (Dense)              (None, 3)                 69        
=================================================================
Total params: 52,878
Trainable params: 52,640
Non-trainable params: 238
_________________________________________________________________
subject 1, avg accuracy 0.5728070139884949/0.3322222230831782 over 10 splits
subject 2, avg accuracy 0.560526317358017/0.4283783792643933 over 10 splits
subject 3, avg accuracy 0.6771929919719696/0.36230769230769233 over 10 splits
…
subject 16, avg accuracy 0.49078947603702544/0.335483875197749 over 10 splits
subject 17, avg accuracy 0.6157894760370255/0.33529411764705885 over 10 splits
subject 18, avg accuracy 0.6868421018123627/0.27285714311259135 over 10 splits
subject 19, avg accuracy 0.5020467907190322/0.3186813193363148 over 10 splits
avg accuracy over all subjects 0.5670467866791621/0.3384151983418008
_________________________________________________________________
Layer (type)                 Output Shape              Param #   
=================================================================
input_1 (InputLayer)         (None, 768, 2)            0         
_________________________________________________________________
lambda_1 (Lambda)            (None, 630, 2)            0         
_________________________________________________________________
gaussian_noise_1 (GaussianNo (None, 630, 2)            0         
_________________________________________________________________
conv1d_1 (Conv1D)            (None, 630, 32)           1504      
_________________________________________________________________
batch_normalization_1 (Batch (None, 630, 32)           128       
_________________________________________________________________
elu_1 (ELU)                  (None, 630, 32)           0         
_________________________________________________________________
average_pooling1d_1 (Average (None, 315, 32)           0         
_________________________________________________________________
dropout_1 (Dropout)          (None, 315, 32)           0         
_________________________________________________________________
conv1d_2 (Conv1D)            (None, 315, 17)           10897     
_________________________________________________________________
batch_normalization_2 (Batch (None, 315, 17)           68        
_________________________________________________________________
elu_2 (ELU)                  (None, 315, 17)           0         
_________________________________________________________________
average_pooling1d_2 (Average (None, 157, 17)           0         
_________________________________________________________________
dropout_2 (Dropout)          (None, 157, 17)           0         
_________________________________________________________________
conv1d_3 (Conv1D)            (None, 157, 13)           2886      
_________________________________________________________________
batch_normalization_3 (Batch (None, 157, 13)           52        
_________________________________________________________________
elu_3 (ELU)                  (None, 157, 13)           0         
_________________________________________________________________
average_pooling1d_3 (Average (None, 78, 13)            0         
_________________________________________________________________
dropout_3 (Dropout)          (None, 78, 13)            0         
_________________________________________________________________
flatten_1 (Flatten)          (None, 1014)              0         
_________________________________________________________________
dense_1 (Dense)              (None, 8)                 8120      
_________________________________________________________________
batch_normalization_4 (Batch (None, 8)                 32        
_________________________________________________________________
activation_1 (Activation)    (None, 8)                 0         
_________________________________________________________________
dense_2 (Dense)              (None, 7)                 63        
_________________________________________________________________
batch_normalization_5 (Batch (None, 7)                 28        
_________________________________________________________________
activation_2 (Activation)    (None, 7)                 0         
_________________________________________________________________
dense_3 (Dense)              (None, 3)                 24        
=================================================================
Total params: 23,802
Trainable params: 23,648
Non-trainable params: 154
_________________________________________________________________
subject 1, avg accuracy 0.5119883090257644/0.3455555576748318 over 10 splits
subject 2, avg accuracy 0.5508771985769272/0.3959459469527812 over 10 splits
subject 3, avg accuracy 0.6076023429632187/0.3584615384615385 over 10 splits
…
subject 16, avg accuracy 0.48526316285133364/0.3258064558429103 over 10 splits
subject 17, avg accuracy 0.6368421107530594/0.3294117647058824 over 10 splits
subject 18, avg accuracy 0.6540935724973679/0.2714285717691694 over 10 splits
subject 19, avg accuracy 0.5134502932429313/0.2857142854359124 over 10 splits
avg accuracy over all subjects 0.5560997443894545/0.333893855142708
_________________________________________________________________
Layer (type)                 Output Shape              Param #   
=================================================================
input_1 (InputLayer)         (None, 768, 2)            0         
_________________________________________________________________
lambda_1 (Lambda)            (None, 630, 2)            0         
_________________________________________________________________
gaussian_noise_1 (GaussianNo (None, 630, 2)            0         
_________________________________________________________________
conv1d_1 (Conv1D)            (None, 630, 26)           286       
_________________________________________________________________
batch_normalization_1 (Batch (None, 630, 26)           104       
_________________________________________________________________
elu_1 (ELU)                  (None, 630, 26)           0         
_________________________________________________________________
average_pooling1d_1 (Average (None, 315, 26)           0         
_________________________________________________________________
dropout_1 (Dropout)          (None, 315, 26)           0         
_________________________________________________________________
conv1d_2 (Conv1D)            (None, 315, 11)           5159      
_________________________________________________________________
batch_normalization_2 (Batch (None, 315, 11)           44        
_________________________________________________________________
elu_2 (ELU)                  (None, 315, 11)           0         
_________________________________________________________________
average_pooling1d_2 (Average (None, 157, 11)           0         
_________________________________________________________________
dropout_2 (Dropout)          (None, 157, 11)           0         
_________________________________________________________________
conv1d_3 (Conv1D)            (None, 157, 14)           2016      
_________________________________________________________________
batch_normalization_3 (Batch (None, 157, 14)           56        
_________________________________________________________________
elu_3 (ELU)                  (None, 157, 14)           0         
_________________________________________________________________
average_pooling1d_3 (Average (None, 78, 14)            0         
_________________________________________________________________
dropout_3 (Dropout)          (None, 78, 14)            0         
_________________________________________________________________
flatten_1 (Flatten)          (None, 1092)              0         
_________________________________________________________________
dense_1 (Dense)              (None, 42)                45906     
_________________________________________________________________
batch_normalization_4 (Batch (None, 42)                168       
_________________________________________________________________
activation_1 (Activation)    (None, 42)                0         
_________________________________________________________________
dense_2 (Dense)              (None, 26)                1118      
_________________________________________________________________
batch_normalization_5 (Batch (None, 26)                104       
_________________________________________________________________
activation_2 (Activation)    (None, 26)                0         
_________________________________________________________________
dense_3 (Dense)              (None, 3)                 81        
=================================================================
Total params: 55,042
Trainable params: 54,804
Non-trainable params: 238
_________________________________________________________________
subject 1, avg accuracy 0.5716374307870865/0.33666666845480603 over 10 splits
subject 2, avg accuracy 0.5777777761220932/0.40135135237832326 over 10 splits
subject 3, avg accuracy 0.6555555462837219/0.3684615384615385 over 10 splits
…
subject 16, avg accuracy 0.5368421167135239/0.32741935897258023 over 10 splits
subject 17, avg accuracy 0.6368421018123627/0.34411764705882353 over 10 splits
subject 18, avg accuracy 0.6818713456392288/0.2385714290397508 over 10 splits
subject 19, avg accuracy 0.49152047634124757/0.32527472556947357 over 10 splits
avg accuracy over all subjects 0.570159197350343/0.3369260789338577
_________________________________________________________________
Layer (type)                 Output Shape              Param #   
=================================================================
input_1 (InputLayer)         (None, 768, 2)            0         
_________________________________________________________________
lambda_1 (Lambda)            (None, 630, 2)            0         
_________________________________________________________________
gaussian_noise_1 (GaussianNo (None, 630, 2)            0         
_________________________________________________________________
conv1d_1 (Conv1D)            (None, 630, 26)           2522      
_________________________________________________________________
batch_normalization_1 (Batch (None, 630, 26)           104       
_________________________________________________________________
elu_1 (ELU)                  (None, 630, 26)           0         
_________________________________________________________________
average_pooling1d_1 (Average (None, 315, 26)           0         
_________________________________________________________________
dropout_1 (Dropout)          (None, 315, 26)           0         
_________________________________________________________________
conv1d_2 (Conv1D)            (None, 315, 19)           5453      
_________________________________________________________________
batch_normalization_2 (Batch (None, 315, 19)           76        
_________________________________________________________________
elu_2 (ELU)                  (None, 315, 19)           0         
_________________________________________________________________
average_pooling1d_2 (Average (None, 157, 19)           0         
_________________________________________________________________
dropout_2 (Dropout)          (None, 157, 19)           0         
_________________________________________________________________
conv1d_3 (Conv1D)            (None, 157, 16)           2144      
_________________________________________________________________
batch_normalization_3 (Batch (None, 157, 16)           64        
_________________________________________________________________
elu_3 (ELU)                  (None, 157, 16)           0         
_________________________________________________________________
average_pooling1d_3 (Average (None, 78, 16)            0         
_________________________________________________________________
dropout_3 (Dropout)          (None, 78, 16)            0         
_________________________________________________________________
flatten_1 (Flatten)          (None, 1248)              0         
_________________________________________________________________
dense_1 (Dense)              (None, 42)                52458     
_________________________________________________________________
batch_normalization_4 (Batch (None, 42)                168       
_________________________________________________________________
activation_1 (Activation)    (None, 42)                0         
_________________________________________________________________
dense_2 (Dense)              (None, 7)                 301       
_________________________________________________________________
batch_normalization_5 (Batch (None, 7)                 28        
_________________________________________________________________
activation_2 (Activation)    (None, 7)                 0         
_________________________________________________________________
dense_3 (Dense)              (None, 3)                 24        
=================================================================
Total params: 63,342
Trainable params: 63,122
Non-trainable params: 220
_________________________________________________________________
subject 1, avg accuracy 0.5947368443012238/0.34666666759385 over 10 splits
subject 2, avg accuracy 0.5552631586790084/0.4108108115357322 over 10 splits
subject 3, avg accuracy 0.6342105269432068/0.3646153846153847 over 10 splits
…
subject 16, avg accuracy 0.4952631533145905/0.330645165039647 over 10 splits
subject 17, avg accuracy 0.6315789490938186/0.3117647058823529 over 10 splits
subject 18, avg accuracy 0.6488304078578949/0.2600000005534717 over 10 splits
subject 19, avg accuracy 0.5409356743097306/0.30769230767593275 over 10 splits
avg accuracy over all subjects 0.5629938309391339/0.335287334324505
_________________________________________________________________
Layer (type)                 Output Shape              Param #   
=================================================================
input_1 (InputLayer)         (None, 768, 2)            0         
_________________________________________________________________
lambda_1 (Lambda)            (None, 630, 2)            0         
_________________________________________________________________
gaussian_noise_1 (GaussianNo (None, 630, 2)            0         
_________________________________________________________________
conv1d_1 (Conv1D)            (None, 630, 17)           1513      
_________________________________________________________________
batch_normalization_1 (Batch (None, 630, 17)           68        
_________________________________________________________________
elu_1 (ELU)                  (None, 630, 17)           0         
_________________________________________________________________
average_pooling1d_1 (Average (None, 315, 17)           0         
_________________________________________________________________
dropout_1 (Dropout)          (None, 315, 17)           0         
_________________________________________________________________
conv1d_2 (Conv1D)            (None, 315, 12)           4296      
_________________________________________________________________
batch_normalization_2 (Batch (None, 315, 12)           48        
_________________________________________________________________
elu_2 (ELU)                  (None, 315, 12)           0         
_________________________________________________________________
average_pooling1d_2 (Average (None, 157, 12)           0         
_________________________________________________________________
dropout_2 (Dropout)          (None, 157, 12)           0         
_________________________________________________________________
conv1d_3 (Conv1D)            (None, 157, 13)           2197      
_________________________________________________________________
batch_normalization_3 (Batch (None, 157, 13)           52        
_________________________________________________________________
elu_3 (ELU)                  (None, 157, 13)           0         
_________________________________________________________________
average_pooling1d_3 (Average (None, 78, 13)            0         
_________________________________________________________________
dropout_3 (Dropout)          (None, 78, 13)            0         
_________________________________________________________________
flatten_1 (Flatten)          (None, 1014)              0         
_________________________________________________________________
dense_1 (Dense)              (None, 33)                33495     
_________________________________________________________________
batch_normalization_4 (Batch (None, 33)                132       
_________________________________________________________________
activation_1 (Activation)    (None, 33)                0         
_________________________________________________________________
dense_2 (Dense)              (None, 20)                680       
_________________________________________________________________
batch_normalization_5 (Batch (None, 20)                80        
_________________________________________________________________
activation_2 (Activation)    (None, 20)                0         
_________________________________________________________________
dense_3 (Dense)              (None, 3)                 63        
=================================================================
Total params: 42,624
Trainable params: 42,434
Non-trainable params: 190
_________________________________________________________________
subject 1, avg accuracy 0.5707602351903915/0.3355555564165116 over 10 splits
subject 2, avg accuracy 0.5502923995256424/0.4337837847503456 over 10 splits
subject 3, avg accuracy 0.6877193003892899/0.3530769230769231 over 10 splits
…
subject 16, avg accuracy 0.4936842113733292/0.338709680928338 over 10 splits
subject 17, avg accuracy 0.5842105239629746/0.3220588235294118 over 10 splits
subject 18, avg accuracy 0.619298255443573/0.2757142863103321 over 10 splits
subject 19, avg accuracy 0.4801169604063034/0.30659340656065676 over 10 splits
avg accuracy over all subjects 0.5539717377887832/0.3335872846916588
_________________________________________________________________
Layer (type)                 Output Shape              Param #   
=================================================================
input_1 (InputLayer)         (None, 768, 2)            0         
_________________________________________________________________
lambda_1 (Lambda)            (None, 630, 2)            0         
_________________________________________________________________
gaussian_noise_1 (GaussianNo (None, 630, 2)            0         
_________________________________________________________________
conv1d_1 (Conv1D)            (None, 630, 39)           2613      
_________________________________________________________________
batch_normalization_1 (Batch (None, 630, 39)           156       
_________________________________________________________________
elu_1 (ELU)                  (None, 630, 39)           0         
_________________________________________________________________
average_pooling1d_1 (Average (None, 315, 39)           0         
_________________________________________________________________
dropout_1 (Dropout)          (None, 315, 39)           0         
_________________________________________________________________
conv1d_2 (Conv1D)            (None, 315, 17)           13277     
_________________________________________________________________
batch_normalization_2 (Batch (None, 315, 17)           68        
_________________________________________________________________
elu_2 (ELU)                  (None, 315, 17)           0         
_________________________________________________________________
average_pooling1d_2 (Average (None, 157, 17)           0         
_________________________________________________________________
dropout_2 (Dropout)          (None, 157, 17)           0         
_________________________________________________________________
conv1d_3 (Conv1D)            (None, 157, 17)           3196      
_________________________________________________________________
batch_normalization_3 (Batch (None, 157, 17)           68        
_________________________________________________________________
elu_3 (ELU)                  (None, 157, 17)           0         
_________________________________________________________________
average_pooling1d_3 (Average (None, 78, 17)            0         
_________________________________________________________________
dropout_3 (Dropout)          (None, 78, 17)            0         
_________________________________________________________________
flatten_1 (Flatten)          (None, 1326)              0         
_________________________________________________________________
dense_1 (Dense)              (None, 31)                41137     
_________________________________________________________________
batch_normalization_4 (Batch (None, 31)                124       
_________________________________________________________________
activation_1 (Activation)    (None, 31)                0         
_________________________________________________________________
dense_2 (Dense)              (None, 28)                896       
_________________________________________________________________
batch_normalization_5 (Batch (None, 28)                112       
_________________________________________________________________
activation_2 (Activation)    (None, 28)                0         
_________________________________________________________________
dense_3 (Dense)              (None, 3)                 87        
=================================================================
Total params: 61,734
Trainable params: 61,470
Non-trainable params: 264
_________________________________________________________________
subject 1, avg accuracy 0.545029240846634/0.35777777943346234 over 10 splits
subject 2, avg accuracy 0.5821637481451034/0.43108108220873653 over 10 splits
subject 3, avg accuracy 0.633625727891922/0.36230769230769233 over 10 splits
…
