…
loading:  Subj17_CleanData_test_FA_visual
loading:  Subj17_CleanData_test_LM_visual
loading:  Subj17_CleanData_test_OB_visual
loading:  Subj18_CleanData_test_FA_visual
loading:  Subj18_CleanData_test_LM_visual
loading:  Subj18_CleanData_test_OB_visual
loading:  Subj19_CleanData_test_FA_visual
loading:  Subj19_CleanData_test_LM_visual
loading:  Subj19_CleanData_test_OB_visual
(90, 768, 31)
(185, 768, 31)
_________________________________________________________________
Layer (type)                 Output Shape              Param #   
=================================================================
input_1 (InputLayer)         (None, 768, 31)           0         
_________________________________________________________________
lambda_1 (Lambda)            (None, 530, 31)           0         
_________________________________________________________________
gaussian_noise_always_1 (Gau (None, 530, 31)           0         
_________________________________________________________________
conv1d_1 (Conv1D)            (None, 530, 30)           9330      
_________________________________________________________________
batch_normalization_1 (Batch (None, 530, 30)           120       
_________________________________________________________________
elu_1 (ELU)                  (None, 530, 30)           0         
_________________________________________________________________
max_pooling1d_1 (MaxPooling1 (None, 265, 30)           0         
_________________________________________________________________
dropout_1 (Dropout)          (None, 265, 30)           0         
_________________________________________________________________
conv1d_2 (Conv1D)            (None, 265, 30)           4530      
_________________________________________________________________
batch_normalization_2 (Batch (None, 265, 30)           120       
_________________________________________________________________
elu_2 (ELU)                  (None, 265, 30)           0         
_________________________________________________________________
max_pooling1d_2 (MaxPooling1 (None, 132, 30)           0         
_________________________________________________________________
dropout_2 (Dropout)          (None, 132, 30)           0         
_________________________________________________________________
conv1d_3 (Conv1D)            (None, 132, 30)           4530      
_________________________________________________________________
batch_normalization_3 (Batch (None, 132, 30)           120       
_________________________________________________________________
elu_3 (ELU)                  (None, 132, 30)           0         
_________________________________________________________________
max_pooling1d_3 (MaxPooling1 (None, 66, 30)            0         
_________________________________________________________________
dropout_3 (Dropout)          (None, 66, 30)            0         
_________________________________________________________________
flatten_1 (Flatten)          (None, 1980)              0         
_________________________________________________________________
dense_1 (Dense)              (None, 50)                99050     
_________________________________________________________________
batch_normalization_4 (Batch (None, 50)                200       
_________________________________________________________________
activation_1 (Activation)    (None, 50)                0         
_________________________________________________________________
dense_2 (Dense)              (None, 20)                1020      
_________________________________________________________________
batch_normalization_5 (Batch (None, 20)                80        
_________________________________________________________________
activation_2 (Activation)    (None, 20)                0         
_________________________________________________________________
dense_3 (Dense)              (None, 3)                 63        
=================================================================
Total params: 119,163
Trainable params: 118,843
Non-trainable params: 320
_________________________________________________________________
subject 1, avg accuracy 0.6055555555555554/0.32666666666666666 over 10 splits
subject 2, avg accuracy 0.6520467836257311/0.44189189189189193 over 10 splits
subject 3, avg accuracy 0.7850877192982457/0.38076923076923075 over 10 splits
…
