…
loading:  Subj17_CleanData_test_FA_visual
loading:  Subj17_CleanData_test_LM_visual
loading:  Subj17_CleanData_test_OB_visual
loading:  Subj18_CleanData_test_FA_visual
loading:  Subj18_CleanData_test_LM_visual
loading:  Subj18_CleanData_test_OB_visual
loading:  Subj19_CleanData_test_FA_visual
loading:  Subj19_CleanData_test_LM_visual
loading:  Subj19_CleanData_test_OB_visual
(90, 768, 31)
(185, 768, 31)
_________________________________________________________________
Layer (type)                 Output Shape              Param #   
=================================================================
input_1 (InputLayer)         (None, 768, 31)           0         
_________________________________________________________________
lambda_1 (Lambda)            (None, 630, 31)           0         
_________________________________________________________________
gaussian_noise_1 (GaussianNo (None, 630, 31)           0         
_________________________________________________________________
conv1d_1 (Conv1D)            (None, 630, 35)           33670     
_________________________________________________________________
batch_normalization_1 (Batch (None, 630, 35)           140       
_________________________________________________________________
elu_1 (ELU)                  (None, 630, 35)           0         
_________________________________________________________________
average_pooling1d_1 (Average (None, 315, 35)           0         
_________________________________________________________________
dropout_1 (Dropout)          (None, 315, 35)           0         
_________________________________________________________________
conv1d_2 (Conv1D)            (None, 315, 29)           11194     
_________________________________________________________________
batch_normalization_2 (Batch (None, 315, 29)           116       
_________________________________________________________________
elu_2 (ELU)                  (None, 315, 29)           0         
_________________________________________________________________
average_pooling1d_2 (Average (None, 157, 29)           0         
_________________________________________________________________
dropout_2 (Dropout)          (None, 157, 29)           0         
_________________________________________________________________
conv1d_3 (Conv1D)            (None, 157, 6)            876       
_________________________________________________________________
batch_normalization_3 (Batch (None, 157, 6)            24        
_________________________________________________________________
elu_3 (ELU)                  (None, 157, 6)            0         
_________________________________________________________________
average_pooling1d_3 (Average (None, 78, 6)             0         
_________________________________________________________________
dropout_3 (Dropout)          (None, 78, 6)             0         
_________________________________________________________________
flatten_1 (Flatten)          (None, 468)               0         
_________________________________________________________________
dense_1 (Dense)              (None, 33)                15477     
_________________________________________________________________
batch_normalization_4 (Batch (None, 33)                132       
_________________________________________________________________
activation_1 (Activation)    (None, 33)                0         
_________________________________________________________________
dense_2 (Dense)              (None, 28)                952       
_________________________________________________________________
batch_normalization_5 (Batch (None, 28)                112       
_________________________________________________________________
activation_2 (Activation)    (None, 28)                0         
_________________________________________________________________
dense_3 (Dense)              (None, 3)                 87        
=================================================================
Total params: 62,780
Trainable params: 62,518
Non-trainable params: 262
_________________________________________________________________
subject 1, avg accuracy 0.740350878238678/0.3211111132303873 over 10 splits
subject 2, avg accuracy 0.7596491277217865/0.42027027071327777 over 10 splits
subject 3, avg accuracy 0.8242690026760101/0.34461538461538466 over 10 splits
…
subject 16, avg accuracy 0.7497368395328522/0.31129032748360785 over 10 splits
subject 17, avg accuracy 0.721052634716034/0.3397058823529412 over 10 splits
subject 18, avg accuracy 0.7944444477558136/0.31428571458373744 over 10 splits
subject 19, avg accuracy 0.7730994164943695/0.30879120910233193 over 10 splits
avg accuracy over all subjects 0.7761029892497593/0.3364950214353007
_________________________________________________________________
Layer (type)                 Output Shape              Param #   
=================================================================
input_1 (InputLayer)         (None, 768, 31)           0         
_________________________________________________________________
lambda_1 (Lambda)            (None, 630, 31)           0         
_________________________________________________________________
gaussian_noise_1 (GaussianNo (None, 630, 31)           0         
_________________________________________________________________
conv1d_1 (Conv1D)            (None, 630, 38)           49514     
_________________________________________________________________
batch_normalization_1 (Batch (None, 630, 38)           152       
_________________________________________________________________
elu_1 (ELU)                  (None, 630, 38)           0         
_________________________________________________________________
average_pooling1d_1 (Average (None, 315, 38)           0         
_________________________________________________________________
dropout_1 (Dropout)          (None, 315, 38)           0         
_________________________________________________________________
conv1d_2 (Conv1D)            (None, 315, 23)           14881     
_________________________________________________________________
batch_normalization_2 (Batch (None, 315, 23)           92        
_________________________________________________________________
elu_2 (ELU)                  (None, 315, 23)           0         
_________________________________________________________________
average_pooling1d_2 (Average (None, 157, 23)           0         
_________________________________________________________________
dropout_2 (Dropout)          (None, 157, 23)           0         
_________________________________________________________________
conv1d_3 (Conv1D)            (None, 157, 6)            1938      
_________________________________________________________________
batch_normalization_3 (Batch (None, 157, 6)            24        
_________________________________________________________________
elu_3 (ELU)                  (None, 157, 6)            0         
_________________________________________________________________
average_pooling1d_3 (Average (None, 78, 6)             0         
_________________________________________________________________
dropout_3 (Dropout)          (None, 78, 6)             0         
_________________________________________________________________
flatten_1 (Flatten)          (None, 468)               0         
_________________________________________________________________
dense_1 (Dense)              (None, 47)                22043     
_________________________________________________________________
batch_normalization_4 (Batch (None, 47)                188       
_________________________________________________________________
activation_1 (Activation)    (None, 47)                0         
_________________________________________________________________
dense_2 (Dense)              (None, 18)                864       
_________________________________________________________________
batch_normalization_5 (Batch (None, 18)                72        
_________________________________________________________________
activation_2 (Activation)    (None, 18)                0         
_________________________________________________________________
dense_3 (Dense)              (None, 3)                 57        
=================================================================
Total params: 89,825
Trainable params: 89,561
Non-trainable params: 264
_________________________________________________________________
subject 1, avg accuracy 0.740350878238678/0.3411111129323642 over 10 splits
subject 2, avg accuracy 0.7043859720230102/0.45810810883302955 over 10 splits
subject 3, avg accuracy 0.8552631616592408/0.3423076923076923 over 10 splits
…
subject 16, avg accuracy 0.7081579029560089/0.35322581178719 over 10 splits
subject 17, avg accuracy 0.7368421018123626/0.30147058823529416 over 10 splits
subject 18, avg accuracy 0.7567251563072205/0.3000000002554485 over 10 splits
subject 19, avg accuracy 0.8064327478408814/0.3197802192234731 over 10 splits
avg accuracy over all subjects 0.7687053316169314/0.3474393581654579
_________________________________________________________________
Layer (type)                 Output Shape              Param #   
=================================================================
input_1 (InputLayer)         (None, 768, 31)           0         
_________________________________________________________________
lambda_1 (Lambda)            (None, 630, 31)           0         
_________________________________________________________________
gaussian_noise_1 (GaussianNo (None, 630, 31)           0         
_________________________________________________________________
conv1d_1 (Conv1D)            (None, 630, 34)           19006     
_________________________________________________________________
batch_normalization_1 (Batch (None, 630, 34)           136       
_________________________________________________________________
elu_1 (ELU)                  (None, 630, 34)           0         
_________________________________________________________________
average_pooling1d_1 (Average (None, 315, 34)           0         
_________________________________________________________________
dropout_1 (Dropout)          (None, 315, 34)           0         
_________________________________________________________________
conv1d_2 (Conv1D)            (None, 315, 26)           13286     
_________________________________________________________________
batch_normalization_2 (Batch (None, 315, 26)           104       
_________________________________________________________________
elu_2 (ELU)                  (None, 315, 26)           0         
_________________________________________________________________
average_pooling1d_2 (Average (None, 157, 26)           0         
_________________________________________________________________
dropout_2 (Dropout)          (None, 157, 26)           0         
_________________________________________________________________
conv1d_3 (Conv1D)            (None, 157, 7)            735       
_________________________________________________________________
batch_normalization_3 (Batch (None, 157, 7)            28        
_________________________________________________________________
elu_3 (ELU)                  (None, 157, 7)            0         
_________________________________________________________________
average_pooling1d_3 (Average (None, 78, 7)             0         
_________________________________________________________________
dropout_3 (Dropout)          (None, 78, 7)             0         
_________________________________________________________________
flatten_1 (Flatten)          (None, 546)               0         
_________________________________________________________________
dense_1 (Dense)              (None, 24)                13128     
_________________________________________________________________
batch_normalization_4 (Batch (None, 24)                96        
_________________________________________________________________
activation_1 (Activation)    (None, 24)                0         
_________________________________________________________________
dense_2 (Dense)              (None, 19)                475       
_________________________________________________________________
batch_normalization_5 (Batch (None, 19)                76        
_________________________________________________________________
activation_2 (Activation)    (None, 19)                0         
_________________________________________________________________
dense_3 (Dense)              (None, 3)                 60        
=================================================================
Total params: 47,130
Trainable params: 46,910
Non-trainable params: 220
_________________________________________________________________
subject 1, avg accuracy 0.7725146353244782/0.33000000245041317 over 10 splits
subject 2, avg accuracy 0.7365497142076493/0.4148648659119735 over 10 splits
subject 3, avg accuracy 0.8494152128696442/0.3461538461538462 over 10 splits
…
subject 16, avg accuracy 0.7244736850261688/0.33225806884227255 over 10 splits
subject 17, avg accuracy 0.7263157904148102/0.34558823529411764 over 10 splits
subject 18, avg accuracy 0.7935672581195832/0.30000000038317276 over 10 splits
subject 19, avg accuracy 0.7570175409317017/0.32087912115749423 over 10 splits
avg accuracy over all subjects 0.7806595221161843/0.3416203016473448
_________________________________________________________________
Layer (type)                 Output Shape              Param #   
=================================================================
input_1 (InputLayer)         (None, 768, 31)           0         
_________________________________________________________________
lambda_1 (Lambda)            (None, 630, 31)           0         
_________________________________________________________________
gaussian_noise_1 (GaussianNo (None, 630, 31)           0         
_________________________________________________________________
conv1d_1 (Conv1D)            (None, 630, 16)           23328     
_________________________________________________________________
batch_normalization_1 (Batch (None, 630, 16)           64        
_________________________________________________________________
elu_1 (ELU)                  (None, 630, 16)           0         
_________________________________________________________________
average_pooling1d_1 (Average (None, 315, 16)           0         
_________________________________________________________________
dropout_1 (Dropout)          (None, 315, 16)           0         
_________________________________________________________________
conv1d_2 (Conv1D)            (None, 315, 21)           6069      
_________________________________________________________________
batch_normalization_2 (Batch (None, 315, 21)           84        
_________________________________________________________________
elu_2 (ELU)                  (None, 315, 21)           0         
_________________________________________________________________
average_pooling1d_2 (Average (None, 157, 21)           0         
_________________________________________________________________
dropout_2 (Dropout)          (None, 157, 21)           0         
_________________________________________________________________
conv1d_3 (Conv1D)            (None, 157, 7)            1918      
_________________________________________________________________
batch_normalization_3 (Batch (None, 157, 7)            28        
_________________________________________________________________
elu_3 (ELU)                  (None, 157, 7)            0         
_________________________________________________________________
average_pooling1d_3 (Average (None, 78, 7)             0         
_________________________________________________________________
dropout_3 (Dropout)          (None, 78, 7)             0         
_________________________________________________________________
flatten_1 (Flatten)          (None, 546)               0         
_________________________________________________________________
dense_1 (Dense)              (None, 44)                24068     
_________________________________________________________________
batch_normalization_4 (Batch (None, 44)                176       
_________________________________________________________________
activation_1 (Activation)    (None, 44)                0         
_________________________________________________________________
dense_2 (Dense)              (None, 20)                900       
_________________________________________________________________
batch_normalization_5 (Batch (None, 20)                80        
_________________________________________________________________
activation_2 (Activation)    (None, 20)                0         
_________________________________________________________________
dense_3 (Dense)              (None, 3)                 63        
=================================================================
Total params: 56,778
Trainable params: 56,562
Non-trainable params: 216
_________________________________________________________________
subject 1, avg accuracy 0.7394736886024476/0.3200000023841858 over 10 splits
subject 2, avg accuracy 0.6991228044033051/0.42162162278955045 over 10 splits
subject 3, avg accuracy 0.8605263233184814/0.3384615384615385 over 10 splits
…
subject 15, avg accuracy 0.7792397737503052/0.3416000000119209 over 10 splits
subject 16, avg accuracy 0.740263170003891/0.3048387140516312 over 10 splits
subject 17, avg accuracy 0.7736842215061188/0.325 over 10 splits
subject 18, avg accuracy 0.7555555582046509/0.31285714332546505 over 10 splits
subject 19, avg accuracy 0.8011695861816406/0.3153846159086123 over 10 splits
avg accuracy over all subjects 0.783747567070855/0.3384013235276408
_________________________________________________________________
Layer (type)                 Output Shape              Param #   
=================================================================
input_1 (InputLayer)         (None, 768, 31)           0         
_________________________________________________________________
lambda_1 (Lambda)            (None, 630, 31)           0         
_________________________________________________________________
gaussian_noise_1 (GaussianNo (None, 630, 31)           0         
_________________________________________________________________
conv1d_1 (Conv1D)            (None, 630, 22)           27302     
_________________________________________________________________
batch_normalization_1 (Batch (None, 630, 22)           88        
_________________________________________________________________
elu_1 (ELU)                  (None, 630, 22)           0         
_________________________________________________________________
average_pooling1d_1 (Average (None, 315, 22)           0         
_________________________________________________________________
dropout_1 (Dropout)          (None, 315, 22)           0         
_________________________________________________________________
conv1d_2 (Conv1D)            (None, 315, 14)           2478      
_________________________________________________________________
batch_normalization_2 (Batch (None, 315, 14)           56        
_________________________________________________________________
elu_2 (ELU)                  (None, 315, 14)           0         
_________________________________________________________________
average_pooling1d_2 (Average (None, 157, 14)           0         
_________________________________________________________________
dropout_2 (Dropout)          (None, 157, 14)           0         
_________________________________________________________________
conv1d_3 (Conv1D)            (None, 157, 13)           2561      
_________________________________________________________________
batch_normalization_3 (Batch (None, 157, 13)           52        
_________________________________________________________________
elu_3 (ELU)                  (None, 157, 13)           0         
_________________________________________________________________
average_pooling1d_3 (Average (None, 78, 13)            0         
_________________________________________________________________
dropout_3 (Dropout)          (None, 78, 13)            0         
_________________________________________________________________
flatten_1 (Flatten)          (None, 1014)              0         
_________________________________________________________________
dense_1 (Dense)              (None, 37)                37555     
_________________________________________________________________
batch_normalization_4 (Batch (None, 37)                148       
_________________________________________________________________
activation_1 (Activation)    (None, 37)                0         
_________________________________________________________________
dense_2 (Dense)              (None, 7)                 266       
_________________________________________________________________
batch_normalization_5 (Batch (None, 7)                 28        
_________________________________________________________________
activation_2 (Activation)    (None, 7)                 0         
_________________________________________________________________
dense_3 (Dense)              (None, 3)                 24        
=================================================================
Total params: 70,558
Trainable params: 70,372
Non-trainable params: 186
_________________________________________________________________
subject 1, avg accuracy 0.7459064364433289/0.3422222252355681 over 10 splits
subject 2, avg accuracy 0.7476608276367187/0.4500000009665618 over 10 splits
subject 3, avg accuracy 0.8391812920570374/0.356923076923077 over 10 splits
…
subject 15, avg accuracy 0.8064327538013458/0.3607999993801117 over 10 splits
subject 16, avg accuracy 0.7400000035762787/0.35967742512303014 over 10 splits
subject 17, avg accuracy 0.7368421018123626/0.3 over 10 splits
subject 18, avg accuracy 0.7412280678749085/0.33285714302744185 over 10 splits
subject 19, avg accuracy 0.8122807025909424/0.31868131819007156 over 10 splits
avg accuracy over all subjects 0.7815886971023348/0.3483674963312139
_________________________________________________________________
Layer (type)                 Output Shape              Param #   
=================================================================
input_1 (InputLayer)         (None, 768, 31)           0         
_________________________________________________________________
lambda_1 (Lambda)            (None, 630, 31)           0         
_________________________________________________________________
gaussian_noise_1 (GaussianNo (None, 630, 31)           0         
_________________________________________________________________
conv1d_1 (Conv1D)            (None, 630, 20)           11800     
_________________________________________________________________
batch_normalization_1 (Batch (None, 630, 20)           80        
_________________________________________________________________
elu_1 (ELU)                  (None, 630, 20)           0         
_________________________________________________________________
average_pooling1d_1 (Average (None, 315, 20)           0         
_________________________________________________________________
dropout_1 (Dropout)          (None, 315, 20)           0         
_________________________________________________________________
conv1d_2 (Conv1D)            (None, 315, 11)           4631      
_________________________________________________________________
batch_normalization_2 (Batch (None, 315, 11)           44        
_________________________________________________________________
elu_2 (ELU)                  (None, 315, 11)           0         
_________________________________________________________________
average_pooling1d_2 (Average (None, 157, 11)           0         
_________________________________________________________________
dropout_2 (Dropout)          (None, 157, 11)           0         
_________________________________________________________________
conv1d_3 (Conv1D)            (None, 157, 12)           1596      
_________________________________________________________________
batch_normalization_3 (Batch (None, 157, 12)           48        
_________________________________________________________________
elu_3 (ELU)                  (None, 157, 12)           0         
_________________________________________________________________
average_pooling1d_3 (Average (None, 78, 12)            0         
_________________________________________________________________
dropout_3 (Dropout)          (None, 78, 12)            0         
_________________________________________________________________
flatten_1 (Flatten)          (None, 936)               0         
_________________________________________________________________
dense_1 (Dense)              (None, 25)                23425     
_________________________________________________________________
batch_normalization_4 (Batch (None, 25)                100       
_________________________________________________________________
activation_1 (Activation)    (None, 25)                0         
_________________________________________________________________
dense_2 (Dense)              (None, 25)                650       
_________________________________________________________________
batch_normalization_5 (Batch (None, 25)                100       
_________________________________________________________________
activation_2 (Activation)    (None, 25)                0         
_________________________________________________________________
dense_3 (Dense)              (None, 3)                 78        
=================================================================
Total params: 42,552
Trainable params: 42,366
Non-trainable params: 186
_________________________________________________________________
subject 1, avg accuracy 0.7675438642501831/0.3066666685541471 over 10 splits
subject 2, avg accuracy 0.7207602322101593/0.4513513519957259 over 10 splits
subject 3, avg accuracy 0.8716374218463898/0.3338461538461539 over 10 splits
…
subject 16, avg accuracy 0.7652631580829621/0.3483871008599958 over 10 splits
subject 17, avg accuracy 0.7631579041481018/0.3205882352941177 over 10 splits
subject 18, avg accuracy 0.7833333313465118/0.33000000042574745 over 10 splits
subject 19, avg accuracy 0.8286549627780915/0.3274725284550216 over 10 splits
avg accuracy over all subjects 0.7922823273473316/0.34913109675581866
_________________________________________________________________
Layer (type)                 Output Shape              Param #   
=================================================================
input_1 (InputLayer)         (None, 768, 31)           0         
_________________________________________________________________
lambda_1 (Lambda)            (None, 630, 31)           0         
_________________________________________________________________
gaussian_noise_1 (GaussianNo (None, 630, 31)           0         
_________________________________________________________________
conv1d_1 (Conv1D)            (None, 630, 15)           9780      
_________________________________________________________________
batch_normalization_1 (Batch (None, 630, 15)           60        
_________________________________________________________________
elu_1 (ELU)                  (None, 630, 15)           0         
_________________________________________________________________
average_pooling1d_1 (Average (None, 315, 15)           0         
_________________________________________________________________
dropout_1 (Dropout)          (None, 315, 15)           0         
_________________________________________________________________
conv1d_2 (Conv1D)            (None, 315, 19)           4294      
_________________________________________________________________
batch_normalization_2 (Batch (None, 315, 19)           76        
_________________________________________________________________
elu_2 (ELU)                  (None, 315, 19)           0         
_________________________________________________________________
average_pooling1d_2 (Average (None, 157, 19)           0         
_________________________________________________________________
dropout_2 (Dropout)          (None, 157, 19)           0         
_________________________________________________________________
conv1d_3 (Conv1D)            (None, 157, 8)            1984      
_________________________________________________________________
batch_normalization_3 (Batch (None, 157, 8)            32        
_________________________________________________________________
elu_3 (ELU)                  (None, 157, 8)            0         
_________________________________________________________________
average_pooling1d_3 (Average (None, 78, 8)             0         
_________________________________________________________________
dropout_3 (Dropout)          (None, 78, 8)             0         
_________________________________________________________________
flatten_1 (Flatten)          (None, 624)               0         
_________________________________________________________________
dense_1 (Dense)              (None, 45)                28125     
_________________________________________________________________
batch_normalization_4 (Batch (None, 45)                180       
_________________________________________________________________
activation_1 (Activation)    (None, 45)                0         
_________________________________________________________________
dense_2 (Dense)              (None, 25)                1150      
_________________________________________________________________
batch_normalization_5 (Batch (None, 25)                100       
_________________________________________________________________
activation_2 (Activation)    (None, 25)                0         
_________________________________________________________________
dense_3 (Dense)              (None, 3)                 78        
=================================================================
Total params: 45,859
Trainable params: 45,635
Non-trainable params: 224
_________________________________________________________________
subject 1, avg accuracy 0.7140350937843323/0.3222222248382039 over 10 splits
subject 2, avg accuracy 0.7637426912784576/0.43108108196709605 over 10 splits
subject 3, avg accuracy 0.8824561417102814/0.3523076923076923 over 10 splits
…
subject 16, avg accuracy 0.6726315796375275/0.35161290774422305 over 10 splits
subject 17, avg accuracy 0.7473684251308441/0.3426470588235294 over 10 splits
subject 18, avg accuracy 0.810526317358017/0.3342857143708638 over 10 splits
subject 19, avg accuracy 0.8122806966304779/0.30109890026378106 over 10 splits
avg accuracy over all subjects 0.7906643946965537/0.34327372125810823
_________________________________________________________________
Layer (type)                 Output Shape              Param #   
=================================================================
input_1 (InputLayer)         (None, 768, 31)           0         
_________________________________________________________________
lambda_1 (Lambda)            (None, 630, 31)           0         
_________________________________________________________________
gaussian_noise_1 (GaussianNo (None, 630, 31)           0         
_________________________________________________________________
conv1d_1 (Conv1D)            (None, 630, 25)           4675      
_________________________________________________________________
batch_normalization_1 (Batch (None, 630, 25)           100       
_________________________________________________________________
elu_1 (ELU)                  (None, 630, 25)           0         
_________________________________________________________________
average_pooling1d_1 (Average (None, 315, 25)           0         
_________________________________________________________________
dropout_1 (Dropout)          (None, 315, 25)           0         
_________________________________________________________________
conv1d_2 (Conv1D)            (None, 315, 16)           8016      
_________________________________________________________________
batch_normalization_2 (Batch (None, 315, 16)           64        
_________________________________________________________________
elu_2 (ELU)                  (None, 315, 16)           0         
_________________________________________________________________
average_pooling1d_2 (Average (None, 157, 16)           0         
_________________________________________________________________
dropout_2 (Dropout)          (None, 157, 16)           0         
_________________________________________________________________
conv1d_3 (Conv1D)            (None, 157, 12)           972       
_________________________________________________________________
batch_normalization_3 (Batch (None, 157, 12)           48        
_________________________________________________________________
elu_3 (ELU)                  (None, 157, 12)           0         
_________________________________________________________________
average_pooling1d_3 (Average (None, 78, 12)            0         
_________________________________________________________________
dropout_3 (Dropout)          (None, 78, 12)            0         
_________________________________________________________________
flatten_1 (Flatten)          (None, 936)               0         
_________________________________________________________________
dense_1 (Dense)              (None, 27)                25299     
_________________________________________________________________
batch_normalization_4 (Batch (None, 27)                108       
_________________________________________________________________
activation_1 (Activation)    (None, 27)                0         
_________________________________________________________________
dense_2 (Dense)              (None, 27)                756       
_________________________________________________________________
batch_normalization_5 (Batch (None, 27)                108       
_________________________________________________________________
activation_2 (Activation)    (None, 27)                0         
_________________________________________________________________
dense_3 (Dense)              (None, 3)                 84        
=================================================================
Total params: 40,230
Trainable params: 40,016
Non-trainable params: 214
_________________________________________________________________
subject 1, avg accuracy 0.7675438582897186/0.31888889120684727 over 10 splits
subject 2, avg accuracy 0.7587719321250915/0.4459459465903205 over 10 splits
subject 3, avg accuracy 0.8657894730567932/0.34538461538461546 over 10 splits
…
subject 16, avg accuracy 0.692368420958519/0.3500000046626214 over 10 splits
subject 17, avg accuracy 0.7368421077728271/0.3161764705882354 over 10 splits
subject 18, avg accuracy 0.7573099434375763/0.34142857155629563 over 10 splits
subject 19, avg accuracy 0.7181286603212357/0.33186813242487856 over 10 splits
avg accuracy over all subjects 0.7697774529457093/0.34760959015872905
_________________________________________________________________
Layer (type)                 Output Shape              Param #   
=================================================================
input_1 (InputLayer)         (None, 768, 31)           0         
_________________________________________________________________
lambda_1 (Lambda)            (None, 630, 31)           0         
_________________________________________________________________
gaussian_noise_1 (GaussianNo (None, 630, 31)           0         
_________________________________________________________________
conv1d_1 (Conv1D)            (None, 630, 28)           29540     
_________________________________________________________________
batch_normalization_1 (Batch (None, 630, 28)           112       
_________________________________________________________________
elu_1 (ELU)                  (None, 630, 28)           0         
_________________________________________________________________
average_pooling1d_1 (Average (None, 315, 28)           0         
_________________________________________________________________
dropout_1 (Dropout)          (None, 315, 28)           0         
_________________________________________________________________
conv1d_2 (Conv1D)            (None, 315, 25)           8425      
_________________________________________________________________
batch_normalization_2 (Batch (None, 315, 25)           100       
_________________________________________________________________
elu_2 (ELU)                  (None, 315, 25)           0         
_________________________________________________________________
average_pooling1d_2 (Average (None, 157, 25)           0         
_________________________________________________________________
dropout_2 (Dropout)          (None, 157, 25)           0         
_________________________________________________________________
conv1d_3 (Conv1D)            (None, 157, 15)           5265      
_________________________________________________________________
batch_normalization_3 (Batch (None, 157, 15)           60        
_________________________________________________________________
elu_3 (ELU)                  (None, 157, 15)           0         
_________________________________________________________________
average_pooling1d_3 (Average (None, 78, 15)            0         
_________________________________________________________________
dropout_3 (Dropout)          (None, 78, 15)            0         
_________________________________________________________________
flatten_1 (Flatten)          (None, 1170)              0         
_________________________________________________________________
dense_1 (Dense)              (None, 26)                30446     
_________________________________________________________________
batch_normalization_4 (Batch (None, 26)                104       
_________________________________________________________________
activation_1 (Activation)    (None, 26)                0         
_________________________________________________________________
dense_2 (Dense)              (None, 10)                270       
_________________________________________________________________
batch_normalization_5 (Batch (None, 10)                40        
_________________________________________________________________
activation_2 (Activation)    (None, 10)                0         
_________________________________________________________________
dense_3 (Dense)              (None, 3)                 33        
=================================================================
Total params: 74,395
Trainable params: 74,187
Non-trainable params: 208
_________________________________________________________________
subject 1, avg accuracy 0.7614035129547119/0.32333333601554237 over 10 splits
subject 2, avg accuracy 0.7801169574260711/0.43918918995438394 over 10 splits
subject 3, avg accuracy 0.8388888895511627/0.3453846153846154 over 10 splits
…
subject 16, avg accuracy 0.6618421018123627/0.3451612950813386 over 10 splits
subject 17, avg accuracy 0.7263157963752747/0.3264705882352942 over 10 splits
subject 18, avg accuracy 0.7561403632164001/0.3342857144134385 over 10 splits
subject 19, avg accuracy 0.7921052634716034/0.3494505489920522 over 10 splits
avg accuracy over all subjects 0.773979859219657/0.35113412400000693
_________________________________________________________________
Layer (type)                 Output Shape              Param #   
=================================================================
input_1 (InputLayer)         (None, 768, 31)           0         
_________________________________________________________________
lambda_1 (Lambda)            (None, 630, 31)           0         
_________________________________________________________________
gaussian_noise_1 (GaussianNo (None, 630, 31)           0         
_________________________________________________________________
conv1d_1 (Conv1D)            (None, 630, 27)           21789     
_________________________________________________________________
batch_normalization_1 (Batch (None, 630, 27)           108       
_________________________________________________________________
elu_1 (ELU)                  (None, 630, 27)           0         
_________________________________________________________________
average_pooling1d_1 (Average (None, 315, 27)           0         
_________________________________________________________________
dropout_1 (Dropout)          (None, 315, 27)           0         
_________________________________________________________________
conv1d_2 (Conv1D)            (None, 315, 18)           5850      
_________________________________________________________________
batch_normalization_2 (Batch (None, 315, 18)           72        
_________________________________________________________________
elu_2 (ELU)                  (None, 315, 18)           0         
_________________________________________________________________
average_pooling1d_2 (Average (None, 157, 18)           0         
_________________________________________________________________
dropout_2 (Dropout)          (None, 157, 18)           0         
_________________________________________________________________
conv1d_3 (Conv1D)            (None, 157, 14)           2282      
_________________________________________________________________
batch_normalization_3 (Batch (None, 157, 14)           56        
_________________________________________________________________
elu_3 (ELU)                  (None, 157, 14)           0         
_________________________________________________________________
average_pooling1d_3 (Average (None, 78, 14)            0         
_________________________________________________________________
dropout_3 (Dropout)          (None, 78, 14)            0         
_________________________________________________________________
flatten_1 (Flatten)          (None, 1092)              0         
_________________________________________________________________
dense_1 (Dense)              (None, 11)                12023     
_________________________________________________________________
batch_normalization_4 (Batch (None, 11)                44        
_________________________________________________________________
activation_1 (Activation)    (None, 11)                0         
_________________________________________________________________
dense_2 (Dense)              (None, 18)                216       
_________________________________________________________________
batch_normalization_5 (Batch (None, 18)                72        
_________________________________________________________________
activation_2 (Activation)    (None, 18)                0         
_________________________________________________________________
dense_3 (Dense)              (None, 3)                 57        
=================================================================
Total params: 42,569
Trainable params: 42,393
Non-trainable params: 176
_________________________________________________________________
subject 1, avg accuracy 0.7128655076026916/0.32777777989705403 over 10 splits
subject 2, avg accuracy 0.7005848050117492/0.44459459564170317 over 10 splits
subject 3, avg accuracy 0.8342105269432067/0.36846153846153845 over 10 splits
…
subject 16, avg accuracy 0.7297368526458741/0.37258064948743386 over 10 splits
subject 17, avg accuracy 0.6894736915826798/0.31323529411764706 over 10 splits
subject 18, avg accuracy 0.7780701696872712/0.30857142895460127 over 10 splits
subject 19, avg accuracy 0.7523391783237457/0.33406593288694114 over 10 splits
avg accuracy over all subjects 0.7568616025977666/0.3516940287352549
_________________________________________________________________
Layer (type)                 Output Shape              Param #   
=================================================================
input_1 (InputLayer)         (None, 768, 31)           0         
_________________________________________________________________
lambda_1 (Lambda)            (None, 630, 31)           0         
_________________________________________________________________
gaussian_noise_1 (GaussianNo (None, 630, 31)           0         
_________________________________________________________________
conv1d_1 (Conv1D)            (None, 630, 14)           13902     
_________________________________________________________________
batch_normalization_1 (Batch (None, 630, 14)           56        
_________________________________________________________________
elu_1 (ELU)                  (None, 630, 14)           0         
_________________________________________________________________
average_pooling1d_1 (Average (None, 315, 14)           0         
_________________________________________________________________
dropout_1 (Dropout)          (None, 315, 14)           0         
_________________________________________________________________
conv1d_2 (Conv1D)            (None, 315, 13)           4381      
_________________________________________________________________
batch_normalization_2 (Batch (None, 315, 13)           52        
_________________________________________________________________
elu_2 (ELU)                  (None, 315, 13)           0         
_________________________________________________________________
average_pooling1d_2 (Average (None, 157, 13)           0         
_________________________________________________________________
dropout_2 (Dropout)          (None, 157, 13)           0         
_________________________________________________________________
conv1d_3 (Conv1D)            (None, 157, 17)           2669      
_________________________________________________________________
batch_normalization_3 (Batch (None, 157, 17)           68        
_________________________________________________________________
elu_3 (ELU)                  (None, 157, 17)           0         
_________________________________________________________________
average_pooling1d_3 (Average (None, 78, 17)            0         
_________________________________________________________________
dropout_3 (Dropout)          (None, 78, 17)            0         
_________________________________________________________________
flatten_1 (Flatten)          (None, 1326)              0         
_________________________________________________________________
dense_1 (Dense)              (None, 9)                 11943     
_________________________________________________________________
batch_normalization_4 (Batch (None, 9)                 36        
_________________________________________________________________
activation_1 (Activation)    (None, 9)                 0         
_________________________________________________________________
dense_2 (Dense)              (None, 16)                160       
_________________________________________________________________
batch_normalization_5 (Batch (None, 16)                64        
_________________________________________________________________
activation_2 (Activation)    (None, 16)                0         
_________________________________________________________________
dense_3 (Dense)              (None, 3)                 51        
=================================================================
Total params: 33,382
Trainable params: 33,244
Non-trainable params: 138
_________________________________________________________________
subject 1, avg accuracy 0.7400584757328034/0.3433333362804519 over 10 splits
subject 2, avg accuracy 0.7269005894660949/0.44054054110436824 over 10 splits
subject 3, avg accuracy 0.8821637392044067/0.35 over 10 splits
…
subject 16, avg accuracy 0.6986842095851898/0.370967746550037 over 10 splits
subject 17, avg accuracy 0.7000000059604645/0.31617647058823534 over 10 splits
subject 18, avg accuracy 0.7552631616592407/0.32857142882687707 over 10 splits
subject 19, avg accuracy 0.7730994045734405/0.3439560434156722 over 10 splits
avg accuracy over all subjects 0.7593063675694995/0.35045038520776045
_________________________________________________________________
Layer (type)                 Output Shape              Param #   
=================================================================
input_1 (InputLayer)         (None, 768, 31)           0         
_________________________________________________________________
lambda_1 (Lambda)            (None, 630, 31)           0         
_________________________________________________________________
gaussian_noise_1 (GaussianNo (None, 630, 31)           0         
_________________________________________________________________
conv1d_1 (Conv1D)            (None, 630, 38)           8284      
_________________________________________________________________
batch_normalization_1 (Batch (None, 630, 38)           152       
_________________________________________________________________
elu_1 (ELU)                  (None, 630, 38)           0         
_________________________________________________________________
average_pooling1d_1 (Average (None, 315, 38)           0         
_________________________________________________________________
dropout_1 (Dropout)          (None, 315, 38)           0         
_________________________________________________________________
conv1d_2 (Conv1D)            (None, 315, 16)           14608     
_________________________________________________________________
batch_normalization_2 (Batch (None, 315, 16)           64        
_________________________________________________________________
elu_2 (ELU)                  (None, 315, 16)           0         
_________________________________________________________________
average_pooling1d_2 (Average (None, 157, 16)           0         
_________________________________________________________________
dropout_2 (Dropout)          (None, 157, 16)           0         
_________________________________________________________________
conv1d_3 (Conv1D)            (None, 157, 17)           3553      
_________________________________________________________________
batch_normalization_3 (Batch (None, 157, 17)           68        
_________________________________________________________________
elu_3 (ELU)                  (None, 157, 17)           0         
_________________________________________________________________
average_pooling1d_3 (Average (None, 78, 17)            0         
_________________________________________________________________
dropout_3 (Dropout)          (None, 78, 17)            0         
_________________________________________________________________
flatten_1 (Flatten)          (None, 1326)              0         
_________________________________________________________________
dense_1 (Dense)              (None, 9)                 11943     
_________________________________________________________________
batch_normalization_4 (Batch (None, 9)                 36        
_________________________________________________________________
activation_1 (Activation)    (None, 9)                 0         
_________________________________________________________________
dense_2 (Dense)              (None, 21)                210       
_________________________________________________________________
batch_normalization_5 (Batch (None, 21)                84        
_________________________________________________________________
activation_2 (Activation)    (None, 21)                0         
_________________________________________________________________
dense_3 (Dense)              (None, 3)                 66        
=================================================================
Total params: 39,068
Trainable params: 38,866
Non-trainable params: 202
_________________________________________________________________
subject 1, avg accuracy 0.7792397618293763/0.31888889084259664 over 10 splits
subject 2, avg accuracy 0.7739766061305999/0.440540541124505 over 10 splits
subject 3, avg accuracy 0.8444444417953492/0.3523076923076923 over 10 splits
…
subject 15, avg accuracy 0.7789473712444306/0.36560000057220454 over 10 splits
subject 16, avg accuracy 0.6923684179782867/0.3677419405791067 over 10 splits
subject 17, avg accuracy 0.7052631586790085/0.35 over 10 splits
subject 18, avg accuracy 0.7719298303127289/0.32285714311259134 over 10 splits
subject 19, avg accuracy 0.7956140339374542/0.34175824107049585 over 10 splits
avg accuracy over all subjects 0.7832163762715127/0.35225415739868726
_________________________________________________________________
Layer (type)                 Output Shape              Param #   
=================================================================
input_1 (InputLayer)         (None, 768, 31)           0         
_________________________________________________________________
lambda_1 (Lambda)            (None, 630, 31)           0         
_________________________________________________________________
gaussian_noise_1 (GaussianNo (None, 630, 31)           0         
_________________________________________________________________
conv1d_1 (Conv1D)            (None, 630, 15)           3270      
_________________________________________________________________
batch_normalization_1 (Batch (None, 630, 15)           60        
_________________________________________________________________
elu_1 (ELU)                  (None, 630, 15)           0         
_________________________________________________________________
average_pooling1d_1 (Average (None, 315, 15)           0         
_________________________________________________________________
dropout_1 (Dropout)          (None, 315, 15)           0         
_________________________________________________________________
conv1d_2 (Conv1D)            (None, 315, 25)           9025      
_________________________________________________________________
batch_normalization_2 (Batch (None, 315, 25)           100       
_________________________________________________________________
elu_2 (ELU)                  (None, 315, 25)           0         
_________________________________________________________________
average_pooling1d_2 (Average (None, 157, 25)           0         
_________________________________________________________________
dropout_2 (Dropout)          (None, 157, 25)           0         
_________________________________________________________________
conv1d_3 (Conv1D)            (None, 157, 7)            1932      
_________________________________________________________________
batch_normalization_3 (Batch (None, 157, 7)            28        
_________________________________________________________________
elu_3 (ELU)                  (None, 157, 7)            0         
_________________________________________________________________
average_pooling1d_3 (Average (None, 78, 7)             0         
_________________________________________________________________
dropout_3 (Dropout)          (None, 78, 7)             0         
_________________________________________________________________
flatten_1 (Flatten)          (None, 546)               0         
_________________________________________________________________
dense_1 (Dense)              (None, 8)                 4376      
_________________________________________________________________
batch_normalization_4 (Batch (None, 8)                 32        
_________________________________________________________________
activation_1 (Activation)    (None, 8)                 0         
_________________________________________________________________
dense_2 (Dense)              (None, 29)                261       
_________________________________________________________________
batch_normalization_5 (Batch (None, 29)                116       
_________________________________________________________________
activation_2 (Activation)    (None, 29)                0         
_________________________________________________________________
dense_3 (Dense)              (None, 3)                 90        
=================================================================
Total params: 19,290
Trainable params: 19,122
Non-trainable params: 168
_________________________________________________________________
subject 1, avg accuracy 0.7888888955116272/0.34222222497065863 over 10 splits
subject 2, avg accuracy 0.7426900684833526/0.4094594605065681 over 10 splits
subject 3, avg accuracy 0.8397660851478577/0.36692307692307696 over 10 splits
…
subject 15, avg accuracy 0.7678362607955933/0.35199999998807907 over 10 splits
subject 16, avg accuracy 0.7197368443012238/0.3612903274355396 over 10 splits
subject 17, avg accuracy 0.7052631616592407/0.325 over 10 splits
subject 18, avg accuracy 0.7719298243522644/0.320000000170299 over 10 splits
subject 19, avg accuracy 0.7736842095851898/0.3395604394294403 over 10 splits
avg accuracy over all subjects 0.774710854722394/0.3459224552763691
_________________________________________________________________
Layer (type)                 Output Shape              Param #   
=================================================================
input_1 (InputLayer)         (None, 768, 31)           0         
_________________________________________________________________
lambda_1 (Lambda)            (None, 630, 31)           0         
_________________________________________________________________
gaussian_noise_1 (GaussianNo (None, 630, 31)           0         
_________________________________________________________________
conv1d_1 (Conv1D)            (None, 630, 31)           37510     
_________________________________________________________________
batch_normalization_1 (Batch (None, 630, 31)           124       
_________________________________________________________________
elu_1 (ELU)                  (None, 630, 31)           0         
_________________________________________________________________
average_pooling1d_1 (Average (None, 315, 31)           0         
_________________________________________________________________
dropout_1 (Dropout)          (None, 315, 31)           0         
_________________________________________________________________
conv1d_2 (Conv1D)            (None, 315, 26)           7280      
_________________________________________________________________
batch_normalization_2 (Batch (None, 315, 26)           104       
_________________________________________________________________
elu_2 (ELU)                  (None, 315, 26)           0         
_________________________________________________________________
average_pooling1d_2 (Average (None, 157, 26)           0         
_________________________________________________________________
dropout_2 (Dropout)          (None, 157, 26)           0         
_________________________________________________________________
conv1d_3 (Conv1D)            (None, 157, 6)            1098      
_________________________________________________________________
batch_normalization_3 (Batch (None, 157, 6)            24        
_________________________________________________________________
elu_3 (ELU)                  (None, 157, 6)            0         
_________________________________________________________________
average_pooling1d_3 (Average (None, 78, 6)             0         
_________________________________________________________________
dropout_3 (Dropout)          (None, 78, 6)             0         
_________________________________________________________________
flatten_1 (Flatten)          (None, 468)               0         
_________________________________________________________________
dense_1 (Dense)              (None, 21)                9849      
_________________________________________________________________
batch_normalization_4 (Batch (None, 21)                84        
_________________________________________________________________
activation_1 (Activation)    (None, 21)                0         
_________________________________________________________________
dense_2 (Dense)              (None, 14)                308       
_________________________________________________________________
batch_normalization_5 (Batch (None, 14)                56        
_________________________________________________________________
activation_2 (Activation)    (None, 14)                0         
_________________________________________________________________
dense_3 (Dense)              (None, 3)                 45        
=================================================================
Total params: 56,482
Trainable params: 56,286
Non-trainable params: 196
_________________________________________________________________
subject 1, avg accuracy 0.704678350687027/0.3122222246726354 over 10 splits
subject 2, avg accuracy 0.7359649151563644/0.4297297307365649 over 10 splits
subject 3, avg accuracy 0.8807017564773559/0.3492307692307692 over 10 splits
…
subject 16, avg accuracy 0.7142105340957642/0.3548387138112899 over 10 splits
subject 17, avg accuracy 0.7421052634716034/0.31176470588235294 over 10 splits
subject 18, avg accuracy 0.7622807085514068/0.3042857144985881 over 10 splits
subject 19, avg accuracy 0.7847953200340271/0.31098901130013407 over 10 splits
avg accuracy over all subjects 0.7759324237704277/0.3409669212000457
_________________________________________________________________
Layer (type)                 Output Shape              Param #   
=================================================================
input_1 (InputLayer)         (None, 768, 31)           0         
_________________________________________________________________
lambda_1 (Lambda)            (None, 630, 31)           0         
_________________________________________________________________
gaussian_noise_1 (GaussianNo (None, 630, 31)           0         
_________________________________________________________________
conv1d_1 (Conv1D)            (None, 630, 24)           12672     
_________________________________________________________________
batch_normalization_1 (Batch (None, 630, 24)           96        
_________________________________________________________________
elu_1 (ELU)                  (None, 630, 24)           0         
_________________________________________________________________
average_pooling1d_1 (Average (None, 315, 24)           0         
_________________________________________________________________
dropout_1 (Dropout)          (None, 315, 24)           0         
_________________________________________________________________
conv1d_2 (Conv1D)            (None, 315, 20)           7700      
_________________________________________________________________
batch_normalization_2 (Batch (None, 315, 20)           80        
_________________________________________________________________
elu_2 (ELU)                  (None, 315, 20)           0         
_________________________________________________________________
average_pooling1d_2 (Average (None, 157, 20)           0         
_________________________________________________________________
dropout_2 (Dropout)          (None, 157, 20)           0         
_________________________________________________________________
conv1d_3 (Conv1D)            (None, 157, 13)           1573      
_________________________________________________________________
batch_normalization_3 (Batch (None, 157, 13)           52        
_________________________________________________________________
elu_3 (ELU)                  (None, 157, 13)           0         
_________________________________________________________________
average_pooling1d_3 (Average (None, 78, 13)            0         
_________________________________________________________________
dropout_3 (Dropout)          (None, 78, 13)            0         
_________________________________________________________________
flatten_1 (Flatten)          (None, 1014)              0         
_________________________________________________________________
dense_1 (Dense)              (None, 13)                13195     
_________________________________________________________________
batch_normalization_4 (Batch (None, 13)                52        
_________________________________________________________________
activation_1 (Activation)    (None, 13)                0         
_________________________________________________________________
dense_2 (Dense)              (None, 20)                280       
_________________________________________________________________
batch_normalization_5 (Batch (None, 20)                80        
_________________________________________________________________
activation_2 (Activation)    (None, 20)                0         
_________________________________________________________________
dense_3 (Dense)              (None, 3)                 63        
=================================================================
Total params: 35,843
Trainable params: 35,663
Non-trainable params: 180
_________________________________________________________________
subject 1, avg accuracy 0.7134502947330474/0.32666666888528406 over 10 splits
subject 2, avg accuracy 0.7371345043182373/0.44594594663059384 over 10 splits
subject 3, avg accuracy 0.8500000059604644/0.3515384615384616 over 10 splits
…
subject 16, avg accuracy 0.7342105269432068/0.36774193942546846 over 10 splits
subject 17, avg accuracy 0.694736847281456/0.3264705882352942 over 10 splits
subject 18, avg accuracy 0.7681286573410034/0.3357142860123089 over 10 splits
subject 19, avg accuracy 0.7684210479259491/0.3241758234225787 over 10 splits
avg accuracy over all subjects 0.774816442032655/0.3436039524570973
_________________________________________________________________
Layer (type)                 Output Shape              Param #   
=================================================================
input_1 (InputLayer)         (None, 768, 31)           0         
_________________________________________________________________
lambda_1 (Lambda)            (None, 630, 31)           0         
_________________________________________________________________
gaussian_noise_1 (GaussianNo (None, 630, 31)           0         
_________________________________________________________________
conv1d_1 (Conv1D)            (None, 630, 12)           9312      
_________________________________________________________________
batch_normalization_1 (Batch (None, 630, 12)           48        
_________________________________________________________________
elu_1 (ELU)                  (None, 630, 12)           0         
_________________________________________________________________
average_pooling1d_1 (Average (None, 315, 12)           0         
_________________________________________________________________
dropout_1 (Dropout)          (None, 315, 12)           0         
_________________________________________________________________
conv1d_2 (Conv1D)            (None, 315, 23)           2507      
_________________________________________________________________
batch_normalization_2 (Batch (None, 315, 23)           92        
_________________________________________________________________
elu_2 (ELU)                  (None, 315, 23)           0         
_________________________________________________________________
average_pooling1d_2 (Average (None, 157, 23)           0         
_________________________________________________________________
dropout_2 (Dropout)          (None, 157, 23)           0         
_________________________________________________________________
conv1d_3 (Conv1D)            (None, 157, 14)           1946      
_________________________________________________________________
batch_normalization_3 (Batch (None, 157, 14)           56        
_________________________________________________________________
elu_3 (ELU)                  (None, 157, 14)           0         
_________________________________________________________________
average_pooling1d_3 (Average (None, 78, 14)            0         
_________________________________________________________________
dropout_3 (Dropout)          (None, 78, 14)            0         
_________________________________________________________________
flatten_1 (Flatten)          (None, 1092)              0         
_________________________________________________________________
dense_1 (Dense)              (None, 15)                16395     
_________________________________________________________________
batch_normalization_4 (Batch (None, 15)                60        
_________________________________________________________________
activation_1 (Activation)    (None, 15)                0         
_________________________________________________________________
dense_2 (Dense)              (None, 11)                176       
_________________________________________________________________
batch_normalization_5 (Batch (None, 11)                44        
_________________________________________________________________
activation_2 (Activation)    (None, 11)                0         
_________________________________________________________________
dense_3 (Dense)              (None, 3)                 36        
=================================================================
Total params: 30,672
Trainable params: 30,522
Non-trainable params: 150
_________________________________________________________________
subject 1, avg accuracy 0.7459064334630966/0.3377777804931005 over 10 splits
subject 2, avg accuracy 0.7377192974090576/0.4283783794657604 over 10 splits
subject 3, avg accuracy 0.8286549687385559/0.3615384615384616 over 10 splits
…
subject 16, avg accuracy 0.7086842060089111/0.34516129407190504 over 10 splits
subject 17, avg accuracy 0.6473684221506119/0.33529411764705885 over 10 splits
subject 18, avg accuracy 0.728947377204895/0.3200000003831728 over 10 splits
subject 19, avg accuracy 0.7622807025909424/0.3252747244887299 over 10 splits
avg accuracy over all subjects 0.7657813535796271/0.3462295758495323
_________________________________________________________________
Layer (type)                 Output Shape              Param #   
=================================================================
input_1 (InputLayer)         (None, 768, 31)           0         
_________________________________________________________________
lambda_1 (Lambda)            (None, 630, 31)           0         
_________________________________________________________________
gaussian_noise_1 (GaussianNo (None, 630, 31)           0         
_________________________________________________________________
conv1d_1 (Conv1D)            (None, 630, 15)           10710     
_________________________________________________________________
batch_normalization_1 (Batch (None, 630, 15)           60        
_________________________________________________________________
elu_1 (ELU)                  (None, 630, 15)           0         
_________________________________________________________________
average_pooling1d_1 (Average (None, 315, 15)           0         
_________________________________________________________________
dropout_1 (Dropout)          (None, 315, 15)           0         
_________________________________________________________________
conv1d_2 (Conv1D)            (None, 315, 13)           4693      
_________________________________________________________________
batch_normalization_2 (Batch (None, 315, 13)           52        
_________________________________________________________________
elu_2 (ELU)                  (None, 315, 13)           0         
_________________________________________________________________
average_pooling1d_2 (Average (None, 157, 13)           0         
_________________________________________________________________
dropout_2 (Dropout)          (None, 157, 13)           0         
_________________________________________________________________
conv1d_3 (Conv1D)            (None, 157, 11)           869       
_________________________________________________________________
batch_normalization_3 (Batch (None, 157, 11)           44        
_________________________________________________________________
elu_3 (ELU)                  (None, 157, 11)           0         
_________________________________________________________________
average_pooling1d_3 (Average (None, 78, 11)            0         
_________________________________________________________________
dropout_3 (Dropout)          (None, 78, 11)            0         
_________________________________________________________________
flatten_1 (Flatten)          (None, 858)               0         
_________________________________________________________________
dense_1 (Dense)              (None, 43)                36937     
_________________________________________________________________
batch_normalization_4 (Batch (None, 43)                172       
_________________________________________________________________
activation_1 (Activation)    (None, 43)                0         
_________________________________________________________________
dense_2 (Dense)              (None, 12)                528       
_________________________________________________________________
batch_normalization_5 (Batch (None, 12)                48        
_________________________________________________________________
activation_2 (Activation)    (None, 12)                0         
_________________________________________________________________
dense_3 (Dense)              (None, 3)                 39        
=================================================================
Total params: 54,152
Trainable params: 53,964
Non-trainable params: 188
_________________________________________________________________
subject 1, avg accuracy 0.7728070199489594/0.3388888905776872 over 10 splits
subject 2, avg accuracy 0.7327485382556915/0.4391891898335638 over 10 splits
subject 3, avg accuracy 0.8441520452499389/0.3746153846153846 over 10 splits
…
subject 16, avg accuracy 0.7028947412967682/0.3338709727410347 over 10 splits
subject 17, avg accuracy 0.6947368532419205/0.3220588235294118 over 10 splits
subject 18, avg accuracy 0.7032163739204407/0.31285714307001655 over 10 splits
subject 19, avg accuracy 0.7956140339374542/0.3241758245196972 over 10 splits
avg accuracy over all subjects 0.7742154013779429/0.3492760038617665
_________________________________________________________________
Layer (type)                 Output Shape              Param #   
=================================================================
input_1 (InputLayer)         (None, 768, 31)           0         
_________________________________________________________________
lambda_1 (Lambda)            (None, 630, 31)           0         
_________________________________________________________________
gaussian_noise_1 (GaussianNo (None, 630, 31)           0         
_________________________________________________________________
conv1d_1 (Conv1D)            (None, 630, 37)           52799     
_________________________________________________________________
batch_normalization_1 (Batch (None, 630, 37)           148       
_________________________________________________________________
elu_1 (ELU)                  (None, 630, 37)           0         
_________________________________________________________________
average_pooling1d_1 (Average (None, 315, 37)           0         
_________________________________________________________________
dropout_1 (Dropout)          (None, 315, 37)           0         
_________________________________________________________________
conv1d_2 (Conv1D)            (None, 315, 25)           7425      
_________________________________________________________________
batch_normalization_2 (Batch (None, 315, 25)           100       
_________________________________________________________________
elu_2 (ELU)                  (None, 315, 25)           0         
_________________________________________________________________
average_pooling1d_2 (Average (None, 157, 25)           0         
_________________________________________________________________
dropout_2 (Dropout)          (None, 157, 25)           0         
_________________________________________________________________
conv1d_3 (Conv1D)            (None, 157, 5)            1255      
_________________________________________________________________
batch_normalization_3 (Batch (None, 157, 5)            20        
_________________________________________________________________
elu_3 (ELU)                  (None, 157, 5)            0         
_________________________________________________________________
average_pooling1d_3 (Average (None, 78, 5)             0         
_________________________________________________________________
dropout_3 (Dropout)          (None, 78, 5)             0         
_________________________________________________________________
flatten_1 (Flatten)          (None, 390)               0         
_________________________________________________________________
dense_1 (Dense)              (None, 46)                17986     
_________________________________________________________________
batch_normalization_4 (Batch (None, 46)                184       
_________________________________________________________________
activation_1 (Activation)    (None, 46)                0         
_________________________________________________________________
dense_2 (Dense)              (None, 10)                470       
_________________________________________________________________
batch_normalization_5 (Batch (None, 10)                40        
_________________________________________________________________
activation_2 (Activation)    (None, 10)                0         
_________________________________________________________________
dense_3 (Dense)              (None, 3)                 33        
=================================================================
Total params: 80,460
Trainable params: 80,214
Non-trainable params: 246
_________________________________________________________________
subject 1, avg accuracy 0.7134502947330474/0.3044444458517763 over 10 splits
subject 2, avg accuracy 0.7485380172729492/0.45270270330680384 over 10 splits
subject 3, avg accuracy 0.8388888955116272/0.34615384615384615 over 10 splits
…
subject 16, avg accuracy 0.7036842107772827/0.33387097192387427 over 10 splits
subject 17, avg accuracy 0.7210526406764984/0.30735294117647066 over 10 splits
subject 18, avg accuracy 0.7763157904148101/0.3357142860548837 over 10 splits
subject 19, avg accuracy 0.8342105209827423/0.29890109942509585 over 10 splits
avg accuracy over all subjects 0.7707212516003183/0.33895147330171793
_________________________________________________________________
Layer (type)                 Output Shape              Param #   
=================================================================
input_1 (InputLayer)         (None, 768, 31)           0         
_________________________________________________________________
lambda_1 (Lambda)            (None, 630, 31)           0         
_________________________________________________________________
gaussian_noise_1 (GaussianNo (None, 630, 31)           0         
_________________________________________________________________
conv1d_1 (Conv1D)            (None, 630, 16)           4976      
_________________________________________________________________
batch_normalization_1 (Batch (None, 630, 16)           64        
_________________________________________________________________
elu_1 (ELU)                  (None, 630, 16)           0         
_________________________________________________________________
average_pooling1d_1 (Average (None, 315, 16)           0         
_________________________________________________________________
dropout_1 (Dropout)          (None, 315, 16)           0         
_________________________________________________________________
conv1d_2 (Conv1D)            (None, 315, 20)           7060      
_________________________________________________________________
batch_normalization_2 (Batch (None, 315, 20)           80        
_________________________________________________________________
elu_2 (ELU)                  (None, 315, 20)           0         
_________________________________________________________________
average_pooling1d_2 (Average (None, 157, 20)           0         
_________________________________________________________________
dropout_2 (Dropout)          (None, 157, 20)           0         
_________________________________________________________________
conv1d_3 (Conv1D)            (None, 157, 10)           2610      
_________________________________________________________________
batch_normalization_3 (Batch (None, 157, 10)           40        
_________________________________________________________________
elu_3 (ELU)                  (None, 157, 10)           0         
_________________________________________________________________
average_pooling1d_3 (Average (None, 78, 10)            0         
_________________________________________________________________
dropout_3 (Dropout)          (None, 78, 10)            0         
_________________________________________________________________
flatten_1 (Flatten)          (None, 780)               0         
_________________________________________________________________
dense_1 (Dense)              (None, 45)                35145     
_________________________________________________________________
batch_normalization_4 (Batch (None, 45)                180       
_________________________________________________________________
activation_1 (Activation)    (None, 45)                0         
_________________________________________________________________
dense_2 (Dense)              (None, 16)                736       
_________________________________________________________________
batch_normalization_5 (Batch (None, 16)                64        
_________________________________________________________________
activation_2 (Activation)    (None, 16)                0         
_________________________________________________________________
dense_3 (Dense)              (None, 3)                 51        
=================================================================
Total params: 51,006
Trainable params: 50,792
Non-trainable params: 214
_________________________________________________________________
subject 1, avg accuracy 0.7450292348861695/0.3233333351877 over 10 splits
subject 2, avg accuracy 0.7318713456392288/0.4013513520359993 over 10 splits
subject 3, avg accuracy 0.8561403453350067/0.3646153846153847 over 10 splits
…
subject 16, avg accuracy 0.74921053647995/0.3387096812648158 over 10 splits
subject 17, avg accuracy 0.6894736915826798/0.3220588235294118 over 10 splits
subject 18, avg accuracy 0.778947365283966/0.3200000003831728 over 10 splits
subject 19, avg accuracy 0.8061403393745422/0.32197802317338986 over 10 splits
avg accuracy over all subjects 0.7864230006933212/0.3417799143696137
_________________________________________________________________
Layer (type)                 Output Shape              Param #   
=================================================================
input_1 (InputLayer)         (None, 768, 31)           0         
_________________________________________________________________
lambda_1 (Lambda)            (None, 630, 31)           0         
_________________________________________________________________
gaussian_noise_1 (GaussianNo (None, 630, 31)           0         
_________________________________________________________________
conv1d_1 (Conv1D)            (None, 630, 13)           3237      
_________________________________________________________________
batch_normalization_1 (Batch (None, 630, 13)           52        
_________________________________________________________________
elu_1 (ELU)                  (None, 630, 13)           0         
_________________________________________________________________
average_pooling1d_1 (Average (None, 315, 13)           0         
_________________________________________________________________
dropout_1 (Dropout)          (None, 315, 13)           0         
_________________________________________________________________
conv1d_2 (Conv1D)            (None, 315, 19)           5947      
_________________________________________________________________
batch_normalization_2 (Batch (None, 315, 19)           76        
_________________________________________________________________
elu_2 (ELU)                  (None, 315, 19)           0         
_________________________________________________________________
average_pooling1d_2 (Average (None, 157, 19)           0         
_________________________________________________________________
dropout_2 (Dropout)          (None, 157, 19)           0         
_________________________________________________________________
conv1d_3 (Conv1D)            (None, 157, 10)           2290      
_________________________________________________________________
batch_normalization_3 (Batch (None, 157, 10)           40        
_________________________________________________________________
elu_3 (ELU)                  (None, 157, 10)           0         
_________________________________________________________________
average_pooling1d_3 (Average (None, 78, 10)            0         
_________________________________________________________________
dropout_3 (Dropout)          (None, 78, 10)            0         
_________________________________________________________________
flatten_1 (Flatten)          (None, 780)               0         
_________________________________________________________________
dense_1 (Dense)              (None, 28)                21868     
_________________________________________________________________
batch_normalization_4 (Batch (None, 28)                112       
_________________________________________________________________
activation_1 (Activation)    (None, 28)                0         
_________________________________________________________________
dense_2 (Dense)              (None, 11)                319       
_________________________________________________________________
batch_normalization_5 (Batch (None, 11)                44        
_________________________________________________________________
activation_2 (Activation)    (None, 11)                0         
_________________________________________________________________
dense_3 (Dense)              (None, 3)                 36        
=================================================================
Total params: 34,021
Trainable params: 33,859
Non-trainable params: 162
_________________________________________________________________
subject 1, avg accuracy 0.7628654956817627/0.3066666691501935 over 10 splits
subject 2, avg accuracy 0.7152046799659729/0.39324324404871136 over 10 splits
subject 3, avg accuracy 0.8266081929206848/0.37 over 10 splits
…
subject 15, avg accuracy 0.8002923965454102/0.3368000001192092 over 10 splits
subject 16, avg accuracy 0.6873684167861939/0.3677419394735367 over 10 splits
subject 17, avg accuracy 0.7157894790172576/0.3 over 10 splits
subject 18, avg accuracy 0.7941520571708679/0.2871428572280066 over 10 splits
subject 19, avg accuracy 0.8178362607955932/0.32307692165230656 over 10 splits
avg accuracy over all subjects 0.7703638734089003/0.3389899849445055
_________________________________________________________________
Layer (type)                 Output Shape              Param #   
=================================================================
input_1 (InputLayer)         (None, 768, 31)           0         
_________________________________________________________________
lambda_1 (Lambda)            (None, 630, 31)           0         
_________________________________________________________________
gaussian_noise_1 (GaussianNo (None, 630, 31)           0         
_________________________________________________________________
conv1d_1 (Conv1D)            (None, 630, 11)           13651     
_________________________________________________________________
batch_normalization_1 (Batch (None, 630, 11)           44        
_________________________________________________________________
elu_1 (ELU)                  (None, 630, 11)           0         
_________________________________________________________________
average_pooling1d_1 (Average (None, 315, 11)           0         
_________________________________________________________________
dropout_1 (Dropout)          (None, 315, 11)           0         
_________________________________________________________________
conv1d_2 (Conv1D)            (None, 315, 28)           4648      
_________________________________________________________________
batch_normalization_2 (Batch (None, 315, 28)           112       
_________________________________________________________________
elu_2 (ELU)                  (None, 315, 28)           0         
_________________________________________________________________
average_pooling1d_2 (Average (None, 157, 28)           0         
_________________________________________________________________
dropout_2 (Dropout)          (None, 157, 28)           0         
_________________________________________________________________
conv1d_3 (Conv1D)            (None, 157, 17)           6205      
_________________________________________________________________
batch_normalization_3 (Batch (None, 157, 17)           68        
_________________________________________________________________
elu_3 (ELU)                  (None, 157, 17)           0         
_________________________________________________________________
average_pooling1d_3 (Average (None, 78, 17)            0         
_________________________________________________________________
dropout_3 (Dropout)          (None, 78, 17)            0         
_________________________________________________________________
flatten_1 (Flatten)          (None, 1326)              0         
_________________________________________________________________
dense_1 (Dense)              (None, 47)                62369     
_________________________________________________________________
batch_normalization_4 (Batch (None, 47)                188       
_________________________________________________________________
activation_1 (Activation)    (None, 47)                0         
_________________________________________________________________
dense_2 (Dense)              (None, 19)                912       
_________________________________________________________________
batch_normalization_5 (Batch (None, 19)                76        
_________________________________________________________________
activation_2 (Activation)    (None, 19)                0         
_________________________________________________________________
dense_3 (Dense)              (None, 3)                 60        
=================================================================
Total params: 88,333
Trainable params: 88,089
Non-trainable params: 244
_________________________________________________________________
subject 1, avg accuracy 0.6967836320400238/0.3388888914386432 over 10 splits
subject 2, avg accuracy 0.715497088432312/0.4554054066136076 over 10 splits
subject 3, avg accuracy 0.8385964930057526/0.36615384615384616 over 10 splits
…
subject 16, avg accuracy 0.6413157939910888/0.36774193976194625 over 10 splits
subject 17, avg accuracy 0.710526317358017/0.32794117647058824 over 10 splits
subject 18, avg accuracy 0.7842105329036713/0.3071428574408804 over 10 splits
subject 19, avg accuracy 0.8073099493980408/0.34175824090674684 over 10 splits
avg accuracy over all subjects 0.7679499722189373/0.35269846050659454
_________________________________________________________________
Layer (type)                 Output Shape              Param #   
=================================================================
input_1 (InputLayer)         (None, 768, 31)           0         
_________________________________________________________________
lambda_1 (Lambda)            (None, 630, 31)           0         
_________________________________________________________________
gaussian_noise_1 (GaussianNo (None, 630, 31)           0         
_________________________________________________________________
conv1d_1 (Conv1D)            (None, 630, 35)           45605     
_________________________________________________________________
batch_normalization_1 (Batch (None, 630, 35)           140       
_________________________________________________________________
elu_1 (ELU)                  (None, 630, 35)           0         
_________________________________________________________________
average_pooling1d_1 (Average (None, 315, 35)           0         
_________________________________________________________________
dropout_1 (Dropout)          (None, 315, 35)           0         
_________________________________________________________________
conv1d_2 (Conv1D)            (None, 315, 21)           13986     
_________________________________________________________________
batch_normalization_2 (Batch (None, 315, 21)           84        
_________________________________________________________________
elu_2 (ELU)                  (None, 315, 21)           0         
_________________________________________________________________
average_pooling1d_2 (Average (None, 157, 21)           0         
_________________________________________________________________
dropout_2 (Dropout)          (None, 157, 21)           0         
_________________________________________________________________
conv1d_3 (Conv1D)            (None, 157, 6)            1392      
_________________________________________________________________
batch_normalization_3 (Batch (None, 157, 6)            24        
_________________________________________________________________
elu_3 (ELU)                  (None, 157, 6)            0         
_________________________________________________________________
average_pooling1d_3 (Average (None, 78, 6)             0         
_________________________________________________________________
dropout_3 (Dropout)          (None, 78, 6)             0         
_________________________________________________________________
flatten_1 (Flatten)          (None, 468)               0         
_________________________________________________________________
dense_1 (Dense)              (None, 31)                14539     
_________________________________________________________________
batch_normalization_4 (Batch (None, 31)                124       
_________________________________________________________________
activation_1 (Activation)    (None, 31)                0         
_________________________________________________________________
dense_2 (Dense)              (None, 20)                640       
_________________________________________________________________
batch_normalization_5 (Batch (None, 20)                80        
_________________________________________________________________
activation_2 (Activation)    (None, 20)                0         
_________________________________________________________________
dense_3 (Dense)              (None, 3)                 63        
=================================================================
Total params: 76,677
Trainable params: 76,451
Non-trainable params: 226
_________________________________________________________________
subject 1, avg accuracy 0.7833333373069763/0.32888889143864314 over 10 splits
subject 2, avg accuracy 0.699122816324234/0.40405405502061587 over 10 splits
subject 3, avg accuracy 0.8342105269432067/0.3646153846153847 over 10 splits
…
subject 16, avg accuracy 0.7347368419170379/0.35000000547978183 over 10 splits
subject 17, avg accuracy 0.7526315748691559/0.3102941176470588 over 10 splits
subject 18, avg accuracy 0.7944444477558136/0.3485714287843023 over 10 splits
subject 19, avg accuracy 0.8450292348861694/0.31868131894331714 over 10 splits
avg accuracy over all subjects 0.787907733188735/0.34619400876527395
_________________________________________________________________
Layer (type)                 Output Shape              Param #   
=================================================================
input_1 (InputLayer)         (None, 768, 31)           0         
_________________________________________________________________
lambda_1 (Lambda)            (None, 630, 31)           0         
_________________________________________________________________
gaussian_noise_1 (GaussianNo (None, 630, 31)           0         
_________________________________________________________________
conv1d_1 (Conv1D)            (None, 630, 19)           2964      
_________________________________________________________________
batch_normalization_1 (Batch (None, 630, 19)           76        
_________________________________________________________________
elu_1 (ELU)                  (None, 630, 19)           0         
_________________________________________________________________
average_pooling1d_1 (Average (None, 315, 19)           0         
_________________________________________________________________
dropout_1 (Dropout)          (None, 315, 19)           0         
_________________________________________________________________
conv1d_2 (Conv1D)            (None, 315, 14)           4270      
_________________________________________________________________
batch_normalization_2 (Batch (None, 315, 14)           56        
_________________________________________________________________
elu_2 (ELU)                  (None, 315, 14)           0         
_________________________________________________________________
average_pooling1d_2 (Average (None, 157, 14)           0         
_________________________________________________________________
dropout_2 (Dropout)          (None, 157, 14)           0         
_________________________________________________________________
conv1d_3 (Conv1D)            (None, 157, 14)           2562      
_________________________________________________________________
batch_normalization_3 (Batch (None, 157, 14)           56        
_________________________________________________________________
elu_3 (ELU)                  (None, 157, 14)           0         
_________________________________________________________________
average_pooling1d_3 (Average (None, 78, 14)            0         
_________________________________________________________________
dropout_3 (Dropout)          (None, 78, 14)            0         
_________________________________________________________________
flatten_1 (Flatten)          (None, 1092)              0         
_________________________________________________________________
dense_1 (Dense)              (None, 22)                24046     
_________________________________________________________________
batch_normalization_4 (Batch (None, 22)                88        
_________________________________________________________________
activation_1 (Activation)    (None, 22)                0         
_________________________________________________________________
dense_2 (Dense)              (None, 7)                 161       
_________________________________________________________________
batch_normalization_5 (Batch (None, 7)                 28        
_________________________________________________________________
activation_2 (Activation)    (None, 7)                 0         
_________________________________________________________________
dense_3 (Dense)              (None, 3)                 24        
=================================================================
Total params: 34,331
Trainable params: 34,179
Non-trainable params: 152
_________________________________________________________________
subject 1, avg accuracy 0.7195906460285186/0.3200000023510721 over 10 splits
subject 2, avg accuracy 0.7690058529376984/0.4121621629676303 over 10 splits
subject 3, avg accuracy 0.8488304138183593/0.37384615384615383 over 10 splits
…
subject 16, avg accuracy 0.7652631580829621/0.3435483911345082 over 10 splits
subject 17, avg accuracy 0.768421059846878/0.29999999999999993 over 10 splits
subject 18, avg accuracy 0.746198832988739/0.3157142859697342 over 10 splits
subject 19, avg accuracy 0.7903508722782135/0.34395604385779455 over 10 splits
avg accuracy over all subjects 0.7829580956035191/0.345018536716027
_________________________________________________________________
Layer (type)                 Output Shape              Param #   
=================================================================
input_1 (InputLayer)         (None, 768, 31)           0         
_________________________________________________________________
lambda_1 (Lambda)            (None, 630, 31)           0         
_________________________________________________________________
gaussian_noise_1 (GaussianNo (None, 630, 31)           0         
_________________________________________________________________
conv1d_1 (Conv1D)            (None, 630, 36)           42444     
_________________________________________________________________
batch_normalization_1 (Batch (None, 630, 36)           144       
_________________________________________________________________
elu_1 (ELU)                  (None, 630, 36)           0         
_________________________________________________________________
average_pooling1d_1 (Average (None, 315, 36)           0         
_________________________________________________________________
dropout_1 (Dropout)          (None, 315, 36)           0         
_________________________________________________________________
conv1d_2 (Conv1D)            (None, 315, 22)           18238     
_________________________________________________________________
batch_normalization_2 (Batch (None, 315, 22)           88        
_________________________________________________________________
elu_2 (ELU)                  (None, 315, 22)           0         
_________________________________________________________________
average_pooling1d_2 (Average (None, 157, 22)           0         
_________________________________________________________________
dropout_2 (Dropout)          (None, 157, 22)           0         
_________________________________________________________________
conv1d_3 (Conv1D)            (None, 157, 13)           2301      
_________________________________________________________________
batch_normalization_3 (Batch (None, 157, 13)           52        
_________________________________________________________________
elu_3 (ELU)                  (None, 157, 13)           0         
_________________________________________________________________
average_pooling1d_3 (Average (None, 78, 13)            0         
_________________________________________________________________
dropout_3 (Dropout)          (None, 78, 13)            0         
_________________________________________________________________
flatten_1 (Flatten)          (None, 1014)              0         
_________________________________________________________________
dense_1 (Dense)              (None, 30)                30450     
_________________________________________________________________
batch_normalization_4 (Batch (None, 30)                120       
_________________________________________________________________
activation_1 (Activation)    (None, 30)                0         
_________________________________________________________________
dense_2 (Dense)              (None, 25)                775       
_________________________________________________________________
batch_normalization_5 (Batch (None, 25)                100       
_________________________________________________________________
activation_2 (Activation)    (None, 25)                0         
_________________________________________________________________
dense_3 (Dense)              (None, 3)                 78        
=================================================================
Total params: 94,790
Trainable params: 94,538
Non-trainable params: 252
_________________________________________________________________
subject 1, avg accuracy 0.7403508841991424/0.3400000026822091 over 10 splits
subject 2, avg accuracy 0.7222222268581391/0.42702702799358877 over 10 splits
subject 3, avg accuracy 0.791228073835373/0.36153846153846153 over 10 splits
…
subject 16, avg accuracy 0.7236842095851899/0.3451612945525877 over 10 splits
subject 17, avg accuracy 0.7210526287555694/0.31764705882352945 over 10 splits
subject 18, avg accuracy 0.750877195596695/0.30428571462631226 over 10 splits
subject 19, avg accuracy 0.7625730931758881/0.33186813068913884 over 10 splits
avg accuracy over all subjects 0.7775308650400903/0.3466965974916088
_________________________________________________________________
Layer (type)                 Output Shape              Param #   
=================================================================
input_1 (InputLayer)         (None, 768, 31)           0         
_________________________________________________________________
lambda_1 (Lambda)            (None, 630, 31)           0         
_________________________________________________________________
gaussian_noise_1 (GaussianNo (None, 630, 31)           0         
_________________________________________________________________
conv1d_1 (Conv1D)            (None, 630, 30)           27930     
_________________________________________________________________
batch_normalization_1 (Batch (None, 630, 30)           120       
_________________________________________________________________
elu_1 (ELU)                  (None, 630, 30)           0         
_________________________________________________________________
average_pooling1d_1 (Average (None, 315, 30)           0         
_________________________________________________________________
dropout_1 (Dropout)          (None, 315, 30)           0         
_________________________________________________________________
conv1d_2 (Conv1D)            (None, 315, 22)           5962      
_________________________________________________________________
batch_normalization_2 (Batch (None, 315, 22)           88        
_________________________________________________________________
elu_2 (ELU)                  (None, 315, 22)           0         
_________________________________________________________________
average_pooling1d_2 (Average (None, 157, 22)           0         
_________________________________________________________________
dropout_2 (Dropout)          (None, 157, 22)           0         
_________________________________________________________________
conv1d_3 (Conv1D)            (None, 157, 15)           2985      
_________________________________________________________________
batch_normalization_3 (Batch (None, 157, 15)           60        
_________________________________________________________________
elu_3 (ELU)                  (None, 157, 15)           0         
_________________________________________________________________
average_pooling1d_3 (Average (None, 78, 15)            0         
_________________________________________________________________
dropout_3 (Dropout)          (None, 78, 15)            0         
_________________________________________________________________
flatten_1 (Flatten)          (None, 1170)              0         
_________________________________________________________________
dense_1 (Dense)              (None, 48)                56208     
_________________________________________________________________
batch_normalization_4 (Batch (None, 48)                192       
_________________________________________________________________
activation_1 (Activation)    (None, 48)                0         
_________________________________________________________________
dense_2 (Dense)              (None, 16)                784       
_________________________________________________________________
batch_normalization_5 (Batch (None, 16)                64        
_________________________________________________________________
activation_2 (Activation)    (None, 16)                0         
_________________________________________________________________
dense_3 (Dense)              (None, 3)                 51        
=================================================================
Total params: 94,444
Trainable params: 94,182
Non-trainable params: 262
_________________________________________________________________
subject 1, avg accuracy 0.7567251563072205/0.3233333358168602 over 10 splits
subject 2, avg accuracy 0.7540935695171356/0.42297297369789427 over 10 splits
subject 3, avg accuracy 0.866374272108078/0.36538461538461536 over 10 splits
…
subject 15, avg accuracy 0.8233918190002442/0.36640000020265584 over 10 splits
subject 16, avg accuracy 0.6665789514780045/0.33387097192387427 over 10 splits
subject 17, avg accuracy 0.7736842095851898/0.30147058823529416 over 10 splits
subject 18, avg accuracy 0.75/0.3214285716840199 over 10 splits
subject 19, avg accuracy 0.7909356653690338/0.32527472458697937 over 10 splits
avg accuracy over all subjects 0.7709308024909762/0.34738086896233683
_________________________________________________________________
Layer (type)                 Output Shape              Param #   
=================================================================
input_1 (InputLayer)         (None, 768, 31)           0         
_________________________________________________________________
lambda_1 (Lambda)            (None, 630, 31)           0         
_________________________________________________________________
gaussian_noise_1 (GaussianNo (None, 630, 31)           0         
_________________________________________________________________
conv1d_1 (Conv1D)            (None, 630, 32)           17888     
_________________________________________________________________
batch_normalization_1 (Batch (None, 630, 32)           128       
_________________________________________________________________
elu_1 (ELU)                  (None, 630, 32)           0         
_________________________________________________________________
average_pooling1d_1 (Average (None, 315, 32)           0         
_________________________________________________________________
dropout_1 (Dropout)          (None, 315, 32)           0         
_________________________________________________________________
conv1d_2 (Conv1D)            (None, 315, 29)           12093     
_________________________________________________________________
batch_normalization_2 (Batch (None, 315, 29)           116       
_________________________________________________________________
elu_2 (ELU)                  (None, 315, 29)           0         
_________________________________________________________________
average_pooling1d_2 (Average (None, 157, 29)           0         
_________________________________________________________________
dropout_2 (Dropout)          (None, 157, 29)           0         
_________________________________________________________________
conv1d_3 (Conv1D)            (None, 157, 14)           2450      
_________________________________________________________________
batch_normalization_3 (Batch (None, 157, 14)           56        
_________________________________________________________________
elu_3 (ELU)                  (None, 157, 14)           0         
_________________________________________________________________
average_pooling1d_3 (Average (None, 78, 14)            0         
_________________________________________________________________
dropout_3 (Dropout)          (None, 78, 14)            0         
_________________________________________________________________
flatten_1 (Flatten)          (None, 1092)              0         
_________________________________________________________________
dense_1 (Dense)              (None, 8)                 8744      
_________________________________________________________________
batch_normalization_4 (Batch (None, 8)                 32        
_________________________________________________________________
activation_1 (Activation)    (None, 8)                 0         
_________________________________________________________________
dense_2 (Dense)              (None, 18)                162       
_________________________________________________________________
batch_normalization_5 (Batch (None, 18)                72        
_________________________________________________________________
activation_2 (Activation)    (None, 18)                0         
_________________________________________________________________
dense_3 (Dense)              (None, 3)                 57        
=================================================================
Total params: 41,798
Trainable params: 41,596
Non-trainable params: 202
_________________________________________________________________
subject 1, avg accuracy 0.7207602322101593/0.3244444466630617 over 10 splits
subject 2, avg accuracy 0.7757309913635254/0.4567567578038654 over 10 splits
subject 3, avg accuracy 0.8877193033695221/0.34923076923076923 over 10 splits
…
subject 16, avg accuracy 0.7184210479259491/0.3548387141477677 over 10 splits
subject 17, avg accuracy 0.7263157963752747/0.3147058823529413 over 10 splits
subject 18, avg accuracy 0.7546783655881881/0.30714285739830566 over 10 splits
subject 19, avg accuracy 0.8014619827270508/0.3395604390364427 over 10 splits
avg accuracy over all subjects 0.7802777778771188/0.34707483463161215
_________________________________________________________________
Layer (type)                 Output Shape              Param #   
=================================================================
input_1 (InputLayer)         (None, 768, 31)           0         
_________________________________________________________________
lambda_1 (Lambda)            (None, 630, 31)           0         
_________________________________________________________________
gaussian_noise_1 (GaussianNo (None, 630, 31)           0         
_________________________________________________________________
conv1d_1 (Conv1D)            (None, 630, 17)           8449      
_________________________________________________________________
batch_normalization_1 (Batch (None, 630, 17)           68        
_________________________________________________________________
elu_1 (ELU)                  (None, 630, 17)           0         
_________________________________________________________________
average_pooling1d_1 (Average (None, 315, 17)           0         
_________________________________________________________________
dropout_1 (Dropout)          (None, 315, 17)           0         
_________________________________________________________________
conv1d_2 (Conv1D)            (None, 315, 14)           2870      
_________________________________________________________________
batch_normalization_2 (Batch (None, 315, 14)           56        
_________________________________________________________________
elu_2 (ELU)                  (None, 315, 14)           0         
_________________________________________________________________
average_pooling1d_2 (Average (None, 157, 14)           0         
_________________________________________________________________
dropout_2 (Dropout)          (None, 157, 14)           0         
_________________________________________________________________
conv1d_3 (Conv1D)            (None, 157, 16)           1136      
_________________________________________________________________
batch_normalization_3 (Batch (None, 157, 16)           64        
_________________________________________________________________
elu_3 (ELU)                  (None, 157, 16)           0         
_________________________________________________________________
average_pooling1d_3 (Average (None, 78, 16)            0         
_________________________________________________________________
dropout_3 (Dropout)          (None, 78, 16)            0         
_________________________________________________________________
flatten_1 (Flatten)          (None, 1248)              0         
_________________________________________________________________
dense_1 (Dense)              (None, 47)                58703     
_________________________________________________________________
batch_normalization_4 (Batch (None, 47)                188       
_________________________________________________________________
activation_1 (Activation)    (None, 47)                0         
_________________________________________________________________
dense_2 (Dense)              (None, 11)                528       
_________________________________________________________________
batch_normalization_5 (Batch (None, 11)                44        
_________________________________________________________________
activation_2 (Activation)    (None, 11)                0         
_________________________________________________________________
dense_3 (Dense)              (None, 3)                 36        
=================================================================
Total params: 72,142
Trainable params: 71,932
Non-trainable params: 210
_________________________________________________________________
subject 1, avg accuracy 0.7023391783237457/0.32666666974624 over 10 splits
subject 2, avg accuracy 0.6830409437417984/0.4405405413862821 over 10 splits
subject 3, avg accuracy 0.8394736826419831/0.37846153846153846 over 10 splits
…
subject 16, avg accuracy 0.7134210526943207/0.37258064891061476 over 10 splits
subject 17, avg accuracy 0.6947368502616882/0.3176470588235294 over 10 splits
subject 18, avg accuracy 0.7769006013870239/0.32142857181174417 over 10 splits
subject 19, avg accuracy 0.8616959035396576/0.3208791205843727 over 10 splits
avg accuracy over all subjects 0.7656887604130638/0.35090584413997933
_________________________________________________________________
Layer (type)                 Output Shape              Param #   
=================================================================
input_1 (InputLayer)         (None, 768, 31)           0         
_________________________________________________________________
lambda_1 (Lambda)            (None, 630, 31)           0         
_________________________________________________________________
gaussian_noise_1 (GaussianNo (None, 630, 31)           0         
_________________________________________________________________
conv1d_1 (Conv1D)            (None, 630, 13)           19760     
_________________________________________________________________
batch_normalization_1 (Batch (None, 630, 13)           52        
_________________________________________________________________
elu_1 (ELU)                  (None, 630, 13)           0         
_________________________________________________________________
average_pooling1d_1 (Average (None, 315, 13)           0         
_________________________________________________________________
dropout_1 (Dropout)          (None, 315, 13)           0         
_________________________________________________________________
conv1d_2 (Conv1D)            (None, 315, 29)           6438      
_________________________________________________________________
batch_normalization_2 (Batch (None, 315, 29)           116       
_________________________________________________________________
elu_2 (ELU)                  (None, 315, 29)           0         
_________________________________________________________________
average_pooling1d_2 (Average (None, 157, 29)           0         
_________________________________________________________________
dropout_2 (Dropout)          (None, 157, 29)           0         
_________________________________________________________________
conv1d_3 (Conv1D)            (None, 157, 14)           3262      
_________________________________________________________________
batch_normalization_3 (Batch (None, 157, 14)           56        
_________________________________________________________________
elu_3 (ELU)                  (None, 157, 14)           0         
_________________________________________________________________
average_pooling1d_3 (Average (None, 78, 14)            0         
_________________________________________________________________
dropout_3 (Dropout)          (None, 78, 14)            0         
_________________________________________________________________
flatten_1 (Flatten)          (None, 1092)              0         
_________________________________________________________________
dense_1 (Dense)              (None, 25)                27325     
_________________________________________________________________
batch_normalization_4 (Batch (None, 25)                100       
_________________________________________________________________
activation_1 (Activation)    (None, 25)                0         
_________________________________________________________________
dense_2 (Dense)              (None, 8)                 208       
_________________________________________________________________
batch_normalization_5 (Batch (None, 8)                 32        
_________________________________________________________________
activation_2 (Activation)    (None, 8)                 0         
_________________________________________________________________
dense_3 (Dense)              (None, 3)                 27        
=================================================================
Total params: 57,376
Trainable params: 57,198
Non-trainable params: 178
_________________________________________________________________
subject 1, avg accuracy 0.7494152069091797/0.31777777953280345 over 10 splits
subject 2, avg accuracy 0.7371345043182373/0.4391891896321967 over 10 splits
subject 3, avg accuracy 0.8719298303127289/0.3707692307692308 over 10 splits
…
subject 16, avg accuracy 0.7242105305194855/0.36290323066134605 over 10 splits
subject 17, avg accuracy 0.7052631646394729/0.3235294117647059 over 10 splits
subject 18, avg accuracy 0.7786549687385559/0.3042857144134385 over 10 splits
subject 19, avg accuracy 0.7845029294490814/0.30329670293645544 over 10 splits
avg accuracy over all subjects 0.7796215113666323/0.34572872210889755
_________________________________________________________________
Layer (type)                 Output Shape              Param #   
=================================================================
input_1 (InputLayer)         (None, 768, 31)           0         
_________________________________________________________________
lambda_1 (Lambda)            (None, 630, 31)           0         
_________________________________________________________________
gaussian_noise_1 (GaussianNo (None, 630, 31)           0         
_________________________________________________________________
conv1d_1 (Conv1D)            (None, 630, 25)           17850     
_________________________________________________________________
batch_normalization_1 (Batch (None, 630, 25)           100       
_________________________________________________________________
elu_1 (ELU)                  (None, 630, 25)           0         
_________________________________________________________________
average_pooling1d_1 (Average (None, 315, 25)           0         
_________________________________________________________________
dropout_1 (Dropout)          (None, 315, 25)           0         
_________________________________________________________________
conv1d_2 (Conv1D)            (None, 315, 29)           10179     
_________________________________________________________________
batch_normalization_2 (Batch (None, 315, 29)           116       
_________________________________________________________________
elu_2 (ELU)                  (None, 315, 29)           0         
_________________________________________________________________
average_pooling1d_2 (Average (None, 157, 29)           0         
_________________________________________________________________
dropout_2 (Dropout)          (None, 157, 29)           0         
_________________________________________________________________
conv1d_3 (Conv1D)            (None, 157, 16)           1872      
_________________________________________________________________
batch_normalization_3 (Batch (None, 157, 16)           64        
_________________________________________________________________
elu_3 (ELU)                  (None, 157, 16)           0         
_________________________________________________________________
average_pooling1d_3 (Average (None, 78, 16)            0         
_________________________________________________________________
dropout_3 (Dropout)          (None, 78, 16)            0         
_________________________________________________________________
flatten_1 (Flatten)          (None, 1248)              0         
_________________________________________________________________
dense_1 (Dense)              (None, 31)                38719     
_________________________________________________________________
batch_normalization_4 (Batch (None, 31)                124       
_________________________________________________________________
activation_1 (Activation)    (None, 31)                0         
_________________________________________________________________
dense_2 (Dense)              (None, 16)                512       
_________________________________________________________________
batch_normalization_5 (Batch (None, 16)                64        
_________________________________________________________________
activation_2 (Activation)    (None, 16)                0         
_________________________________________________________________
dense_3 (Dense)              (None, 3)                 51        
=================================================================
Total params: 69,651
Trainable params: 69,417
Non-trainable params: 234
_________________________________________________________________
subject 1, avg accuracy 0.7570175468921662/0.31777777979771293 over 10 splits
subject 2, avg accuracy 0.7853801190853119/0.43108108174559234 over 10 splits
subject 3, avg accuracy 0.8707602322101593/0.34846153846153843 over 10 splits
…
subject 16, avg accuracy 0.7397368401288986/0.3500000043261436 over 10 splits
subject 17, avg accuracy 0.7052631556987763/0.3264705882352942 over 10 splits
subject 18, avg accuracy 0.7824561357498169/0.29571428588458465 over 10 splits
subject 19, avg accuracy 0.7953216373920441/0.32967033003057755 over 10 splits
avg accuracy over all subjects 0.779316114882628/0.3402288391126956
_________________________________________________________________
Layer (type)                 Output Shape              Param #   
=================================================================
input_1 (InputLayer)         (None, 768, 31)           0         
_________________________________________________________________
lambda_1 (Lambda)            (None, 630, 31)           0         
_________________________________________________________________
gaussian_noise_1 (GaussianNo (None, 630, 31)           0         
_________________________________________________________________
conv1d_1 (Conv1D)            (None, 630, 26)           10504     
_________________________________________________________________
batch_normalization_1 (Batch (None, 630, 26)           104       
_________________________________________________________________
elu_1 (ELU)                  (None, 630, 26)           0         
_________________________________________________________________
average_pooling1d_1 (Average (None, 315, 26)           0         
_________________________________________________________________
dropout_1 (Dropout)          (None, 315, 26)           0         
_________________________________________________________________
conv1d_2 (Conv1D)            (None, 315, 11)           6875      
_________________________________________________________________
batch_normalization_2 (Batch (None, 315, 11)           44        
_________________________________________________________________
elu_2 (ELU)                  (None, 315, 11)           0         
_________________________________________________________________
average_pooling1d_2 (Average (None, 157, 11)           0         
_________________________________________________________________
dropout_2 (Dropout)          (None, 157, 11)           0         
_________________________________________________________________
conv1d_3 (Conv1D)            (None, 157, 9)            999       
_________________________________________________________________
batch_normalization_3 (Batch (None, 157, 9)            36        
_________________________________________________________________
elu_3 (ELU)                  (None, 157, 9)            0         
_________________________________________________________________
average_pooling1d_3 (Average (None, 78, 9)             0         
_________________________________________________________________
dropout_3 (Dropout)          (None, 78, 9)             0         
_________________________________________________________________
flatten_1 (Flatten)          (None, 702)               0         
_________________________________________________________________
dense_1 (Dense)              (None, 32)                22496     
_________________________________________________________________
batch_normalization_4 (Batch (None, 32)                128       
_________________________________________________________________
activation_1 (Activation)    (None, 32)                0         
_________________________________________________________________
dense_2 (Dense)              (None, 15)                495       
_________________________________________________________________
batch_normalization_5 (Batch (None, 15)                60        
_________________________________________________________________
activation_2 (Activation)    (None, 15)                0         
_________________________________________________________________
dense_3 (Dense)              (None, 3)                 48        
=================================================================
Total params: 41,789
Trainable params: 41,603
Non-trainable params: 186
_________________________________________________________________
subject 1, avg accuracy 0.7616959035396575/0.32222222445739634 over 10 splits
subject 2, avg accuracy 0.7269005835056305/0.4229729736978943 over 10 splits
subject 3, avg accuracy 0.8657894730567932/0.35615384615384615 over 10 splits
…
subject 16, avg accuracy 0.6876315832138061/0.3258064551699546 over 10 splits
subject 17, avg accuracy 0.7999999940395355/0.31911764705882345 over 10 splits
subject 18, avg accuracy 0.7891812920570374/0.3071428574834551 over 10 splits
subject 19, avg accuracy 0.8125730872154235/0.31098900935152074 over 10 splits
avg accuracy over all subjects 0.7898554258876377/0.3435590012773792
_________________________________________________________________
Layer (type)                 Output Shape              Param #   
=================================================================
input_1 (InputLayer)         (None, 768, 31)           0         
_________________________________________________________________
lambda_1 (Lambda)            (None, 630, 31)           0         
_________________________________________________________________
gaussian_noise_1 (GaussianNo (None, 630, 31)           0         
_________________________________________________________________
conv1d_1 (Conv1D)            (None, 630, 31)           15407     
_________________________________________________________________
batch_normalization_1 (Batch (None, 630, 31)           124       
_________________________________________________________________
elu_1 (ELU)                  (None, 630, 31)           0         
_________________________________________________________________
average_pooling1d_1 (Average (None, 315, 31)           0         
_________________________________________________________________
dropout_1 (Dropout)          (None, 315, 31)           0         
_________________________________________________________________
conv1d_2 (Conv1D)            (None, 315, 19)           12388     
_________________________________________________________________
batch_normalization_2 (Batch (None, 315, 19)           76        
_________________________________________________________________
elu_2 (ELU)                  (None, 315, 19)           0         
_________________________________________________________________
average_pooling1d_2 (Average (None, 157, 19)           0         
_________________________________________________________________
dropout_2 (Dropout)          (None, 157, 19)           0         
_________________________________________________________________
conv1d_3 (Conv1D)            (None, 157, 17)           2278      
_________________________________________________________________
batch_normalization_3 (Batch (None, 157, 17)           68        
_________________________________________________________________
elu_3 (ELU)                  (None, 157, 17)           0         
_________________________________________________________________
average_pooling1d_3 (Average (None, 78, 17)            0         
_________________________________________________________________
dropout_3 (Dropout)          (None, 78, 17)            0         
_________________________________________________________________
flatten_1 (Flatten)          (None, 1326)              0         
_________________________________________________________________
dense_1 (Dense)              (None, 35)                46445     
_________________________________________________________________
batch_normalization_4 (Batch (None, 35)                140       
_________________________________________________________________
activation_1 (Activation)    (None, 35)                0         
_________________________________________________________________
dense_2 (Dense)              (None, 17)                612       
_________________________________________________________________
batch_normalization_5 (Batch (None, 17)                68        
_________________________________________________________________
activation_2 (Activation)    (None, 17)                0         
_________________________________________________________________
dense_3 (Dense)              (None, 3)                 54        
=================================================================
Total params: 77,660
Trainable params: 77,422
Non-trainable params: 238
_________________________________________________________________
subject 1, avg accuracy 0.7625730991363525/0.33333333608176974 over 10 splits
subject 2, avg accuracy 0.7464912325143814/0.42297297418117524 over 10 splits
subject 3, avg accuracy 0.8657894730567932/0.3576923076923077 over 10 splits
…
subject 16, avg accuracy 0.724210524559021/0.3354838744767251 over 10 splits
subject 17, avg accuracy 0.7578947484493256/0.311764705882353 over 10 splits
subject 18, avg accuracy 0.7619883060455322/0.3228571432403156 over 10 splits
subject 19, avg accuracy 0.8067251563072204/0.33406593291969083 over 10 splits
avg accuracy over all subjects 0.7897595867514611/0.3447467571616994
_________________________________________________________________
Layer (type)                 Output Shape              Param #   
=================================================================
input_1 (InputLayer)         (None, 768, 31)           0         
_________________________________________________________________
lambda_1 (Lambda)            (None, 630, 31)           0         
_________________________________________________________________
gaussian_noise_1 (GaussianNo (None, 630, 31)           0         
_________________________________________________________________
conv1d_1 (Conv1D)            (None, 630, 36)           54720     
_________________________________________________________________
batch_normalization_1 (Batch (None, 630, 36)           144       
_________________________________________________________________
elu_1 (ELU)                  (None, 630, 36)           0         
_________________________________________________________________
average_pooling1d_1 (Average (None, 315, 36)           0         
_________________________________________________________________
dropout_1 (Dropout)          (None, 315, 36)           0         
_________________________________________________________________
conv1d_2 (Conv1D)            (None, 315, 12)           6492      
_________________________________________________________________
batch_normalization_2 (Batch (None, 315, 12)           48        
_________________________________________________________________
elu_2 (ELU)                  (None, 315, 12)           0         
_________________________________________________________________
average_pooling1d_2 (Average (None, 157, 12)           0         
_________________________________________________________________
dropout_2 (Dropout)          (None, 157, 12)           0         
_________________________________________________________________
conv1d_3 (Conv1D)            (None, 157, 19)           2071      
_________________________________________________________________
batch_normalization_3 (Batch (None, 157, 19)           76        
_________________________________________________________________
elu_3 (ELU)                  (None, 157, 19)           0         
_________________________________________________________________
average_pooling1d_3 (Average (None, 78, 19)            0         
_________________________________________________________________
dropout_3 (Dropout)          (None, 78, 19)            0         
_________________________________________________________________
flatten_1 (Flatten)          (None, 1482)              0         
_________________________________________________________________
dense_1 (Dense)              (None, 27)                40041     
_________________________________________________________________
batch_normalization_4 (Batch (None, 27)                108       
_________________________________________________________________
activation_1 (Activation)    (None, 27)                0         
_________________________________________________________________
dense_2 (Dense)              (None, 19)                532       
_________________________________________________________________
batch_normalization_5 (Batch (None, 19)                76        
_________________________________________________________________
activation_2 (Activation)    (None, 19)                0         
_________________________________________________________________
dense_3 (Dense)              (None, 3)                 60        
=================================================================
Total params: 104,368
Trainable params: 104,142
Non-trainable params: 226
_________________________________________________________________
subject 1, avg accuracy 0.7675438642501831/0.3266666681898965 over 10 splits
subject 2, avg accuracy 0.7222222149372101/0.424324325774167 over 10 splits
subject 3, avg accuracy 0.8654970765113831/0.3476923076923077 over 10 splits
…
subject 16, avg accuracy 0.7289473712444305/0.3612903268106522 over 10 splits
subject 17, avg accuracy 0.7421052753925323/0.33088235294117646 over 10 splits
subject 18, avg accuracy 0.7830409348011017/0.3342857143708638 over 10 splits
subject 19, avg accuracy 0.7845029294490814/0.3274725274397776 over 10 splits
avg accuracy over all subjects 0.7794005860884984/0.34604102958852584
_________________________________________________________________
Layer (type)                 Output Shape              Param #   
=================================================================
input_1 (InputLayer)         (None, 768, 31)           0         
_________________________________________________________________
lambda_1 (Lambda)            (None, 630, 31)           0         
_________________________________________________________________
gaussian_noise_1 (GaussianNo (None, 630, 31)           0         
_________________________________________________________________
conv1d_1 (Conv1D)            (None, 630, 29)           36888     
_________________________________________________________________
batch_normalization_1 (Batch (None, 630, 29)           116       
_________________________________________________________________
elu_1 (ELU)                  (None, 630, 29)           0         
_________________________________________________________________
average_pooling1d_1 (Average (None, 315, 29)           0         
_________________________________________________________________
dropout_1 (Dropout)          (None, 315, 29)           0         
_________________________________________________________________
conv1d_2 (Conv1D)            (None, 315, 13)           4537      
_________________________________________________________________
batch_normalization_2 (Batch (None, 315, 13)           52        
_________________________________________________________________
elu_2 (ELU)                  (None, 315, 13)           0         
_________________________________________________________________
average_pooling1d_2 (Average (None, 157, 13)           0         
_________________________________________________________________
dropout_2 (Dropout)          (None, 157, 13)           0         
_________________________________________________________________
conv1d_3 (Conv1D)            (None, 157, 17)           2227      
_________________________________________________________________
batch_normalization_3 (Batch (None, 157, 17)           68        
_________________________________________________________________
elu_3 (ELU)                  (None, 157, 17)           0         
_________________________________________________________________
average_pooling1d_3 (Average (None, 78, 17)            0         
_________________________________________________________________
dropout_3 (Dropout)          (None, 78, 17)            0         
_________________________________________________________________
flatten_1 (Flatten)          (None, 1326)              0         
_________________________________________________________________
dense_1 (Dense)              (None, 10)                13270     
_________________________________________________________________
batch_normalization_4 (Batch (None, 10)                40        
_________________________________________________________________
activation_1 (Activation)    (None, 10)                0         
_________________________________________________________________
dense_2 (Dense)              (None, 10)                110       
_________________________________________________________________
batch_normalization_5 (Batch (None, 10)                40        
_________________________________________________________________
activation_2 (Activation)    (None, 10)                0         
_________________________________________________________________
dense_3 (Dense)              (None, 3)                 33        
=================================================================
Total params: 57,381
Trainable params: 57,223
Non-trainable params: 158
_________________________________________________________________
subject 1, avg accuracy 0.7941520571708679/0.3311111130979326 over 10 splits
subject 2, avg accuracy 0.7853801190853119/0.41756756805084844 over 10 splits
subject 3, avg accuracy 0.8602339267730713/0.3476923076923077 over 10 splits
…
subject 16, avg accuracy 0.7247368395328522/0.3596774233925727 over 10 splits
subject 17, avg accuracy 0.7105263292789459/0.31470588235294117 over 10 splits
subject 18, avg accuracy 0.7786549746990203/0.3342857144134385 over 10 splits
subject 19, avg accuracy 0.7675438523292542/0.3076923077578073 over 10 splits
avg accuracy over all subjects 0.7936549726459714/0.34667519080407616
_________________________________________________________________
Layer (type)                 Output Shape              Param #   
=================================================================
input_1 (InputLayer)         (None, 768, 31)           0         
_________________________________________________________________
lambda_1 (Lambda)            (None, 630, 31)           0         
_________________________________________________________________
gaussian_noise_1 (GaussianNo (None, 630, 31)           0         
_________________________________________________________________
conv1d_1 (Conv1D)            (None, 630, 39)           36309     
_________________________________________________________________
batch_normalization_1 (Batch (None, 630, 39)           156       
_________________________________________________________________
elu_1 (ELU)                  (None, 630, 39)           0         
_________________________________________________________________
average_pooling1d_1 (Average (None, 315, 39)           0         
_________________________________________________________________
dropout_1 (Dropout)          (None, 315, 39)           0         
_________________________________________________________________
conv1d_2 (Conv1D)            (None, 315, 15)           11715     
_________________________________________________________________
batch_normalization_2 (Batch (None, 315, 15)           60        
_________________________________________________________________
elu_2 (ELU)                  (None, 315, 15)           0         
_________________________________________________________________
average_pooling1d_2 (Average (None, 157, 15)           0         
_________________________________________________________________
dropout_2 (Dropout)          (None, 157, 15)           0         
_________________________________________________________________
conv1d_3 (Conv1D)            (None, 157, 16)           2656      
_________________________________________________________________
batch_normalization_3 (Batch (None, 157, 16)           64        
_________________________________________________________________
elu_3 (ELU)                  (None, 157, 16)           0         
_________________________________________________________________
average_pooling1d_3 (Average (None, 78, 16)            0         
_________________________________________________________________
dropout_3 (Dropout)          (None, 78, 16)            0         
_________________________________________________________________
flatten_1 (Flatten)          (None, 1248)              0         
_________________________________________________________________
dense_1 (Dense)              (None, 20)                24980     
_________________________________________________________________
batch_normalization_4 (Batch (None, 20)                80        
_________________________________________________________________
activation_1 (Activation)    (None, 20)                0         
_________________________________________________________________
dense_2 (Dense)              (None, 5)                 105       
_________________________________________________________________
batch_normalization_5 (Batch (None, 5)                 20        
_________________________________________________________________
activation_2 (Activation)    (None, 5)                 0         
_________________________________________________________________
dense_3 (Dense)              (None, 3)                 18        
=================================================================
Total params: 76,163
Trainable params: 75,973
Non-trainable params: 190
_________________________________________________________________
subject 1, avg accuracy 0.7675438642501831/0.32111111336284215 over 10 splits
subject 2, avg accuracy 0.7845029324293137/0.45405405510116276 over 10 splits
subject 3, avg accuracy 0.8438596427440643/0.3707692307692308 over 10 splits
…
subject 16, avg accuracy 0.6973684132099152/0.3322580684096582 over 10 splits
subject 17, avg accuracy 0.7526315867900848/0.32352941176470595 over 10 splits
subject 18, avg accuracy 0.723099410533905/0.32714285752602984 over 10 splits
subject 19, avg accuracy 0.746198832988739/0.31978022014046764 over 10 splits
avg accuracy over all subjects 0.7887069544858402/0.34605425424746644
_________________________________________________________________
Layer (type)                 Output Shape              Param #   
…
elu_3 (ELU)                  (None, 157, 11)           0         
_________________________________________________________________
average_pooling1d_3 (Average (None, 78, 11)            0         
_________________________________________________________________
dropout_3 (Dropout)          (None, 78, 11)            0         
_________________________________________________________________
flatten_1 (Flatten)          (None, 858)               0         
_________________________________________________________________
dense_1 (Dense)              (None, 45)                38655     
_________________________________________________________________
batch_normalization_4 (Batch (None, 45)                180       
_________________________________________________________________
activation_1 (Activation)    (None, 45)                0         
_________________________________________________________________
dense_2 (Dense)              (None, 10)                460       
_________________________________________________________________
batch_normalization_5 (Batch (None, 10)                40        
_________________________________________________________________
activation_2 (Activation)    (None, 10)                0         
_________________________________________________________________
dense_3 (Dense)              (None, 3)                 33        
=================================================================
Total params: 72,374
Trainable params: 72,150
Non-trainable params: 224
_________________________________________________________________
subject 1, avg accuracy 0.7508771896362305/0.31444444719288084 over 10 splits
subject 2, avg accuracy 0.7532163769006729/0.404054054940069 over 10 splits
subject 3, avg accuracy 0.8549707651138305/0.36923076923076925 over 10 splits
…
subject 16, avg accuracy 0.6721052646636962/0.3532258098644595 over 10 splits
subject 17, avg accuracy 0.7210526406764984/0.3470588235294118 over 10 splits
subject 18, avg accuracy 0.8105263233184814/0.3314285717691694 over 10 splits
subject 19, avg accuracy 0.7850877225399018/0.29890109791860475 over 10 splits
avg accuracy over all subjects 0.7909762859344481/0.34435061431792613
_________________________________________________________________
Layer (type)                 Output Shape              Param #   
=================================================================
input_1 (InputLayer)         (None, 768, 31)           0         
_________________________________________________________________
lambda_1 (Lambda)            (None, 630, 31)           0         
_________________________________________________________________
gaussian_noise_1 (GaussianNo (None, 630, 31)           0         
_________________________________________________________________
conv1d_1 (Conv1D)            (None, 630, 28)           34748     
_________________________________________________________________
batch_normalization_1 (Batch (None, 630, 28)           112       
_________________________________________________________________
elu_1 (ELU)                  (None, 630, 28)           0         
_________________________________________________________________
average_pooling1d_1 (Average (None, 315, 28)           0         
_________________________________________________________________
dropout_1 (Dropout)          (None, 315, 28)           0         
_________________________________________________________________
conv1d_2 (Conv1D)            (None, 315, 20)           9540      
_________________________________________________________________
batch_normalization_2 (Batch (None, 315, 20)           80        
_________________________________________________________________
elu_2 (ELU)                  (None, 315, 20)           0         
_________________________________________________________________
average_pooling1d_2 (Average (None, 157, 20)           0         
_________________________________________________________________
dropout_2 (Dropout)          (None, 157, 20)           0         
_________________________________________________________________
conv1d_3 (Conv1D)            (None, 157, 14)           3374      
_________________________________________________________________
batch_normalization_3 (Batch (None, 157, 14)           56        
_________________________________________________________________
elu_3 (ELU)                  (None, 157, 14)           0         
_________________________________________________________________
average_pooling1d_3 (Average (None, 78, 14)            0         
_________________________________________________________________
dropout_3 (Dropout)          (None, 78, 14)            0         
_________________________________________________________________
flatten_1 (Flatten)          (None, 1092)              0         
_________________________________________________________________
dense_1 (Dense)              (None, 29)                31697     
_________________________________________________________________
batch_normalization_4 (Batch (None, 29)                116       
_________________________________________________________________
activation_1 (Activation)    (None, 29)                0         
_________________________________________________________________
dense_2 (Dense)              (None, 23)                690       
_________________________________________________________________
batch_normalization_5 (Batch (None, 23)                92        
_________________________________________________________________
activation_2 (Activation)    (None, 23)                0         
_________________________________________________________________
dense_3 (Dense)              (None, 3)                 72        
=================================================================
Total params: 80,577
Trainable params: 80,349
Non-trainable params: 228
_________________________________________________________________
subject 1, avg accuracy 0.7023391902446747/0.3088888911406199 over 10 splits
subject 2, avg accuracy 0.7005847990512848/0.45000000032218723 over 10 splits
subject 3, avg accuracy 0.8447368383407593/0.3523076923076923 over 10 splits
…
subject 16, avg accuracy 0.6765789449214935/0.35483871409969947 over 10 splits
subject 17, avg accuracy 0.7578947424888611/0.30294117647058827 over 10 splits
subject 18, avg accuracy 0.7622807085514068/0.30571428592715943 over 10 splits
subject 19, avg accuracy 0.7622807085514068/0.32747252780002556 over 10 splits
avg accuracy over all subjects 0.7648749224013753/0.3454489165951482
_________________________________________________________________
Layer (type)                 Output Shape              Param #   
=================================================================
input_1 (InputLayer)         (None, 768, 31)           0         
_________________________________________________________________
lambda_1 (Lambda)            (None, 630, 31)           0         
_________________________________________________________________
gaussian_noise_1 (GaussianNo (None, 630, 31)           0         
_________________________________________________________________
conv1d_1 (Conv1D)            (None, 630, 25)           28700     
_________________________________________________________________
batch_normalization_1 (Batch (None, 630, 25)           100       
_________________________________________________________________
elu_1 (ELU)                  (None, 630, 25)           0         
_________________________________________________________________
average_pooling1d_1 (Average (None, 315, 25)           0         
_________________________________________________________________
dropout_1 (Dropout)          (None, 315, 25)           0         
_________________________________________________________________
conv1d_2 (Conv1D)            (None, 315, 22)           12122     
_________________________________________________________________
batch_normalization_2 (Batch (None, 315, 22)           88        
_________________________________________________________________
elu_2 (ELU)                  (None, 315, 22)           0         
_________________________________________________________________
average_pooling1d_2 (Average (None, 157, 22)           0         
_________________________________________________________________
dropout_2 (Dropout)          (None, 157, 22)           0         
_________________________________________________________________
conv1d_3 (Conv1D)            (None, 157, 6)            798       
_________________________________________________________________
batch_normalization_3 (Batch (None, 157, 6)            24        
_________________________________________________________________
elu_3 (ELU)                  (None, 157, 6)            0         
_________________________________________________________________
average_pooling1d_3 (Average (None, 78, 6)             0         
_________________________________________________________________
dropout_3 (Dropout)          (None, 78, 6)             0         
_________________________________________________________________
flatten_1 (Flatten)          (None, 468)               0         
_________________________________________________________________
dense_1 (Dense)              (None, 31)                14539     
_________________________________________________________________
batch_normalization_4 (Batch (None, 31)                124       
_________________________________________________________________
activation_1 (Activation)    (None, 31)                0         
_________________________________________________________________
dense_2 (Dense)              (None, 20)                640       
_________________________________________________________________
batch_normalization_5 (Batch (None, 20)                80        
_________________________________________________________________
activation_2 (Activation)    (None, 20)                0         
_________________________________________________________________
dense_3 (Dense)              (None, 3)                 63        
=================================================================
Total params: 57,278
Trainable params: 57,070
Non-trainable params: 208
_________________________________________________________________
subject 1, avg accuracy 0.7292397677898407/0.3300000015563435 over 10 splits
subject 2, avg accuracy 0.7105263233184814/0.4216216228700973 over 10 splits
subject 3, avg accuracy 0.8862573087215424/0.35000000000000003 over 10 splits
…
subject 16, avg accuracy 0.7242105364799499/0.3596774249307571 over 10 splits
subject 17, avg accuracy 0.7210526287555694/0.31911764705882356 over 10 splits
subject 18, avg accuracy 0.7517543911933899/0.29285714289971765 over 10 splits
subject 19, avg accuracy 0.8178362488746643/0.30769230864205205 over 10 splits
avg accuracy over all subjects 0.7776397031214501/0.33823847225394654
_________________________________________________________________
Layer (type)                 Output Shape              Param #   
=================================================================
input_1 (InputLayer)         (None, 768, 31)           0         
_________________________________________________________________
lambda_1 (Lambda)            (None, 630, 31)           0         
_________________________________________________________________
gaussian_noise_1 (GaussianNo (None, 630, 31)           0         
_________________________________________________________________
conv1d_1 (Conv1D)            (None, 630, 13)           5252      
_________________________________________________________________
batch_normalization_1 (Batch (None, 630, 13)           52        
_________________________________________________________________
elu_1 (ELU)                  (None, 630, 13)           0         
_________________________________________________________________
average_pooling1d_1 (Average (None, 315, 13)           0         
_________________________________________________________________
dropout_1 (Dropout)          (None, 315, 13)           0         
_________________________________________________________________
conv1d_2 (Conv1D)            (None, 315, 25)           7500      
_________________________________________________________________
batch_normalization_2 (Batch (None, 315, 25)           100       
_________________________________________________________________
elu_2 (ELU)                  (None, 315, 25)           0         
_________________________________________________________________
average_pooling1d_2 (Average (None, 157, 25)           0         
_________________________________________________________________
dropout_2 (Dropout)          (None, 157, 25)           0         
_________________________________________________________________
conv1d_3 (Conv1D)            (None, 157, 11)           1111      
_________________________________________________________________
batch_normalization_3 (Batch (None, 157, 11)           44        
_________________________________________________________________
elu_3 (ELU)                  (None, 157, 11)           0         
_________________________________________________________________
average_pooling1d_3 (Average (None, 78, 11)            0         
_________________________________________________________________
dropout_3 (Dropout)          (None, 78, 11)            0         
_________________________________________________________________
flatten_1 (Flatten)          (None, 858)               0         
_________________________________________________________________
dense_1 (Dense)              (None, 20)                17180     
_________________________________________________________________
batch_normalization_4 (Batch (None, 20)                80        
_________________________________________________________________
activation_1 (Activation)    (None, 20)                0         
_________________________________________________________________
dense_2 (Dense)              (None, 15)                315       
_________________________________________________________________
batch_normalization_5 (Batch (None, 15)                60        
_________________________________________________________________
activation_2 (Activation)    (None, 15)                0         
_________________________________________________________________
dense_3 (Dense)              (None, 3)                 48        
=================================================================
Total params: 31,742
Trainable params: 31,574
Non-trainable params: 168
_________________________________________________________________
subject 1, avg accuracy 0.7403508722782135/0.32333333555195065 over 10 splits
subject 2, avg accuracy 0.7418128699064255/0.4000000010672453 over 10 splits
subject 3, avg accuracy 0.8719298243522644/0.3376923076923077 over 10 splits
…
subject 16, avg accuracy 0.7250000059604644/0.3532258107777565 over 10 splits
subject 17, avg accuracy 0.7368421077728271/0.30735294117647055 over 10 splits
subject 18, avg accuracy 0.7997076094150544/0.30857142878430227 over 10 splits
subject 19, avg accuracy 0.8122807085514069/0.30329670362420136 over 10 splits
avg accuracy over all subjects 0.789104940328333/0.3400682860952057
_________________________________________________________________
Layer (type)                 Output Shape              Param #   
=================================================================
input_1 (InputLayer)         (None, 768, 31)           0         
_________________________________________________________________
lambda_1 (Lambda)            (None, 630, 31)           0         
_________________________________________________________________
gaussian_noise_1 (GaussianNo (None, 630, 31)           0         
_________________________________________________________________
conv1d_1 (Conv1D)            (None, 630, 10)           7760      
_________________________________________________________________
batch_normalization_1 (Batch (None, 630, 10)           40        
_________________________________________________________________
elu_1 (ELU)                  (None, 630, 10)           0         
_________________________________________________________________
average_pooling1d_1 (Average (None, 315, 10)           0         
_________________________________________________________________
dropout_1 (Dropout)          (None, 315, 10)           0         
_________________________________________________________________
conv1d_2 (Conv1D)            (None, 315, 16)           2256      
_________________________________________________________________
batch_normalization_2 (Batch (None, 315, 16)           64        
_________________________________________________________________
elu_2 (ELU)                  (None, 315, 16)           0         
_________________________________________________________________
average_pooling1d_2 (Average (None, 157, 16)           0         
_________________________________________________________________
dropout_2 (Dropout)          (None, 157, 16)           0         
_________________________________________________________________
conv1d_3 (Conv1D)            (None, 157, 19)           2147      
_________________________________________________________________
batch_normalization_3 (Batch (None, 157, 19)           76        
_________________________________________________________________
elu_3 (ELU)                  (None, 157, 19)           0         
_________________________________________________________________
average_pooling1d_3 (Average (None, 78, 19)            0         
_________________________________________________________________
dropout_3 (Dropout)          (None, 78, 19)            0         
_________________________________________________________________
flatten_1 (Flatten)          (None, 1482)              0         
_________________________________________________________________
dense_1 (Dense)              (None, 42)                62286     
_________________________________________________________________
batch_normalization_4 (Batch (None, 42)                168       
_________________________________________________________________
activation_1 (Activation)    (None, 42)                0         
_________________________________________________________________
dense_2 (Dense)              (None, 27)                1161      
_________________________________________________________________
batch_normalization_5 (Batch (None, 27)                108       
_________________________________________________________________
activation_2 (Activation)    (None, 27)                0         
_________________________________________________________________
dense_3 (Dense)              (None, 3)                 84        
=================================================================
Total params: 76,150
Trainable params: 75,922
Non-trainable params: 228
_________________________________________________________________
subject 1, avg accuracy 0.6804093599319458/0.3188888910743925 over 10 splits
subject 2, avg accuracy 0.6742689967155456/0.42837837934494016 over 10 splits
subject 3, avg accuracy 0.8286549746990204/0.3553846153846154 over 10 splits
…
subject 16, avg accuracy 0.6760526329278946/0.3903225845867587 over 10 splits
subject 17, avg accuracy 0.6684210538864136/0.31911764705882356 over 10 splits
subject 18, avg accuracy 0.7137426912784577/0.3171428574834551 over 10 splits
subject 19, avg accuracy 0.7345029294490815/0.2989010986882251 over 10 splits
avg accuracy over all subjects 0.7308934383922154/0.3434924541215476
_________________________________________________________________
Layer (type)                 Output Shape              Param #   
=================================================================
input_1 (InputLayer)         (None, 768, 31)           0         
_________________________________________________________________
lambda_1 (Lambda)            (None, 630, 31)           0         
_________________________________________________________________
gaussian_noise_1 (GaussianNo (None, 630, 31)           0         
_________________________________________________________________
conv1d_1 (Conv1D)            (None, 630, 34)           42194     
_________________________________________________________________
batch_normalization_1 (Batch (None, 630, 34)           136       
_________________________________________________________________
elu_1 (ELU)                  (None, 630, 34)           0         
_________________________________________________________________
average_pooling1d_1 (Average (None, 315, 34)           0         
_________________________________________________________________
dropout_1 (Dropout)          (None, 315, 34)           0         
_________________________________________________________________
conv1d_2 (Conv1D)            (None, 315, 29)           7917      
_________________________________________________________________
batch_normalization_2 (Batch (None, 315, 29)           116       
_________________________________________________________________
elu_2 (ELU)                  (None, 315, 29)           0         
_________________________________________________________________
average_pooling1d_2 (Average (None, 157, 29)           0         
_________________________________________________________________
dropout_2 (Dropout)          (None, 157, 29)           0         
_________________________________________________________________
conv1d_3 (Conv1D)            (None, 157, 15)           3930      
_________________________________________________________________
batch_normalization_3 (Batch (None, 157, 15)           60        
_________________________________________________________________
elu_3 (ELU)                  (None, 157, 15)           0         
_________________________________________________________________
average_pooling1d_3 (Average (None, 78, 15)            0         
_________________________________________________________________
dropout_3 (Dropout)          (None, 78, 15)            0         
_________________________________________________________________
flatten_1 (Flatten)          (None, 1170)              0         
_________________________________________________________________
dense_1 (Dense)              (None, 16)                18736     
_________________________________________________________________
batch_normalization_4 (Batch (None, 16)                64        
_________________________________________________________________
activation_1 (Activation)    (None, 16)                0         
_________________________________________________________________
dense_2 (Dense)              (None, 23)                391       
_________________________________________________________________
batch_normalization_5 (Batch (None, 23)                92        
_________________________________________________________________
activation_2 (Activation)    (None, 23)                0         
_________________________________________________________________
dense_3 (Dense)              (None, 3)                 72        
=================================================================
Total params: 73,708
Trainable params: 73,474
Non-trainable params: 234
_________________________________________________________________
subject 1, avg accuracy 0.7353801131248474/0.34666666898462506 over 10 splits
subject 2, avg accuracy 0.7260233998298645/0.44729729818331226 over 10 splits
subject 3, avg accuracy 0.8274853765964508/0.3507692307692308 over 10 splits
…
subject 16, avg accuracy 0.7031578898429871/0.3290322617657723 over 10 splits
subject 17, avg accuracy 0.721052634716034/0.33382352941176474 over 10 splits
subject 18, avg accuracy 0.7780701816082001/0.3242857144134385 over 10 splits
subject 19, avg accuracy 0.7953216314315796/0.32307692165230656 over 10 splits
avg accuracy over all subjects 0.7727859013610419/0.345118970318287
_________________________________________________________________
Layer (type)                 Output Shape              Param #   
=================================================================
input_1 (InputLayer)         (None, 768, 31)           0         
_________________________________________________________________
lambda_1 (Lambda)            (None, 630, 31)           0         
_________________________________________________________________
gaussian_noise_1 (GaussianNo (None, 630, 31)           0         
_________________________________________________________________
conv1d_1 (Conv1D)            (None, 630, 17)           19516     
_________________________________________________________________
batch_normalization_1 (Batch (None, 630, 17)           68        
_________________________________________________________________
elu_1 (ELU)                  (None, 630, 17)           0         
_________________________________________________________________
average_pooling1d_1 (Average (None, 315, 17)           0         
_________________________________________________________________
dropout_1 (Dropout)          (None, 315, 17)           0         
_________________________________________________________________
conv1d_2 (Conv1D)            (None, 315, 16)           6272      
_________________________________________________________________
batch_normalization_2 (Batch (None, 315, 16)           64        
_________________________________________________________________
elu_2 (ELU)                  (None, 315, 16)           0         
_________________________________________________________________
average_pooling1d_2 (Average (None, 157, 16)           0         
_________________________________________________________________
dropout_2 (Dropout)          (None, 157, 16)           0         
_________________________________________________________________
conv1d_3 (Conv1D)            (None, 157, 16)           1808      
_________________________________________________________________
batch_normalization_3 (Batch (None, 157, 16)           64        
_________________________________________________________________
elu_3 (ELU)                  (None, 157, 16)           0         
_________________________________________________________________
average_pooling1d_3 (Average (None, 78, 16)            0         
_________________________________________________________________
dropout_3 (Dropout)          (None, 78, 16)            0         
_________________________________________________________________
flatten_1 (Flatten)          (None, 1248)              0         
_________________________________________________________________
dense_1 (Dense)              (None, 6)                 7494      
_________________________________________________________________
batch_normalization_4 (Batch (None, 6)                 24        
_________________________________________________________________
activation_1 (Activation)    (None, 6)                 0         
_________________________________________________________________
dense_2 (Dense)              (None, 26)                182       
_________________________________________________________________
batch_normalization_5 (Batch (None, 26)                104       
_________________________________________________________________
activation_2 (Activation)    (None, 26)                0         
_________________________________________________________________
dense_3 (Dense)              (None, 3)                 81        
=================================================================
Total params: 35,677
Trainable params: 35,515
Non-trainable params: 162
_________________________________________________________________
subject 1, avg accuracy 0.6865497142076492/0.32222222526868183 over 10 splits
subject 2, avg accuracy 0.6517543852329254/0.42972973162258 over 10 splits
subject 3, avg accuracy 0.8228070199489593/0.3638461538461539 over 10 splits
…
subject 16, avg accuracy 0.6452631473541259/0.3596774235367775 over 10 splits
subject 17, avg accuracy 0.7000000059604645/0.31764705882352945 over 10 splits
subject 18, avg accuracy 0.729824560880661/0.3185714288268771 over 10 splits
subject 19, avg accuracy 0.7631578862667083/0.3164835172531369 over 10 splits
avg accuracy over all subjects 0.7395484096474118/0.3447824185237364
_________________________________________________________________
Layer (type)                 Output Shape              Param #   
=================================================================
input_1 (InputLayer)         (None, 768, 31)           0         
_________________________________________________________________
lambda_1 (Lambda)            (None, 630, 31)           0         
_________________________________________________________________
gaussian_noise_1 (GaussianNo (None, 630, 31)           0         
_________________________________________________________________
conv1d_1 (Conv1D)            (None, 630, 29)           27898     
_________________________________________________________________
batch_normalization_1 (Batch (None, 630, 29)           116       
_________________________________________________________________
elu_1 (ELU)                  (None, 630, 29)           0         
_________________________________________________________________
average_pooling1d_1 (Average (None, 315, 29)           0         
_________________________________________________________________
dropout_1 (Dropout)          (None, 315, 29)           0         
_________________________________________________________________
conv1d_2 (Conv1D)            (None, 315, 12)           6276      
_________________________________________________________________
batch_normalization_2 (Batch (None, 315, 12)           48        
_________________________________________________________________
elu_2 (ELU)                  (None, 315, 12)           0         
_________________________________________________________________
average_pooling1d_2 (Average (None, 157, 12)           0         
_________________________________________________________________
dropout_2 (Dropout)          (None, 157, 12)           0         
_________________________________________________________________
conv1d_3 (Conv1D)            (None, 157, 18)           2610      
_________________________________________________________________
batch_normalization_3 (Batch (None, 157, 18)           72        
_________________________________________________________________
elu_3 (ELU)                  (None, 157, 18)           0         
_________________________________________________________________
average_pooling1d_3 (Average (None, 78, 18)            0         
_________________________________________________________________
dropout_3 (Dropout)          (None, 78, 18)            0         
_________________________________________________________________
flatten_1 (Flatten)          (None, 1404)              0         
_________________________________________________________________
dense_1 (Dense)              (None, 31)                43555     
_________________________________________________________________
batch_normalization_4 (Batch (None, 31)                124       
_________________________________________________________________
activation_1 (Activation)    (None, 31)                0         
_________________________________________________________________
dense_2 (Dense)              (None, 8)                 256       
_________________________________________________________________
batch_normalization_5 (Batch (None, 8)                 32        
_________________________________________________________________
activation_2 (Activation)    (None, 8)                 0         
_________________________________________________________________
dense_3 (Dense)              (None, 3)                 27        
=================================================================
Total params: 81,014
Trainable params: 80,818
Non-trainable params: 196
_________________________________________________________________
subject 1, avg accuracy 0.7301169633865356/0.3366666692826483 over 10 splits
subject 2, avg accuracy 0.7695906519889831/0.4756756765616907 over 10 splits
subject 3, avg accuracy 0.8652046859264374/0.3707692307692308 over 10 splits
…
subject 16, avg accuracy 0.7394736886024476/0.36612903687261766 over 10 splits
subject 17, avg accuracy 0.7263157933950424/0.31764705882352945 over 10 splits
subject 18, avg accuracy 0.7461988270282746/0.3071428573557309 over 10 splits
subject 19, avg accuracy 0.8350877165794373/0.316483515713896 over 10 splits
avg accuracy over all subjects 0.7848554278413454/0.3502038410527406
_________________________________________________________________
Layer (type)                 Output Shape              Param #   
=================================================================
input_1 (InputLayer)         (None, 768, 31)           0         
_________________________________________________________________
lambda_1 (Lambda)            (None, 630, 31)           0         
_________________________________________________________________
gaussian_noise_1 (GaussianNo (None, 630, 31)           0         
_________________________________________________________________
conv1d_1 (Conv1D)            (None, 630, 38)           30666     
_________________________________________________________________
batch_normalization_1 (Batch (None, 630, 38)           152       
_________________________________________________________________
elu_1 (ELU)                  (None, 630, 38)           0         
_________________________________________________________________
average_pooling1d_1 (Average (None, 315, 38)           0         
_________________________________________________________________
dropout_1 (Dropout)          (None, 315, 38)           0         
_________________________________________________________________
conv1d_2 (Conv1D)            (None, 315, 18)           9594      
_________________________________________________________________
batch_normalization_2 (Batch (None, 315, 18)           72        
_________________________________________________________________
elu_2 (ELU)                  (None, 315, 18)           0         
_________________________________________________________________
average_pooling1d_2 (Average (None, 157, 18)           0         
_________________________________________________________________
dropout_2 (Dropout)          (None, 157, 18)           0         
_________________________________________________________________
conv1d_3 (Conv1D)            (None, 157, 16)           2608      
_________________________________________________________________
batch_normalization_3 (Batch (None, 157, 16)           64        
_________________________________________________________________
elu_3 (ELU)                  (None, 157, 16)           0         
_________________________________________________________________
average_pooling1d_3 (Average (None, 78, 16)            0         
_________________________________________________________________
dropout_3 (Dropout)          (None, 78, 16)            0         
_________________________________________________________________
flatten_1 (Flatten)          (None, 1248)              0         
_________________________________________________________________
dense_1 (Dense)              (None, 39)                48711     
_________________________________________________________________
batch_normalization_4 (Batch (None, 39)                156       
_________________________________________________________________
activation_1 (Activation)    (None, 39)                0         
_________________________________________________________________
dense_2 (Dense)              (None, 24)                960       
_________________________________________________________________
batch_normalization_5 (Batch (None, 24)                96        
_________________________________________________________________
activation_2 (Activation)    (None, 24)                0         
_________________________________________________________________
dense_3 (Dense)              (None, 3)                 75        
=================================================================
Total params: 93,154
Trainable params: 92,884
Non-trainable params: 270
_________________________________________________________________
subject 1, avg accuracy 0.7345029354095459/0.3455555574761497 over 10 splits
subject 2, avg accuracy 0.7362573266029357/0.4459459462681332 over 10 splits
subject 3, avg accuracy 0.8280701756477356/0.3492307692307693 over 10 splits
…
subject 16, avg accuracy 0.7089473664760589/0.3080645196860836 over 10 splits
subject 17, avg accuracy 0.7368421137332917/0.3308823529411765 over 10 splits
subject 18, avg accuracy 0.7716374278068543/0.3242857144560133 over 10 splits
subject 19, avg accuracy 0.7634502947330475/0.31538461612148605 over 10 splits
avg accuracy over all subjects 0.7801559497912725/0.34837125002989844
_________________________________________________________________
Layer (type)                 Output Shape              Param #   
=================================================================
input_1 (InputLayer)         (None, 768, 31)           0         
_________________________________________________________________
lambda_1 (Lambda)            (None, 630, 31)           0         
_________________________________________________________________
gaussian_noise_1 (GaussianNo (None, 630, 31)           0         
_________________________________________________________________
conv1d_1 (Conv1D)            (None, 630, 21)           16947     
_________________________________________________________________
batch_normalization_1 (Batch (None, 630, 21)           84        
_________________________________________________________________
elu_1 (ELU)                  (None, 630, 21)           0         
_________________________________________________________________
average_pooling1d_1 (Average (None, 315, 21)           0         
_________________________________________________________________
dropout_1 (Dropout)          (None, 315, 21)           0         
_________________________________________________________________
conv1d_2 (Conv1D)            (None, 315, 16)           8080      
_________________________________________________________________
batch_normalization_2 (Batch (None, 315, 16)           64        
_________________________________________________________________
elu_2 (ELU)                  (None, 315, 16)           0         
_________________________________________________________________
average_pooling1d_2 (Average (None, 157, 16)           0         
_________________________________________________________________
dropout_2 (Dropout)          (None, 157, 16)           0         
_________________________________________________________________
conv1d_3 (Conv1D)            (None, 157, 12)           2508      
_________________________________________________________________
batch_normalization_3 (Batch (None, 157, 12)           48        
_________________________________________________________________
elu_3 (ELU)                  (None, 157, 12)           0         
_________________________________________________________________
average_pooling1d_3 (Average (None, 78, 12)            0         
_________________________________________________________________
dropout_3 (Dropout)          (None, 78, 12)            0         
_________________________________________________________________
flatten_1 (Flatten)          (None, 936)               0         
_________________________________________________________________
dense_1 (Dense)              (None, 44)                41228     
_________________________________________________________________
batch_normalization_4 (Batch (None, 44)                176       
_________________________________________________________________
activation_1 (Activation)    (None, 44)                0         
_________________________________________________________________
dense_2 (Dense)              (None, 12)                540       
_________________________________________________________________
batch_normalization_5 (Batch (None, 12)                48        
_________________________________________________________________
activation_2 (Activation)    (None, 12)                0         
_________________________________________________________________
dense_3 (Dense)              (None, 3)                 39        
=================================================================
Total params: 69,762
Trainable params: 69,552
Non-trainable params: 210
_________________________________________________________________
subject 1, avg accuracy 0.7561403572559356/0.3444444468617439 over 10 splits
subject 2, avg accuracy 0.7353801280260086/0.42432432521033936 over 10 splits
subject 3, avg accuracy 0.8444444477558136/0.3630769230769231 over 10 splits
…
subject 16, avg accuracy 0.7502631545066833/0.34516129315860816 over 10 splits
subject 17, avg accuracy 0.7789473831653595/0.29705882352941176 over 10 splits
subject 18, avg accuracy 0.7944444417953491/0.3100000002554485 over 10 splits
subject 19, avg accuracy 0.789473682641983/0.3263736268976232 over 10 splits
avg accuracy over all subjects 0.7923603013157846/0.35028115223338213
_________________________________________________________________
Layer (type)                 Output Shape              Param #   
=================================================================
input_1 (InputLayer)         (None, 768, 31)           0         
_________________________________________________________________
lambda_1 (Lambda)            (None, 630, 31)           0         
_________________________________________________________________
gaussian_noise_1 (GaussianNo (None, 630, 31)           0         
_________________________________________________________________
conv1d_1 (Conv1D)            (None, 630, 24)           5232      
_________________________________________________________________
batch_normalization_1 (Batch (None, 630, 24)           96        
_________________________________________________________________
elu_1 (ELU)                  (None, 630, 24)           0         
_________________________________________________________________
average_pooling1d_1 (Average (None, 315, 24)           0         
_________________________________________________________________
dropout_1 (Dropout)          (None, 315, 24)           0         
_________________________________________________________________
conv1d_2 (Conv1D)            (None, 315, 24)           13272     
_________________________________________________________________
batch_normalization_2 (Batch (None, 315, 24)           96        
_________________________________________________________________
elu_2 (ELU)                  (None, 315, 24)           0         
_________________________________________________________________
average_pooling1d_2 (Average (None, 157, 24)           0         
_________________________________________________________________
dropout_2 (Dropout)          (None, 157, 24)           0         
_________________________________________________________________
conv1d_3 (Conv1D)            (None, 157, 9)            2601      
_________________________________________________________________
batch_normalization_3 (Batch (None, 157, 9)            36        
_________________________________________________________________
elu_3 (ELU)                  (None, 157, 9)            0         
_________________________________________________________________
average_pooling1d_3 (Average (None, 78, 9)             0         
_________________________________________________________________
dropout_3 (Dropout)          (None, 78, 9)             0         
_________________________________________________________________
flatten_1 (Flatten)          (None, 702)               0         
_________________________________________________________________
dense_1 (Dense)              (None, 39)                27417     
_________________________________________________________________
batch_normalization_4 (Batch (None, 39)                156       
_________________________________________________________________
activation_1 (Activation)    (None, 39)                0         
_________________________________________________________________
dense_2 (Dense)              (None, 6)                 240       
_________________________________________________________________
batch_normalization_5 (Batch (None, 6)                 24        
_________________________________________________________________
activation_2 (Activation)    (None, 6)                 0         
_________________________________________________________________
dense_3 (Dense)              (None, 3)                 21        
=================================================================
Total params: 49,191
Trainable params: 48,987
Non-trainable params: 204
_________________________________________________________________
subject 1, avg accuracy 0.747076016664505/0.32333333488967686 over 10 splits
subject 2, avg accuracy 0.710233923792839/0.4000000011276555 over 10 splits
subject 3, avg accuracy 0.8546783685684204/0.36230769230769233 over 10 splits
…
subject 16, avg accuracy 0.7602631628513337/0.34516129411997337 over 10 splits
subject 17, avg accuracy 0.7421052694320679/0.32352941176470584 over 10 splits
subject 18, avg accuracy 0.815497076511383/0.33571428571428574 over 10 splits
subject 19, avg accuracy 0.823099410533905/0.31428571405646566 over 10 splits
avg accuracy over all subjects 0.7966195598244666/0.3456973230482656
_________________________________________________________________
Layer (type)                 Output Shape              Param #   
=================================================================
input_1 (InputLayer)         (None, 768, 31)           0         
_________________________________________________________________
lambda_1 (Lambda)            (None, 630, 31)           0         
_________________________________________________________________
gaussian_noise_1 (GaussianNo (None, 630, 31)           0         
_________________________________________________________________
conv1d_1 (Conv1D)            (None, 630, 21)           27363     
_________________________________________________________________
batch_normalization_1 (Batch (None, 630, 21)           84        
_________________________________________________________________
elu_1 (ELU)                  (None, 630, 21)           0         
_________________________________________________________________
average_pooling1d_1 (Average (None, 315, 21)           0         
_________________________________________________________________
dropout_1 (Dropout)          (None, 315, 21)           0         
_________________________________________________________________
conv1d_2 (Conv1D)            (None, 315, 26)           7124      
_________________________________________________________________
batch_normalization_2 (Batch (None, 315, 26)           104       
_________________________________________________________________
elu_2 (ELU)                  (None, 315, 26)           0         
_________________________________________________________________
average_pooling1d_2 (Average (None, 157, 26)           0         
_________________________________________________________________
dropout_2 (Dropout)          (None, 157, 26)           0         
_________________________________________________________________
conv1d_3 (Conv1D)            (None, 157, 15)           1965      
_________________________________________________________________
batch_normalization_3 (Batch (None, 157, 15)           60        
_________________________________________________________________
elu_3 (ELU)                  (None, 157, 15)           0         
_________________________________________________________________
average_pooling1d_3 (Average (None, 78, 15)            0         
_________________________________________________________________
dropout_3 (Dropout)          (None, 78, 15)            0         
_________________________________________________________________
flatten_1 (Flatten)          (None, 1170)              0         
_________________________________________________________________
dense_1 (Dense)              (None, 42)                49182     
_________________________________________________________________
batch_normalization_4 (Batch (None, 42)                168       
_________________________________________________________________
activation_1 (Activation)    (None, 42)                0         
_________________________________________________________________
dense_2 (Dense)              (None, 22)                946       
_________________________________________________________________
batch_normalization_5 (Batch (None, 22)                88        
_________________________________________________________________
activation_2 (Activation)    (None, 22)                0         
_________________________________________________________________
dense_3 (Dense)              (None, 3)                 69        
=================================================================
Total params: 87,153
Trainable params: 86,901
Non-trainable params: 252
_________________________________________________________________
subject 1, avg accuracy 0.6423976600170136/0.3133333364791341 over 10 splits
subject 2, avg accuracy 0.6839181274175644/0.4486486498568508 over 10 splits
subject 3, avg accuracy 0.8614035069942474/0.35769230769230764 over 10 splits
…
