…
loading:  Subj17_CleanData_test_FA_visual
loading:  Subj17_CleanData_test_LM_visual
loading:  Subj17_CleanData_test_OB_visual
loading:  Subj18_CleanData_test_FA_visual
loading:  Subj18_CleanData_test_LM_visual
loading:  Subj18_CleanData_test_OB_visual
loading:  Subj19_CleanData_test_FA_visual
loading:  Subj19_CleanData_test_LM_visual
loading:  Subj19_CleanData_test_OB_visual
(90, 768, 31)
(185, 768, 31)
_________________________________________________________________
Layer (type)                 Output Shape              Param #   
=================================================================
input_1 (InputLayer)         (None, 768, 31)           0         
_________________________________________________________________
lambda_1 (Lambda)            (None, 630, 31)           0         
_________________________________________________________________
gaussian_noise_1 (GaussianNo (None, 630, 31)           0         
_________________________________________________________________
conv1d_1 (Conv1D)            (None, 630, 20)           6220      
_________________________________________________________________
batch_normalization_1 (Batch (None, 630, 20)           80        
_________________________________________________________________
elu_1 (ELU)                  (None, 630, 20)           0         
_________________________________________________________________
max_pooling1d_1 (MaxPooling1 (None, 315, 20)           0         
_________________________________________________________________
dropout_1 (Dropout)          (None, 315, 20)           0         
_________________________________________________________________
conv1d_2 (Conv1D)            (None, 315, 20)           2020      
_________________________________________________________________
batch_normalization_2 (Batch (None, 315, 20)           80        
_________________________________________________________________
elu_2 (ELU)                  (None, 315, 20)           0         
_________________________________________________________________
max_pooling1d_2 (MaxPooling1 (None, 157, 20)           0         
_________________________________________________________________
dropout_2 (Dropout)          (None, 157, 20)           0         
_________________________________________________________________
conv1d_3 (Conv1D)            (None, 157, 40)           4040      
_________________________________________________________________
batch_normalization_3 (Batch (None, 157, 40)           160       
_________________________________________________________________
elu_3 (ELU)                  (None, 157, 40)           0         
_________________________________________________________________
max_pooling1d_3 (MaxPooling1 (None, 78, 40)            0         
_________________________________________________________________
dropout_3 (Dropout)          (None, 78, 40)            0         
_________________________________________________________________
flatten_1 (Flatten)          (None, 3120)              0         
_________________________________________________________________
dense_1 (Dense)              (None, 20)                62420     
_________________________________________________________________
batch_normalization_4 (Batch (None, 20)                80        
_________________________________________________________________
activation_1 (Activation)    (None, 20)                0         
_________________________________________________________________
dense_2 (Dense)              (None, 3)                 63        
=================================================================
Total params: 75,163
Trainable params: 74,963
Non-trainable params: 200
_________________________________________________________________
subject 1, avg accuracy 0.6096491247415543/0.32444444725910826 over 10 splits
subject 2, avg accuracy 0.6374269038438797/0.3648648665966215 over 10 splits
subject 3, avg accuracy 0.7494152009487152/0.36615384615384616 over 10 splits
…
