…
loading:  Subj16_CleanData_study_OB
loading:  Subj17_CleanData_study_FA
loading:  Subj17_CleanData_study_LM
loading:  Subj17_CleanData_study_OB
loading:  Subj18_CleanData_study_FA
loading:  Subj18_CleanData_study_LM
loading:  Subj18_CleanData_study_OB
loading:  Subj19_CleanData_study_FA
loading:  Subj19_CleanData_study_LM
loading:  Subj19_CleanData_study_OB
(185, 31, 768)
(185, 31, 768, 1)
(31, 768, 1)
_________________________________________________________________
Layer (type)                 Output Shape              Param #   
=================================================================
conv2d_1 (Conv2D)            (None, 31, 759, 32)       352       
_________________________________________________________________
max_pooling2d_1 (MaxPooling2 (None, 31, 253, 32)       0         
_________________________________________________________________
dropout_1 (Dropout)          (None, 31, 253, 32)       0         
_________________________________________________________________
conv2d_2 (Conv2D)            (None, 31, 249, 10)       1610      
_________________________________________________________________
max_pooling2d_2 (MaxPooling2 (None, 31, 83, 10)        0         
_________________________________________________________________
dropout_2 (Dropout)          (None, 31, 83, 10)        0         
_________________________________________________________________
conv2d_3 (Conv2D)            (None, 1, 79, 5)          7755      
_________________________________________________________________
max_pooling2d_3 (MaxPooling2 (None, 1, 39, 5)          0         
_________________________________________________________________
flatten_1 (Flatten)          (None, 195)               0         
_________________________________________________________________
dense_1 (Dense)              (None, 15)                2940      
_________________________________________________________________
dense_2 (Dense)              (None, 3)                 48        
=================================================================
Total params: 12,705
Trainable params: 12,705
Non-trainable params: 0
_________________________________________________________________
subject 1, avg accuracy 0.5675675685341293 over 5 splits
subject 2, avg accuracy 0.6041251784537629 over 5 splits
subject 3, avg accuracy 0.6984352787519417 over 5 splits
subject 4, avg accuracy 0.3351351357795097 over 5 splits
…
