…
loading:  Subj16_CleanData_study_OB
loading:  Subj17_CleanData_study_FA
loading:  Subj17_CleanData_study_LM
loading:  Subj17_CleanData_study_OB
loading:  Subj18_CleanData_study_FA
loading:  Subj18_CleanData_study_LM
loading:  Subj18_CleanData_study_OB
loading:  Subj19_CleanData_study_FA
loading:  Subj19_CleanData_study_LM
loading:  Subj19_CleanData_study_OB
(185, 768, 31)
(185, 768, 31)
_________________________________________________________________
Layer (type)                 Output Shape              Param #   
=================================================================
conv1d_1 (Conv1D)            (None, 759, 30)           9330      
_________________________________________________________________
max_pooling1d_1 (MaxPooling1 (None, 379, 30)           0         
_________________________________________________________________
dropout_1 (Dropout)          (None, 379, 30)           0         
_________________________________________________________________
conv1d_2 (Conv1D)            (None, 375, 20)           3020      
_________________________________________________________________
max_pooling1d_2 (MaxPooling1 (None, 187, 20)           0         
_________________________________________________________________
dropout_2 (Dropout)          (None, 187, 20)           0         
_________________________________________________________________
conv1d_3 (Conv1D)            (None, 183, 10)           1010      
_________________________________________________________________
max_pooling1d_3 (MaxPooling1 (None, 91, 10)            0         
_________________________________________________________________
flatten_1 (Flatten)          (None, 910)               0         
_________________________________________________________________
dense_1 (Dense)              (None, 30)                27330     
_________________________________________________________________
dense_2 (Dense)              (None, 3)                 93        
=================================================================
Total params: 40,783
Trainable params: 40,783
Non-trainable params: 0
_________________________________________________________________
subject 1, avg accuracy 0.5459459486845377 over 5 splits
subject 2, avg accuracy 0.5990042695025801 over 5 splits
subject 3, avg accuracy 0.6182076831291274 over 5 splits
subject 4, avg accuracy 0.4540540559066308 over 5 splits
…
