…
loading:  Subj16_CleanData_study_OB
loading:  Subj17_CleanData_study_FA
loading:  Subj17_CleanData_study_LM
loading:  Subj17_CleanData_study_OB
loading:  Subj18_CleanData_study_FA
loading:  Subj18_CleanData_study_LM
loading:  Subj18_CleanData_study_OB
loading:  Subj19_CleanData_study_FA
loading:  Subj19_CleanData_study_LM
loading:  Subj19_CleanData_study_OB
(185, 31, 2049)
(370, 31, 768)
_________________________________________________________________
Layer (type)                 Output Shape              Param #   
=================================================================
conv1d_1 (Conv1D)            (None, 31, 33)            202785    
_________________________________________________________________
max_pooling1d_1 (MaxPooling1 (None, 31, 33)            0         
_________________________________________________________________
dropout_1 (Dropout)          (None, 31, 33)            0         
_________________________________________________________________
conv1d_2 (Conv1D)            (None, 31, 15)            4470      
_________________________________________________________________
max_pooling1d_2 (MaxPooling1 (None, 15, 15)            0         
_________________________________________________________________
dropout_2 (Dropout)          (None, 15, 15)            0         
_________________________________________________________________
conv1d_3 (Conv1D)            (None, 15, 4)             184       
_________________________________________________________________
max_pooling1d_3 (MaxPooling1 (None, 15, 4)             0         
_________________________________________________________________
dropout_3 (Dropout)          (None, 15, 4)             0         
_________________________________________________________________
flatten_1 (Flatten)          (None, 60)                0         
_________________________________________________________________
dense_1 (Dense)              (None, 22)                1342      
_________________________________________________________________
dense_2 (Dense)              (None, 3)                 69        
=================================================================
Total params: 208,850
Trainable params: 208,850
Non-trainable params: 0
_________________________________________________________________
{'l1_nodes': 33, 'l1_filter': 8, 'l1_dropout': 0.0017967494659755223, 'l1_maxpool': 1, 'l2_nodes': 15, 'l2_filter': 9, 'l2_dropout': 0.5118717544081205, 'l2_maxpool': 2, 'l3_nodes': 4, 'l3_filter': 3, 'l3_dropout': 0.264363425580489, 'l3_maxpool': 1, 'dense_nodes': 22}
…
subject 12, avg accuracy 0.38421052772747843
subject 13, avg accuracy 0.42560455335322694
subject 14, avg accuracy 0.52847503466323
subject 15, avg accuracy 0.5300300301911236
subject 16, avg accuracy 0.4959514191919654
subject 17, avg accuracy 0.6210526334611993
subject 18, avg accuracy 0.49729729914987414
subject 19, avg accuracy 0.3486486488097423
avg accuracy over all subjects 0.45888209517596834
_________________________________________________________________
Layer (type)                 Output Shape              Param #   
=================================================================
conv1d_4 (Conv1D)            (None, 31, 28)            301084    
_________________________________________________________________
max_pooling1d_4 (MaxPooling1 (None, 15, 28)            0         
_________________________________________________________________
dropout_4 (Dropout)          (None, 15, 28)            0         
_________________________________________________________________
conv1d_5 (Conv1D)            (None, 15, 6)             1854      
_________________________________________________________________
max_pooling1d_5 (MaxPooling1 (None, 7, 6)              0         
_________________________________________________________________
dropout_5 (Dropout)          (None, 7, 6)              0         
_________________________________________________________________
conv1d_6 (Conv1D)            (None, 7, 7)              343       
_________________________________________________________________
max_pooling1d_6 (MaxPooling1 (None, 7, 7)              0         
_________________________________________________________________
dropout_6 (Dropout)          (None, 7, 7)              0         
_________________________________________________________________
flatten_2 (Flatten)          (None, 49)                0         
_________________________________________________________________
dense_3 (Dense)              (None, 27)                1350      
_________________________________________________________________
dense_4 (Dense)              (None, 3)                 84        
=================================================================
Total params: 304,715
Trainable params: 304,715
Non-trainable params: 0
_________________________________________________________________
{'l1_nodes': 28, 'l1_filter': 14, 'l1_dropout': 0.15903651215070427, 'l1_maxpool': 2, 'l2_nodes': 6, 'l2_filter': 11, 'l2_dropout': 0.4556292137911881, 'l2_maxpool': 2, 'l3_nodes': 7, 'l3_filter': 8, 'l3_dropout': 0.3671401540096648, 'l3_maxpool': 1, 'dense_nodes': 27}
…
subject 12, avg accuracy 0.4315789489369643
subject 13, avg accuracy 0.4311522055486187
subject 14, avg accuracy 0.5452091780268711
subject 15, avg accuracy 0.5246246247051713
subject 16, avg accuracy 0.5361673412615792
subject 17, avg accuracy 0.5894736848379436
subject 18, avg accuracy 0.6324324331573538
subject 19, avg accuracy 0.44789789805899155
avg accuracy over all subjects 0.5017707997469386
_________________________________________________________________
Layer (type)                 Output Shape              Param #   
=================================================================
conv1d_7 (Conv1D)            (None, 31, 29)            356381    
_________________________________________________________________
max_pooling1d_7 (MaxPooling1 (None, 31, 29)            0         
_________________________________________________________________
dropout_7 (Dropout)          (None, 31, 29)            0         
_________________________________________________________________
conv1d_8 (Conv1D)            (None, 31, 9)             1836      
_________________________________________________________________
max_pooling1d_8 (MaxPooling1 (None, 31, 9)             0         
_________________________________________________________________
dropout_8 (Dropout)          (None, 31, 9)             0         
_________________________________________________________________
conv1d_9 (Conv1D)            (None, 31, 11)            506       
_________________________________________________________________
max_pooling1d_9 (MaxPooling1 (None, 15, 11)            0         
_________________________________________________________________
dropout_9 (Dropout)          (None, 15, 11)            0         
_________________________________________________________________
flatten_3 (Flatten)          (None, 165)               0         
_________________________________________________________________
dense_5 (Dense)              (None, 17)                2822      
_________________________________________________________________
dense_6 (Dense)              (None, 3)                 54        
=================================================================
Total params: 361,599
Trainable params: 361,599
Non-trainable params: 0
_________________________________________________________________
{'l1_nodes': 29, 'l1_filter': 16, 'l1_dropout': 0.2436469762768169, 'l1_maxpool': 1, 'l2_nodes': 9, 'l2_filter': 7, 'l2_dropout': 0.44585926009935706, 'l2_maxpool': 1, 'l3_nodes': 11, 'l3_filter': 5, 'l3_dropout': 0.5747459351555451, 'l3_maxpool': 2, 'dense_nodes': 17}
…
subject 12, avg accuracy 0.3947368430463891
subject 13, avg accuracy 0.382361308842431
subject 14, avg accuracy 0.39298245831218004
subject 15, avg accuracy 0.4588588589394057
subject 16, avg accuracy 0.3747638344925586
subject 17, avg accuracy 0.5315789462704408
subject 18, avg accuracy 0.5513513528011941
subject 19, avg accuracy 0.49774774774774766
avg accuracy over all subjects 0.4340597690517219
_________________________________________________________________
Layer (type)                 Output Shape              Param #   
=================================================================
conv1d_10 (Conv1D)           (None, 31, 35)            564515    
_________________________________________________________________
max_pooling1d_10 (MaxPooling (None, 15, 35)            0         
_________________________________________________________________
dropout_10 (Dropout)         (None, 15, 35)            0         
_________________________________________________________________
conv1d_11 (Conv1D)           (None, 15, 18)            3168      
_________________________________________________________________
max_pooling1d_11 (MaxPooling (None, 7, 18)             0         
_________________________________________________________________
dropout_11 (Dropout)         (None, 7, 18)             0         
_________________________________________________________________
conv1d_12 (Conv1D)           (None, 7, 3)              219       
_________________________________________________________________
max_pooling1d_12 (MaxPooling (None, 3, 3)              0         
_________________________________________________________________
dropout_12 (Dropout)         (None, 3, 3)              0         
_________________________________________________________________
flatten_4 (Flatten)          (None, 9)                 0         
_________________________________________________________________
dense_7 (Dense)              (None, 31)                310       
_________________________________________________________________
dense_8 (Dense)              (None, 3)                 96        
=================================================================
Total params: 568,308
Trainable params: 568,308
Non-trainable params: 0
_________________________________________________________________
{'l1_nodes': 35, 'l1_filter': 21, 'l1_dropout': 0.0237142923614026, 'l1_maxpool': 2, 'l2_nodes': 18, 'l2_filter': 5, 'l2_dropout': 0.5624651805352747, 'l2_maxpool': 2, 'l3_nodes': 3, 'l3_filter': 4, 'l3_dropout': 0.007238432969678549, 'l3_maxpool': 2, 'dense_nodes': 31}
…
subject 12, avg accuracy 0.43684210573372084
subject 13, avg accuracy 0.4304409690296668
subject 14, avg accuracy 0.4816464252960987
subject 15, avg accuracy 0.5524024030467769
subject 16, avg accuracy 0.515789476314537
subject 17, avg accuracy 0.6210526312652387
subject 18, avg accuracy 0.6864864880974227
subject 19, avg accuracy 0.4367867868673335
avg accuracy over all subjects 0.5092897902122764
_________________________________________________________________
Layer (type)                 Output Shape              Param #   
=================================================================
conv1d_13 (Conv1D)           (None, 31, 21)            258069    
_________________________________________________________________
max_pooling1d_13 (MaxPooling (None, 31, 21)            0         
_________________________________________________________________
dropout_13 (Dropout)         (None, 31, 21)            0         
_________________________________________________________________
conv1d_14 (Conv1D)           (None, 31, 22)            5104      
_________________________________________________________________
max_pooling1d_14 (MaxPooling (None, 15, 22)            0         
_________________________________________________________________
dropout_14 (Dropout)         (None, 15, 22)            0         
_________________________________________________________________
conv1d_15 (Conv1D)           (None, 15, 4)             356       
_________________________________________________________________
max_pooling1d_15 (MaxPooling (None, 7, 4)              0         
_________________________________________________________________
dropout_15 (Dropout)         (None, 7, 4)              0         
_________________________________________________________________
flatten_5 (Flatten)          (None, 28)                0         
_________________________________________________________________
dense_9 (Dense)              (None, 32)                928       
_________________________________________________________________
dense_10 (Dense)             (None, 3)                 99        
=================================================================
Total params: 264,556
Trainable params: 264,556
Non-trainable params: 0
_________________________________________________________________
{'l1_nodes': 21, 'l1_filter': 16, 'l1_dropout': 0.5571310055702585, 'l1_maxpool': 1, 'l2_nodes': 22, 'l2_filter': 11, 'l2_dropout': 0.3722452543074437, 'l2_maxpool': 2, 'l3_nodes': 4, 'l3_filter': 4, 'l3_dropout': 0.2175743960832455, 'l3_maxpool': 2, 'dense_nodes': 32}
…
subject 12, avg accuracy 0.3789473688916156
subject 13, avg accuracy 0.40440967291551166
subject 14, avg accuracy 0.4442645078889432
subject 15, avg accuracy 0.5304804805610274
subject 16, avg accuracy 0.4900134958960267
subject 17, avg accuracy 0.5684210538864136
subject 18, avg accuracy 0.5135135152855435
subject 19, avg accuracy 0.3860360361971297
avg accuracy over all subjects 0.45800736728633673
_________________________________________________________________
Layer (type)                 Output Shape              Param #   
=================================================================
conv1d_16 (Conv1D)           (None, 31, 26)            339482    
_________________________________________________________________
max_pooling1d_16 (MaxPooling (None, 10, 26)            0         
_________________________________________________________________
dropout_16 (Dropout)         (None, 10, 26)            0         
_________________________________________________________________
conv1d_17 (Conv1D)           (None, 10, 7)             1099      
_________________________________________________________________
max_pooling1d_17 (MaxPooling (None, 5, 7)              0         
_________________________________________________________________
dropout_17 (Dropout)         (None, 5, 7)              0         
_________________________________________________________________
conv1d_18 (Conv1D)           (None, 5, 13)             286       
_________________________________________________________________
max_pooling1d_18 (MaxPooling (None, 2, 13)             0         
_________________________________________________________________
dropout_18 (Dropout)         (None, 2, 13)             0         
_________________________________________________________________
flatten_6 (Flatten)          (None, 26)                0         
_________________________________________________________________
dense_11 (Dense)             (None, 7)                 189       
_________________________________________________________________
dense_12 (Dense)             (None, 3)                 24        
=================================================================
Total params: 341,080
Trainable params: 341,080
Non-trainable params: 0
_________________________________________________________________
{'l1_nodes': 26, 'l1_filter': 17, 'l1_dropout': 0.4037483216811576, 'l1_maxpool': 3, 'l2_nodes': 7, 'l2_filter': 6, 'l2_dropout': 0.25555295626785535, 'l2_maxpool': 2, 'l3_nodes': 13, 'l3_filter': 3, 'l3_dropout': 0.670708514515953, 'l3_maxpool': 2, 'dense_nodes': 7}
…
subject 12, avg accuracy 0.43157894705471245
subject 13, avg accuracy 0.39928876435010563
subject 14, avg accuracy 0.3762483141803548
subject 15, avg accuracy 0.45300300308354985
subject 16, avg accuracy 0.4067476401847062
subject 17, avg accuracy 0.45263157941793136
subject 18, avg accuracy 0.4918918942277496
subject 19, avg accuracy 0.3594594595400063
avg accuracy over all subjects 0.3892384972747478
_________________________________________________________________
Layer (type)                 Output Shape              Param #   
=================================================================
conv1d_19 (Conv1D)           (None, 31, 10)            145930    
_________________________________________________________________
max_pooling1d_19 (MaxPooling (None, 31, 10)            0         
_________________________________________________________________
dropout_19 (Dropout)         (None, 31, 10)            0         
_________________________________________________________________
conv1d_20 (Conv1D)           (None, 31, 28)            3108      
_________________________________________________________________
max_pooling1d_20 (MaxPooling (None, 31, 28)            0         
_________________________________________________________________
dropout_20 (Dropout)         (None, 31, 28)            0         
_________________________________________________________________
conv1d_21 (Conv1D)           (None, 31, 14)            4718      
_________________________________________________________________
max_pooling1d_21 (MaxPooling (None, 15, 14)            0         
_________________________________________________________________
dropout_21 (Dropout)         (None, 15, 14)            0         
_________________________________________________________________
flatten_7 (Flatten)          (None, 210)               0         
_________________________________________________________________
dense_13 (Dense)             (None, 32)                6752      
_________________________________________________________________
dense_14 (Dense)             (None, 3)                 99        
=================================================================
Total params: 160,607
Trainable params: 160,607
Non-trainable params: 0
_________________________________________________________________
{'l1_nodes': 10, 'l1_filter': 19, 'l1_dropout': 0.21198256766949236, 'l1_maxpool': 1, 'l2_nodes': 28, 'l2_filter': 11, 'l2_dropout': 0.6527818268159002, 'l2_maxpool': 1, 'l3_nodes': 14, 'l3_filter': 12, 'l3_dropout': 0.28779059107611143, 'l3_maxpool': 2, 'dense_nodes': 32}
…
subject 12, avg accuracy 0.4473684218369033
subject 13, avg accuracy 0.43072546254605015
subject 14, avg accuracy 0.3608636987997613
subject 15, avg accuracy 0.5076576577382045
subject 16, avg accuracy 0.4218623505027992
subject 17, avg accuracy 0.5210526309515301
subject 18, avg accuracy 0.6162162184715271
subject 19, avg accuracy 0.4201201207644947
avg accuracy over all subjects 0.4334242822365819
_________________________________________________________________
Layer (type)                 Output Shape              Param #   
=================================================================
conv1d_22 (Conv1D)           (None, 31, 25)            192025    
_________________________________________________________________
max_pooling1d_22 (MaxPooling (None, 15, 25)            0         
_________________________________________________________________
dropout_22 (Dropout)         (None, 15, 25)            0         
_________________________________________________________________
conv1d_23 (Conv1D)           (None, 15, 13)            4563      
_________________________________________________________________
max_pooling1d_23 (MaxPooling (None, 15, 13)            0         
_________________________________________________________________
dropout_23 (Dropout)         (None, 15, 13)            0         
_________________________________________________________________
conv1d_24 (Conv1D)           (None, 15, 14)            1470      
_________________________________________________________________
max_pooling1d_24 (MaxPooling (None, 15, 14)            0         
_________________________________________________________________
dropout_24 (Dropout)         (None, 15, 14)            0         
_________________________________________________________________
flatten_8 (Flatten)          (None, 210)               0         
_________________________________________________________________
dense_15 (Dense)             (None, 34)                7174      
_________________________________________________________________
dense_16 (Dense)             (None, 3)                 105       
=================================================================
Total params: 205,337
Trainable params: 205,337
Non-trainable params: 0
_________________________________________________________________
{'l1_nodes': 25, 'l1_filter': 10, 'l1_dropout': 0.4388351147167131, 'l1_maxpool': 2, 'l2_nodes': 13, 'l2_filter': 14, 'l2_dropout': 0.015129859820978725, 'l2_maxpool': 1, 'l3_nodes': 14, 'l3_filter': 8, 'l3_dropout': 0.6133308858931326, 'l3_maxpool': 1, 'dense_nodes': 34}
…
subject 12, avg accuracy 0.3631578952074051
subject 13, avg accuracy 0.4150782380343162
subject 14, avg accuracy 0.4600539818868624
subject 15, avg accuracy 0.5686186186991655
subject 16, avg accuracy 0.6191632928233719
subject 17, avg accuracy 0.6263157885325582
subject 18, avg accuracy 0.5837837852336265
subject 19, avg accuracy 0.4591591593202528
avg accuracy over all subjects 0.5033459580725005
_________________________________________________________________
Layer (type)                 Output Shape              Param #   
=================================================================
conv1d_25 (Conv1D)           (None, 31, 37)            198949    
_________________________________________________________________
max_pooling1d_25 (MaxPooling (None, 10, 37)            0         
_________________________________________________________________
dropout_25 (Dropout)         (None, 10, 37)            0         
_________________________________________________________________
conv1d_26 (Conv1D)           (None, 10, 29)            9686      
_________________________________________________________________
max_pooling1d_26 (MaxPooling (None, 5, 29)             0         
_________________________________________________________________
dropout_26 (Dropout)         (None, 5, 29)             0         
_________________________________________________________________
conv1d_27 (Conv1D)           (None, 5, 12)             1752      
_________________________________________________________________
max_pooling1d_27 (MaxPooling (None, 5, 12)             0         
_________________________________________________________________
dropout_27 (Dropout)         (None, 5, 12)             0         
_________________________________________________________________
flatten_9 (Flatten)          (None, 60)                0         
_________________________________________________________________
dense_17 (Dense)             (None, 11)                671       
_________________________________________________________________
dense_18 (Dense)             (None, 3)                 36        
=================================================================
Total params: 211,094
Trainable params: 211,094
Non-trainable params: 0
_________________________________________________________________
{'l1_nodes': 37, 'l1_filter': 7, 'l1_dropout': 0.7323332145804636, 'l1_maxpool': 3, 'l2_nodes': 29, 'l2_filter': 9, 'l2_dropout': 0.09733497375175285, 'l2_maxpool': 2, 'l3_nodes': 12, 'l3_filter': 5, 'l3_dropout': 0.4181627866395342, 'l3_maxpool': 1, 'dense_nodes': 11}
…
subject 12, avg accuracy 0.36315789536425946
subject 13, avg accuracy 0.3719772415047519
subject 14, avg accuracy 0.3506072887002054
subject 15, avg accuracy 0.574624625268999
subject 16, avg accuracy 0.4016194339746084
subject 17, avg accuracy 0.5157894738410649
subject 18, avg accuracy 0.5729729753893775
subject 19, avg accuracy 0.44189189205298557
avg accuracy over all subjects 0.43517410875059576
_________________________________________________________________
Layer (type)                 Output Shape              Param #   
=================================================================
conv1d_28 (Conv1D)           (None, 31, 20)            445460    
_________________________________________________________________
max_pooling1d_28 (MaxPooling (None, 31, 20)            0         
_________________________________________________________________
dropout_28 (Dropout)         (None, 31, 20)            0         
_________________________________________________________________
conv1d_29 (Conv1D)           (None, 31, 26)            9906      
_________________________________________________________________
max_pooling1d_29 (MaxPooling (None, 15, 26)            0         
_________________________________________________________________
dropout_29 (Dropout)         (None, 15, 26)            0         
_________________________________________________________________
conv1d_30 (Conv1D)           (None, 15, 6)             630       
_________________________________________________________________
max_pooling1d_30 (MaxPooling (None, 15, 6)             0         
_________________________________________________________________
dropout_30 (Dropout)         (None, 15, 6)             0         
_________________________________________________________________
flatten_10 (Flatten)         (None, 90)                0         
_________________________________________________________________
dense_19 (Dense)             (None, 20)                1820      
_________________________________________________________________
dense_20 (Dense)             (None, 3)                 63        
=================================================================
Total params: 457,879
Trainable params: 457,879
Non-trainable params: 0
_________________________________________________________________
{'l1_nodes': 20, 'l1_filter': 29, 'l1_dropout': 0.19121846931384623, 'l1_maxpool': 1, 'l2_nodes': 26, 'l2_filter': 19, 'l2_dropout': 0.2594347785325565, 'l2_maxpool': 2, 'l3_nodes': 6, 'l3_filter': 4, 'l3_dropout': 0.034317802841961925, 'l3_maxpool': 1, 'dense_nodes': 20}
…
subject 12, avg accuracy 0.4947368427326804
subject 13, avg accuracy 0.626884779757999
subject 14, avg accuracy 0.48677462997385046
subject 15, avg accuracy 0.5024024024829492
subject 16, avg accuracy 0.5987854249322945
subject 17, avg accuracy 0.6052631588358628
subject 18, avg accuracy 0.6756756777698929
subject 19, avg accuracy 0.49189189205298556
avg accuracy over all subjects 0.5435531019669019
_________________________________________________________________
Layer (type)                 Output Shape              Param #   
=================================================================
conv1d_31 (Conv1D)           (None, 31, 16)            294928    
_________________________________________________________________
max_pooling1d_31 (MaxPooling (None, 15, 16)            0         
_________________________________________________________________
dropout_31 (Dropout)         (None, 15, 16)            0         
_________________________________________________________________
conv1d_32 (Conv1D)           (None, 15, 21)            3045      
_________________________________________________________________
max_pooling1d_32 (MaxPooling (None, 15, 21)            0         
_________________________________________________________________
dropout_32 (Dropout)         (None, 15, 21)            0         
_________________________________________________________________
conv1d_33 (Conv1D)           (None, 15, 10)            2740      
_________________________________________________________________
max_pooling1d_33 (MaxPooling (None, 7, 10)             0         
_________________________________________________________________
dropout_33 (Dropout)         (None, 7, 10)             0         
_________________________________________________________________
flatten_11 (Flatten)         (None, 70)                0         
_________________________________________________________________
dense_21 (Dense)             (None, 42)                2982      
_________________________________________________________________
dense_22 (Dense)             (None, 3)                 129       
=================================================================
Total params: 303,824
Trainable params: 303,824
Non-trainable params: 0
_________________________________________________________________
{'l1_nodes': 16, 'l1_filter': 24, 'l1_dropout': 0.108605044047963, 'l1_maxpool': 2, 'l2_nodes': 21, 'l2_filter': 9, 'l2_dropout': 0.5452198951717978, 'l2_maxpool': 1, 'l3_nodes': 10, 'l3_filter': 13, 'l3_dropout': 0.7081417390544981, 'l3_maxpool': 2, 'dense_nodes': 42}
…
subject 12, avg accuracy 0.3631578956779681
subject 13, avg accuracy 0.3833570425150913
subject 14, avg accuracy 0.46585695147514344
subject 15, avg accuracy 0.47522522586959975
subject 16, avg accuracy 0.32334683024690214
subject 17, avg accuracy 0.5947368414778458
subject 18, avg accuracy 0.47027027131737886
subject 19, avg accuracy 0.3753753754559222
avg accuracy over all subjects 0.4175938431357452
_________________________________________________________________
Layer (type)                 Output Shape              Param #   
=================================================================
conv1d_34 (Conv1D)           (None, 31, 37)            795685    
_________________________________________________________________
max_pooling1d_34 (MaxPooling (None, 10, 37)            0         
_________________________________________________________________
dropout_34 (Dropout)         (None, 10, 37)            0         
_________________________________________________________________
conv1d_35 (Conv1D)           (None, 10, 22)            12232     
_________________________________________________________________
max_pooling1d_35 (MaxPooling (None, 10, 22)            0         
_________________________________________________________________
dropout_35 (Dropout)         (None, 10, 22)            0         
_________________________________________________________________
conv1d_36 (Conv1D)           (None, 10, 5)             225       
_________________________________________________________________
max_pooling1d_36 (MaxPooling (None, 10, 5)             0         
_________________________________________________________________
dropout_36 (Dropout)         (None, 10, 5)             0         
_________________________________________________________________
flatten_12 (Flatten)         (None, 50)                0         
_________________________________________________________________
dense_23 (Dense)             (None, 13)                663       
_________________________________________________________________
dense_24 (Dense)             (None, 3)                 42        
=================================================================
Total params: 808,847
Trainable params: 808,847
Non-trainable params: 0
_________________________________________________________________
{'l1_nodes': 37, 'l1_filter': 28, 'l1_dropout': 0.692847833624689, 'l1_maxpool': 3, 'l2_nodes': 22, 'l2_filter': 15, 'l2_dropout': 0.5699022399506326, 'l2_maxpool': 1, 'l3_nodes': 5, 'l3_filter': 2, 'l3_dropout': 0.25302011952444203, 'l3_maxpool': 1, 'dense_nodes': 13}
…
subject 12, avg accuracy 0.3368421049494493
subject 13, avg accuracy 0.409530584410278
subject 14, avg accuracy 0.3932523637084987
subject 15, avg accuracy 0.5914414415219883
subject 16, avg accuracy 0.3964912288464033
subject 17, avg accuracy 0.5631578947368421
subject 18, avg accuracy 0.49729729914987414
subject 19, avg accuracy 0.39774774774774774
avg accuracy over all subjects 0.4313133994481426
_________________________________________________________________
Layer (type)                 Output Shape              Param #   
=================================================================
conv1d_37 (Conv1D)           (None, 31, 35)            188195    
_________________________________________________________________
max_pooling1d_37 (MaxPooling (None, 31, 35)            0         
_________________________________________________________________
dropout_37 (Dropout)         (None, 31, 35)            0         
_________________________________________________________________
conv1d_38 (Conv1D)           (None, 31, 24)            8424      
_________________________________________________________________
max_pooling1d_38 (MaxPooling (None, 15, 24)            0         
_________________________________________________________________
dropout_38 (Dropout)         (None, 15, 24)            0         
_________________________________________________________________
conv1d_39 (Conv1D)           (None, 15, 1)             265       
_________________________________________________________________
max_pooling1d_39 (MaxPooling (None, 7, 1)              0         
_________________________________________________________________
dropout_39 (Dropout)         (None, 7, 1)              0         
_________________________________________________________________
flatten_13 (Flatten)         (None, 7)                 0         
_________________________________________________________________
dense_25 (Dense)             (None, 20)                160       
_________________________________________________________________
dense_26 (Dense)             (None, 3)                 63        
=================================================================
Total params: 197,107
Trainable params: 197,107
Non-trainable params: 0
_________________________________________________________________
{'l1_nodes': 35, 'l1_filter': 7, 'l1_dropout': 0.2461684251131603, 'l1_maxpool': 1, 'l2_nodes': 24, 'l2_filter': 10, 'l2_dropout': 0.20796783188260876, 'l2_maxpool': 2, 'l3_nodes': 1, 'l3_filter': 11, 'l3_dropout': 0.4340328477937436, 'l3_maxpool': 2, 'dense_nodes': 20}
…
subject 12, avg accuracy 0.3736842103694614
subject 13, avg accuracy 0.5578947381096577
subject 14, avg accuracy 0.4925775998677963
subject 15, avg accuracy 0.5415915917526852
subject 16, avg accuracy 0.5361673435942846
subject 17, avg accuracy 0.5842105260020809
subject 18, avg accuracy 0.5621621636120049
subject 19, avg accuracy 0.4259759761370695
avg accuracy over all subjects 0.4914890269435145
_________________________________________________________________
Layer (type)                 Output Shape              Param #   
=================================================================
conv1d_40 (Conv1D)           (None, 31, 35)            295715    
_________________________________________________________________
max_pooling1d_40 (MaxPooling (None, 31, 35)            0         
_________________________________________________________________
dropout_40 (Dropout)         (None, 31, 35)            0         
_________________________________________________________________
conv1d_41 (Conv1D)           (None, 31, 11)            3091      
_________________________________________________________________
max_pooling1d_41 (MaxPooling (None, 15, 11)            0         
_________________________________________________________________
dropout_41 (Dropout)         (None, 15, 11)            0         
_________________________________________________________________
conv1d_42 (Conv1D)           (None, 15, 13)            1443      
_________________________________________________________________
max_pooling1d_42 (MaxPooling (None, 15, 13)            0         
_________________________________________________________________
dropout_42 (Dropout)         (None, 15, 13)            0         
_________________________________________________________________
flatten_14 (Flatten)         (None, 195)               0         
_________________________________________________________________
dense_27 (Dense)             (None, 27)                5292      
_________________________________________________________________
dense_28 (Dense)             (None, 3)                 84        
=================================================================
Total params: 305,625
Trainable params: 305,625
Non-trainable params: 0
_________________________________________________________________
{'l1_nodes': 35, 'l1_filter': 11, 'l1_dropout': 0.2611210413546294, 'l1_maxpool': 1, 'l2_nodes': 11, 'l2_filter': 8, 'l2_dropout': 0.6911192805429198, 'l2_maxpool': 2, 'l3_nodes': 13, 'l3_filter': 10, 'l3_dropout': 0.4640602306126901, 'l3_maxpool': 1, 'dense_nodes': 27}
…
subject 12, avg accuracy 0.3263157888462669
subject 13, avg accuracy 0.5049786647641303
subject 14, avg accuracy 0.4029689613302388
subject 15, avg accuracy 0.4418918919724387
subject 16, avg accuracy 0.3593792189752203
subject 17, avg accuracy 0.5631578941094249
subject 18, avg accuracy 0.5135135147217158
subject 19, avg accuracy 0.39219219227273905
avg accuracy over all subjects 0.4136608276579532
_________________________________________________________________
Layer (type)                 Output Shape              Param #   
=================================================================
conv1d_43 (Conv1D)           (None, 31, 18)            124434    
_________________________________________________________________
max_pooling1d_43 (MaxPooling (None, 15, 18)            0         
_________________________________________________________________
dropout_43 (Dropout)         (None, 15, 18)            0         
_________________________________________________________________
conv1d_44 (Conv1D)           (None, 15, 29)            6293      
_________________________________________________________________
max_pooling1d_44 (MaxPooling (None, 7, 29)             0         
_________________________________________________________________
dropout_44 (Dropout)         (None, 7, 29)             0         
_________________________________________________________________
conv1d_45 (Conv1D)           (None, 7, 12)             4884      
_________________________________________________________________
max_pooling1d_45 (MaxPooling (None, 3, 12)             0         
_________________________________________________________________
dropout_45 (Dropout)         (None, 3, 12)             0         
_________________________________________________________________
flatten_15 (Flatten)         (None, 36)                0         
_________________________________________________________________
dense_29 (Dense)             (None, 7)                 259       
_________________________________________________________________
dense_30 (Dense)             (None, 3)                 24        
=================================================================
Total params: 135,894
Trainable params: 135,894
Non-trainable params: 0
_________________________________________________________________
{'l1_nodes': 18, 'l1_filter': 9, 'l1_dropout': 0.23592268361005714, 'l1_maxpool': 2, 'l2_nodes': 29, 'l2_filter': 12, 'l2_dropout': 0.7085966965114244, 'l2_maxpool': 2, 'l3_nodes': 12, 'l3_filter': 14, 'l3_dropout': 0.384989947748103, 'l3_maxpool': 2, 'dense_nodes': 7}
…
subject 12, avg accuracy 0.45263158020220307
subject 13, avg accuracy 0.45135135348796157
subject 14, avg accuracy 0.42995951448374914
subject 15, avg accuracy 0.6130630637074376
subject 16, avg accuracy 0.49379217444482926
subject 17, avg accuracy 0.6368421051063036
subject 18, avg accuracy 0.6216216238769324
subject 19, avg accuracy 0.3929429431040366
avg accuracy over all subjects 0.4749616023028922
_________________________________________________________________
Layer (type)                 Output Shape              Param #   
=================================================================
conv1d_46 (Conv1D)           (None, 31, 34)            208930    
_________________________________________________________________
max_pooling1d_46 (MaxPooling (None, 15, 34)            0         
_________________________________________________________________
dropout_46 (Dropout)         (None, 15, 34)            0         
_________________________________________________________________
conv1d_47 (Conv1D)           (None, 15, 25)            5975      
_________________________________________________________________
max_pooling1d_47 (MaxPooling (None, 15, 25)            0         
_________________________________________________________________
dropout_47 (Dropout)         (None, 15, 25)            0         
_________________________________________________________________
conv1d_48 (Conv1D)           (None, 15, 3)             228       
_________________________________________________________________
max_pooling1d_48 (MaxPooling (None, 7, 3)              0         
_________________________________________________________________
dropout_48 (Dropout)         (None, 7, 3)              0         
_________________________________________________________________
flatten_16 (Flatten)         (None, 21)                0         
_________________________________________________________________
dense_31 (Dense)             (None, 23)                506       
_________________________________________________________________
dense_32 (Dense)             (None, 3)                 72        
=================================================================
Total params: 215,711
Trainable params: 215,711
Non-trainable params: 0
_________________________________________________________________
{'l1_nodes': 34, 'l1_filter': 8, 'l1_dropout': 0.09732210544947559, 'l1_maxpool': 2, 'l2_nodes': 25, 'l2_filter': 7, 'l2_dropout': 0.3934876720562893, 'l2_maxpool': 1, 'l3_nodes': 3, 'l3_filter': 3, 'l3_dropout': 0.612642195232421, 'l3_maxpool': 2, 'dense_nodes': 23}
…
subject 12, avg accuracy 0.3263157907285189
subject 13, avg accuracy 0.40341394143881193
subject 14, avg accuracy 0.4246963561144274
subject 15, avg accuracy 0.37567567575622246
subject 16, avg accuracy 0.35411605991815265
subject 17, avg accuracy 0.5684210520041616
subject 18, avg accuracy 0.48108108365857927
subject 19, avg accuracy 0.3816816817622285
avg accuracy over all subjects 0.4091964441747975
_________________________________________________________________
Layer (type)                 Output Shape              Param #   
=================================================================
conv1d_49 (Conv1D)           (None, 31, 18)            207378    
_________________________________________________________________
max_pooling1d_49 (MaxPooling (None, 10, 18)            0         
_________________________________________________________________
dropout_49 (Dropout)         (None, 10, 18)            0         
_________________________________________________________________
conv1d_50 (Conv1D)           (None, 10, 10)            3250      
_________________________________________________________________
max_pooling1d_50 (MaxPooling (None, 5, 10)             0         
_________________________________________________________________
dropout_50 (Dropout)         (None, 5, 10)             0         
_________________________________________________________________
conv1d_51 (Conv1D)           (None, 5, 1)              81        
_________________________________________________________________
max_pooling1d_51 (MaxPooling (None, 5, 1)              0         
_________________________________________________________________
dropout_51 (Dropout)         (None, 5, 1)              0         
_________________________________________________________________
flatten_17 (Flatten)         (None, 5)                 0         
_________________________________________________________________
dense_33 (Dense)             (None, 35)                210       
_________________________________________________________________
dense_34 (Dense)             (None, 3)                 108       
=================================================================
Total params: 211,027
Trainable params: 211,027
Non-trainable params: 0
_________________________________________________________________
{'l1_nodes': 18, 'l1_filter': 15, 'l1_dropout': 0.2741590464018399, 'l1_maxpool': 3, 'l2_nodes': 10, 'l2_filter': 18, 'l2_dropout': 0.2862083328287375, 'l2_maxpool': 2, 'l3_nodes': 1, 'l3_filter': 8, 'l3_dropout': 0.6612290123570506, 'l3_maxpool': 1, 'dense_nodes': 35}
…
subject 12, avg accuracy 0.46842105357270486
subject 13, avg accuracy 0.4955903278136491
subject 14, avg accuracy 0.47058029844854204
subject 15, avg accuracy 0.5414414415219884
subject 16, avg accuracy 0.5206477752903051
subject 17, avg accuracy 0.6473684229348835
subject 18, avg accuracy 0.6162162176660589
subject 19, avg accuracy 0.5475975976781443
avg accuracy over all subjects 0.4924775664224984
_________________________________________________________________
Layer (type)                 Output Shape              Param #   
=================================================================
conv1d_52 (Conv1D)           (None, 31, 14)            139790    
_________________________________________________________________
max_pooling1d_52 (MaxPooling (None, 15, 14)            0         
_________________________________________________________________
dropout_52 (Dropout)         (None, 15, 14)            0         
_________________________________________________________________
conv1d_53 (Conv1D)           (None, 15, 21)            2961      
_________________________________________________________________
max_pooling1d_53 (MaxPooling (None, 15, 21)            0         
_________________________________________________________________
dropout_53 (Dropout)         (None, 15, 21)            0         
_________________________________________________________________
conv1d_54 (Conv1D)           (None, 15, 12)            2280      
_________________________________________________________________
max_pooling1d_54 (MaxPooling (None, 7, 12)             0         
_________________________________________________________________
dropout_54 (Dropout)         (None, 7, 12)             0         
_________________________________________________________________
flatten_18 (Flatten)         (None, 84)                0         
_________________________________________________________________
dense_35 (Dense)             (None, 45)                3825      
_________________________________________________________________
dense_36 (Dense)             (None, 3)                 138       
=================================================================
Total params: 148,994
Trainable params: 148,994
Non-trainable params: 0
_________________________________________________________________
{'l1_nodes': 14, 'l1_filter': 13, 'l1_dropout': 0.45692730564166073, 'l1_maxpool': 2, 'l2_nodes': 21, 'l2_filter': 10, 'l2_dropout': 0.5431035604271637, 'l2_maxpool': 1, 'l3_nodes': 12, 'l3_filter': 9, 'l3_dropout': 0.5502300264622735, 'l3_maxpool': 2, 'dense_nodes': 45}
…
subject 12, avg accuracy 0.3473684221506119
subject 13, avg accuracy 0.4311522064219159
subject 14, avg accuracy 0.41336032513745236
subject 15, avg accuracy 0.502402403046777
subject 16, avg accuracy 0.44291498036841465
subject 17, avg accuracy 0.5368421055768666
subject 18, avg accuracy 0.5513513540899432
subject 19, avg accuracy 0.4798798800409735
avg accuracy over all subjects 0.44563075326464063
_________________________________________________________________
Layer (type)                 Output Shape              Param #   
=================================================================
conv1d_55 (Conv1D)           (None, 31, 32)            172064    
_________________________________________________________________
max_pooling1d_55 (MaxPooling (None, 15, 32)            0         
_________________________________________________________________
dropout_55 (Dropout)         (None, 15, 32)            0         
_________________________________________________________________
conv1d_56 (Conv1D)           (None, 15, 21)            6741      
_________________________________________________________________
max_pooling1d_56 (MaxPooling (None, 15, 21)            0         
_________________________________________________________________
dropout_56 (Dropout)         (None, 15, 21)            0         
_________________________________________________________________
conv1d_57 (Conv1D)           (None, 15, 14)            3836      
_________________________________________________________________
max_pooling1d_57 (MaxPooling (None, 7, 14)             0         
_________________________________________________________________
dropout_57 (Dropout)         (None, 7, 14)             0         
_________________________________________________________________
flatten_19 (Flatten)         (None, 98)                0         
_________________________________________________________________
dense_37 (Dense)             (None, 40)                3960      
_________________________________________________________________
dense_38 (Dense)             (None, 3)                 123       
=================================================================
Total params: 186,724
Trainable params: 186,724
Non-trainable params: 0
_________________________________________________________________
{'l1_nodes': 32, 'l1_filter': 7, 'l1_dropout': 0.4491662343667003, 'l1_maxpool': 2, 'l2_nodes': 21, 'l2_filter': 10, 'l2_dropout': 0.10044804403603522, 'l2_maxpool': 1, 'l3_nodes': 14, 'l3_filter': 13, 'l3_dropout': 0.46762606142280594, 'l3_maxpool': 2, 'dense_nodes': 40}
…
subject 12, avg accuracy 0.44210526409902073
subject 13, avg accuracy 0.4625889059574811
subject 14, avg accuracy 0.455735494061681
subject 15, avg accuracy 0.5465465467076402
subject 16, avg accuracy 0.5468286102801038
subject 17, avg accuracy 0.6842105260020809
subject 18, avg accuracy 0.7081081092357636
subject 19, avg accuracy 0.4536036036841504
avg accuracy over all subjects 0.5190161492834964
_________________________________________________________________
Layer (type)                 Output Shape              Param #   
=================================================================
conv1d_58 (Conv1D)           (None, 31, 16)            208912    
_________________________________________________________________
max_pooling1d_58 (MaxPooling (None, 10, 16)            0         
_________________________________________________________________
dropout_58 (Dropout)         (None, 10, 16)            0         
_________________________________________________________________
conv1d_59 (Conv1D)           (None, 10, 27)            1755      
_________________________________________________________________
max_pooling1d_59 (MaxPooling (None, 5, 27)             0         
_________________________________________________________________
dropout_59 (Dropout)         (None, 5, 27)             0         
_________________________________________________________________
conv1d_60 (Conv1D)           (None, 5, 13)             4927      
_________________________________________________________________
max_pooling1d_60 (MaxPooling (None, 5, 13)             0         
_________________________________________________________________
dropout_60 (Dropout)         (None, 5, 13)             0         
_________________________________________________________________
flatten_20 (Flatten)         (None, 65)                0         
_________________________________________________________________
dense_39 (Dense)             (None, 11)                726       
_________________________________________________________________
dense_40 (Dense)             (None, 3)                 36        
=================================================================
Total params: 216,356
Trainable params: 216,356
Non-trainable params: 0
_________________________________________________________________
{'l1_nodes': 16, 'l1_filter': 17, 'l1_dropout': 0.6398433014843268, 'l1_maxpool': 3, 'l2_nodes': 27, 'l2_filter': 4, 'l2_dropout': 0.03738048107625783, 'l2_maxpool': 2, 'l3_nodes': 13, 'l3_filter': 14, 'l3_dropout': 0.6050992718274684, 'l3_maxpool': 1, 'dense_nodes': 11}
…
subject 12, avg accuracy 0.33684210573372086
subject 13, avg accuracy 0.4045519208161964
subject 14, avg accuracy 0.356275304271142
subject 15, avg accuracy 0.4028528530139465
subject 16, avg accuracy 0.3905533067972554
subject 17, avg accuracy 0.6473684201115055
subject 18, avg accuracy 0.5081081097995913
subject 19, avg accuracy 0.32072072088181436
avg accuracy over all subjects 0.4002856776599921
_________________________________________________________________
Layer (type)                 Output Shape              Param #   
=================================================================
conv1d_61 (Conv1D)           (None, 31, 29)            111389    
_________________________________________________________________
max_pooling1d_61 (MaxPooling (None, 10, 29)            0         
_________________________________________________________________
dropout_61 (Dropout)         (None, 10, 29)            0         
_________________________________________________________________
conv1d_62 (Conv1D)           (None, 10, 8)             2096      
_________________________________________________________________
max_pooling1d_62 (MaxPooling (None, 10, 8)             0         
_________________________________________________________________
dropout_62 (Dropout)         (None, 10, 8)             0         
_________________________________________________________________
conv1d_63 (Conv1D)           (None, 10, 13)            1261      
_________________________________________________________________
max_pooling1d_63 (MaxPooling (None, 5, 13)             0         
_________________________________________________________________
dropout_63 (Dropout)         (None, 5, 13)             0         
_________________________________________________________________
flatten_21 (Flatten)         (None, 65)                0         
_________________________________________________________________
dense_41 (Dense)             (None, 16)                1056      
_________________________________________________________________
dense_42 (Dense)             (None, 3)                 51        
=================================================================
Total params: 115,853
Trainable params: 115,853
Non-trainable params: 0
_________________________________________________________________
{'l1_nodes': 29, 'l1_filter': 5, 'l1_dropout': 0.5106670131363359, 'l1_maxpool': 3, 'l2_nodes': 8, 'l2_filter': 9, 'l2_dropout': 0.603991265096091, 'l2_maxpool': 1, 'l3_nodes': 13, 'l3_filter': 12, 'l3_dropout': 0.1377773016142027, 'l3_maxpool': 2, 'dense_nodes': 16}
…
subject 12, avg accuracy 0.4473684223074662
subject 13, avg accuracy 0.49857752521550164
subject 14, avg accuracy 0.5284750365374381
subject 15, avg accuracy 0.6073573574379042
subject 16, avg accuracy 0.4892037800529547
subject 17, avg accuracy 0.6368421049494492
subject 18, avg accuracy 0.5405405423931173
subject 19, avg accuracy 0.502402403046777
avg accuracy over all subjects 0.5036611520196312
_________________________________________________________________
Layer (type)                 Output Shape              Param #   
=================================================================
conv1d_64 (Conv1D)           (None, 31, 18)            304146    
_________________________________________________________________
max_pooling1d_64 (MaxPooling (None, 31, 18)            0         
_________________________________________________________________
dropout_64 (Dropout)         (None, 31, 18)            0         
_________________________________________________________________
conv1d_65 (Conv1D)           (None, 31, 7)             1519      
_________________________________________________________________
max_pooling1d_65 (MaxPooling (None, 31, 7)             0         
_________________________________________________________________
dropout_65 (Dropout)         (None, 31, 7)             0         
_________________________________________________________________
conv1d_66 (Conv1D)           (None, 31, 3)             234       
_________________________________________________________________
max_pooling1d_66 (MaxPooling (None, 31, 3)             0         
_________________________________________________________________
dropout_66 (Dropout)         (None, 31, 3)             0         
_________________________________________________________________
flatten_22 (Flatten)         (None, 93)                0         
_________________________________________________________________
dense_43 (Dense)             (None, 32)                3008      
_________________________________________________________________
dense_44 (Dense)             (None, 3)                 99        
=================================================================
Total params: 309,006
Trainable params: 309,006
Non-trainable params: 0
_________________________________________________________________
{'l1_nodes': 18, 'l1_filter': 22, 'l1_dropout': 0.5764665598423653, 'l1_maxpool': 1, 'l2_nodes': 7, 'l2_filter': 12, 'l2_dropout': 0.22023338299317818, 'l2_maxpool': 1, 'l3_nodes': 3, 'l3_filter': 11, 'l3_dropout': 0.11554036808140164, 'l3_maxpool': 1, 'dense_nodes': 32}
…
subject 12, avg accuracy 0.552631579261077
subject 13, avg accuracy 0.5374110954754043
subject 14, avg accuracy 0.5439946003127517
subject 15, avg accuracy 0.5803303309747049
subject 16, avg accuracy 0.6051282062060759
subject 17, avg accuracy 0.6000000006274173
subject 18, avg accuracy 0.6378378405764296
subject 19, avg accuracy 0.5079579581190516
avg accuracy over all subjects 0.5456869158691404
_________________________________________________________________
Layer (type)                 Output Shape              Param #   
=================================================================
conv1d_67 (Conv1D)           (None, 31, 15)            172815    
_________________________________________________________________
max_pooling1d_67 (MaxPooling (None, 31, 15)            0         
_________________________________________________________________
dropout_67 (Dropout)         (None, 31, 15)            0         
_________________________________________________________________
conv1d_68 (Conv1D)           (None, 31, 16)            1936      
_________________________________________________________________
max_pooling1d_68 (MaxPooling (None, 31, 16)            0         
_________________________________________________________________
dropout_68 (Dropout)         (None, 31, 16)            0         
_________________________________________________________________
conv1d_69 (Conv1D)           (None, 31, 13)            2717      
_________________________________________________________________
max_pooling1d_69 (MaxPooling (None, 15, 13)            0         
_________________________________________________________________
dropout_69 (Dropout)         (None, 15, 13)            0         
_________________________________________________________________
flatten_23 (Flatten)         (None, 195)               0         
_________________________________________________________________
dense_45 (Dense)             (None, 17)                3332      
_________________________________________________________________
dense_46 (Dense)             (None, 3)                 54        
=================================================================
Total params: 180,854
Trainable params: 180,854
Non-trainable params: 0
_________________________________________________________________
{'l1_nodes': 15, 'l1_filter': 15, 'l1_dropout': 0.14328763400148786, 'l1_maxpool': 1, 'l2_nodes': 16, 'l2_filter': 8, 'l2_dropout': 0.4849598088645998, 'l2_maxpool': 1, 'l3_nodes': 13, 'l3_filter': 13, 'l3_dropout': 0.6708162852579423, 'l3_maxpool': 2, 'dense_nodes': 17}
…
subject 12, avg accuracy 0.36842105435697653
subject 13, avg accuracy 0.3726884792149491
subject 14, avg accuracy 0.40904183739270916
subject 15, avg accuracy 0.49714714722769393
subject 16, avg accuracy 0.4064777337185606
subject 17, avg accuracy 0.510526316887454
subject 18, avg accuracy 0.545945947234695
subject 19, avg accuracy 0.39714714722769395
avg accuracy over all subjects 0.432263776337913
_________________________________________________________________
Layer (type)                 Output Shape              Param #   
=================================================================
conv1d_70 (Conv1D)           (None, 31, 27)            124443    
_________________________________________________________________
max_pooling1d_70 (MaxPooling (None, 10, 27)            0         
_________________________________________________________________
dropout_70 (Dropout)         (None, 10, 27)            0         
_________________________________________________________________
conv1d_71 (Conv1D)           (None, 10, 29)            10208     
_________________________________________________________________
max_pooling1d_71 (MaxPooling (None, 5, 29)             0         
_________________________________________________________________
dropout_71 (Dropout)         (None, 5, 29)             0         
_________________________________________________________________
conv1d_72 (Conv1D)           (None, 5, 6)              1224      
_________________________________________________________________
max_pooling1d_72 (MaxPooling (None, 2, 6)              0         
_________________________________________________________________
dropout_72 (Dropout)         (None, 2, 6)              0         
_________________________________________________________________
flatten_24 (Flatten)         (None, 12)                0         
_________________________________________________________________
dense_47 (Dense)             (None, 6)                 78        
_________________________________________________________________
dense_48 (Dense)             (None, 3)                 21        
=================================================================
Total params: 135,974
Trainable params: 135,974
Non-trainable params: 0
_________________________________________________________________
{'l1_nodes': 27, 'l1_filter': 6, 'l1_dropout': 0.52763176076037, 'l1_maxpool': 3, 'l2_nodes': 29, 'l2_filter': 13, 'l2_dropout': 0.006101128941569389, 'l2_maxpool': 2, 'l3_nodes': 6, 'l3_filter': 7, 'l3_dropout': 0.14747933253548096, 'l3_maxpool': 2, 'dense_nodes': 6}
…
subject 12, avg accuracy 0.4684210537295592
subject 13, avg accuracy 0.600853486013616
subject 14, avg accuracy 0.5811066133049335
subject 15, avg accuracy 0.596396397040771
subject 16, avg accuracy 0.7967611335871513
subject 17, avg accuracy 0.6263157899442472
subject 18, avg accuracy 0.7405405424736642
subject 19, avg accuracy 0.4642642643448111
avg accuracy over all subjects 0.5903369978865823
_________________________________________________________________
Layer (type)                 Output Shape              Param #   
=================================================================
conv1d_73 (Conv1D)           (None, 31, 36)            276516    
_________________________________________________________________
max_pooling1d_73 (MaxPooling (None, 10, 36)            0         
_________________________________________________________________
dropout_73 (Dropout)         (None, 10, 36)            0         
_________________________________________________________________
conv1d_74 (Conv1D)           (None, 10, 12)            8220      
_________________________________________________________________
max_pooling1d_74 (MaxPooling (None, 5, 12)             0         
_________________________________________________________________
dropout_74 (Dropout)         (None, 5, 12)             0         
_________________________________________________________________
conv1d_75 (Conv1D)           (None, 5, 5)              245       
_________________________________________________________________
max_pooling1d_75 (MaxPooling (None, 2, 5)              0         
_________________________________________________________________
dropout_75 (Dropout)         (None, 2, 5)              0         
_________________________________________________________________
flatten_25 (Flatten)         (None, 10)                0         
_________________________________________________________________
dense_49 (Dense)             (None, 26)                286       
_________________________________________________________________
dense_50 (Dense)             (None, 3)                 81        
=================================================================
Total params: 285,348
Trainable params: 285,348
Non-trainable params: 0
_________________________________________________________________
{'l1_nodes': 36, 'l1_filter': 10, 'l1_dropout': 0.4697040677727329, 'l1_maxpool': 3, 'l2_nodes': 12, 'l2_filter': 19, 'l2_dropout': 0.11556838739046857, 'l2_maxpool': 2, 'l3_nodes': 5, 'l3_filter': 4, 'l3_dropout': 0.030615150775394978, 'l3_maxpool': 2, 'dense_nodes': 26}
…
subject 12, avg accuracy 0.5842105274137698
subject 13, avg accuracy 0.7342816497658937
subject 14, avg accuracy 0.6228070181551894
subject 15, avg accuracy 0.6687687694131433
subject 16, avg accuracy 0.9219972990624175
subject 17, avg accuracy 0.77894736904847
subject 18, avg accuracy 0.7567567586898803
subject 19, avg accuracy 0.5807807808613277
avg accuracy over all subjects 0.6907594173008159
_________________________________________________________________
Layer (type)                 Output Shape              Param #   
=================================================================
conv1d_76 (Conv1D)           (None, 31, 30)            322590    
_________________________________________________________________
max_pooling1d_76 (MaxPooling (None, 15, 30)            0         
_________________________________________________________________
dropout_76 (Dropout)         (None, 15, 30)            0         
_________________________________________________________________
conv1d_77 (Conv1D)           (None, 15, 11)            2651      
_________________________________________________________________
max_pooling1d_77 (MaxPooling (None, 7, 11)             0         
_________________________________________________________________
dropout_77 (Dropout)         (None, 7, 11)             0         
_________________________________________________________________
conv1d_78 (Conv1D)           (None, 7, 10)             1330      
_________________________________________________________________
max_pooling1d_78 (MaxPooling (None, 3, 10)             0         
_________________________________________________________________
dropout_78 (Dropout)         (None, 3, 10)             0         
_________________________________________________________________
flatten_26 (Flatten)         (None, 30)                0         
_________________________________________________________________
dense_51 (Dense)             (None, 9)                 279       
_________________________________________________________________
dense_52 (Dense)             (None, 3)                 30        
=================================================================
Total params: 326,880
Trainable params: 326,880
Non-trainable params: 0
_________________________________________________________________
{'l1_nodes': 30, 'l1_filter': 14, 'l1_dropout': 0.15476672585220094, 'l1_maxpool': 2, 'l2_nodes': 11, 'l2_filter': 8, 'l2_dropout': 0.6619064527157625, 'l2_maxpool': 2, 'l3_nodes': 10, 'l3_filter': 12, 'l3_dropout': 0.39474885231441703, 'l3_maxpool': 2, 'dense_nodes': 9}
…
subject 12, avg accuracy 0.331578947838984
subject 13, avg accuracy 0.4035561891190528
subject 14, avg accuracy 0.35101214660565383
subject 15, avg accuracy 0.4028528529333997
subject 16, avg accuracy 0.41160593846066285
subject 17, avg accuracy 0.5368421057337208
subject 18, avg accuracy 0.5675675693395975
subject 19, avg accuracy 0.47522522538631884
avg accuracy over all subjects 0.42022272032061503
_________________________________________________________________
Layer (type)                 Output Shape              Param #   
=================================================================
conv1d_79 (Conv1D)           (None, 31, 37)            738853    
_________________________________________________________________
max_pooling1d_79 (MaxPooling (None, 31, 37)            0         
_________________________________________________________________
dropout_79 (Dropout)         (None, 31, 37)            0         
_________________________________________________________________
conv1d_80 (Conv1D)           (None, 31, 22)            8162      
_________________________________________________________________
max_pooling1d_80 (MaxPooling (None, 31, 22)            0         
_________________________________________________________________
dropout_80 (Dropout)         (None, 31, 22)            0         
_________________________________________________________________
conv1d_81 (Conv1D)           (None, 31, 14)            2170      
_________________________________________________________________
max_pooling1d_81 (MaxPooling (None, 15, 14)            0         
_________________________________________________________________
dropout_81 (Dropout)         (None, 15, 14)            0         
_________________________________________________________________
flatten_27 (Flatten)         (None, 210)               0         
_________________________________________________________________
dense_53 (Dense)             (None, 23)                4853      
_________________________________________________________________
dense_54 (Dense)             (None, 3)                 72        
=================================================================
Total params: 754,110
Trainable params: 754,110
Non-trainable params: 0
_________________________________________________________________
{'l1_nodes': 37, 'l1_filter': 26, 'l1_dropout': 0.061963458572243585, 'l1_maxpool': 1, 'l2_nodes': 22, 'l2_filter': 10, 'l2_dropout': 0.22592948138038105, 'l2_maxpool': 1, 'l3_nodes': 14, 'l3_filter': 7, 'l3_dropout': 0.6616282410245031, 'l3_maxpool': 2, 'dense_nodes': 23}
…
subject 12, avg accuracy 0.32631579088537316
subject 13, avg accuracy 0.3927453777486535
subject 14, avg accuracy 0.4298245623285471
subject 15, avg accuracy 0.4525525526330994
subject 16, avg accuracy 0.35411606061796425
subject 17, avg accuracy 0.4684210529452876
subject 18, avg accuracy 0.5135135151244499
subject 19, avg accuracy 0.4138138139749074
avg accuracy over all subjects 0.4032597722128896
_________________________________________________________________
Layer (type)                 Output Shape              Param #   
=================================================================
conv1d_82 (Conv1D)           (None, 31, 25)            403225    
_________________________________________________________________
max_pooling1d_82 (MaxPooling (None, 10, 25)            0         
_________________________________________________________________
dropout_82 (Dropout)         (None, 10, 25)            0         
_________________________________________________________________
conv1d_83 (Conv1D)           (None, 10, 24)            5424      
_________________________________________________________________
max_pooling1d_83 (MaxPooling (None, 10, 24)            0         
_________________________________________________________________
dropout_83 (Dropout)         (None, 10, 24)            0         
_________________________________________________________________
conv1d_84 (Conv1D)           (None, 10, 14)            4718      
_________________________________________________________________
max_pooling1d_84 (MaxPooling (None, 10, 14)            0         
_________________________________________________________________
dropout_84 (Dropout)         (None, 10, 14)            0         
_________________________________________________________________
flatten_28 (Flatten)         (None, 140)               0         
_________________________________________________________________
dense_55 (Dense)             (None, 29)                4089      
_________________________________________________________________
dense_56 (Dense)             (None, 3)                 90        
=================================================================
Total params: 417,546
Trainable params: 417,546
Non-trainable params: 0
_________________________________________________________________
{'l1_nodes': 25, 'l1_filter': 21, 'l1_dropout': 0.16144772032385152, 'l1_maxpool': 3, 'l2_nodes': 24, 'l2_filter': 9, 'l2_dropout': 0.3106810065860127, 'l2_maxpool': 1, 'l3_nodes': 14, 'l3_filter': 14, 'l3_dropout': 0.6390227480398023, 'l3_maxpool': 1, 'dense_nodes': 29}
…
subject 12, avg accuracy 0.4000000009411259
subject 13, avg accuracy 0.46856330032029836
subject 14, avg accuracy 0.38758434657304075
subject 15, avg accuracy 0.5635135136746071
subject 16, avg accuracy 0.5315789487519567
subject 17, avg accuracy 0.5894736854653609
subject 18, avg accuracy 0.5783783800698614
subject 19, avg accuracy 0.42042042042042044
avg accuracy over all subjects 0.4676153895861621
_________________________________________________________________
Layer (type)                 Output Shape              Param #   
=================================================================
conv1d_85 (Conv1D)           (None, 31, 12)            165900    
_________________________________________________________________
max_pooling1d_85 (MaxPooling (None, 10, 12)            0         
_________________________________________________________________
dropout_85 (Dropout)         (None, 10, 12)            0         
_________________________________________________________________
conv1d_86 (Conv1D)           (None, 10, 5)             305       
_________________________________________________________________
max_pooling1d_86 (MaxPooling (None, 5, 5)              0         
_________________________________________________________________
dropout_86 (Dropout)         (None, 5, 5)              0         
_________________________________________________________________
conv1d_87 (Conv1D)           (None, 5, 9)              594       
_________________________________________________________________
max_pooling1d_87 (MaxPooling (None, 2, 9)              0         
_________________________________________________________________
dropout_87 (Dropout)         (None, 2, 9)              0         
_________________________________________________________________
flatten_29 (Flatten)         (None, 18)                0         
_________________________________________________________________
dense_57 (Dense)             (None, 49)                931       
_________________________________________________________________
dense_58 (Dense)             (None, 3)                 150       
=================================================================
Total params: 167,880
Trainable params: 167,880
Non-trainable params: 0
_________________________________________________________________
{'l1_nodes': 12, 'l1_filter': 18, 'l1_dropout': 0.732102969569514, 'l1_maxpool': 3, 'l2_nodes': 5, 'l2_filter': 5, 'l2_dropout': 0.06783460633963329, 'l2_maxpool': 2, 'l3_nodes': 9, 'l3_filter': 13, 'l3_dropout': 0.6423492155131538, 'l3_maxpool': 2, 'dense_nodes': 49}
…
subject 12, avg accuracy 0.4210526326769277
subject 13, avg accuracy 0.3937411104886664
subject 14, avg accuracy 0.3983805671877224
subject 15, avg accuracy 0.5481981982787449
subject 16, avg accuracy 0.3379217285416548
subject 17, avg accuracy 0.478947368577907
subject 18, avg accuracy 0.5729729755504712
subject 19, avg accuracy 0.408408409052783
avg accuracy over all subjects 0.43704304918642484
_________________________________________________________________
Layer (type)                 Output Shape              Param #   
=================================================================
conv1d_88 (Conv1D)           (None, 31, 38)            612902    
_________________________________________________________________
max_pooling1d_88 (MaxPooling (None, 15, 38)            0         
_________________________________________________________________
dropout_88 (Dropout)         (None, 15, 38)            0         
_________________________________________________________________
conv1d_89 (Conv1D)           (None, 15, 9)             2061      
_________________________________________________________________
max_pooling1d_89 (MaxPooling (None, 15, 9)             0         
_________________________________________________________________
dropout_89 (Dropout)         (None, 15, 9)             0         
_________________________________________________________________
conv1d_90 (Conv1D)           (None, 15, 12)            1308      
_________________________________________________________________
max_pooling1d_90 (MaxPooling (None, 7, 12)             0         
_________________________________________________________________
dropout_90 (Dropout)         (None, 7, 12)             0         
_________________________________________________________________
flatten_30 (Flatten)         (None, 84)                0         
_________________________________________________________________
dense_59 (Dense)             (None, 18)                1530      
_________________________________________________________________
dense_60 (Dense)             (None, 3)                 57        
=================================================================
Total params: 617,858
Trainable params: 617,858
Non-trainable params: 0
_________________________________________________________________
{'l1_nodes': 38, 'l1_filter': 21, 'l1_dropout': 0.6984886664450914, 'l1_maxpool': 2, 'l2_nodes': 9, 'l2_filter': 6, 'l2_dropout': 0.06209812827149164, 'l2_maxpool': 1, 'l3_nodes': 12, 'l3_filter': 12, 'l3_dropout': 0.7060915083395557, 'l3_maxpool': 2, 'dense_nodes': 18}
…
subject 12, avg accuracy 0.3578947374695226
subject 13, avg accuracy 0.36657183562454426
subject 14, avg accuracy 0.40310391503789644
subject 15, avg accuracy 0.3975975977586912
subject 16, avg accuracy 0.39649123022993893
subject 17, avg accuracy 0.5526315786336597
subject 18, avg accuracy 0.4162162183104335
subject 19, avg accuracy 0.43033033049142394
avg accuracy over all subjects 0.39632517221837266
_________________________________________________________________
Layer (type)                 Output Shape              Param #   
=================================================================
conv1d_91 (Conv1D)           (None, 31, 26)            259610    
_________________________________________________________________
max_pooling1d_91 (MaxPooling (None, 15, 26)            0         
_________________________________________________________________
dropout_91 (Dropout)         (None, 15, 26)            0         
_________________________________________________________________
conv1d_92 (Conv1D)           (None, 15, 26)            8814      
_________________________________________________________________
max_pooling1d_92 (MaxPooling (None, 15, 26)            0         
_________________________________________________________________
dropout_92 (Dropout)         (None, 15, 26)            0         
_________________________________________________________________
conv1d_93 (Conv1D)           (None, 15, 1)             157       
_________________________________________________________________
max_pooling1d_93 (MaxPooling (None, 7, 1)              0         
_________________________________________________________________
dropout_93 (Dropout)         (None, 7, 1)              0         
_________________________________________________________________
flatten_31 (Flatten)         (None, 7)                 0         
_________________________________________________________________
dense_61 (Dense)             (None, 35)                280       
_________________________________________________________________
dense_62 (Dense)             (None, 3)                 108       
=================================================================
Total params: 268,969
Trainable params: 268,969
Non-trainable params: 0
_________________________________________________________________
{'l1_nodes': 26, 'l1_filter': 13, 'l1_dropout': 0.27595300999959704, 'l1_maxpool': 2, 'l2_nodes': 26, 'l2_filter': 13, 'l2_dropout': 0.11062909591628328, 'l2_maxpool': 1, 'l3_nodes': 1, 'l3_filter': 6, 'l3_dropout': 0.292950290386338, 'l3_maxpool': 2, 'dense_nodes': 35}
…
subject 12, avg accuracy 0.5578947376263769
subject 13, avg accuracy 0.6423897596121174
subject 14, avg accuracy 0.6174089078156733
subject 15, avg accuracy 0.5406906908517843
subject 16, avg accuracy 0.7920377876916234
subject 17, avg accuracy 0.6999999996862913
subject 18, avg accuracy 0.7297297315017597
subject 19, avg accuracy 0.48018018034127385
avg accuracy over all subjects 0.5969335067599417
_________________________________________________________________
Layer (type)                 Output Shape              Param #   
=================================================================
conv1d_94 (Conv1D)           (None, 31, 35)            268835    
_________________________________________________________________
max_pooling1d_94 (MaxPooling (None, 31, 35)            0         
_________________________________________________________________
dropout_94 (Dropout)         (None, 31, 35)            0         
_________________________________________________________________
conv1d_95 (Conv1D)           (None, 31, 5)             1405      
_________________________________________________________________
max_pooling1d_95 (MaxPooling (None, 31, 5)             0         
_________________________________________________________________
dropout_95 (Dropout)         (None, 31, 5)             0         
_________________________________________________________________
conv1d_96 (Conv1D)           (None, 31, 6)             186       
_________________________________________________________________
max_pooling1d_96 (MaxPooling (None, 15, 6)             0         
_________________________________________________________________
dropout_96 (Dropout)         (None, 15, 6)             0         
_________________________________________________________________
flatten_32 (Flatten)         (None, 90)                0         
_________________________________________________________________
dense_63 (Dense)             (None, 18)                1638      
_________________________________________________________________
dense_64 (Dense)             (None, 3)                 57        
=================================================================
Total params: 272,121
Trainable params: 272,121
Non-trainable params: 0
_________________________________________________________________
{'l1_nodes': 35, 'l1_filter': 10, 'l1_dropout': 0.06647065472282676, 'l1_maxpool': 1, 'l2_nodes': 5, 'l2_filter': 8, 'l2_dropout': 0.42545934352717285, 'l2_maxpool': 1, 'l3_nodes': 6, 'l3_filter': 6, 'l3_dropout': 0.5744679698723562, 'l3_maxpool': 2, 'dense_nodes': 18}
…
subject 12, avg accuracy 0.35789473746952255
subject 13, avg accuracy 0.36173542153360494
subject 14, avg accuracy 0.43414305194749847
subject 15, avg accuracy 0.4310810812421747
subject 16, avg accuracy 0.4221322550947367
subject 17, avg accuracy 0.5684210542001222
subject 18, avg accuracy 0.4810810822087365
subject 19, avg accuracy 0.4138138139749074
avg accuracy over all subjects 0.4322129497165002
_________________________________________________________________
Layer (type)                 Output Shape              Param #   
=================================================================
conv1d_97 (Conv1D)           (None, 31, 14)            258062    
_________________________________________________________________
max_pooling1d_97 (MaxPooling (None, 31, 14)            0         
_________________________________________________________________
dropout_97 (Dropout)         (None, 31, 14)            0         
_________________________________________________________________
conv1d_98 (Conv1D)           (None, 31, 23)            4853      
_________________________________________________________________
max_pooling1d_98 (MaxPooling (None, 31, 23)            0         
_________________________________________________________________
dropout_98 (Dropout)         (None, 31, 23)            0         
_________________________________________________________________
conv1d_99 (Conv1D)           (None, 31, 2)             232       
_________________________________________________________________
max_pooling1d_99 (MaxPooling (None, 31, 2)             0         
_________________________________________________________________
dropout_99 (Dropout)         (None, 31, 2)             0         
_________________________________________________________________
flatten_33 (Flatten)         (None, 62)                0         
_________________________________________________________________
dense_65 (Dense)             (None, 41)                2583      
_________________________________________________________________
dense_66 (Dense)             (None, 3)                 126       
=================================================================
Total params: 265,856
Trainable params: 265,856
Non-trainable params: 0
_________________________________________________________________
{'l1_nodes': 14, 'l1_filter': 24, 'l1_dropout': 0.10105253307403098, 'l1_maxpool': 1, 'l2_nodes': 23, 'l2_filter': 15, 'l2_dropout': 0.13505600028494327, 'l2_maxpool': 1, 'l3_nodes': 2, 'l3_filter': 5, 'l3_dropout': 0.4371237638047314, 'l3_maxpool': 1, 'dense_nodes': 41}
…
subject 12, avg accuracy 0.5473684229348835
subject 13, avg accuracy 0.48833570493064593
subject 14, avg accuracy 0.5608636995639233
subject 15, avg accuracy 0.5415915916721384
subject 16, avg accuracy 0.6883940644029342
subject 17, avg accuracy 0.6736842102126072
subject 18, avg accuracy 0.6594594605871149
subject 19, avg accuracy 0.49744744752799425
avg accuracy over all subjects 0.5644429865647858
_________________________________________________________________
Layer (type)                 Output Shape              Param #   
=================================================================
conv1d_100 (Conv1D)          (None, 31, 32)            491552    
_________________________________________________________________
max_pooling1d_100 (MaxPoolin (None, 15, 32)            0         
_________________________________________________________________
dropout_100 (Dropout)        (None, 15, 32)            0         
_________________________________________________________________
conv1d_101 (Conv1D)          (None, 15, 5)             645       
_________________________________________________________________
max_pooling1d_101 (MaxPoolin (None, 15, 5)             0         
_________________________________________________________________
dropout_101 (Dropout)        (None, 15, 5)             0         
_________________________________________________________________
conv1d_102 (Conv1D)          (None, 15, 6)             366       
_________________________________________________________________
max_pooling1d_102 (MaxPoolin (None, 15, 6)             0         
_________________________________________________________________
dropout_102 (Dropout)        (None, 15, 6)             0         
_________________________________________________________________
flatten_34 (Flatten)         (None, 90)                0         
_________________________________________________________________
dense_67 (Dense)             (None, 39)                3549      
_________________________________________________________________
dense_68 (Dense)             (None, 3)                 120       
=================================================================
Total params: 496,232
Trainable params: 496,232
Non-trainable params: 0
_________________________________________________________________
{'l1_nodes': 32, 'l1_filter': 20, 'l1_dropout': 0.34019081115368655, 'l1_maxpool': 2, 'l2_nodes': 5, 'l2_filter': 4, 'l2_dropout': 0.3355411015225932, 'l2_maxpool': 1, 'l3_nodes': 6, 'l3_filter': 12, 'l3_dropout': 0.5625602793791189, 'l3_maxpool': 1, 'dense_nodes': 39}
…
subject 12, avg accuracy 0.40526315914957145
subject 13, avg accuracy 0.45789473739321507
subject 14, avg accuracy 0.40823211938183
subject 15, avg accuracy 0.5412912913718382
subject 16, avg accuracy 0.5004048601335842
subject 17, avg accuracy 0.600000000941126
subject 18, avg accuracy 0.5783783809558766
subject 19, avg accuracy 0.40315315323370005
avg accuracy over all subjects 0.45969431074133976
_________________________________________________________________
Layer (type)                 Output Shape              Param #   
=================================================================
conv1d_103 (Conv1D)          (None, 31, 38)            846374    
_________________________________________________________________
max_pooling1d_103 (MaxPoolin (None, 15, 38)            0         
_________________________________________________________________
dropout_103 (Dropout)        (None, 15, 38)            0         
_________________________________________________________________
conv1d_104 (Conv1D)          (None, 15, 19)            9405      
_________________________________________________________________
max_pooling1d_104 (MaxPoolin (None, 7, 19)             0         
_________________________________________________________________
dropout_104 (Dropout)        (None, 7, 19)             0         
_________________________________________________________________
conv1d_105 (Conv1D)          (None, 7, 7)              938       
_________________________________________________________________
max_pooling1d_105 (MaxPoolin (None, 7, 7)              0         
_________________________________________________________________
dropout_105 (Dropout)        (None, 7, 7)              0         
_________________________________________________________________
flatten_35 (Flatten)         (None, 49)                0         
_________________________________________________________________
dense_69 (Dense)             (None, 30)                1500      
_________________________________________________________________
dense_70 (Dense)             (None, 3)                 93        
=================================================================
Total params: 858,310
Trainable params: 858,310
Non-trainable params: 0
_________________________________________________________________
{'l1_nodes': 38, 'l1_filter': 29, 'l1_dropout': 0.29448090855019127, 'l1_maxpool': 2, 'l2_nodes': 19, 'l2_filter': 13, 'l2_dropout': 0.6849452984424259, 'l2_maxpool': 2, 'l3_nodes': 7, 'l3_filter': 7, 'l3_dropout': 0.4572898666402172, 'l3_maxpool': 1, 'dense_nodes': 30}
…
subject 12, avg accuracy 0.289473684524235
subject 13, avg accuracy 0.28776671510417634
subject 14, avg accuracy 0.31929824623743047
subject 15, avg accuracy 0.45330330338385016
subject 16, avg accuracy 0.32253711340639757
subject 17, avg accuracy 0.521052632363219
subject 18, avg accuracy 0.47027027284776846
subject 19, avg accuracy 0.4474474476085411
avg accuracy over all subjects 0.3756672674598675
_________________________________________________________________
Layer (type)                 Output Shape              Param #   
=================================================================
conv1d_106 (Conv1D)          (None, 31, 14)            204302    
_________________________________________________________________
max_pooling1d_106 (MaxPoolin (None, 15, 14)            0         
_________________________________________________________________
dropout_106 (Dropout)        (None, 15, 14)            0         
_________________________________________________________________
conv1d_107 (Conv1D)          (None, 15, 27)            6453      
_________________________________________________________________
max_pooling1d_107 (MaxPoolin (None, 7, 27)             0         
_________________________________________________________________
dropout_107 (Dropout)        (None, 7, 27)             0         
_________________________________________________________________
conv1d_108 (Conv1D)          (None, 7, 7)              763       
_________________________________________________________________
max_pooling1d_108 (MaxPoolin (None, 7, 7)              0         
_________________________________________________________________
dropout_108 (Dropout)        (None, 7, 7)              0         
_________________________________________________________________
flatten_36 (Flatten)         (None, 49)                0         
_________________________________________________________________
dense_71 (Dense)             (None, 14)                700       
_________________________________________________________________
dense_72 (Dense)             (None, 3)                 45        
=================================================================
Total params: 212,263
Trainable params: 212,263
Non-trainable params: 0
_________________________________________________________________
{'l1_nodes': 14, 'l1_filter': 19, 'l1_dropout': 0.6025947408345513, 'l1_maxpool': 2, 'l2_nodes': 27, 'l2_filter': 17, 'l2_dropout': 0.11336502578467225, 'l2_maxpool': 2, 'l3_nodes': 7, 'l3_filter': 4, 'l3_dropout': 0.21332538867554057, 'l3_maxpool': 1, 'dense_nodes': 14}
…
subject 12, avg accuracy 0.4736842117811504
subject 13, avg accuracy 0.5260312949313887
subject 14, avg accuracy 0.4547908243058343
subject 15, avg accuracy 0.5687687688493156
subject 16, avg accuracy 0.6973009437041083
subject 17, avg accuracy 0.6315789479958382
subject 18, avg accuracy 0.6378378396904145
subject 19, avg accuracy 0.48693693701748375
avg accuracy over all subjects 0.5345027897326957
_________________________________________________________________
Layer (type)                 Output Shape              Param #   
=================================================================
conv1d_109 (Conv1D)          (None, 31, 26)            259610    
_________________________________________________________________
max_pooling1d_109 (MaxPoolin (None, 31, 26)            0         
_________________________________________________________________
dropout_109 (Dropout)        (None, 31, 26)            0         
_________________________________________________________________
conv1d_110 (Conv1D)          (None, 31, 18)            7038      
_________________________________________________________________
max_pooling1d_110 (MaxPoolin (None, 15, 18)            0         
_________________________________________________________________
dropout_110 (Dropout)        (None, 15, 18)            0         
_________________________________________________________________
conv1d_111 (Conv1D)          (None, 15, 9)             1305      
_________________________________________________________________
max_pooling1d_111 (MaxPoolin (None, 15, 9)             0         
_________________________________________________________________
dropout_111 (Dropout)        (None, 15, 9)             0         
_________________________________________________________________
flatten_37 (Flatten)         (None, 135)               0         
_________________________________________________________________
dense_73 (Dense)             (None, 47)                6392      
_________________________________________________________________
dense_74 (Dense)             (None, 3)                 144       
=================================================================
Total params: 274,489
Trainable params: 274,489
Non-trainable params: 0
_________________________________________________________________
{'l1_nodes': 26, 'l1_filter': 13, 'l1_dropout': 0.7328718808678221, 'l1_maxpool': 1, 'l2_nodes': 18, 'l2_filter': 15, 'l2_dropout': 0.4541241441370302, 'l2_maxpool': 2, 'l3_nodes': 9, 'l3_filter': 8, 'l3_dropout': 0.444163571920901, 'l3_maxpool': 1, 'dense_nodes': 47}
…
subject 12, avg accuracy 0.3842105275706241
subject 13, avg accuracy 0.383072547726916
subject 14, avg accuracy 0.43954116213820404
subject 15, avg accuracy 0.5132132138575878
subject 16, avg accuracy 0.42159244342130203
subject 17, avg accuracy 0.6052631594632801
subject 18, avg accuracy 0.5243243264185417
subject 19, avg accuracy 0.4085585586391054
avg accuracy over all subjects 0.4397756742431175
_________________________________________________________________
Layer (type)                 Output Shape              Param #   
=================================================================
conv1d_112 (Conv1D)          (None, 31, 18)            179730    
_________________________________________________________________
max_pooling1d_112 (MaxPoolin (None, 10, 18)            0         
_________________________________________________________________
dropout_112 (Dropout)        (None, 10, 18)            0         
_________________________________________________________________
conv1d_113 (Conv1D)          (None, 10, 25)            6325      
_________________________________________________________________
max_pooling1d_113 (MaxPoolin (None, 5, 25)             0         
_________________________________________________________________
dropout_113 (Dropout)        (None, 5, 25)             0         
_________________________________________________________________
conv1d_114 (Conv1D)          (None, 5, 13)             4238      
_________________________________________________________________
max_pooling1d_114 (MaxPoolin (None, 5, 13)             0         
_________________________________________________________________
dropout_114 (Dropout)        (None, 5, 13)             0         
_________________________________________________________________
flatten_38 (Flatten)         (None, 65)                0         
_________________________________________________________________
dense_75 (Dense)             (None, 19)                1254      
_________________________________________________________________
dense_76 (Dense)             (None, 3)                 60        
=================================================================
Total params: 191,607
Trainable params: 191,607
Non-trainable params: 0
_________________________________________________________________
{'l1_nodes': 18, 'l1_filter': 13, 'l1_dropout': 0.651374601718117, 'l1_maxpool': 3, 'l2_nodes': 25, 'l2_filter': 14, 'l2_dropout': 0.4615383196028776, 'l2_maxpool': 2, 'l3_nodes': 13, 'l3_filter': 13, 'l3_dropout': 0.5679697142657527, 'l3_maxpool': 1, 'dense_nodes': 19}
…
subject 12, avg accuracy 0.3947368435169521
subject 13, avg accuracy 0.3357041263732937
subject 14, avg accuracy 0.3983805675818691
subject 15, avg accuracy 0.45255255271364625
subject 16, avg accuracy 0.4323886636458589
subject 17, avg accuracy 0.5894736857790697
subject 18, avg accuracy 0.49729729866659317
subject 19, avg accuracy 0.37552552616990004
avg accuracy over all subjects 0.4127818785133228
_________________________________________________________________
Layer (type)                 Output Shape              Param #   
=================================================================
conv1d_115 (Conv1D)          (None, 31, 28)            365596    
_________________________________________________________________
max_pooling1d_115 (MaxPoolin (None, 31, 28)            0         
_________________________________________________________________
dropout_115 (Dropout)        (None, 31, 28)            0         
_________________________________________________________________
conv1d_116 (Conv1D)          (None, 31, 27)            14391     
_________________________________________________________________
max_pooling1d_116 (MaxPoolin (None, 15, 27)            0         
_________________________________________________________________
dropout_116 (Dropout)        (None, 15, 27)            0         
_________________________________________________________________
conv1d_117 (Conv1D)          (None, 15, 9)             495       
_________________________________________________________________
max_pooling1d_117 (MaxPoolin (None, 15, 9)             0         
_________________________________________________________________
dropout_117 (Dropout)        (None, 15, 9)             0         
_________________________________________________________________
flatten_39 (Flatten)         (None, 135)               0         
_________________________________________________________________
dense_77 (Dense)             (None, 41)                5576      
_________________________________________________________________
dense_78 (Dense)             (None, 3)                 126       
=================================================================
Total params: 386,184
Trainable params: 386,184
Non-trainable params: 0
_________________________________________________________________
{'l1_nodes': 28, 'l1_filter': 17, 'l1_dropout': 0.44598989930579863, 'l1_maxpool': 1, 'l2_nodes': 27, 'l2_filter': 19, 'l2_dropout': 0.40796040414370544, 'l2_maxpool': 2, 'l3_nodes': 9, 'l3_filter': 2, 'l3_dropout': 0.40026492941478914, 'l3_maxpool': 1, 'dense_nodes': 41}
…
subject 12, avg accuracy 0.30526315836529977
subject 13, avg accuracy 0.45206258994332416
subject 14, avg accuracy 0.41349527757016596
subject 15, avg accuracy 0.6018018024461764
subject 16, avg accuracy 0.43238866411642185
subject 17, avg accuracy 0.5105263157894736
subject 18, avg accuracy 0.556756758850974
subject 19, avg accuracy 0.45885885901995244
avg accuracy over all subjects 0.4367675374595823
_________________________________________________________________
Layer (type)                 Output Shape              Param #   
=================================================================
conv1d_118 (Conv1D)          (None, 31, 29)            556829    
_________________________________________________________________
max_pooling1d_118 (MaxPoolin (None, 10, 29)            0         
_________________________________________________________________
dropout_118 (Dropout)        (None, 10, 29)            0         
_________________________________________________________________
conv1d_119 (Conv1D)          (None, 10, 27)            3942      
_________________________________________________________________
max_pooling1d_119 (MaxPoolin (None, 5, 27)             0         
_________________________________________________________________
dropout_119 (Dropout)        (None, 5, 27)             0         
_________________________________________________________________
conv1d_120 (Conv1D)          (None, 5, 1)              298       
_________________________________________________________________
max_pooling1d_120 (MaxPoolin (None, 2, 1)              0         
_________________________________________________________________
dropout_120 (Dropout)        (None, 2, 1)              0         
_________________________________________________________________
flatten_40 (Flatten)         (None, 2)                 0         
_________________________________________________________________
dense_79 (Dense)             (None, 47)                141       
_________________________________________________________________
dense_80 (Dense)             (None, 3)                 144       
=================================================================
Total params: 561,354
Trainable params: 561,354
Non-trainable params: 0
_________________________________________________________________
{'l1_nodes': 29, 'l1_filter': 25, 'l1_dropout': 0.03967490206469826, 'l1_maxpool': 3, 'l2_nodes': 27, 'l2_filter': 5, 'l2_dropout': 0.03854529966748163, 'l2_maxpool': 2, 'l3_nodes': 1, 'l3_filter': 11, 'l3_dropout': 0.38638418928678087, 'l3_maxpool': 2, 'dense_nodes': 47}
…
subject 12, avg accuracy 0.5368421046357406
subject 13, avg accuracy 0.6230440980000991
subject 14, avg accuracy 0.5078272620112951
subject 15, avg accuracy 0.5972972979416719
subject 16, avg accuracy 0.7658569498985563
subject 17, avg accuracy 0.6736842111537331
subject 18, avg accuracy 0.7081081106856063
subject 19, avg accuracy 0.519369369530463
avg accuracy over all subjects 0.5964670819709795
_________________________________________________________________
Layer (type)                 Output Shape              Param #   
=================================================================
conv1d_121 (Conv1D)          (None, 31, 23)            459287    
_________________________________________________________________
max_pooling1d_121 (MaxPoolin (None, 10, 23)            0         
_________________________________________________________________
dropout_121 (Dropout)        (None, 10, 23)            0         
_________________________________________________________________
conv1d_122 (Conv1D)          (None, 10, 13)            2704      
_________________________________________________________________
max_pooling1d_122 (MaxPoolin (None, 10, 13)            0         
_________________________________________________________________
dropout_122 (Dropout)        (None, 10, 13)            0         
_________________________________________________________________
conv1d_123 (Conv1D)          (None, 10, 1)             105       
_________________________________________________________________
max_pooling1d_123 (MaxPoolin (None, 10, 1)             0         
_________________________________________________________________
dropout_123 (Dropout)        (None, 10, 1)             0         
_________________________________________________________________
flatten_41 (Flatten)         (None, 10)                0         
_________________________________________________________________
dense_81 (Dense)             (None, 16)                176       
_________________________________________________________________
dense_82 (Dense)             (None, 3)                 51        
=================================================================
Total params: 462,323
Trainable params: 462,323
Non-trainable params: 0
_________________________________________________________________
{'l1_nodes': 23, 'l1_filter': 26, 'l1_dropout': 0.6251390144570341, 'l1_maxpool': 3, 'l2_nodes': 13, 'l2_filter': 9, 'l2_dropout': 0.28036605664276026, 'l2_maxpool': 1, 'l3_nodes': 1, 'l3_filter': 8, 'l3_dropout': 0.22314523957069532, 'l3_maxpool': 1, 'dense_nodes': 16}
…
subject 12, avg accuracy 0.4052631585221541
subject 13, avg accuracy 0.39431010069243433
subject 14, avg accuracy 0.44493927187443416
subject 15, avg accuracy 0.5300300301105768
subject 16, avg accuracy 0.4686909586834682
subject 17, avg accuracy 0.5421052640990208
subject 18, avg accuracy 0.5243243259352608
subject 19, avg accuracy 0.4142642644253579
avg accuracy over all subjects 0.42373020886384016
_________________________________________________________________
Layer (type)                 Output Shape              Param #   
=================================================================
conv1d_124 (Conv1D)          (None, 31, 22)            152086    
_________________________________________________________________
max_pooling1d_124 (MaxPoolin (None, 31, 22)            0         
_________________________________________________________________
dropout_124 (Dropout)        (None, 31, 22)            0         
_________________________________________________________________
conv1d_125 (Conv1D)          (None, 31, 26)            4602      
_________________________________________________________________
max_pooling1d_125 (MaxPoolin (None, 31, 26)            0         
_________________________________________________________________
dropout_125 (Dropout)        (None, 31, 26)            0         
_________________________________________________________________
conv1d_126 (Conv1D)          (None, 31, 11)            2585      
_________________________________________________________________
max_pooling1d_126 (MaxPoolin (None, 15, 11)            0         
_________________________________________________________________
dropout_126 (Dropout)        (None, 15, 11)            0         
_________________________________________________________________
flatten_42 (Flatten)         (None, 165)               0         
_________________________________________________________________
dense_83 (Dense)             (None, 31)                5146      
_________________________________________________________________
dense_84 (Dense)             (None, 3)                 96        
=================================================================
Total params: 164,515
Trainable params: 164,515
Non-trainable params: 0
_________________________________________________________________
{'l1_nodes': 22, 'l1_filter': 9, 'l1_dropout': 0.2569230613244113, 'l1_maxpool': 1, 'l2_nodes': 26, 'l2_filter': 8, 'l2_dropout': 0.24521732653535278, 'l2_maxpool': 1, 'l3_nodes': 11, 'l3_filter': 9, 'l3_dropout': 0.3267677910760036, 'l3_maxpool': 2, 'dense_nodes': 31}
…
subject 12, avg accuracy 0.43157894783898404
subject 13, avg accuracy 0.5735419632572877
subject 14, avg accuracy 0.5136302311410788
subject 15, avg accuracy 0.5639639640445109
subject 16, avg accuracy 0.5985155207988543
subject 17, avg accuracy 0.6000000015685433
subject 18, avg accuracy 0.7189189205298552
subject 19, avg accuracy 0.4636636643080382
avg accuracy over all subjects 0.5358489741561426
_________________________________________________________________
Layer (type)                 Output Shape              Param #   
=================================================================
conv1d_127 (Conv1D)          (None, 31, 32)            344096    
_________________________________________________________________
max_pooling1d_127 (MaxPoolin (None, 31, 32)            0         
_________________________________________________________________
dropout_127 (Dropout)        (None, 31, 32)            0         
_________________________________________________________________
conv1d_128 (Conv1D)          (None, 31, 8)             1544      
_________________________________________________________________
max_pooling1d_128 (MaxPoolin (None, 31, 8)             0         
_________________________________________________________________
dropout_128 (Dropout)        (None, 31, 8)             0         
_________________________________________________________________
conv1d_129 (Conv1D)          (None, 31, 1)             105       
_________________________________________________________________
max_pooling1d_129 (MaxPoolin (None, 15, 1)             0         
_________________________________________________________________
dropout_129 (Dropout)        (None, 15, 1)             0         
_________________________________________________________________
flatten_43 (Flatten)         (None, 15)                0         
_________________________________________________________________
dense_85 (Dense)             (None, 48)                768       
_________________________________________________________________
dense_86 (Dense)             (None, 3)                 147       
=================================================================
Total params: 346,660
Trainable params: 346,660
Non-trainable params: 0
_________________________________________________________________
{'l1_nodes': 32, 'l1_filter': 14, 'l1_dropout': 0.10021270488045106, 'l1_maxpool': 1, 'l2_nodes': 8, 'l2_filter': 6, 'l2_dropout': 0.6469680638238836, 'l2_maxpool': 1, 'l3_nodes': 1, 'l3_filter': 13, 'l3_dropout': 0.051490141583442145, 'l3_maxpool': 2, 'dense_nodes': 48}
…
subject 12, avg accuracy 0.4578947376263769
subject 13, avg accuracy 0.47339971645458323
subject 14, avg accuracy 0.41376518359390185
subject 15, avg accuracy 0.5190690691496158
subject 16, avg accuracy 0.6309041848991885
subject 17, avg accuracy 0.6157894743116279
subject 18, avg accuracy 0.6594594620369576
subject 19, avg accuracy 0.45330330338385016
avg accuracy over all subjects 0.5188304375487409
_________________________________________________________________
Layer (type)                 Output Shape              Param #   
=================================================================
conv1d_130 (Conv1D)          (None, 31, 27)            331803    
_________________________________________________________________
max_pooling1d_130 (MaxPoolin (None, 31, 27)            0         
_________________________________________________________________
dropout_130 (Dropout)        (None, 31, 27)            0         
_________________________________________________________________
conv1d_131 (Conv1D)          (None, 31, 15)            5685      
_________________________________________________________________
max_pooling1d_131 (MaxPoolin (None, 15, 15)            0         
_________________________________________________________________
dropout_131 (Dropout)        (None, 15, 15)            0         
_________________________________________________________________
conv1d_132 (Conv1D)          (None, 15, 5)             980       
_________________________________________________________________
max_pooling1d_132 (MaxPoolin (None, 15, 5)             0         
_________________________________________________________________
dropout_132 (Dropout)        (None, 15, 5)             0         
_________________________________________________________________
flatten_44 (Flatten)         (None, 75)                0         
_________________________________________________________________
dense_87 (Dense)             (None, 42)                3192      
_________________________________________________________________
dense_88 (Dense)             (None, 3)                 129       
=================================================================
Total params: 341,789
Trainable params: 341,789
Non-trainable params: 0
_________________________________________________________________
{'l1_nodes': 27, 'l1_filter': 16, 'l1_dropout': 0.1756681876177082, 'l1_maxpool': 1, 'l2_nodes': 15, 'l2_filter': 14, 'l2_dropout': 0.3012494325297515, 'l2_maxpool': 2, 'l3_nodes': 5, 'l3_filter': 13, 'l3_dropout': 0.0025953332211282876, 'l3_maxpool': 1, 'dense_nodes': 42}
…
subject 12, avg accuracy 0.5000000007842716
subject 13, avg accuracy 0.5583214806543815
subject 14, avg accuracy 0.5870445333109533
subject 15, avg accuracy 0.6123123126344996
subject 16, avg accuracy 0.7754385967808053
subject 17, avg accuracy 0.6631578948936965
subject 18, avg accuracy 0.6756756777698929
subject 19, avg accuracy 0.49174174190283537
avg accuracy over all subjects 0.5948358959293136
_________________________________________________________________
Layer (type)                 Output Shape              Param #   
=================================================================
conv1d_133 (Conv1D)          (None, 31, 19)            277267    
_________________________________________________________________
max_pooling1d_133 (MaxPoolin (None, 31, 19)            0         
_________________________________________________________________
dropout_133 (Dropout)        (None, 31, 19)            0         
_________________________________________________________________
conv1d_134 (Conv1D)          (None, 31, 23)            7015      
_________________________________________________________________
max_pooling1d_134 (MaxPoolin (None, 15, 23)            0         
_________________________________________________________________
dropout_134 (Dropout)        (None, 15, 23)            0         
_________________________________________________________________
conv1d_135 (Conv1D)          (None, 15, 5)             1040      
_________________________________________________________________
max_pooling1d_135 (MaxPoolin (None, 15, 5)             0         
_________________________________________________________________
dropout_135 (Dropout)        (None, 15, 5)             0         
_________________________________________________________________
flatten_45 (Flatten)         (None, 75)                0         
_________________________________________________________________
dense_89 (Dense)             (None, 35)                2660      
_________________________________________________________________
dense_90 (Dense)             (None, 3)                 108       
=================================================================
Total params: 288,090
Trainable params: 288,090
Non-trainable params: 0
_________________________________________________________________
{'l1_nodes': 19, 'l1_filter': 19, 'l1_dropout': 0.3806558736569282, 'l1_maxpool': 1, 'l2_nodes': 23, 'l2_filter': 16, 'l2_dropout': 0.033840123371757264, 'l2_maxpool': 2, 'l3_nodes': 5, 'l3_filter': 9, 'l3_dropout': 0.5668006048672096, 'l3_maxpool': 1, 'dense_nodes': 35}
…
subject 12, avg accuracy 0.40000000078427167
subject 13, avg accuracy 0.4571835004715289
subject 14, avg accuracy 0.39730094607301086
subject 15, avg accuracy 0.480480481124855
subject 16, avg accuracy 0.5004048595262764
subject 17, avg accuracy 0.5526315800453487
subject 18, avg accuracy 0.5783783809558765
subject 19, avg accuracy 0.33153153169262517
avg accuracy over all subjects 0.42286747048858114
_________________________________________________________________
Layer (type)                 Output Shape              Param #   
=================================================================
conv1d_136 (Conv1D)          (None, 31, 11)            194315    
_________________________________________________________________
max_pooling1d_136 (MaxPoolin (None, 31, 11)            0         
_________________________________________________________________
dropout_136 (Dropout)        (None, 31, 11)            0         
_________________________________________________________________
conv1d_137 (Conv1D)          (None, 31, 10)            450       
_________________________________________________________________
max_pooling1d_137 (MaxPoolin (None, 31, 10)            0         
_________________________________________________________________
dropout_137 (Dropout)        (None, 31, 10)            0         
_________________________________________________________________
conv1d_138 (Conv1D)          (None, 31, 14)            1974      
_________________________________________________________________
max_pooling1d_138 (MaxPoolin (None, 31, 14)            0         
_________________________________________________________________
dropout_138 (Dropout)        (None, 31, 14)            0         
_________________________________________________________________
flatten_46 (Flatten)         (None, 434)               0         
_________________________________________________________________
dense_91 (Dense)             (None, 41)                17835     
_________________________________________________________________
dense_92 (Dense)             (None, 3)                 126       
=================================================================
Total params: 214,700
Trainable params: 214,700
Non-trainable params: 0
_________________________________________________________________
{'l1_nodes': 11, 'l1_filter': 23, 'l1_dropout': 0.4502252176105801, 'l1_maxpool': 1, 'l2_nodes': 10, 'l2_filter': 4, 'l2_dropout': 0.5706736475272599, 'l2_maxpool': 1, 'l3_nodes': 14, 'l3_filter': 14, 'l3_dropout': 0.050254693003220496, 'l3_maxpool': 1, 'dense_nodes': 41}
…
subject 12, avg accuracy 0.37894736951903285
subject 13, avg accuracy 0.4630156488922209
subject 14, avg accuracy 0.4508771932117048
subject 15, avg accuracy 0.5187687688493157
subject 16, avg accuracy 0.49986504815850663
subject 17, avg accuracy 0.5578947379400855
subject 18, avg accuracy 0.6000000012082023
subject 19, avg accuracy 0.41441441505878895
avg accuracy over all subjects 0.4788643579115234
_________________________________________________________________
Layer (type)                 Output Shape              Param #   
=================================================================
conv1d_139 (Conv1D)          (None, 31, 13)            119821    
_________________________________________________________________
max_pooling1d_139 (MaxPoolin (None, 10, 13)            0         
_________________________________________________________________
dropout_139 (Dropout)        (None, 10, 13)            0         
_________________________________________________________________
conv1d_140 (Conv1D)          (None, 10, 18)            1656      
_________________________________________________________________
max_pooling1d_140 (MaxPoolin (None, 5, 18)             0         
_________________________________________________________________
dropout_140 (Dropout)        (None, 5, 18)             0         
_________________________________________________________________
conv1d_141 (Conv1D)          (None, 5, 14)             1274      
_________________________________________________________________
max_pooling1d_141 (MaxPoolin (None, 2, 14)             0         
_________________________________________________________________
dropout_141 (Dropout)        (None, 2, 14)             0         
_________________________________________________________________
flatten_47 (Flatten)         (None, 28)                0         
_________________________________________________________________
dense_93 (Dense)             (None, 38)                1102      
_________________________________________________________________
dense_94 (Dense)             (None, 3)                 117       
=================================================================
Total params: 123,970
Trainable params: 123,970
Non-trainable params: 0
_________________________________________________________________
{'l1_nodes': 13, 'l1_filter': 12, 'l1_dropout': 0.6369020851145802, 'l1_maxpool': 3, 'l2_nodes': 18, 'l2_filter': 7, 'l2_dropout': 0.5395198741921654, 'l2_maxpool': 2, 'l3_nodes': 14, 'l3_filter': 5, 'l3_dropout': 0.34101615921769, 'l3_maxpool': 2, 'dense_nodes': 38}
…
subject 12, avg accuracy 0.35789473794008553
subject 13, avg accuracy 0.35689900585716516
subject 14, avg accuracy 0.3562753049709536
subject 15, avg accuracy 0.48588588653026044
subject 16, avg accuracy 0.4018893402838996
subject 17, avg accuracy 0.5842105260020809
subject 18, avg accuracy 0.5297297315823065
subject 19, avg accuracy 0.4142642643448111
avg accuracy over all subjects 0.4189532323114897
_________________________________________________________________
Layer (type)                 Output Shape              Param #   
=================================================================
conv1d_142 (Conv1D)          (None, 31, 35)            241955    
_________________________________________________________________
max_pooling1d_142 (MaxPoolin (None, 10, 35)            0         
_________________________________________________________________
dropout_142 (Dropout)        (None, 10, 35)            0         
_________________________________________________________________
conv1d_143 (Conv1D)          (None, 10, 27)            10422     
_________________________________________________________________
max_pooling1d_143 (MaxPoolin (None, 5, 27)             0         
_________________________________________________________________
dropout_143 (Dropout)        (None, 5, 27)             0         
_________________________________________________________________
conv1d_144 (Conv1D)          (None, 5, 14)             4172      
_________________________________________________________________
max_pooling1d_144 (MaxPoolin (None, 5, 14)             0         
_________________________________________________________________
dropout_144 (Dropout)        (None, 5, 14)             0         
_________________________________________________________________
flatten_48 (Flatten)         (None, 70)                0         
_________________________________________________________________
dense_95 (Dense)             (None, 21)                1491      
_________________________________________________________________
dense_96 (Dense)             (None, 3)                 66        
=================================================================
Total params: 258,106
Trainable params: 258,106
Non-trainable params: 0
_________________________________________________________________
{'l1_nodes': 35, 'l1_filter': 9, 'l1_dropout': 0.26028470734122977, 'l1_maxpool': 3, 'l2_nodes': 27, 'l2_filter': 11, 'l2_dropout': 0.6038644860373342, 'l2_maxpool': 2, 'l3_nodes': 14, 'l3_filter': 11, 'l3_dropout': 0.5005868674066849, 'l3_maxpool': 1, 'dense_nodes': 21}
…
subject 12, avg accuracy 0.3578947380969399
subject 13, avg accuracy 0.41009957412652576
subject 14, avg accuracy 0.355735494749427
subject 15, avg accuracy 0.5081081087524827
subject 16, avg accuracy 0.39568151240406735
subject 17, avg accuracy 0.6157894727430845
subject 18, avg accuracy 0.5351351375515396
subject 19, avg accuracy 0.34804804869242256
avg accuracy over all subjects 0.4279425522127609
_________________________________________________________________
Layer (type)                 Output Shape              Param #   
=================================================================
conv1d_145 (Conv1D)          (None, 31, 16)            356368    
_________________________________________________________________
max_pooling1d_145 (MaxPoolin (None, 31, 16)            0         
_________________________________________________________________
dropout_145 (Dropout)        (None, 31, 16)            0         
_________________________________________________________________
conv1d_146 (Conv1D)          (None, 31, 21)            5397      
_________________________________________________________________
max_pooling1d_146 (MaxPoolin (None, 15, 21)            0         
_________________________________________________________________
dropout_146 (Dropout)        (None, 15, 21)            0         
_________________________________________________________________
conv1d_147 (Conv1D)          (None, 15, 2)             170       
_________________________________________________________________
max_pooling1d_147 (MaxPoolin (None, 15, 2)             0         
_________________________________________________________________
dropout_147 (Dropout)        (None, 15, 2)             0         
_________________________________________________________________
flatten_49 (Flatten)         (None, 30)                0         
_________________________________________________________________
dense_97 (Dense)             (None, 26)                806       
_________________________________________________________________
dense_98 (Dense)             (None, 3)                 81        
=================================================================
Total params: 362,822
Trainable params: 362,822
Non-trainable params: 0
_________________________________________________________________
{'l1_nodes': 16, 'l1_filter': 29, 'l1_dropout': 0.5008248046002606, 'l1_maxpool': 1, 'l2_nodes': 21, 'l2_filter': 16, 'l2_dropout': 0.10418338197367241, 'l2_maxpool': 2, 'l3_nodes': 2, 'l3_filter': 4, 'l3_dropout': 0.5628592084983126, 'l3_maxpool': 1, 'dense_nodes': 26}
…
subject 12, avg accuracy 0.33684210589057517
subject 13, avg accuracy 0.44665718428779966
subject 14, avg accuracy 0.4502024308711733
subject 15, avg accuracy 0.5192192198635938
subject 16, avg accuracy 0.5064777340242255
subject 17, avg accuracy 0.5052631589927172
subject 18, avg accuracy 0.540540542554211
subject 19, avg accuracy 0.3429429430234898
avg accuracy over all subjects 0.4454807043910741
_________________________________________________________________
Layer (type)                 Output Shape              Param #   
=================================================================
conv1d_148 (Conv1D)          (None, 31, 11)            194315    
_________________________________________________________________
max_pooling1d_148 (MaxPoolin (None, 15, 11)            0         
_________________________________________________________________
dropout_148 (Dropout)        (None, 15, 11)            0         
_________________________________________________________________
conv1d_149 (Conv1D)          (None, 15, 14)            2170      
_________________________________________________________________
max_pooling1d_149 (MaxPoolin (None, 15, 14)            0         
_________________________________________________________________
dropout_149 (Dropout)        (None, 15, 14)            0         
_________________________________________________________________
conv1d_150 (Conv1D)          (None, 15, 13)            1833      
_________________________________________________________________
max_pooling1d_150 (MaxPoolin (None, 7, 13)             0         
_________________________________________________________________
dropout_150 (Dropout)        (None, 7, 13)             0         
_________________________________________________________________
flatten_50 (Flatten)         (None, 91)                0         
_________________________________________________________________
dense_99 (Dense)             (None, 29)                2668      
_________________________________________________________________
dense_100 (Dense)            (None, 3)                 90        
=================================================================
Total params: 201,076
Trainable params: 201,076
Non-trainable params: 0
_________________________________________________________________
{'l1_nodes': 11, 'l1_filter': 23, 'l1_dropout': 0.07074926461468956, 'l1_maxpool': 2, 'l2_nodes': 14, 'l2_filter': 14, 'l2_dropout': 0.6684184862291442, 'l2_maxpool': 1, 'l3_nodes': 13, 'l3_filter': 10, 'l3_dropout': 0.311580492847668, 'l3_maxpool': 2, 'dense_nodes': 29}
…
subject 12, avg accuracy 0.48421052741376974
subject 13, avg accuracy 0.5532005707366368
subject 14, avg accuracy 0.5551956824445531
subject 15, avg accuracy 0.5858858865302604
subject 16, avg accuracy 0.692307694326689
subject 17, avg accuracy 0.710526316416891
subject 18, avg accuracy 0.6486486500984914
subject 19, avg accuracy 0.5417417419028354
avg accuracy over all subjects 0.5546977148706473
_________________________________________________________________
Layer (type)                 Output Shape              Param #   
=================================================================
conv1d_151 (Conv1D)          (None, 31, 25)            211225    
_________________________________________________________________
max_pooling1d_151 (MaxPoolin (None, 10, 25)            0         
_________________________________________________________________
dropout_151 (Dropout)        (None, 10, 25)            0         
_________________________________________________________________
conv1d_152 (Conv1D)          (None, 10, 29)            12354     
_________________________________________________________________
max_pooling1d_152 (MaxPoolin (None, 5, 29)             0         
_________________________________________________________________
dropout_152 (Dropout)        (None, 5, 29)             0         
_________________________________________________________________
conv1d_153 (Conv1D)          (None, 5, 8)              2560      
_________________________________________________________________
max_pooling1d_153 (MaxPoolin (None, 2, 8)              0         
_________________________________________________________________
dropout_153 (Dropout)        (None, 2, 8)              0         
_________________________________________________________________
flatten_51 (Flatten)         (None, 16)                0         
_________________________________________________________________
dense_101 (Dense)            (None, 49)                833       
_________________________________________________________________
dense_102 (Dense)            (None, 3)                 150       
=================================================================
Total params: 227,122
Trainable params: 227,122
Non-trainable params: 0
_________________________________________________________________
{'l1_nodes': 25, 'l1_filter': 11, 'l1_dropout': 0.4232188867840624, 'l1_maxpool': 3, 'l2_nodes': 29, 'l2_filter': 17, 'l2_dropout': 0.3389354166521956, 'l2_maxpool': 2, 'l3_nodes': 8, 'l3_filter': 11, 'l3_dropout': 0.025871282507648113, 'l3_maxpool': 2, 'dense_nodes': 49}
…
subject 12, avg accuracy 0.6315789483095471
subject 13, avg accuracy 0.7658605990165667
subject 14, avg accuracy 0.6600539818868624
subject 15, avg accuracy 0.7789789796233535
subject 16, avg accuracy 0.9164642368894518
subject 17, avg accuracy 0.7473684219937576
subject 18, avg accuracy 0.7405405419903832
subject 19, avg accuracy 0.6301801808245548
avg accuracy over all subjects 0.7250573455064023
_________________________________________________________________
Layer (type)                 Output Shape              Param #   
=================================================================
conv1d_154 (Conv1D)          (None, 31, 11)            50699     
_________________________________________________________________
max_pooling1d_154 (MaxPoolin (None, 31, 11)            0         
_________________________________________________________________
dropout_154 (Dropout)        (None, 31, 11)            0         
_________________________________________________________________
conv1d_155 (Conv1D)          (None, 31, 23)            4830      
_________________________________________________________________
max_pooling1d_155 (MaxPoolin (None, 31, 23)            0         
_________________________________________________________________
dropout_155 (Dropout)        (None, 31, 23)            0         
_________________________________________________________________
conv1d_156 (Conv1D)          (None, 31, 4)             1108      
_________________________________________________________________
max_pooling1d_156 (MaxPoolin (None, 15, 4)             0         
_________________________________________________________________
dropout_156 (Dropout)        (None, 15, 4)             0         
_________________________________________________________________
flatten_52 (Flatten)         (None, 60)                0         
_________________________________________________________________
dense_103 (Dense)            (None, 9)                 549       
_________________________________________________________________
dense_104 (Dense)            (None, 3)                 30        
=================================================================
Total params: 57,216
Trainable params: 57,216
Non-trainable params: 0
_________________________________________________________________
{'l1_nodes': 11, 'l1_filter': 6, 'l1_dropout': 0.31837211945809124, 'l1_maxpool': 1, 'l2_nodes': 23, 'l2_filter': 19, 'l2_dropout': 0.7301465075581968, 'l2_maxpool': 1, 'l3_nodes': 4, 'l3_filter': 12, 'l3_dropout': 0.13503491512767102, 'l3_maxpool': 2, 'dense_nodes': 9}
…
subject 12, avg accuracy 0.3736842103694615
subject 13, avg accuracy 0.3460881948089532
subject 14, avg accuracy 0.4547908247643315
subject 15, avg accuracy 0.3747747754191494
subject 16, avg accuracy 0.41133603332174606
subject 17, avg accuracy 0.521052631892656
subject 18, avg accuracy 0.5675675693395975
subject 19, avg accuracy 0.43618618634727985
avg accuracy over all subjects 0.439743995985563
_________________________________________________________________
Layer (type)                 Output Shape              Param #   
=================================================================
conv1d_157 (Conv1D)          (None, 31, 18)            400914    
_________________________________________________________________
max_pooling1d_157 (MaxPoolin (None, 15, 18)            0         
_________________________________________________________________
dropout_157 (Dropout)        (None, 15, 18)            0         
_________________________________________________________________
conv1d_158 (Conv1D)          (None, 15, 28)            6580      
_________________________________________________________________
max_pooling1d_158 (MaxPoolin (None, 7, 28)             0         
_________________________________________________________________
dropout_158 (Dropout)        (None, 7, 28)             0         
_________________________________________________________________
conv1d_159 (Conv1D)          (None, 7, 10)             1970      
_________________________________________________________________
max_pooling1d_159 (MaxPoolin (None, 7, 10)             0         
_________________________________________________________________
dropout_159 (Dropout)        (None, 7, 10)             0         
_________________________________________________________________
flatten_53 (Flatten)         (None, 70)                0         
_________________________________________________________________
dense_105 (Dense)            (None, 35)                2485      
_________________________________________________________________
dense_106 (Dense)            (None, 3)                 108       
=================================================================
Total params: 412,057
Trainable params: 412,057
Non-trainable params: 0
_________________________________________________________________
{'l1_nodes': 18, 'l1_filter': 29, 'l1_dropout': 0.5461347380775022, 'l1_maxpool': 2, 'l2_nodes': 28, 'l2_filter': 13, 'l2_dropout': 0.4852118445607272, 'l2_maxpool': 2, 'l3_nodes': 10, 'l3_filter': 7, 'l3_dropout': 0.4007038399221212, 'l3_maxpool': 1, 'dense_nodes': 35}
…
subject 12, avg accuracy 0.3947368436738064
subject 13, avg accuracy 0.3935988631306128
subject 14, avg accuracy 0.3767881257090009
subject 15, avg accuracy 0.557957957957958
subject 16, avg accuracy 0.39730094473773814
subject 17, avg accuracy 0.6368421058905752
subject 18, avg accuracy 0.4702702721228471
subject 19, avg accuracy 0.331981981981982
avg accuracy over all subjects 0.4394527128047304
_________________________________________________________________
Layer (type)                 Output Shape              Param #   
=================================================================
conv1d_160 (Conv1D)          (None, 31, 22)            321046    
_________________________________________________________________
max_pooling1d_160 (MaxPoolin (None, 10, 22)            0         
_________________________________________________________________
dropout_160 (Dropout)        (None, 10, 22)            0         
_________________________________________________________________
conv1d_161 (Conv1D)          (None, 10, 25)            2225      
_________________________________________________________________
max_pooling1d_161 (MaxPoolin (None, 10, 25)            0         
_________________________________________________________________
dropout_161 (Dropout)        (None, 10, 25)            0         
_________________________________________________________________
conv1d_162 (Conv1D)          (None, 10, 8)             2808      
_________________________________________________________________
max_pooling1d_162 (MaxPoolin (None, 10, 8)             0         
_________________________________________________________________
dropout_162 (Dropout)        (None, 10, 8)             0         
_________________________________________________________________
flatten_54 (Flatten)         (None, 80)                0         
_________________________________________________________________
dense_107 (Dense)            (None, 43)                3483      
_________________________________________________________________
dense_108 (Dense)            (None, 3)                 132       
=================================================================
Total params: 329,694
Trainable params: 329,694
Non-trainable params: 0
_________________________________________________________________
{'l1_nodes': 22, 'l1_filter': 19, 'l1_dropout': 0.1927839746920491, 'l1_maxpool': 3, 'l2_nodes': 25, 'l2_filter': 4, 'l2_dropout': 0.34115893051642954, 'l2_maxpool': 1, 'l3_nodes': 8, 'l3_filter': 14, 'l3_dropout': 0.31035115773327754, 'l3_maxpool': 1, 'dense_nodes': 43}
…
subject 12, avg accuracy 0.5263157907285188
subject 13, avg accuracy 0.6166429601811074
subject 14, avg accuracy 0.6280701755793632
subject 15, avg accuracy 0.6237237238848173
subject 16, avg accuracy 0.7765182182695541
subject 17, avg accuracy 0.6157894743116279
subject 18, avg accuracy 0.6864864887417974
subject 19, avg accuracy 0.5250750752361687
avg accuracy over all subjects 0.6091998215427403
_________________________________________________________________
Layer (type)                 Output Shape              Param #   
=================================================================
conv1d_163 (Conv1D)          (None, 31, 34)            600610    
_________________________________________________________________
max_pooling1d_163 (MaxPoolin (None, 10, 34)            0         
_________________________________________________________________
dropout_163 (Dropout)        (None, 10, 34)            0         
_________________________________________________________________
conv1d_164 (Conv1D)          (None, 10, 26)            14170     
_________________________________________________________________
max_pooling1d_164 (MaxPoolin (None, 5, 26)             0         
_________________________________________________________________
dropout_164 (Dropout)        (None, 5, 26)             0         
_________________________________________________________________
conv1d_165 (Conv1D)          (None, 5, 13)             689       
_________________________________________________________________
max_pooling1d_165 (MaxPoolin (None, 5, 13)             0         
_________________________________________________________________
dropout_165 (Dropout)        (None, 5, 13)             0         
_________________________________________________________________
flatten_55 (Flatten)         (None, 65)                0         
_________________________________________________________________
dense_109 (Dense)            (None, 15)                990       
_________________________________________________________________
dense_110 (Dense)            (None, 3)                 48        
=================================================================
Total params: 616,507
Trainable params: 616,507
Non-trainable params: 0
_________________________________________________________________
{'l1_nodes': 34, 'l1_filter': 23, 'l1_dropout': 0.49703759266603087, 'l1_maxpool': 3, 'l2_nodes': 26, 'l2_filter': 16, 'l2_dropout': 0.02759567440967861, 'l2_maxpool': 2, 'l3_nodes': 13, 'l3_filter': 2, 'l3_dropout': 0.549335523193081, 'l3_maxpool': 1, 'dense_nodes': 15}
…
subject 12, avg accuracy 0.35789473731266824
subject 13, avg accuracy 0.38876244785266784
subject 14, avg accuracy 0.3715249675126211
subject 15, avg accuracy 0.5076576577382045
subject 16, avg accuracy 0.453441298949091
subject 17, avg accuracy 0.6157894721156671
subject 18, avg accuracy 0.5243243256936202
subject 19, avg accuracy 0.41546546554601227
avg accuracy over all subjects 0.4415666690213391
_________________________________________________________________
Layer (type)                 Output Shape              Param #   
=================================================================
conv1d_166 (Conv1D)          (None, 31, 24)            331800    
_________________________________________________________________
max_pooling1d_166 (MaxPoolin (None, 15, 24)            0         
_________________________________________________________________
dropout_166 (Dropout)        (None, 15, 24)            0         
_________________________________________________________________
conv1d_167 (Conv1D)          (None, 15, 10)            970       
_________________________________________________________________
max_pooling1d_167 (MaxPoolin (None, 7, 10)             0         
_________________________________________________________________
dropout_167 (Dropout)        (None, 7, 10)             0         
_________________________________________________________________
conv1d_168 (Conv1D)          (None, 7, 11)             1001      
_________________________________________________________________
max_pooling1d_168 (MaxPoolin (None, 3, 11)             0         
_________________________________________________________________
dropout_168 (Dropout)        (None, 3, 11)             0         
_________________________________________________________________
flatten_56 (Flatten)         (None, 33)                0         
_________________________________________________________________
dense_111 (Dense)            (None, 26)                884       
_________________________________________________________________
dense_112 (Dense)            (None, 3)                 81        
=================================================================
Total params: 334,736
Trainable params: 334,736
Non-trainable params: 0
_________________________________________________________________
{'l1_nodes': 24, 'l1_filter': 18, 'l1_dropout': 0.31593847610329945, 'l1_maxpool': 2, 'l2_nodes': 10, 'l2_filter': 4, 'l2_dropout': 0.33500191338114776, 'l2_maxpool': 2, 'l3_nodes': 11, 'l3_filter': 9, 'l3_dropout': 0.5329046345121682, 'l3_maxpool': 2, 'dense_nodes': 26}
…
subject 12, avg accuracy 0.4157894743116278
subject 13, avg accuracy 0.44608819519049075
subject 14, avg accuracy 0.4560053996671388
subject 15, avg accuracy 0.5412912913718382
subject 16, avg accuracy 0.5149797592528275
subject 17, avg accuracy 0.6105263148483477
subject 18, avg accuracy 0.5783783805531424
subject 19, avg accuracy 0.5255255256866191
avg accuracy over all subjects 0.4828685983186203
_________________________________________________________________
Layer (type)                 Output Shape              Param #   
=================================================================
conv1d_169 (Conv1D)          (None, 31, 14)            107534    
_________________________________________________________________
max_pooling1d_169 (MaxPoolin (None, 31, 14)            0         
_________________________________________________________________
dropout_169 (Dropout)        (None, 31, 14)            0         
_________________________________________________________________
conv1d_170 (Conv1D)          (None, 31, 10)            2110      
_________________________________________________________________
max_pooling1d_170 (MaxPoolin (None, 15, 10)            0         
_________________________________________________________________
dropout_170 (Dropout)        (None, 15, 10)            0         
_________________________________________________________________
conv1d_171 (Conv1D)          (None, 15, 12)            972       
_________________________________________________________________
max_pooling1d_171 (MaxPoolin (None, 15, 12)            0         
_________________________________________________________________
dropout_171 (Dropout)        (None, 15, 12)            0         
_________________________________________________________________
flatten_57 (Flatten)         (None, 180)               0         
_________________________________________________________________
dense_113 (Dense)            (None, 6)                 1086      
_________________________________________________________________
dense_114 (Dense)            (None, 3)                 21        
=================================================================
Total params: 111,723
Trainable params: 111,723
Non-trainable params: 0
_________________________________________________________________
{'l1_nodes': 14, 'l1_filter': 10, 'l1_dropout': 0.08080514438675251, 'l1_maxpool': 1, 'l2_nodes': 10, 'l2_filter': 15, 'l2_dropout': 0.3837502286290889, 'l2_maxpool': 2, 'l3_nodes': 12, 'l3_filter': 8, 'l3_dropout': 0.5534398508007407, 'l3_maxpool': 1, 'dense_nodes': 6}
…
subject 12, avg accuracy 0.3578947379400856
subject 13, avg accuracy 0.38364153754914637
subject 14, avg accuracy 0.5025641023992045
subject 15, avg accuracy 0.5022522523327991
subject 16, avg accuracy 0.4742240242308129
subject 17, avg accuracy 0.5315789484664013
subject 18, avg accuracy 0.6486486504206785
subject 19, avg accuracy 0.37027027043136396
avg accuracy over all subjects 0.4386012203200449
_________________________________________________________________
Layer (type)                 Output Shape              Param #   
=================================================================
conv1d_172 (Conv1D)          (None, 31, 11)            202763    
_________________________________________________________________
max_pooling1d_172 (MaxPoolin (None, 31, 11)            0         
_________________________________________________________________
dropout_172 (Dropout)        (None, 31, 11)            0         
_________________________________________________________________
conv1d_173 (Conv1D)          (None, 31, 6)             534       
_________________________________________________________________
max_pooling1d_173 (MaxPoolin (None, 15, 6)             0         
_________________________________________________________________
dropout_173 (Dropout)        (None, 15, 6)             0         
_________________________________________________________________
conv1d_174 (Conv1D)          (None, 15, 13)            169       
_________________________________________________________________
max_pooling1d_174 (MaxPoolin (None, 15, 13)            0         
_________________________________________________________________
dropout_174 (Dropout)        (None, 15, 13)            0         
_________________________________________________________________
flatten_58 (Flatten)         (None, 195)               0         
_________________________________________________________________
dense_115 (Dense)            (None, 7)                 1372      
…
dense_161 (Dense)            (None, 39)                1248      
_________________________________________________________________
dense_162 (Dense)            (None, 3)                 120       
=================================================================
Total params: 331,296
Trainable params: 331,296
Non-trainable params: 0
_________________________________________________________________
{'l1_nodes': 30, 'l1_filter': 14, 'l1_dropout': 0.2712743049640095, 'l1_maxpool': 1, 'l2_nodes': 29, 'l2_filter': 8, 'l2_dropout': 0.6557087624793071, 'l2_maxpool': 1, 'l3_nodes': 1, 'l3_filter': 12, 'l3_dropout': 0.21345819625081636, 'l3_maxpool': 1, 'dense_nodes': 39}
…
subject 12, avg accuracy 0.36842105388641355
subject 13, avg accuracy 0.39374111182404786
subject 14, avg accuracy 0.5136302300390765
subject 15, avg accuracy 0.5307807808613275
subject 16, avg accuracy 0.3747638354336845
subject 17, avg accuracy 0.5631578959916768
subject 18, avg accuracy 0.5459459473957887
subject 19, avg accuracy 0.4531531537975277
avg accuracy over all subjects 0.4450197510691688
_________________________________________________________________
Layer (type)                 Output Shape              Param #   
=================================================================
conv1d_244 (Conv1D)          (None, 31, 11)            219659    
_________________________________________________________________
max_pooling1d_244 (MaxPoolin (None, 10, 11)            0         
_________________________________________________________________
dropout_244 (Dropout)        (None, 10, 11)            0         
_________________________________________________________________
conv1d_245 (Conv1D)          (None, 10, 20)            1340      
_________________________________________________________________
max_pooling1d_245 (MaxPoolin (None, 5, 20)             0         
_________________________________________________________________
dropout_245 (Dropout)        (None, 5, 20)             0         
_________________________________________________________________
conv1d_246 (Conv1D)          (None, 5, 6)              1086      
_________________________________________________________________
max_pooling1d_246 (MaxPoolin (None, 2, 6)              0         
_________________________________________________________________
dropout_246 (Dropout)        (None, 2, 6)              0         
_________________________________________________________________
flatten_82 (Flatten)         (None, 12)                0         
_________________________________________________________________
dense_163 (Dense)            (None, 9)                 117       
_________________________________________________________________
dense_164 (Dense)            (None, 3)                 30        
=================================================================
Total params: 222,232
Trainable params: 222,232
Non-trainable params: 0
_________________________________________________________________
{'l1_nodes': 11, 'l1_filter': 26, 'l1_dropout': 0.36379938912866255, 'l1_maxpool': 3, 'l2_nodes': 20, 'l2_filter': 6, 'l2_dropout': 0.6044100633523444, 'l2_maxpool': 2, 'l3_nodes': 6, 'l3_filter': 9, 'l3_dropout': 0.5827761757922744, 'l3_maxpool': 2, 'dense_nodes': 9}
…
subject 12, avg accuracy 0.3894736848379436
subject 13, avg accuracy 0.31379800956076276
subject 14, avg accuracy 0.3766531718444889
subject 15, avg accuracy 0.33648648664758013
subject 16, avg accuracy 0.3230769247781892
subject 17, avg accuracy 0.4894736846810893
subject 18, avg accuracy 0.36756756950069114
subject 19, avg accuracy 0.3534534536145471
avg accuracy over all subjects 0.37472421901868863
_________________________________________________________________
Layer (type)                 Output Shape              Param #   
=================================================================
conv1d_247 (Conv1D)          (None, 31, 27)            331803    
_________________________________________________________________
max_pooling1d_247 (MaxPoolin (None, 31, 27)            0         
_________________________________________________________________
dropout_247 (Dropout)        (None, 31, 27)            0         
_________________________________________________________________
conv1d_248 (Conv1D)          (None, 31, 18)            9252      
_________________________________________________________________
max_pooling1d_248 (MaxPoolin (None, 31, 18)            0         
_________________________________________________________________
dropout_248 (Dropout)        (None, 31, 18)            0         
_________________________________________________________________
conv1d_249 (Conv1D)          (None, 31, 13)            1885      
_________________________________________________________________
max_pooling1d_249 (MaxPoolin (None, 15, 13)            0         
_________________________________________________________________
dropout_249 (Dropout)        (None, 15, 13)            0         
_________________________________________________________________
flatten_83 (Flatten)         (None, 195)               0         
_________________________________________________________________
dense_165 (Dense)            (None, 19)                3724      
_________________________________________________________________
dense_166 (Dense)            (None, 3)                 60        
=================================================================
Total params: 346,724
Trainable params: 346,724
Non-trainable params: 0
_________________________________________________________________
{'l1_nodes': 27, 'l1_filter': 16, 'l1_dropout': 0.6914493672326751, 'l1_maxpool': 1, 'l2_nodes': 18, 'l2_filter': 19, 'l2_dropout': 0.4975066442337266, 'l2_maxpool': 1, 'l3_nodes': 13, 'l3_filter': 8, 'l3_dropout': 0.21876309864852972, 'l3_maxpool': 2, 'dense_nodes': 19}
…
subject 12, avg accuracy 0.3894736843673806
subject 13, avg accuracy 0.40881934654322666
subject 14, avg accuracy 0.39271255326174537
subject 15, avg accuracy 0.5141141142752078
subject 16, avg accuracy 0.36990553398444426
subject 17, avg accuracy 0.46842105278843327
subject 18, avg accuracy 0.5135135161715585
subject 19, avg accuracy 0.4141141142752078
avg accuracy over all subjects 0.4114758155515087
_________________________________________________________________
Layer (type)                 Output Shape              Param #   
=================================================================
conv1d_250 (Conv1D)          (None, 31, 31)            214303    
_________________________________________________________________
max_pooling1d_250 (MaxPoolin (None, 15, 31)            0         
_________________________________________________________________
dropout_250 (Dropout)        (None, 15, 31)            0         
_________________________________________________________________
conv1d_251 (Conv1D)          (None, 15, 15)            4665      
_________________________________________________________________
max_pooling1d_251 (MaxPoolin (None, 7, 15)             0         
_________________________________________________________________
dropout_251 (Dropout)        (None, 7, 15)             0         
_________________________________________________________________
conv1d_252 (Conv1D)          (None, 7, 5)              455       
_________________________________________________________________
max_pooling1d_252 (MaxPoolin (None, 7, 5)              0         
_________________________________________________________________
dropout_252 (Dropout)        (None, 7, 5)              0         
_________________________________________________________________
flatten_84 (Flatten)         (None, 35)                0         
_________________________________________________________________
dense_167 (Dense)            (None, 37)                1332      
_________________________________________________________________
dense_168 (Dense)            (None, 3)                 114       
=================================================================
Total params: 220,869
Trainable params: 220,869
Non-trainable params: 0
_________________________________________________________________
{'l1_nodes': 31, 'l1_filter': 9, 'l1_dropout': 0.6542737103864873, 'l1_maxpool': 2, 'l2_nodes': 15, 'l2_filter': 10, 'l2_dropout': 0.7442223772873078, 'l2_maxpool': 2, 'l3_nodes': 5, 'l3_filter': 6, 'l3_dropout': 0.015859402215219726, 'l3_maxpool': 1, 'dense_nodes': 37}
…
subject 12, avg accuracy 0.36842105372955924
subject 13, avg accuracy 0.40455192131643447
subject 14, avg accuracy 0.3460188935441687
subject 15, avg accuracy 0.5250750752361688
subject 16, avg accuracy 0.4116059392972192
subject 17, avg accuracy 0.5894736838968176
subject 18, avg accuracy 0.5567567586093335
subject 19, avg accuracy 0.4747747749358684
avg accuracy over all subjects 0.43921107440828916
_________________________________________________________________
Layer (type)                 Output Shape              Param #   
=================================================================
conv1d_253 (Conv1D)          (None, 31, 16)            196624    
_________________________________________________________________
max_pooling1d_253 (MaxPoolin (None, 31, 16)            0         
_________________________________________________________________
dropout_253 (Dropout)        (None, 31, 16)            0         
_________________________________________________________________
conv1d_254 (Conv1D)          (None, 31, 13)            3133      
_________________________________________________________________
max_pooling1d_254 (MaxPoolin (None, 31, 13)            0         
_________________________________________________________________
dropout_254 (Dropout)        (None, 31, 13)            0         
_________________________________________________________________
conv1d_255 (Conv1D)          (None, 31, 10)            1310      
_________________________________________________________________
max_pooling1d_255 (MaxPoolin (None, 31, 10)            0         
_________________________________________________________________
dropout_255 (Dropout)        (None, 31, 10)            0         
_________________________________________________________________
flatten_85 (Flatten)         (None, 310)               0         
_________________________________________________________________
dense_169 (Dense)            (None, 28)                8708      
_________________________________________________________________
dense_170 (Dense)            (None, 3)                 87        
=================================================================
Total params: 209,862
Trainable params: 209,862
Non-trainable params: 0
_________________________________________________________________
{'l1_nodes': 16, 'l1_filter': 16, 'l1_dropout': 0.4041903008157598, 'l1_maxpool': 1, 'l2_nodes': 13, 'l2_filter': 15, 'l2_dropout': 0.1359248786225689, 'l2_maxpool': 1, 'l3_nodes': 10, 'l3_filter': 10, 'l3_dropout': 0.3734446131467599, 'l3_maxpool': 1, 'dense_nodes': 28}
…
subject 12, avg accuracy 0.41052631673059964
subject 13, avg accuracy 0.40483641679561655
subject 14, avg accuracy 0.3143049940326114
subject 15, avg accuracy 0.5133633634439102
subject 16, avg accuracy 0.4948717965690392
subject 17, avg accuracy 0.6157894733705018
subject 18, avg accuracy 0.5405405417487428
subject 19, avg accuracy 0.4644144145755081
avg accuracy over all subjects 0.4634683949373241
_________________________________________________________________
Layer (type)                 Output Shape              Param #   
=================================================================
conv1d_256 (Conv1D)          (None, 31, 29)            133661    
_________________________________________________________________
max_pooling1d_256 (MaxPoolin (None, 31, 29)            0         
_________________________________________________________________
dropout_256 (Dropout)        (None, 31, 29)            0         
_________________________________________________________________
conv1d_257 (Conv1D)          (None, 31, 29)            3393      
_________________________________________________________________
max_pooling1d_257 (MaxPoolin (None, 31, 29)            0         
_________________________________________________________________
dropout_257 (Dropout)        (None, 31, 29)            0         
_________________________________________________________________
conv1d_258 (Conv1D)          (None, 31, 14)            826       
_________________________________________________________________
max_pooling1d_258 (MaxPoolin (None, 31, 14)            0         
_________________________________________________________________
dropout_258 (Dropout)        (None, 31, 14)            0         
_________________________________________________________________
flatten_86 (Flatten)         (None, 434)               0         
_________________________________________________________________
dense_171 (Dense)            (None, 15)                6525      
_________________________________________________________________
dense_172 (Dense)            (None, 3)                 48        
=================================================================
Total params: 144,453
Trainable params: 144,453
Non-trainable params: 0
_________________________________________________________________
{'l1_nodes': 29, 'l1_filter': 6, 'l1_dropout': 0.031827416632286276, 'l1_maxpool': 1, 'l2_nodes': 29, 'l2_filter': 4, 'l2_dropout': 0.22954958073019674, 'l2_maxpool': 1, 'l3_nodes': 14, 'l3_filter': 2, 'l3_dropout': 0.04443891764013222, 'l3_maxpool': 1, 'dense_nodes': 15}
…
subject 12, avg accuracy 0.7
subject 13, avg accuracy 0.894025603924503
subject 14, avg accuracy 0.617678812093902
subject 15, avg accuracy 0.7129129130740065
subject 16, avg accuracy 0.9167341430499325
subject 17, avg accuracy 0.7684210532589963
subject 18, avg accuracy 0.7135135143189817
subject 19, avg accuracy 0.508408408569502
avg accuracy over all subjects 0.6921920239155384
_________________________________________________________________
Layer (type)                 Output Shape              Param #   
=================================================================
conv1d_259 (Conv1D)          (None, 31, 26)            359450    
_________________________________________________________________
max_pooling1d_259 (MaxPoolin (None, 15, 26)            0         
_________________________________________________________________
dropout_259 (Dropout)        (None, 15, 26)            0         
_________________________________________________________________
conv1d_260 (Conv1D)          (None, 15, 8)             2296      
_________________________________________________________________
max_pooling1d_260 (MaxPoolin (None, 7, 8)              0         
_________________________________________________________________
dropout_260 (Dropout)        (None, 7, 8)              0         
_________________________________________________________________
conv1d_261 (Conv1D)          (None, 7, 14)             1134      
_________________________________________________________________
max_pooling1d_261 (MaxPoolin (None, 7, 14)             0         
_________________________________________________________________
dropout_261 (Dropout)        (None, 7, 14)             0         
_________________________________________________________________
flatten_87 (Flatten)         (None, 98)                0         
_________________________________________________________________
dense_173 (Dense)            (None, 5)                 495       
_________________________________________________________________
dense_174 (Dense)            (None, 3)                 18        
=================================================================
Total params: 363,393
Trainable params: 363,393
Non-trainable params: 0
_________________________________________________________________
{'l1_nodes': 26, 'l1_filter': 18, 'l1_dropout': 0.6398570120125598, 'l1_maxpool': 2, 'l2_nodes': 8, 'l2_filter': 11, 'l2_dropout': 0.41717270865588624, 'l2_maxpool': 2, 'l3_nodes': 14, 'l3_filter': 10, 'l3_dropout': 0.13882479739114084, 'l3_maxpool': 1, 'dense_nodes': 5}
…
subject 12, avg accuracy 0.32105263314749066
subject 13, avg accuracy 0.4467994321291342
subject 14, avg accuracy 0.3824561414448356
subject 15, avg accuracy 0.5355855857466792
subject 16, avg accuracy 0.4064777341770579
subject 17, avg accuracy 0.6105263165737453
subject 18, avg accuracy 0.5783783804725957
subject 19, avg accuracy 0.42042042058151396
avg accuracy over all subjects 0.44224737661189895
_________________________________________________________________
Layer (type)                 Output Shape              Param #   
=================================================================
conv1d_262 (Conv1D)          (None, 31, 28)            602140    
_________________________________________________________________
max_pooling1d_262 (MaxPoolin (None, 31, 28)            0         
_________________________________________________________________
dropout_262 (Dropout)        (None, 31, 28)            0         
_________________________________________________________________
conv1d_263 (Conv1D)          (None, 31, 20)            5620      
_________________________________________________________________
max_pooling1d_263 (MaxPoolin (None, 31, 20)            0         
_________________________________________________________________
dropout_263 (Dropout)        (None, 31, 20)            0         
_________________________________________________________________
conv1d_264 (Conv1D)          (None, 31, 12)            2892      
_________________________________________________________________
max_pooling1d_264 (MaxPoolin (None, 15, 12)            0         
_________________________________________________________________
dropout_264 (Dropout)        (None, 15, 12)            0         
_________________________________________________________________
flatten_88 (Flatten)         (None, 180)               0         
_________________________________________________________________
dense_175 (Dense)            (None, 30)                5430      
_________________________________________________________________
dense_176 (Dense)            (None, 3)                 93        
=================================================================
Total params: 616,175
Trainable params: 616,175
Non-trainable params: 0
_________________________________________________________________
{'l1_nodes': 28, 'l1_filter': 28, 'l1_dropout': 0.27208449557426095, 'l1_maxpool': 1, 'l2_nodes': 20, 'l2_filter': 10, 'l2_dropout': 0.4561812190152412, 'l2_maxpool': 1, 'l3_nodes': 12, 'l3_filter': 12, 'l3_dropout': 0.3418424408317985, 'l3_maxpool': 2, 'dense_nodes': 30}
…
subject 12, avg accuracy 0.38421052788433274
subject 13, avg accuracy 0.41507823676676364
subject 14, avg accuracy 0.3973009457633241
subject 15, avg accuracy 0.4417417419028354
subject 16, avg accuracy 0.5009446715415731
subject 17, avg accuracy 0.5526315797316401
subject 18, avg accuracy 0.5891891911223127
subject 19, avg accuracy 0.3639639641250576
avg accuracy over all subjects 0.4551125698356103
_________________________________________________________________
Layer (type)                 Output Shape              Param #   
=================================================================
conv1d_265 (Conv1D)          (None, 31, 16)            331792    
_________________________________________________________________
max_pooling1d_265 (MaxPoolin (None, 31, 16)            0         
_________________________________________________________________
dropout_265 (Dropout)        (None, 31, 16)            0         
_________________________________________________________________
conv1d_266 (Conv1D)          (None, 31, 25)            3225      
_________________________________________________________________
max_pooling1d_266 (MaxPoolin (None, 31, 25)            0         
_________________________________________________________________
dropout_266 (Dropout)        (None, 31, 25)            0         
_________________________________________________________________
conv1d_267 (Conv1D)          (None, 31, 12)            3012      
_________________________________________________________________
max_pooling1d_267 (MaxPoolin (None, 31, 12)            0         
_________________________________________________________________
dropout_267 (Dropout)        (None, 31, 12)            0         
_________________________________________________________________
flatten_89 (Flatten)         (None, 372)               0         
_________________________________________________________________
dense_177 (Dense)            (None, 36)                13428     
_________________________________________________________________
dense_178 (Dense)            (None, 3)                 111       
=================================================================
Total params: 351,568
Trainable params: 351,568
Non-trainable params: 0
_________________________________________________________________
{'l1_nodes': 16, 'l1_filter': 27, 'l1_dropout': 0.24749077624204205, 'l1_maxpool': 1, 'l2_nodes': 25, 'l2_filter': 8, 'l2_dropout': 0.0035855894395122045, 'l2_maxpool': 1, 'l3_nodes': 12, 'l3_filter': 10, 'l3_dropout': 0.736891874354578, 'l3_maxpool': 1, 'dense_nodes': 36}
…
subject 12, avg accuracy 0.3894736853085066
subject 13, avg accuracy 0.3990042680569767
subject 14, avg accuracy 0.4350877196079324
subject 15, avg accuracy 0.44759759767814444
subject 16, avg accuracy 0.4377867749265009
subject 17, avg accuracy 0.5315789479958384
subject 18, avg accuracy 0.5297297317434001
subject 19, avg accuracy 0.34204204220313567
avg accuracy over all subjects 0.42486194105249586
_________________________________________________________________
Layer (type)                 Output Shape              Param #   
=================================================================
conv1d_268 (Conv1D)          (None, 31, 34)            548386    
_________________________________________________________________
max_pooling1d_268 (MaxPoolin (None, 15, 34)            0         
_________________________________________________________________
dropout_268 (Dropout)        (None, 15, 34)            0         
_________________________________________________________________
conv1d_269 (Conv1D)          (None, 15, 17)            9843      
_________________________________________________________________
max_pooling1d_269 (MaxPoolin (None, 15, 17)            0         
_________________________________________________________________
dropout_269 (Dropout)        (None, 15, 17)            0         
_________________________________________________________________
conv1d_270 (Conv1D)          (None, 15, 13)            2223      
_________________________________________________________________
max_pooling1d_270 (MaxPoolin (None, 7, 13)             0         
_________________________________________________________________
dropout_270 (Dropout)        (None, 7, 13)             0         
_________________________________________________________________
flatten_90 (Flatten)         (None, 91)                0         
_________________________________________________________________
dense_179 (Dense)            (None, 17)                1564      
_________________________________________________________________
dense_180 (Dense)            (None, 3)                 54        
=================================================================
Total params: 562,070
Trainable params: 562,070
Non-trainable params: 0
_________________________________________________________________
{'l1_nodes': 34, 'l1_filter': 21, 'l1_dropout': 0.6825305033733924, 'l1_maxpool': 2, 'l2_nodes': 17, 'l2_filter': 17, 'l2_dropout': 0.3568745311620498, 'l2_maxpool': 1, 'l3_nodes': 13, 'l3_filter': 10, 'l3_dropout': 0.4082851434461171, 'l3_maxpool': 2, 'dense_nodes': 17}
…
subject 12, avg accuracy 0.36842105247472456
subject 13, avg accuracy 0.4423897604091069
subject 14, avg accuracy 0.35087719423326885
subject 15, avg accuracy 0.5466966967772435
subject 16, avg accuracy 0.40566801742101327
subject 17, avg accuracy 0.6105263170443083
subject 18, avg accuracy 0.5243243256130735
subject 19, avg accuracy 0.4141141147584887
avg accuracy over all subjects 0.43270254165625854
_________________________________________________________________
Layer (type)                 Output Shape              Param #   
=================================================================
conv1d_271 (Conv1D)          (None, 31, 18)            331794    
_________________________________________________________________
max_pooling1d_271 (MaxPoolin (None, 31, 18)            0         
_________________________________________________________________
dropout_271 (Dropout)        (None, 31, 18)            0         
_________________________________________________________________
conv1d_272 (Conv1D)          (None, 31, 5)             995       
_________________________________________________________________
max_pooling1d_272 (MaxPoolin (None, 31, 5)             0         
_________________________________________________________________
dropout_272 (Dropout)        (None, 31, 5)             0         
_________________________________________________________________
conv1d_273 (Conv1D)          (None, 31, 5)             180       
_________________________________________________________________
max_pooling1d_273 (MaxPoolin (None, 15, 5)             0         
_________________________________________________________________
dropout_273 (Dropout)        (None, 15, 5)             0         
_________________________________________________________________
flatten_91 (Flatten)         (None, 75)                0         
_________________________________________________________________
dense_181 (Dense)            (None, 45)                3420      
_________________________________________________________________
dense_182 (Dense)            (None, 3)                 138       
=================================================================
Total params: 336,527
Trainable params: 336,527
Non-trainable params: 0
_________________________________________________________________
{'l1_nodes': 18, 'l1_filter': 24, 'l1_dropout': 0.6736215283318494, 'l1_maxpool': 1, 'l2_nodes': 5, 'l2_filter': 11, 'l2_dropout': 0.3988092975930513, 'l2_maxpool': 1, 'l3_nodes': 5, 'l3_filter': 7, 'l3_dropout': 0.2502922679041314, 'l3_maxpool': 2, 'dense_nodes': 45}
…
subject 12, avg accuracy 0.3894736856222153
subject 13, avg accuracy 0.409388336823302
subject 14, avg accuracy 0.4870445365847845
subject 15, avg accuracy 0.5633633634439101
subject 16, avg accuracy 0.4538461546987979
subject 17, avg accuracy 0.5631578947368421
subject 18, avg accuracy 0.5027027040719986
subject 19, avg accuracy 0.44684684716903406
avg accuracy over all subjects 0.4665320188417917
_________________________________________________________________
Layer (type)                 Output Shape              Param #   
=================================================================
conv1d_274 (Conv1D)          (None, 31, 23)            211991    
_________________________________________________________________
max_pooling1d_274 (MaxPoolin (None, 31, 23)            0         
_________________________________________________________________
dropout_274 (Dropout)        (None, 31, 23)            0         
_________________________________________________________________
conv1d_275 (Conv1D)          (None, 31, 29)            7366      
_________________________________________________________________
max_pooling1d_275 (MaxPoolin (None, 31, 29)            0         
_________________________________________________________________
dropout_275 (Dropout)        (None, 31, 29)            0         
_________________________________________________________________
conv1d_276 (Conv1D)          (None, 31, 11)            968       
_________________________________________________________________
max_pooling1d_276 (MaxPoolin (None, 15, 11)            0         
_________________________________________________________________
dropout_276 (Dropout)        (None, 15, 11)            0         
_________________________________________________________________
flatten_92 (Flatten)         (None, 165)               0         
_________________________________________________________________
dense_183 (Dense)            (None, 36)                5976      
_________________________________________________________________
dense_184 (Dense)            (None, 3)                 111       
=================================================================
Total params: 226,412
Trainable params: 226,412
Non-trainable params: 0
_________________________________________________________________
{'l1_nodes': 23, 'l1_filter': 12, 'l1_dropout': 0.10612965223905063, 'l1_maxpool': 1, 'l2_nodes': 29, 'l2_filter': 11, 'l2_dropout': 0.6057564008948758, 'l2_maxpool': 1, 'l3_nodes': 11, 'l3_filter': 3, 'l3_dropout': 0.6935950279669951, 'l3_maxpool': 2, 'dense_nodes': 36}
…
subject 12, avg accuracy 0.31578947446848216
subject 13, avg accuracy 0.40426742706665103
subject 14, avg accuracy 0.5128205137375074
subject 15, avg accuracy 0.4135135135940603
subject 16, avg accuracy 0.40121457549804934
subject 17, avg accuracy 0.542105265197001
subject 18, avg accuracy 0.4000000006443745
subject 19, avg accuracy 0.39849849857904535
avg accuracy over all subjects 0.3982355171738574
_________________________________________________________________
Layer (type)                 Output Shape              Param #   
=================================================================
conv1d_277 (Conv1D)          (None, 31, 30)            368670    
_________________________________________________________________
max_pooling1d_277 (MaxPoolin (None, 15, 30)            0         
_________________________________________________________________
dropout_277 (Dropout)        (None, 15, 30)            0         
_________________________________________________________________
conv1d_278 (Conv1D)          (None, 15, 5)             1655      
_________________________________________________________________
max_pooling1d_278 (MaxPoolin (None, 7, 5)              0         
_________________________________________________________________
dropout_278 (Dropout)        (None, 7, 5)              0         
_________________________________________________________________
conv1d_279 (Conv1D)          (None, 7, 2)              92        
_________________________________________________________________
max_pooling1d_279 (MaxPoolin (None, 3, 2)              0         
_________________________________________________________________
dropout_279 (Dropout)        (None, 3, 2)              0         
_________________________________________________________________
flatten_93 (Flatten)         (None, 6)                 0         
_________________________________________________________________
dense_185 (Dense)            (None, 13)                91        
_________________________________________________________________
dense_186 (Dense)            (None, 3)                 42        
=================================================================
Total params: 370,550
Trainable params: 370,550
Non-trainable params: 0
_________________________________________________________________
{'l1_nodes': 30, 'l1_filter': 16, 'l1_dropout': 0.6263829478388733, 'l1_maxpool': 2, 'l2_nodes': 5, 'l2_filter': 11, 'l2_dropout': 0.06728544197263922, 'l2_maxpool': 2, 'l3_nodes': 2, 'l3_filter': 9, 'l3_dropout': 0.06903064402406842, 'l3_maxpool': 2, 'dense_nodes': 13}
…
subject 12, avg accuracy 0.5263157901011015
subject 13, avg accuracy 0.5802275974499552
subject 14, avg accuracy 0.5543859658453629
subject 15, avg accuracy 0.5801801802607269
subject 16, avg accuracy 0.6349527683817906
subject 17, avg accuracy 0.6157894730567933
subject 18, avg accuracy 0.637837839448774
subject 19, avg accuracy 0.5246246247857183
avg accuracy over all subjects 0.5572392238298108
_________________________________________________________________
Layer (type)                 Output Shape              Param #   
=================================================================
conv1d_280 (Conv1D)          (None, 31, 32)            196640    
_________________________________________________________________
max_pooling1d_280 (MaxPoolin (None, 15, 32)            0         
_________________________________________________________________
dropout_280 (Dropout)        (None, 15, 32)            0         
_________________________________________________________________
conv1d_281 (Conv1D)          (None, 15, 17)            9265      
_________________________________________________________________
max_pooling1d_281 (MaxPoolin (None, 7, 17)             0         
_________________________________________________________________
dropout_281 (Dropout)        (None, 7, 17)             0         
_________________________________________________________________
conv1d_282 (Conv1D)          (None, 7, 7)              959       
_________________________________________________________________
max_pooling1d_282 (MaxPoolin (None, 3, 7)              0         
_________________________________________________________________
dropout_282 (Dropout)        (None, 3, 7)              0         
_________________________________________________________________
flatten_94 (Flatten)         (None, 21)                0         
_________________________________________________________________
dense_187 (Dense)            (None, 32)                704       
_________________________________________________________________
dense_188 (Dense)            (None, 3)                 99        
=================================================================
Total params: 207,667
Trainable params: 207,667
Non-trainable params: 0
_________________________________________________________________
{'l1_nodes': 32, 'l1_filter': 8, 'l1_dropout': 0.022775516328548073, 'l1_maxpool': 2, 'l2_nodes': 17, 'l2_filter': 17, 'l2_dropout': 0.47081736452695055, 'l2_maxpool': 2, 'l3_nodes': 7, 'l3_filter': 8, 'l3_dropout': 0.547785573266296, 'l3_maxpool': 2, 'dense_nodes': 32}
…
subject 12, avg accuracy 0.410526316416891
subject 13, avg accuracy 0.5374110955474726
subject 14, avg accuracy 0.38205128329405097
subject 15, avg accuracy 0.48573573638011036
subject 16, avg accuracy 0.531578948607168
subject 17, avg accuracy 0.5631578950505508
subject 18, avg accuracy 0.6486486505817723
subject 19, avg accuracy 0.4756756757562225
avg accuracy over all subjects 0.4753023949984488
_________________________________________________________________
Layer (type)                 Output Shape              Param #   
=================================================================
conv1d_283 (Conv1D)          (None, 31, 26)            399386    
_________________________________________________________________
max_pooling1d_283 (MaxPoolin (None, 15, 26)            0         
_________________________________________________________________
dropout_283 (Dropout)        (None, 15, 26)            0         
_________________________________________________________________
conv1d_284 (Conv1D)          (None, 15, 15)            2355      
_________________________________________________________________
max_pooling1d_284 (MaxPoolin (None, 7, 15)             0         
_________________________________________________________________
dropout_284 (Dropout)        (None, 7, 15)             0         
_________________________________________________________________
conv1d_285 (Conv1D)          (None, 7, 11)             341       
_________________________________________________________________
max_pooling1d_285 (MaxPoolin (None, 7, 11)             0         
_________________________________________________________________
dropout_285 (Dropout)        (None, 7, 11)             0         
_________________________________________________________________
flatten_95 (Flatten)         (None, 77)                0         
_________________________________________________________________
dense_189 (Dense)            (None, 9)                 702       
_________________________________________________________________
dense_190 (Dense)            (None, 3)                 30        
=================================================================
Total params: 402,814
Trainable params: 402,814
Non-trainable params: 0
_________________________________________________________________
{'l1_nodes': 26, 'l1_filter': 20, 'l1_dropout': 0.31121520651777634, 'l1_maxpool': 2, 'l2_nodes': 15, 'l2_filter': 6, 'l2_dropout': 0.009057676978787843, 'l2_maxpool': 2, 'l3_nodes': 11, 'l3_filter': 2, 'l3_dropout': 0.6541579802685151, 'l3_maxpool': 1, 'dense_nodes': 9}
…
subject 12, avg accuracy 0.3736842114674418
subject 13, avg accuracy 0.41507823660567
subject 14, avg accuracy 0.37219973071786233
subject 15, avg accuracy 0.4483483489927229
subject 16, avg accuracy 0.36369770642234245
subject 17, avg accuracy 0.489473684524235
subject 18, avg accuracy 0.44324324501527324
subject 19, avg accuracy 0.3705705706511174
avg accuracy over all subjects 0.3997964910322411
_________________________________________________________________
Layer (type)                 Output Shape              Param #   
=================================================================
conv1d_286 (Conv1D)          (None, 31, 37)            227365    
_________________________________________________________________
max_pooling1d_286 (MaxPoolin (None, 31, 37)            0         
_________________________________________________________________
dropout_286 (Dropout)        (None, 31, 37)            0         
_________________________________________________________________
conv1d_287 (Conv1D)          (None, 31, 29)            6467      
_________________________________________________________________
max_pooling1d_287 (MaxPoolin (None, 15, 29)            0         
_________________________________________________________________
dropout_287 (Dropout)        (None, 15, 29)            0         
_________________________________________________________________
conv1d_288 (Conv1D)          (None, 15, 1)             204       
_________________________________________________________________
max_pooling1d_288 (MaxPoolin (None, 15, 1)             0         
_________________________________________________________________
dropout_288 (Dropout)        (None, 15, 1)             0         
_________________________________________________________________
flatten_96 (Flatten)         (None, 15)                0         
_________________________________________________________________
dense_191 (Dense)            (None, 11)                176       
_________________________________________________________________
dense_192 (Dense)            (None, 3)                 36        
=================================================================
Total params: 234,248
Trainable params: 234,248
Non-trainable params: 0
_________________________________________________________________
{'l1_nodes': 37, 'l1_filter': 8, 'l1_dropout': 0.7445664525211345, 'l1_maxpool': 1, 'l2_nodes': 29, 'l2_filter': 6, 'l2_dropout': 0.12121609547767548, 'l2_maxpool': 2, 'l3_nodes': 1, 'l3_filter': 7, 'l3_dropout': 0.0054343359953751, 'l3_maxpool': 1, 'dense_nodes': 11}
…
subject 12, avg accuracy 0.3263157910422275
subject 13, avg accuracy 0.3782361313425121
subject 14, avg accuracy 0.36693657235256255
subject 15, avg accuracy 0.49699699707754375
subject 16, avg accuracy 0.3326585705101731
subject 17, avg accuracy 0.4947368424189718
subject 18, avg accuracy 0.5405405424736641
subject 19, avg accuracy 0.4148648648648649
avg accuracy over all subjects 0.3934266595682088
_________________________________________________________________
Layer (type)                 Output Shape              Param #   
=================================================================
conv1d_289 (Conv1D)          (None, 31, 39)            748839    
_________________________________________________________________
max_pooling1d_289 (MaxPoolin (None, 31, 39)            0         
_________________________________________________________________
dropout_289 (Dropout)        (None, 31, 39)            0         
_________________________________________________________________
conv1d_290 (Conv1D)          (None, 31, 25)            13675     
_________________________________________________________________
max_pooling1d_290 (MaxPoolin (None, 15, 25)            0         
_________________________________________________________________
dropout_290 (Dropout)        (None, 15, 25)            0         
_________________________________________________________________
conv1d_291 (Conv1D)          (None, 15, 7)             2107      
_________________________________________________________________
max_pooling1d_291 (MaxPoolin (None, 15, 7)             0         
_________________________________________________________________
dropout_291 (Dropout)        (None, 15, 7)             0         
_________________________________________________________________
flatten_97 (Flatten)         (None, 105)               0         
_________________________________________________________________
dense_193 (Dense)            (None, 24)                2544      
_________________________________________________________________
dense_194 (Dense)            (None, 3)                 75        
=================================================================
Total params: 767,240
Trainable params: 767,240
Non-trainable params: 0
_________________________________________________________________
{'l1_nodes': 39, 'l1_filter': 25, 'l1_dropout': 0.5515756710581171, 'l1_maxpool': 1, 'l2_nodes': 25, 'l2_filter': 14, 'l2_dropout': 0.23708203514615292, 'l2_maxpool': 2, 'l3_nodes': 7, 'l3_filter': 12, 'l3_dropout': 0.3901135469070347, 'l3_maxpool': 1, 'dense_nodes': 24}
…
subject 12, avg accuracy 0.3631578956779681
subject 13, avg accuracy 0.42560455358638877
subject 14, avg accuracy 0.3194331996354014
subject 15, avg accuracy 0.4474474476085411
subject 16, avg accuracy 0.43738191786967473
subject 17, avg accuracy 0.5578947393517745
subject 18, avg accuracy 0.5405405419903833
subject 19, avg accuracy 0.4040540542151477
avg accuracy over all subjects 0.4115871955142869
_________________________________________________________________
Layer (type)                 Output Shape              Param #   
=================================================================
conv1d_292 (Conv1D)          (None, 31, 16)            184336    
_________________________________________________________________
max_pooling1d_292 (MaxPoolin (None, 15, 16)            0         
_________________________________________________________________
dropout_292 (Dropout)        (None, 15, 16)            0         
_________________________________________________________________
conv1d_293 (Conv1D)          (None, 15, 27)            3483      
_________________________________________________________________
max_pooling1d_293 (MaxPoolin (None, 7, 27)             0         
_________________________________________________________________
dropout_293 (Dropout)        (None, 7, 27)             0         
_________________________________________________________________
conv1d_294 (Conv1D)          (None, 7, 10)             2440      
_________________________________________________________________
max_pooling1d_294 (MaxPoolin (None, 3, 10)             0         
_________________________________________________________________
dropout_294 (Dropout)        (None, 3, 10)             0         
_________________________________________________________________
flatten_98 (Flatten)         (None, 30)                0         
_________________________________________________________________
dense_195 (Dense)            (None, 29)                899       
_________________________________________________________________
dense_196 (Dense)            (None, 3)                 90        
=================================================================
Total params: 191,248
Trainable params: 191,248
Non-trainable params: 0
_________________________________________________________________
{'l1_nodes': 16, 'l1_filter': 15, 'l1_dropout': 0.6136035842460723, 'l1_maxpool': 2, 'l2_nodes': 27, 'l2_filter': 8, 'l2_dropout': 0.7483423793076269, 'l2_maxpool': 2, 'l3_nodes': 10, 'l3_filter': 9, 'l3_dropout': 0.5548267822019729, 'l3_maxpool': 2, 'dense_nodes': 29}
…
subject 12, avg accuracy 0.3473684215231946
subject 13, avg accuracy 0.3253200580181811
subject 14, avg accuracy 0.36693657375620764
subject 15, avg accuracy 0.2975975977586912
subject 16, avg accuracy 0.39028340236217224
subject 17, avg accuracy 0.28947368468108936
subject 18, avg accuracy 0.32432432553252666
subject 19, avg accuracy 0.35435435443490115
avg accuracy over all subjects 0.35370485299695265
_________________________________________________________________
Layer (type)                 Output Shape              Param #   
=================================================================
conv1d_295 (Conv1D)          (None, 31, 25)            499225    
_________________________________________________________________
max_pooling1d_295 (MaxPoolin (None, 10, 25)            0         
_________________________________________________________________
dropout_295 (Dropout)        (None, 10, 25)            0         
_________________________________________________________________
conv1d_296 (Conv1D)          (None, 10, 13)            3263      
_________________________________________________________________
max_pooling1d_296 (MaxPoolin (None, 10, 13)            0         
_________________________________________________________________
dropout_296 (Dropout)        (None, 10, 13)            0         
_________________________________________________________________
conv1d_297 (Conv1D)          (None, 10, 6)             708       
_________________________________________________________________
max_pooling1d_297 (MaxPoolin (None, 5, 6)              0         
_________________________________________________________________
dropout_297 (Dropout)        (None, 5, 6)              0         
_________________________________________________________________
flatten_99 (Flatten)         (None, 30)                0         
_________________________________________________________________
dense_197 (Dense)            (None, 27)                837       
_________________________________________________________________
dense_198 (Dense)            (None, 3)                 84        
=================================================================
Total params: 504,117
Trainable params: 504,117
Non-trainable params: 0
_________________________________________________________________
{'l1_nodes': 25, 'l1_filter': 26, 'l1_dropout': 0.5626656782549198, 'l1_maxpool': 3, 'l2_nodes': 13, 'l2_filter': 10, 'l2_dropout': 0.04062868240900891, 'l2_maxpool': 1, 'l3_nodes': 6, 'l3_filter': 9, 'l3_dropout': 0.5131972391538945, 'l3_maxpool': 2, 'dense_nodes': 27}
…
subject 12, avg accuracy 0.46842105278843327
subject 13, avg accuracy 0.3678520643354989
subject 14, avg accuracy 0.49230769230769234
subject 15, avg accuracy 0.49129129137183813
subject 16, avg accuracy 0.4372469649462887
subject 17, avg accuracy 0.5789473696758872
subject 18, avg accuracy 0.5567567588509741
subject 19, avg accuracy 0.4304804806415742
avg accuracy over all subjects 0.46496577647922765
_________________________________________________________________
Layer (type)                 Output Shape              Param #   
=================================================================
conv1d_298 (Conv1D)          (None, 31, 26)            499226    
_________________________________________________________________
max_pooling1d_298 (MaxPoolin (None, 15, 26)            0         
_________________________________________________________________
dropout_298 (Dropout)        (None, 15, 26)            0         
_________________________________________________________________
conv1d_299 (Conv1D)          (None, 15, 6)             2034      
_________________________________________________________________
max_pooling1d_299 (MaxPoolin (None, 15, 6)             0         
_________________________________________________________________
dropout_299 (Dropout)        (None, 15, 6)             0         
_________________________________________________________________
conv1d_300 (Conv1D)          (None, 15, 2)             134       
_________________________________________________________________
max_pooling1d_300 (MaxPoolin (None, 7, 2)              0         
_________________________________________________________________
dropout_300 (Dropout)        (None, 7, 2)              0         
_________________________________________________________________
flatten_100 (Flatten)        (None, 14)                0         
_________________________________________________________________
dense_199 (Dense)            (None, 12)                180       
_________________________________________________________________
dense_200 (Dense)            (None, 3)                 39        
=================================================================
Total params: 501,613
Trainable params: 501,613
Non-trainable params: 0
_________________________________________________________________
{'l1_nodes': 26, 'l1_filter': 25, 'l1_dropout': 0.09583257353541624, 'l1_maxpool': 2, 'l2_nodes': 6, 'l2_filter': 13, 'l2_dropout': 0.015821238173176377, 'l2_maxpool': 1, 'l3_nodes': 2, 'l3_filter': 11, 'l3_dropout': 0.6409472309619466, 'l3_maxpool': 2, 'dense_nodes': 12}
…
